model_MidCap50.pth (torch, 132835 bytes, 11 tensors)

lstm1.weight_ih_l0 f4 [200, 1]
0	0x3de782bd	0.11304233
1	0x3e5bcb62	0.21464303
2	0xbcf621aa	-0.03004535
3	0x3c95ce81	0.018286945
4	0xbb456209	-0.0030118248
5	0xbb4ac1fe	-0.0030938382
6	0x3d9c4d1f	0.07631897
7	0x3a88fe23	0.0010451715
8	0x3e3f7505	0.18696983
9	0xbd14abda	-0.036296703
10	0x3dc97248	0.098362505
11	0x3e2b0f02	0.16704944
12	0x3d8de201	0.069278724
13	0x3d3afa77	0.04564902
14	0x3b83627d	0.0040095435
15	0xbe1ae41c	-0.1512608
16	0x3d69293b	0.056924086
17	0x3e864a15	0.26228395
18	0x3d5990ab	0.05311648
19	0x3e419b34	0.18906862
20	0xbd2bfffc	-0.041992173
21	0x3c7099ee	0.014685137
22	0x3dffb44b	0.1248556
23	0x3e632753	0.2218297
24	0x3e604e87	0.21904956
25	0x3e4c0de5	0.19927175
26	0xbdb47d47	-0.08812957
27	0x3dc5361c	0.09629461
28	0xbd19887e	-0.037483685
29	0x3e7d3922	0.24728826
30	0x3daca9b6	0.08430807
31	0xbbafe4cd	-0.0053678514
32	0xbde0e448	-0.10981041
33	0x3e4ae062	0.19812158
34	0xbe2d1f04	-0.16906363
35	0x3f0c2fa5	0.547602
36	0x3cbcdaec	0.023053609
37	0x3e4fdacd	0.2029831
38	0x3dfc6906	0.12324719
39	0x3dffef10	0.124967694
40	0xbcc3cfbd	-0.023902768
41	0x3e105ac5	0.14097126
42	0x3e82eab5	0.25569692
43	0x3c82157a	0.015879381
44	0x3e7d7ebe	0.2475538
45	0x3d9abe7d	0.07555864
46	0x3e3c8565	0.18410261
47	0x3e5608f9	0.2090186
48	0x3dea7b20	0.114492655
49	0x3e4c85d2	0.19972923
50	0x3bf7a29d	0.007557227
51	0x3d907122	0.07052828
52	0xbd8c6eaa	-0.06857045
53	0x3dc55934	0.09636155
54	0xbc27e2e5	-0.010246967
55	0x3bf96c87	0.0076118144
56	0x3e453b5a	0.19260922
57	0x3cc37620	0.023860037
58	0x3e32de78	0.17467678
59	0xbdb70bf4	-0.08937827
60	0x3d036291	0.032076422
61	0x3dd3bf46	0.10339217
62	0x3d3d22e6	0.04617586
63	0xbbfd0ff2	-0.007722848
64	0x3e20596c	0.15659112
65	0xbe8ecc91	-0.27890447
66	0x3c09821b	0.008392836
67	0xbd141c33	-0.036159705
68	0x3d62e95b	0.055398326
69	0x3e69bd8a	0.2282621
70	0x3d82f809	0.06394965
71	0xbe101deb	-0.14073913
72	0x3d679fab	0.056548756
73	0x3e46b8fa	0.194065
74	0x3df27a59	0.11839742
75	0xbd192457	-0.037388172
76	0xbd67d861	-0.05660284
77	0x3d7ce6fe	0.06174373
78	0xbe6fcdf0	-0.23418403
79	0xbe49072b	-0.1963164
80	0x3e4320de	0.19055507
81	0xbcb700c2	-0.022339229
82	0xbe575f92	-0.21032551
83	0x3d6861f6	0.056734048
84	0xbe7ac10a	-0.24487701
85	0x3d876c7f	0.06612491
86	0x3b79166d	0.0038007752
87	0x3e0a4ed9	0.1350664
88	0x3e16a5b4	0.14711648
89	0x3dd26fa0	0.10275197
90	0xbd2aa471	-0.04166073
91	0x3dcb71bd	0.09933803
92	0x3e769cba	0.24083224
93	0x3e893451	0.26797727
94	0xbe491bfa	-0.19639578
95	0xbe3366b5	-0.17519648
96	0x3d7d2b50	0.061808884
97	0x3e4594e8	0.19295084
98	0x3dd20e00	0.102565765
99	0x3e038947	0.12845336
100	0x3df6aa7a	0.120442346
101	0xbe38f368	-0.18061602
102	0x3dfe8b2e	0.1242889
103	0x3e786360	0.24256659
104	0x3e4bab2e	0.19889519
105	0xbe0836c7	-0.13302146
106	0x3d749a0e	0.05971723
107	0x3dfaf9a2	0.12254645
108	0xbea06b2c	-0.31331766
109	0xbe48bb0a	-0.196026
110	0xbe0c348d	-0.13691922
111	0xbe567388	-0.20942509
112	0xbe6256c5	-0.22103412
113	0x3d3a19c4	0.04543473
114	0x3e809a72	0.25117832
115	0x3e49e11b	0.19714777
116	0xbe31c408	-0.17359936
117	0xbe9b34a9	-0.30313614
118	0x3df19cba	0.11797471
119	0xbd2c5170	-0.042069852
120	0x3e53bdc1	0.20677854
121	0x3e78cdb0	0.24297214
122	0xbe0344ec	-0.1281926
123	0x3e45a3ba	0.19300738
124	0x3e403256	0.18769202
125	0x3e6347b7	0.22195326
126	0xbe0471bb	-0.1293401
127	0xbe428d07	-0.1899911
128	0xbe059706	-0.13045892
129	0xbee01235	-0.4376389
130	0x3e3a9dd7	0.18224274
131	0xbcedff52	-0.02905241
132	0x3e0848ef	0.13309072
133	0x3ea5e8ba	0.3240412
134	0xbe998c7f	-0.29990003
135	0xbec6a7b8	-0.38799834
136	0xbe5bf6b3	-0.21480827
137	0xbe29a11d	-0.16565366
138	0x3d8a897e	0.06764506
139	0xbd9ef77c	-0.07762048
140	0xbe883a4a	-0.2660697
141	0x3d904474	0.070443064
142	0x3e4a9eb8	0.19787109
143	0xbe864ecc	-0.26231992
144	0xbe6c31a0	-0.23065805
145	0xbe8daec4	-0.27672398
146	0xbe4bb7e8	-0.19894373
147	0xbe0d6b65	-0.13810499
148	0xbdb5ad9f	-0.08871006
149	0x3db397ce	0.08769189
150	0xbd533f23	-0.051573884
151	0x3e55e22b	0.20887057
152	0x3df82869	0.121170826
153	0x3e5cf5e5	0.21578176
154	0x3e3c3be8	0.18382227
155	0x3d850bf4	0.064964205
156	0x3dcfd9cf	0.101489656
157	0x3e51e6f8	0.20498264
158	0x3dca7b69	0.0988682
159	0x3dd23603	0.10264208
160	0xbc6ef233	-0.014584112
161	0x3e10e34e	0.1414921
162	0xbd68836b	-0.056765955
163	0xbd451116	-0.048111998
164	0x3e05ff6d	0.13085718
165	0xbe3d6d98	-0.18498838
166	0x3e329b42	0.17442039
167	0x3e8cb925	0.27485004
168	0x3d4b600e	0.04965215
169	0x3e69994b	0.22812383
170	0x3e541e4b	0.20714681
171	0x3ab0f5e4	0.0013501015
172	0x3eb0e5d3	0.34550342
173	0x3e19488a	0.14969078
174	0x3e4c11b6	0.19928631
175	0x3e1207cf	0.14260791
176	0xbe8525d1	-0.26005414
177	0x3da7eef3	0.08199873
178	0xbd1b9a8c	-0.037989184
179	0x3e9b63d5	0.30349603
180	0x3dad162f	0.08451497
181	0x3e4032b7	0.18769346
182	0xbe93470f	-0.2876515
183	0x3e8c90aa	0.2745412
184	0xbe9d055e	-0.30668157
185	0x3eaa60ed	0.33277074
186	0x3e57cd4b	0.21074407
187	0x3bad0c23	0.005280988
188	0xbc30761d	-0.010770348
189	0xbd94d36e	-0.072668895
190	0x3d37f969	0.04491559
191	0xbbdede77	-0.006801422
192	0x3e8c1e43	0.27366838
193	0x3e87493a	0.26423055
194	0x3e1a8c0e	0.15092489
195	0xbe180ff0	-0.1484983
196	0x3dca93dd	0.09891484
197	0x3e01f63b	0.12691586
198	0x3dbeb33f	0.09311532
199	0x3c9238e5	0.017849395

lstm1.weight_hh_l0 f4 [200, 50]
0	0xbccf5d8b	-0.02531316
1	0x3c3cb826	0.011518514
2	0x3d964b80	0.07338619
3	0xbda41f3f	-0.08013772
4	0xbc5f6005	-0.013633733
5	0x3e0be5e8	0.13661921
6	0xbe0e0e5a	-0.13872662
7	0x3d9c9351	0.07645286
8	0xbd460438	-0.048343867
9	0x3ce34440	0.027742505
10	0x3cbb0618	0.022830054
11	0xbdfa4419	-0.1222002
12	0xbdba4cc0	-0.0909667
13	0x3d7d3c3e	0.06182503
14	0x3d52510c	0.051346824
15	0xbd4c5860	-0.04988897
16	0xbe01e56b	-0.12685172
17	0xbd48dd79	-0.049039338
18	0x3ddfd7b4	0.10929814
19	0x3dfb6ed0	0.12276995
20	0x3cf88366	0.030336093
21	0xbdd1b144	-0.10238889
22	0xbda3b470	-0.079934
23	0xbd43c774	-0.047797635
24	0xbde81e30	-0.11333883
25	0xbbdda10f	-0.0067635844
26	0xbde8e9e5	-0.11372737
27	0x3d842df9	0.06454081
28	0x3e02a764	0.12759167
29	0x3cecfbd2	0.028928671
30	0xbc8d6f2e	-0.017264929
31	0x3d5526da	0.052039005
32	0xbdc31614	-0.095256954
33	0x3d512749	0.051062856
34	0xbd011232	-0.031511493
35	0xbdb98f7b	-0.0906057
36	0x3da65516	0.081216976
37	0x3deee5f8	0.11664957
38	0xbdb7fbfd	-0.0898361
39	0xbc3c6556	-0.01149877
40	0x3d4aad5d	0.04948174
41	0xbc8e86d7	-0.017398281
42	0x3dd10c47	0.1020742
43	0x3d38defd	0.045134533
44	0x3deeadf3	0.11654272
45	0xbd85e044	-0.06536916
46	0xbdf00635	-0.11719934
47	0xbd1ced1e	-0.03831207
48	0x3bcae5ab	0.0061919293
49	0x3d184a40	0.037180185
50	0x3de7f812	0.113266125
51	0x3dca2ba4	0.09871605
52	0x3de6865d	0.112560965
53	0x3d6b2180	0.057404995
54	0x3de08a7a	0.10963912
55	0xbdca485f	-0.09877085
56	0xbd261762	-0.040549643
57	0x3dd735b6	0.105082914
58	0x3de35e26	0.11101942
59	0x3e03df36	0.12878117
60	0x3c8248db	0.01590388
61	0x3e13ae35	0.14421923
62	0xbdeef452	-0.11667694
63	0xbdea9913	-0.11454978
64	0x3ce8e1a1	0.0284279
65	0xbe16e528	-0.14735854
66	0x3e03d3c5	0.12873752
67	0x3dcde4a3	0.100533746
68	0x3da25662	0.079266325
69	0x3df5cffe	0.12002562
70	0x3de21c24	0.11040524
71	0xbda60032	-0.08105506
72	0x3df7e1e3	0.12103631
73	0xbdc8e7ae	-0.098098144
74	0x3b96c733	0.004601383
75	0xbd2dfd60	-0.042477965
76	0xbdae9445	-0.08524374
77	0xbd609fc3	-0.05483986
78	0xbd98b46b	-0.07456287
79	0x3da219d8	0.079150856
80	0x3e00c43d	0.12574859
81	0x3cc067e0	0.023487031
82	0x3d79daa8	0.060999542
83	0xbde96c05	-0.11397556
84	0xbcabdd7c	-0.020979635
85	0x3da1c2ec	0.078985065
86	0xbca0cfa9	-0.01963027
87	0x3db7087e	0.08937167
88	0x3da8da05	0.08244709
89	0xbdc63a9f	-0.0967915
90	0xbb9b55f2	-0.00474047
91	0xbd4d2fbf	-0.050094362
92	0xbd2133f2	-0.03935618
93	0xbde3ffa8	-0.11132747
94	0x3e232128	0.15930617
95	0xbe1b8041	-0.15185644
96	0x3c5ebc87	0.013594753
97	0x3defebb6	0.1171488
98	0x3d7a4cf7	0.061108556
99	0xbd9a5a4b	-0.07536753
100	0xbda471dc	-0.080295295
101	0x3dc4386c	0.09581074
102	0xbe0977ae	-0.1342456
103	0xbcbb45b7	-0.022860391
104	0xbc104aa1	-0.008806855
105	0x3dd0dce8	0.101983845
106	0xbdc08e1e	-0.09402107
107	0xbca940df	-0.020660816
108	0xbe10750d	-0.14107151
109	0xbd9c0ec6	-0.07620005
110	0x3deb898d	0.11500845
111	0x3c197f3f	0.009368717
112	0xbd943eff	-0.07238578
113	0xbdae0e19	-0.08498783
114	0x3d8752de	0.066076025
115	0xbdd50384	-0.10401061
116	0xbdb2d52b	-0.08732065
117	0xbdafb8cc	-0.08580169
118	0x3b1f7909	0.0024333617
119	0x3d2f443f	0.042789694
120	0xbdb2571b	-0.0870802
121	0x3d512b5e	0.05106675
122	0xbd304f31	-0.043044273
123	0x3da925da	0.08259173
124	0xbd075c30	-0.0330469
125	0x3d8b4714	0.068006665
126	0xbdf10afe	-0.11769675
127	0x3e11ffbd	0.14257713
128	0x3cdcc287	0.026948227
129	0x3e046444	0.12928873
130	0x3d9f051e	0.07764648
131	0x3e0977db	0.13424627
132	0x3d81484a	0.06312616
133	0x3c9ad0e2	0.018898431
134	0xbd9b98b8	-0.07597488
135	0x3e0f281e	0.13980147
136	0xbde7bef5	-0.11315719
137	0xbcabcad8	-0.020970747
138	0x3dfc141b	0.12308522
139	0xbdb0c975	-0.08632175
140	0x3d96b23f	0.073582165
141	0x3decfdcd	0.11571846
142	0xbe0202d4	-0.12696391
143	0xbd82e5cf	-0.06391489
144	0xbda89643	-0.08231785
145	0x3b445e93	0.0029963597
146	0xbdd25d71	-0.10271729
147	0x3d09fce1	0.03368843
148	0xbc6eaa3b	-0.014566953
149	0xbdd37f4d	-0.10327015
150	0x3db7945c	0.08963844
151	0xbc8ab5c3	-0.016932374
152	0x3c6857d0	0.014181092
153	0x3e071dd6	0.13194975
154	0x3dd46a79	0.103718705
155	0xbd7ad1eb	-0.06123535
156	0x3d9f66a1	0.07783247
157	0xbc92f80b	-0.017940542
158	0x3d5b848e	0.05359321
159	0x3ce67fba	0.028137077
160	0xbdec3c04	-0.115348846
161	0x3d700869	0.05860177
162	0xbe11b070	-0.14227462
163	0xbd3b1e7a	-0.04568336
164	0xbdf744be	-0.120736584
165	0xbdbbf54a	-0.091776446
166	0xbddc5e6e	-0.107601985
167	0xbda625e9	-0.081126995
168	0xbdf49ae1	-0.11943603
169	0x3d5b4201	0.053529743
170	0xbdc06b8a	-0.093955114
171	0xbd1013e4	-0.03517522
172	0x3d2d0a11	0.04224593
173	0x3dc1657a	0.09443183
174	0x3d3772af	0.044787105
175	0x3e3073b1	0.17231633
176	0x3df84084	0.121216804
177	0x3cd836f1	0.026393386
178	0x3daf965c	0.08573601
179	0x3da6394e	0.08116399
180	0x3c90c975	0.017674187
181	0x3dd70f41	0.10500956
182	0x3dc5d925	0.09660558
183	0xbe08ece3	-0.13371615
184	0x3c7aa40d	0.015297902
185	0x3da2cd2c	0.0794929
186	0xbd932567	-0.07184868
187	0x3d60d73e	0.05489277
188	0x3d491cfc	0.049099907
189	0x3d94e474	0.072701365
190	0x3ca207d8	0.01977913
191	0x3dd3d0de	0.10342573
192	0xbd4f8208	-0.050661117
193	0x3d0904ed	0.033451963
194	0x3d8d7404	0.06906894
195	0xbe098728	-0.13430464
196	0x3cb2f365	0.021844575
197	0xbdd97a49	-0.10619027
198	0x3d816ac6	0.063191935
199	0x3db60de8	0.08889371
200	0xbe0321ed	-0.1280591
201	0x3cfdd5a3	0.030985659
202	0xbd1fadc9	-0.038984094
203	0x3de64626	0.112438485
204	0x3d0d170d	0.03444581
205	0x3d350d66	0.04420223
206	0xbd9bef73	-0.07614031
207	0x3d835809	0.06413276
208	0x3d2e1085	0.042496223
209	0xbcd9ff93	-0.026611125
210	0x3c8245a6	0.015902352
211	0x3cc4e264	0.024033733
212	0x3d8fab09	0.07015044
213	0xbdd5b5cf	-0.10435068
214	0xbd246170	-0.040131986
215	0x3c6c5d29	0.014426508
216	0xbdf689e4	-0.12038019
217	0xbe0e2999	-0.13883056
218	0x3cb51441	0.022104384
219	0xbdda9aae	-0.10674034
220	0x3d2bc744	0.04193808
221	0x3d79bd43	0.06097151
222	0xbda1aeee	-0.07894693
223	0xbdd0fd29	-0.102045365
224	0xbd8b745a	-0.06809302
225	0x3d58396b	0.052789133
226	0x3d5d8dd0	0.05409032
227	0x3d5df4c8	0.05418852
228	0x3de1c2e5	0.11023501
229	0xbe2971b3	-0.16547279
230	0xbd5c8ed0	-0.053847134
231	0xbdaceae9	-0.08443243
232	0xbdb81355	-0.08988062
233	0xbd8fd98b	-0.07023915
234	0xbe17ec58	-0.14836252
235	0xbcdd2ac0	-0.026997924
236	0x3db82bb4	0.08992711
237	0xbd151a6d	-0.036402155
238	0xbcdd0e07	-0.026984228
239	0xbca61624	-0.02027423
240	0xbd96f9bb	-0.07371851
241	0xbdcc1882	-0.09965612
242	0xbd9dec44	-0.0771108
243	0xbd748bce	-0.05970364
244	0x3d31b460	0.04338491
245	0xbe300698	-0.17190015
246	0xbe033d4e	-0.12816355
247	0xbb9025b7	-0.004399027
248	0x3d008d5a	0.031384803
249	0xbdaa7bd1	-0.08324397
250	0xbd64a466	-0.055820845
251	0x3d176da3	0.036969792
252	0xbdc8db84	-0.09807494
253	0x3da9104c	0.082550615
254	0x3c386b72	0.011256086
255	0x3db8119c	0.08987734

lstm1.bias_ih_l0 f4 [200]
0	0xbe0c923e	-0.13727662
1	0xbd57b49b	-0.052662473
2	0x3c5cdfc3	0.013481083
3	0xbdbc407a	-0.091919854
4	0x3dc1ca3b	0.094624005
5	0xbe1b3dd3	-0.15160303
6	0xbe0b6a20	-0.13614702
7	0xbd9da036	-0.076965734
8	0x3e455958	0.19272363
9	0x3d221f15	0.039580423
10	0xbe06828a	-0.13135734
11	0x3de4f066	0.11178665
12	0xbd1f19bc	-0.0388429
13	0xbc27d241	-0.0102429995
14	0xbbd6704f	-0.00654415
15	0xbda73cd8	-0.08165902
16	0xbde60a48	-0.1123243
17	0x3d47dd2b	0.048794907
18	0xbd041d5a	-0.032254554
19	0xbbef8d40	-0.0073105395
20	0x3dbf41af	0.093387
21	0x3dc46b8a	0.09590824
22	0x3e1239e3	0.14279895
23	0x3dbc1b40	0.09184885
24	0xbb07f2f2	-0.0020744172
25	0x3e2f0de3	0.17095141
26	0xbe29dc9c	-0.16588062
27	0xbde8b8d1	-0.11363376
28	0xbe2516fd	-0.1612205
29	0x3ea7d968	0.32783055
30	0xbb9f7feb	-0.004867544
31	0xbdb0699a	-0.08613892
32	0xbdda99d9	-0.10673875
33	0x3eb3de53	0.35130557
34	0x3e3b5f16	0.18297991
35	0x3f175da9	0.5912729
36	0x3c1d7aa7	0.009611762
37	0xbd121999	-0.035668943
38	0xbd23e385	-0.0400119
39	0xbe0051aa	-0.12531152
40	0x3ddca051	0.107727654
41	0xbdf56457	-0.11982029
42	0x3e09d213	0.13459043
43	0x3e16a2cd	0.14710541
44	0x3e6adfb0	0.22936893
45	0xbd7f2173	-0.06228776
46	0x3ca2a249	0.019852774
47	0x3da050c4	0.07827905
48	0x3d22992a	0.03969685
49	0x3cfe77bd	0.031062955
50	0x3d51beea	0.05120746
51	0xbdebc108	-0.11511427
52	0x3cbbdf93	0.022933757
53	0xbcd2ecbf	-0.025747655
54	0xbd4cff92	-0.05004842
55	0x3bf255b4	0.0073954705
56	0x3da6348a	0.0811549
57	0x3dda7c8f	0.10668289
58	0xbd643e6b	-0.05572359
59	0xbe22f509	-0.15913786
60	0x3b22a6d8	0.0024818685
61	0x3dca3dc2	0.098750606
62	0x3da47eb4	0.08031979
63	0x3d8d399b	0.06895753
64	0x3b8834a3	0.0041566654
65	0x3d3ccf7a	0.046096303
66	0xbde2e61d	-0.11079047
67	0xbe23351e	-0.15938231
68	0xbe02e6a6	-0.12783298
69	0xbe0febb0	-0.14054751
70	0x3d940f88	0.07229525
71	0xbd06ca51	-0.032907788
72	0xbd092199	-0.033479307
73	0x3d784bf6	0.060619317
74	0xbdb8e741	-0.09028483
75	0x3da88b6b	0.08229717
76	0xbd1a2b53	-0.037638973
77	0xbe0c6ba2	-0.13712934
78	0xbded461c	-0.11585638
79	0xbd920b87	-0.07131105
80	0xbd83edc7	-0.06441837
81	0xbd932aaf	-0.071858756
82	0xbd81c4da	-0.063363746
83	0x3d811325	0.0630248
84	0x3d732733	0.059363555
85	0xbe331ac8	-0.17490685
86	0xbdd2cbbd	-0.10292766
87	0x3da2e418	0.07953662
88	0xbe408521	-0.18800785
89	0x3e013f48	0.12621796
90	0x3e026cf0	0.12736869
91	0xbda52c16	-0.08065049
92	0x3d52cc37	0.051464286
93	0xbdd0a320	-0.101873636
94	0xbe46f795	-0.19430383
95	0x3c0a8cf9	0.008456462
96	0xbde4667e	-0.11152361
97	0x3d8c4216	0.068485424
98	0xbd040321	-0.032229546
99	0xbd27a442	-0.040928133
100	0xbd8e31f8	-0.069431245
101	0x3c24b555	0.010052999
102	0x3d100fc8	0.0351713
103	0x3d0e82ac	0.034792587
104	0x3dc1bd7c	0.094599694
105	0xbc7c7888	-0.015409596
106	0x3d8d1d78	0.06890386
107	0x3d411c47	0.047146108
108	0x3d59a81c	0.053138837
109	0xbd482a90	-0.048868716
110	0xbdb35109	-0.087556906
111	0xbd9dea28	-0.077106774
112	0x3e1eb2c9	0.15497889
113	0xbd8185b3	-0.06324329
114	0xbd132070	-0.035919607
115	0xbdf8aa47	-0.12141853
116	0x3d95d4a1	0.07315946
117	0x3b7e7055	0.003882428
118	0xbdb06ccf	-0.086145036
119	0xbc392d76	-0.011302343
120	0xbd1e36a6	-0.038626336
121	0x3d0ac868	0.03388253
122	0xbd2af758	-0.04173979
123	0x3d578e61	0.052626017
124	0xbd9f1f00	-0.07769585
125	0x3cf351f4	0.029702164
126	0x3dec5a4b	0.115406595
127	0x3c34d601	0.011037351
128	0x3dc82531	0.09772719
129	0x3d9b5854	0.07585207
130	0x3bdc33d6	0.0067200465
131	0xbcd61b5d	-0.026136095
132	0xbced57cd	-0.02897253
133	0x3d71f170	0.059068143
134	0x3d757f7e	0.05993604
135	0x3ca1add9	0.019736217
136	0xbcefd43d	-0.029276008
137	0x3c92d462	0.017923538
138	0xbd7c7c8e	-0.061642222
139	0xbd07aaf0	-0.033122003
140	0x3dc6da17	0.09709566
141	0x3d786b74	0.06064935
142	0x3dab6588	0.08368975
143	0xbdbd8378	-0.09253591
144	0x3dbe12f2	0.09280957
145	0x3e040ffd	0.12896724
146	0xbdbc45a4	-0.091929704
147	0xbccfb9f5	-0.025357226
148	0x3db11228	0.08646041
149	0xbcda8790	-0.02667597
150	0x3c9d9f42	0.01924098
151	0xbe070673	-0.13186054
152	0xbd9e88f6	-0.07740967
153	0xbcebe2a5	-0.028794596
154	0xbe00f86a	-0.12594762
155	0x3d95cc5a	0.073143676
156	0x3dea31d7	0.114352874
157	0xbe092c96	-0.13395914
158	0x3e40e9b3	0.18839149
159	0x3e145a47	0.14487563
160	0x3def2d15	0.116785206
161	0x3dfd48d5	0.12367407
162	0x3db652b3	0.089024924
163	0xbe175dc8	-0.14781868
164	0xbda2bb67	-0.079459004
165	0x3d88930b	0.06668671
166	0x3dba0bb5	0.09084264
167	0x3e1bb6ef	0.15206502
168	0x3d671f2b	0.05642621
169	0x3d25c9ad	0.040475536
170	0xbd9b6ac9	-0.07588727
171	0x3cac4d8d	0.021033073
172	0xbdb02d33	-0.08602371
173	0x3c4f6620	0.012658626
174	0x3e09ec61	0.13469078
175	0xbb55257c	-0.0032523563
176	0xbe139cc8	-0.14415276
177	0x3e0adac4	0.13560015
178	0xbd9a2b29	-0.075277634
179	0x3ee99a12	0.4562536
180	0x3d5bcedc	0.053664073
181	0xbe0b5613	-0.13607053
182	0x3d7854c1	0.060627703
183	0x3e2fe712	0.1717799
184	0xbcaafbc9	-0.020872014
185	0x3f1e47af	0.6182813
186	0x3da381de	0.079837546
187	0x3d8d60a7	0.069032006
188	0xbd68116b	-0.056657236
189	0xbda24690	-0.07923615
190	0x3e3eadcb	0.18620984
191	0x3d45ee85	0.048323173
192	0x3dd589d9	0.10426683
193	0x3b8114c2	0.003939242
194	0x3e17bb1c	0.1481747
195	0x3e485e86	0.19567308
196	0xbda85928	-0.0822013
197	0xbdffc5ef	-0.12488925
198	0xbd4f35db	-0.05058847
199	0xbd0cce00	-0.034376144

lstm1.bias_hh_l0 f4 [200]
0	0x3d2e5a61	0.04256666
1	0x3dd6f879	0.10496611
2	0xbc3e2ef3	-0.011607873
3	0x3dff1856	0.124558136
4	0xbe0974d5	-0.13423474
5	0x3d8159d8	0.063159645
6	0x3c7107f1	0.014711366
7	0xbd4714a5	-0.048603673
8	0x3d2b7d84	0.041867748
9	0x3e41b09c	0.18915027
10	0xbd238392	-0.039920397
11	0xbd66335d	-0.056201328
12	0x3c3f4f25	0.011676584
13	0x3cb5b01a	0.022178698
14	0xbd0fec93	-0.035137724
15	0xbd2a031b	-0.041506868
16	0x3ca54c19	0.020177888
17	0x3e37533f	0.1790285
18	0x3ca34198	0.019928738
19	0x3d8a2a31	0.067463286
20	0xbd8fdc6b	-0.07024463
21	0x3e1eec3a	0.15519801
22	0x3c995aef	0.018720118
23	0xbd507ed7	-0.050902214
24	0xbb739be2	-0.003717177
25	0x3e3d63ed	0.1849515
26	0xbb14081e	-0.0022587846
27	0x3d372cca	0.04472045
28	0x3d94b2b3	0.07260647
29	0x3f0f271b	0.55919045
30	0x3dc6fc4c	0.097160906
31	0x3d306157	0.04306158
32	0x3d193958	0.037408203
33	0x3eadb265	0.33925167
34	0x3dcefc0a	0.101066664
35	0x3f10ff72	0.5663978
36	0xbd86c173	-0.06579866
37	0x3d35ec51	0.044414822
38	0x3b920852	0.0044565583
39	0x3bb00375	0.005371506
40	0xbd31a68d	-0.043371726
41	0xbc8f3492	-0.017481122
42	0xbd30911b	-0.043107133
43	0x3e106191	0.14099719
44	0x3d6a4fcf	0.057205018
45	0x3cbc0374	0.022950865
46	0x3d428226	0.0474874
47	0xbddc6b7c	-0.107626885
48	0x3d91f942	0.0712762
49	0x3d8b34b7	0.06797164
50	0x3c60f35e	0.013729898
51	0xbdc7bdf0	-0.097530246
52	0xbdae8b2c	-0.08522639
53	0xbe0fe89c	-0.14053577
54	0x3d2f5a0c	0.042810485
55	0x3d7e9f70	0.06216377
56	0x3dafb9b0	0.08580339
57	0x3c2ef4fa	0.010678524
58	0xbd9a8834	-0.0754551
59	0x3d2da175	0.042390306
60	0x3dcb346a	0.099221066
61	0xbde94faa	-0.11392148
62	0x3e037a9d	0.12839742
63	0xbe0cae4e	-0.13738367
64	0x3da5a3e6	0.08087902
65	0x3dae512b	0.08511575
66	0x3d407c8e	0.046993785
67	0x3dbd76ac	0.092511505
68	0x3d04de51	0.03243858
69	0x3dbaa1dd	0.09112904
70	0x3ddb7314	0.10715309
71	0x3d44ec21	0.048076753
72	0x3d2f820d	0.042848635
73	0x3dcbd76d	0.099531986
74	0xbcbf4453	-0.02334801
75	0x3e003db5	0.1252354
76	0xbddfe285	-0.10931877
77	0x3c382f16	0.011241695
78	0x3ce5df65	0.028060624
79	0xbe0b4a5c	-0.13602585
80	0x3d6e62a3	0.058199536
81	0x3d8903a4	0.066901475
82	0x3dc29160	0.09500384
83	0xbdfe06f7	-0.12403672
84	0x3dbac016	0.09118669
85	0xbd648ab0	-0.055796325
86	0x3e0692cc	0.13141936
87	0xbd98d5c8	-0.074626505
88	0x3d772562	0.060338385
89	0x3dd7c48d	0.10535536
90	0xbdd882d5	-0.10571829
91	0x3d004c60	0.031322837
92	0xbdb8a199	-0.09015197
93	0xbb2b13ef	-0.002610441
94	0xbc3699b8	-0.011145048
95	0xbdc5b2f9	-0.09653277
96	0xbe0e91ca	-0.13922802
97	0x3d2a5a5d	0.041590083
98	0xbd631ddf	-0.05544841
99	0x3d5273dc	0.051380023
100	0xbc508085	-0.012725954
101	0xbc4fe07b	-0.012687798
102	0xbd5e2ecc	-0.054243848
103	0x3c9a94d5	0.018869797
104	0xbb186059	-0.0023250787
105	0xbcebbd4b	-0.028776785
106	0xbd95de5a	-0.07317801
107	0xbbe1c069	-0.006889392
108	0x3dd97ca6	0.10619478
109	0x3dd8e1b2	0.10589923
110	0x3d6e7e43	0.05822588
111	0xbc3e6eb1	-0.011623071
112	0xbdd8594a	-0.105639055
113	0x3dbf4c2e	0.09340702
114	0xbdab12b6	-0.08353178
115	0x3d6acead	0.057326008
116	0xbd51e18a	-0.05124048
117	0x3d84bd4d	0.06481419
118	0x3ca9869c	0.02069407
119	0xbd1deeee	-0.03855794
120	0x3dcf1572	0.10111512
121	0xbda51434	-0.08060494
122	0x3d3e239e	0.046420686
123	0x3d9fdd1f	0.078058474
124	0x3df1fd10	0.11815846
125	0xbd74437b	-0.059634667
126	0x3d90db57	0.07073086
127	0xbd3f4ca3	-0.046703946
128	0xbc8e1ca0	-0.017347634
129	0x3d518be3	0.051158797
130	0x3c541f1f	0.012946873
131	0x3cbdb0df	0.023155628
132	0xbdb42110	-0.08795369
133	0xbdff1ce3	-0.124566816
134	0x3d1cb216	0.038255773
135	0xbcc80253	-0.02441517
136	0xbd4aa952	-0.049477883
137	0xbd89017f	-0.066897385
138	0xbd76d39a	-0.060260393
139	0x3d7f1db8	0.0622842
140	0x3c1e4f80	0.009662509
141	0xbdc4fcdb	-0.09618541
142	0xbdd06cac	-0.101769775
143	0xbcb5193a	-0.022106756
144	0xbd7f85c4	-0.06238343
145	0xbaa4df31	-0.0012578723
146	0x3c53fe42	0.012939038
147	0xbd572719	-0.05252752
148	0xbdab001e	-0.08349632
149	0x3dbf2e18	0.093349636
150	0x3dab98ff	0.08378791
151	0x3d9e4b50	0.077292085
152	0xbd304f44	-0.043044344
153	0xbd4a599e	-0.04940187
154	0x3ccc18cf	0.024914173
155	0x3d77f61b	0.06053744
156	0xbc1a74d6	-0.00942727
157	0xbcedd9a6	-0.029034447
158	0xbc891e77	-0.01673816
159	0x3dd71f50	0.10504019
160	0x3b058291	0.0020372013
161	0xbe10da9f	-0.14145897
162	0xbc3b78cd	-0.011442375
163	0xbd034f11	-0.032057825
164	0x3c5659a7	0.013082898
165	0x3db6a685	0.0891848
166	0x3d68b5af	0.056813892
167	0x3d5546f2	0.05206961
168	0x3c4c3221	0.012463124
169	0xbe0aa614	-0.13539916
170	0x3d29e82f	0.041481193
171	0xbd8fe36e	-0.07025801
172	0x3c0c3972	0.008558618
173	0x3de84f96	0.11343305
174	0x3d3c099d	0.045907605
175	0xbb74288f	-0.003725562
176	0x3d96b94a	0.0735956
177	0x3d511b7c	0.0510516
178	0xbe25672e	-0.16152641
179	0x3f0b6dc1	0.54464346
180	0x3e1fd317	0.15607868
181	0xbdc13691	-0.09434236
182	0xbe185a7c	-0.14878267
183	0x3eb4ce6a	0.3531373
184	0x3debf5c7	0.11521488
185	0x3ef93c13	0.48678645
186	0xbd553b42	-0.052058466
187	0xbb95fc26	-0.0045771776
188	0xbcbd695a	-0.023121525
189	0x3dcb3f7e	0.099242195
190	0x3db0d4cc	0.08634338
191	0xbc9f96fe	-0.019481178
192	0x3d7c4060	0.06158483
193	0x3dbdbe54	0.09264818
194	0x3e203122	0.15643743
195	0xbd6ca1cc	-0.05777149
196	0xbd2028f6	-0.039101563
197	0x3dcb184d	0.099167444
198	0x3dabd401	0.08390046
199	0x3c1236a2	0.008924158

lstm2.weight_ih_l0 f4 [200, 50]
0	0x3d88c92a	0.06678994
1	0xbddf3b10	-0.10899937
2	0x3da3000d	0.07958994
3	0x3ca8901c	0.02057653
4	0x3e101eaa	0.14074197
5	0xbddea24b	-0.10870799
6	0x3da06d33	0.07833328
7	0x3d6614e3	0.056172263
8	0x3d8c8732	0.06861724
9	0xbd5d48b9	-0.05402443
10	0xbce00fa7	-0.027351214
11	0x3dcd0cab	0.10012182
12	0x3d80f6fb	0.06297108
13	0xbdeff19a	-0.11716004
14	0x3dc9bec2	0.09850837
15	0x3d5f94a3	0.05458511
16	0xbd715573	-0.05891938
17	0xbe04757d	-0.12935443
18	0xbdfe1989	-0.12407214
19	0x3bcd61f8	0.0062677823
20	0xbd8cf0fb	-0.06881901
21	0xbc0ec282	-0.008713366
22	0xbd38964e	-0.045065217
23	0xbc4f45b1	-0.012650893
24	0xbd296f90	-0.04136616
25	0x3cfd2cd5	0.030905167
26	0xbe075510	-0.13216043
27	0xbd366429	-0.044529114
28	0xbd4e137a	-0.050311543
29	0xbd949d31	-0.072565444
30	0xbd55bf1a	-0.0521842
31	0xbdddec05	-0.10836033
32	0xbd1cbef3	-0.03826804
33	0x3e23cb23	0.1599546
34	0xbdfe7a2c	-0.12425646
35	0xbd61fd99	-0.05517349
36	0xbdc077bf	-0.0939784
37	0x3c9cfa59	0.019162344
38	0xbcedbab4	-0.029019691
39	0x3de2d320	0.11075425
40	0xbd95d828	-0.07316619
41	0x3ddf85c1	0.109141834
42	0xbc10bae2	-0.008833619
43	0xbda05b28	-0.07829887
44	0xbdc03eb7	-0.09386962
45	0xbe32317c	-0.1740169
46	0xbdc597f2	-0.09648122
47	0x3d17a8f7	0.03702637
48	0xbcfa4022	-0.030548159
49	0x3c0a89d1	0.00845571
50	0x3e3d4819	0.18484534
51	0xbe76badb	-0.24094717
52	0xbcff2ebd	-0.031150216
53	0x3e875a26	0.26435965
54	0x3e0d1129	0.13776077
55	0xbe69643c	-0.22792143
56	0x3d272021	0.040802125
57	0x3e1635d0	0.14668965
58	0xbe3d46ec	-0.18484086
59	0x3e0fa789	0.14028753
60	0xbe4467f3	-0.19180278
61	0xbd4e3954	-0.05034764
62	0x3dc2e405	0.095161475
63	0x3da9e267	0.08295136
64	0xbd978060	-0.073975325
65	0xbe036eb4	-0.12835199
66	0xbe010e9f	-0.12603234
67	0x3e6bb27b	0.23017304
68	0xbe1d88dc	-0.15384239
69	0xbe0c5d12	-0.13707379
70	0x3dec28c7	0.11531215
71	0xbdce510e	-0.10074054
72	0xbe38b5b0	-0.18038058
73	0x3d95e3b0	0.073188186
74	0x3e59bce1	0.21263458
75	0x3dcf2fd0	0.101165414
76	0x3e624163	0.22095256
77	0xbdd35c1e	-0.10320304
78	0x3e8947be	0.26812547
79	0xbaf81a10	-0.0018928666
80	0x3e1d976e	0.15389797
81	0xbdb49d61	-0.0881908
82	0xbda6e593	-0.081492566
83	0x3d1e7fc6	0.038696073
84	0x3e1201ff	0.14258574
85	0xbd5e84f5	-0.054326016
86	0xbe23e450	-0.16005063
87	0xbe667fb5	-0.22509654
88	0xbe5053d5	-0.2034448
89	0x3e0dbada	0.1384081
90	0xbc871202	-0.016488079
91	0xbe2d3c49	-0.16917528
92	0x3df05124	0.11734226
93	0xbe966453	-0.29373416
94	0x3e3cbf14	0.18432266
95	0x3e899314	0.26870024
96	0xbe99d586	-0.30045718
97	0xbe79bae4	-0.243877
98	0x3e952484	0.29129422
99	0x3e17ddc7	0.14830695
100	0xbc20c52d	-0.009812635
101	0xbdd97908	-0.10618788
102	0x3cd02484	0.025408037
103	0x3e7ffb76	0.24998268
104	0x3e034327	0.12818585
105	0xbd3fe2e6	-0.046847247
106	0x3e2dbd04	0.16966635
107	0x3d230c2d	0.039806534
108	0x3c998f74	0.018745162
109	0x3dc74059	0.0972907
110	0xbe0ccc22	-0.13749745
111	0xbd26cd39	-0.04072306
112	0x3dda3ff9	0.10656733
113	0xbd8a2474	-0.06745234
114	0xbdbc6dd4	-0.092006356
115	0xbe75ff6a	-0.24023214
116	0x3cea3e9c	0.028594308
117	0x3d4fac0e	0.050701194
118	0xbb003898	-0.0019564983
119	0xbcb40d58	-0.021979019
120	0x3d5c14d5	0.053730804
121	0xbe3f6035	-0.18689044
122	0x3cb64da7	0.022253824
123	0x3e67a6dc	0.22622246
124	0x3e0a43b0	0.13502383
125	0x3da5780a	0.08079536
126	0x3e3ef3d7	0.18647705
127	0xbd814007	-0.0631104
128	0xbd797ace	-0.06090813
129	0xbc386af1	-0.011255966
130	0x3dd82011	0.10552991
131	0xbca03417	-0.019556088
132	0xbe2cb26c	-0.16864938
133	0xbd3f0cf8	-0.046643227
134	0x3e9d5ad5	0.30733362
135	0xbd850d76	-0.06496708
136	0xbe0f4c0c	-0.13993853
137	0xbdccea3f	-0.100056164
138	0xbe5e61a7	-0.21716939
139	0x3e597155	0.21234639
140	0x3cdcc3c3	0.026948815
141	0xbd3c2405	-0.04593279
142	0x3d8d7eab	0.069089256
143	0xbe7296a3	-0.23690276
144	0x3dd71599	0.10502166
145	0x3cad82de	0.021180566
146	0xbe289f5d	-0.16467042
147	0xbc70623e	-0.01467186
148	0x3cba6d01	0.022757055
149	0x3ca1a0d7	0.019730015
150	0xbd6c0e7f	-0.057631012
151	0xbd3b575c	-0.04573761
152	0x3cdb78d9	0.026791023
153	0xbbf91145	-0.0076009356
154	0x3db1c100	0.0867939
155	0x3d000e5a	0.031263687
156	0x3e065e44	0.13121897
157	0xbd4969d2	-0.049173184
158	0xbe2852e1	-0.16437866
159	0xbd9f2f9a	-0.07772751
160	0xbda81b5a	-0.08208342
161	0x3d62e2ac	0.055391952
162	0xbe6bd704	-0.2303124
163	0xbd289296	-0.04115542
164	0x3cc09808	0.023509994
165	0x3e47228f	0.19446777
166	0xbe2dce64	-0.16973263
167	0xbde1652a	-0.11005624
168	0xbddda0ff	-0.10821723
169	0x3d7290c0	0.059220076
170	0x3e09ba89	0.13450064
171	0xbd4edd04	-0.050503746
172	0xbd38dd6d	-0.045133043
173	0x3d072938	0.032998294
174	0x3dd65da5	0.1046708
175	0x3d82e2bf	0.06390905
176	0x3dafc0f7	0.08581727
177	0xbc866fd3	-0.016410744
178	0x3de87fd5	0.11352507
179	0xbe33b7e3	-0.17550616
180	0x3e292bf5	0.16520675
181	0x3d621761	0.055198077
182	0x3dc87561	0.09788013
183	0xbd3ee934	-0.04660912
184	0xbdee1b24	-0.116262704
185	0x3a7e4ed5	0.0009701078
186	0xbdf9c421	-0.12195612
187	0xbd1d6109	-0.038422618
188	0x3c339da2	0.010962876
189	0x3c9b6379	0.01896833
190	0xbe7821ac	-0.24231595
191	0x3d8d5d77	0.06902593
192	0xbd338125	-0.043824334
193	0x3d231eac	0.039824173
194	0x3d12078a	0.03565172
195	0x3d19281e	0.037391774
196	0x3d385d27	0.045010712
197	0x3d60da60	0.05489576
198	0x3e1995e2	0.14998582
199	0xbcdce2d8	-0.026963636
200	0x3d60e5f4	0.0549068
201	0xbe14b88b	-0.14523523
202	0xbdfe6f2f	-0.1242355
203	0xbdc3fd12	-0.09569754
204	0xbdaf4880	-0.0855875
205	0xbcbb6b03	-0.022878176
206	0xbe0b6b52	-0.13615158
207	0x3e01b8ff	0.12668227
208	0xbdaa9929	-0.08329994
209	0xbca597ce	-0.020213988
210	0xbda7d55e	-0.081949934
211	0x3c408ab2	0.011751818
212	0xbdc4b49b	-0.0960476
213	0x3d4dd725	0.050254006
214	0x3e1ac070	0.15112472
215	0xbc8198b0	-0.015819877
216	0x3d079f53	0.033110928
217	0xbd5608b8	-0.05225441
218	0x3c929add	0.01789611
219	0x3b5df21a	0.0033866228
220	0xbdb6d12d	-0.08926616
221	0x3db4b458	0.0882346
222	0x3dcfa3b1	0.101386435
223	0xbd55c820	-0.052192807
224	0x3dc60da0	0.096705675
225	0xbcf4885c	-0.029850177
226	0x3dfd4ccb	0.12368163
227	0xbd3475e8	-0.044057757
228	0x3ddd4b61	0.10805393
229	0xbdf5958c	-0.119914144
230	0x3d9ff2e7	0.07810002
231	0x3d31bea6	0.043394707
232	0xbbf9c908	-0.0076228417
233	0x3d7a4505	0.06110098
234	0xbda390cd	-0.07986603
235	0xbddbdbf1	-0.1073531
236	0xbe06d514	-0.1316722
237	0xbbca66e4	-0.0061768163
238	0x3afca0f8	0.0019274047
239	0x3daaaaa7	0.083333306
240	0x3da1ecab	0.07906469
241	0x3ce596c2	0.028025988
242	0xbe0c94e1	-0.13728668
243	0x3dc6d7f8	0.097091615
244	0x3dddbb41	0.108267315
245	0xbc9909a9	-0.018681364
246	0x3d6eae38	0.058271617
247	0xbdcbc0f4	-0.09948912
248	0x3de203f2	0.11035909
249	0xbdba5f4b	-0.09100207
250	0xbd7984fa	-0.060917832
251	0x3e340e17	0.175835
252	0xbd936e20	-0.07198739
253	0xbacef578	-0.0015789708
254	0xbc664372	-0.014054166
255	0xbdd7805c	-0.105225295

lstm2.weight_hh_l0 f4 [200, 50]
0	0xbd625406	-0.055255912
1	0xbd60b992	-0.054864474
2	0x3e0b0e68	0.13579714
3	0xbdbf5f77	-0.0934438
4	0xbd9f5ee2	-0.07781769
5	0xbc65fade	-0.014036862
6	0x3cf3b5fa	0.02974986
7	0x3e03ccfd	0.12871166
8	0xbc0f5a2d	-0.008749527
9	0x3dcf2235	0.10113946
10	0x3d131762	0.03591097
11	0x3dda604c	0.106628984
12	0xbe1e65a9	-0.15468468
13	0xbd598990	-0.053109705
14	0x3de90fa3	0.113799356
15	0xbe1b2a95	-0.15152963
16	0x3d88153f	0.06644677
17	0x3c727d92	0.014800446
18	0x3c6c84d4	0.014435966
19	0xbe0de97a	-0.13858595
20	0xbdce6585	-0.10077957
21	0xbd92122b	-0.071323715
22	0x3de70236	0.112797186
23	0x3db8af37	0.090177946
24	0x3d40578f	0.046958502
25	0x3db03902	0.086046234
26	0x3d19d109	0.037552867
27	0x3d81a7ca	0.06330831
28	0xbd61052f	-0.054936584
29	0x3cb403d0	0.021974474
30	0x3dfdeaf6	0.12398331
31	0xbd801e43	-0.06255772
32	0xbbab7477	-0.0052323896
33	0x3d727117	0.059189882
34	0xbdbc0a67	-0.091816716
35	0x3d3bf72d	0.045890022
36	0x3d3510bd	0.044205416
37	0x3df24156	0.11828868
38	0x3d025e29	0.03182808
39	0x3c002538	0.007821374
40	0xbd29c455	-0.041447002
41	0xbe0443e2	-0.1291652
42	0x3d004a53	0.03132088
43	0x3d9be293	0.07611575
44	0xbda051bc	-0.078280896
45	0x39a3162a	0.00031106296
46	0xbdd0af3c	-0.10189673
47	0xbdf8c29c	-0.12146494
48	0xbdb1e271	-0.086857684
49	0x3d83925f	0.064244024
50	0x3ea70d36	0.32627267
51	0xbd2cc333	-0.042178344
52	0xbe36e78f	-0.1786177
53	0xbddd2540	-0.107981205
54	0xbdd49b8a	-0.10381229
55	0x3e81d9eb	0.2536157
56	0xbe876f55	-0.26452127
57	0x3ea20efa	0.3165205
58	0x3e421772	0.18954256
59	0x3e3922e8	0.18079722
60	0xbe19b7a6	-0.15011463
61	0xbe8cf66f	-0.27531764
62	0x3e2a6a41	0.16642095
63	0xbc84d973	-0.01621697
64	0xbdd1d0c6	-0.102448985
65	0x3e0261ba	0.12732592
66	0x3e7b10d7	0.24518143
67	0x3e3730f8	0.17889774
68	0xbe9959fa	-0.2995146
69	0x3e8df02d	0.27722302
70	0xbd23404d	-0.039856244
71	0xbeac8ac0	-0.33699608
72	0x3db17297	0.086644344
73	0xbe5adea6	-0.21373996
74	0xbda3bfa2	-0.079955354
75	0x3e0c86bc	0.13723272
76	0x3e86747d	0.26260749
77	0xbdce80ba	-0.100831464
78	0x3e72b829	0.23703064
79	0x3e45de7c	0.19323152
80	0x3e10080c	0.1406557
81	0x3e63546d	0.22200175
82	0xbe8e3c9a	-0.2778061
83	0x3e44d771	0.1922281
84	0xbd387aeb	-0.0450391
85	0x3e09ab7f	0.13444327
86	0xbe7ac142	-0.24487785
87	0xbe6c0c66	-0.23051605
88	0x3dd74d87	0.10512834
89	0xbe0aeb53	-0.13566332
90	0x3e26400a	0.16235366
91	0x3dd80679	0.105481096
92	0x3d898a97	0.06715887
93	0x3e18886a	0.14895788
94	0x3df5bf65	0.11999396
95	0xbe998648	-0.2998526
96	0x3c62f145	0.013851468
97	0xbe965d86	-0.29368228
98	0xbd80732c	-0.06271967
99	0x3e872f45	0.2640325
100	0xbd66e901	-0.056374554
101	0x3d329a60	0.043604255
102	0x3d971c9a	0.07378502
103	0xbe31b7fe	-0.17355344
104	0xbdbfdbee	-0.0936812
105	0x3cafee1c	0.021475844
106	0xbe3764ba	-0.17909518
107	0x3e2a0479	0.16603269
108	0x3da1e4a5	0.079049386
109	0x3e6b1e28	0.22960722
110	0xbe021931	-0.12704922
111	0xbe1c0029	-0.15234436
112	0x3e02281d	0.12710615
113	0x3d0a481d	0.03376018
114	0xbda8c645	-0.08240942
115	0x3debf469	0.11521227
116	0x3e4e280e	0.20132467
117	0x3dd00952	0.10158028
118	0xbe3a2790	-0.18179154
119	0x3e855d35	0.26047674
120	0x3ce3ced9	0.027808594
121	0xbe367655	-0.17818578
122	0xbcb1d9b7	-0.02171026
123	0xbe828cd3	-0.25498065
124	0xbe0c4a70	-0.1370027
125	0x3eca1b19	0.394738
126	0x3e2fc806	0.17166147
127	0xbc89529d	-0.016763026
128	0x3da7940e	0.08182536
129	0x3e0662ec	0.13123673
130	0x3dca0fd1	0.09866298
131	0xbd5c0230	-0.053713024
132	0xbe4b9c05	-0.19883735
133	0x3e05050c	0.12990206
134	0x3c5d0c4e	0.013491703
135	0xbc31f210	-0.010860935
136	0xbe1c4a9c	-0.15262836
137	0x3d8469c4	0.06465486
138	0x3dd0f036	0.102020666
139	0xbd45c185	-0.048280258
140	0x3d8b64ae	0.068063125
141	0x3e6ac329	0.2292601
142	0x3d817e2e	0.06322895
143	0x3e1d9da7	0.15392171
144	0x3e27a7c6	0.16372594
145	0xbdb75cfc	-0.08953282
146	0x3dac650e	0.08417712
147	0xbe3c5ce5	-0.18394811
148	0xbdbf90f6	-0.09353821
149	0x3df22fec	0.118255466
150	0x3cb048e4	0.021519132
151	0xbd867d4c	-0.06566867
152	0xbcc4c1b3	-0.024018144
153	0xbe26766c	-0.16256112
154	0x3d081363	0.033221614
155	0xbce40241	-0.027833106
156	0xbe050b91	-0.12992693
157	0x3d989931	0.07451094
158	0x3de0252b	0.10944589
159	0xbd0b9d4c	-0.034085557
160	0xbd51324a	-0.05107335
161	0xbd11f3df	-0.035632964
162	0x3b09efeb	0.0021047543
163	0x3dc05579	0.093913026
164	0xbca07221	-0.01958567
165	0x3e682fb8	0.22674453
166	0x3e1e380e	0.1545107
167	0xbe00d33f	-0.12580584
168	0xbc47447f	-0.012162327
169	0xbdbf2b5e	-0.093344435
170	0xbe16c1cd	-0.14722367
171	0xbe0e40cf	-0.1389191
172	0x3df0e14c	0.11761722
173	0xbd3816e7	-0.044943716
174	0x3bb00d56	0.0053726835
175	0xbdbd7144	-0.09250119
176	0x3d792d87	0.060834434
177	0x3e165c9c	0.14683765
178	0xbd80f938	-0.06297535
179	0xbd969926	-0.073534295
180	0xbdb1c100	-0.0867939
181	0xbda6e71b	-0.081495486
182	0x3d0b127f	0.033953186
183	0x3e26c9ad	0.1628787
184	0x3da658d2	0.0812241
185	0xbc9aea0a	-0.018910427
186	0x3d9b9600	0.075969696
187	0x3c3c2310	0.011482969
188	0xbd3d359f	-0.046193715
189	0x3e0df4d9	0.13862933
190	0x3dbb0054	0.09130922
191	0x3d1133b8	0.035449713
192	0x3e05dbe0	0.13072157
193	0xbd3783ae	-0.044803314
194	0xbdd14328	-0.10217887
195	0xbd723a1f	-0.05913746
196	0xbd0dc1dc	-0.034608707
197	0xbd55bd98	-0.052182764
198	0xbdf18e43	-0.117947124
199	0xbabfde43	-0.0014638383
200	0xbd8c4829	-0.06849701
201	0x3d0f0b7a	0.034923054
202	0x3e15145b	0.14558546
203	0x3d100b8d	0.035167266
204	0x3c89716c	0.016777717
205	0xbde41d5f	-0.111384146
206	0x3c18546a	0.00929747
207	0xbda87ab2	-0.08226527
208	0xbdf0cccd	-0.11757813
209	0xbbfb3eae	-0.007667384
210	0x3d897a82	0.0671282
211	0x3de9247a	0.113839105
212	0x3d837ad4	0.06419912
213	0xbdf1d64f	-0.11808454
214	0x3d8b176b	0.06791576
215	0x3d8eb848	0.069687426
216	0x3e0bb9b6	0.13645062
217	0x3dcbeace	0.09956895
218	0x3d581442	0.052753694
219	0x3db6703a	0.08908124
220	0xbd76f669	-0.06029359
221	0xbdd18659	-0.10230703
222	0x3d694309	0.056948695
223	0x3dd97c47	0.10619407
224	0xbaf24c10	-0.0018485803
225	0xbc2035fa	-0.009778494
226	0xbd30bf87	-0.043151405
227	0x3dd19f66	0.10235481
228	0x3d118e0f	0.03553587
229	0xbdb13429	-0.08652527
230	0xbdaa46df	-0.08314299
231	0x3dd62cb9	0.10457749
232	0xbd5644b4	-0.052311614
233	0xbdbbde93	-0.09173312
234	0x3dadb5b1	0.084819205
235	0x3c72e6aa	0.014825502
236	0x3d72729b	0.059191328
237	0xbd4c70d3	-0.049912285
238	0xbd111ec8	-0.035429746
239	0x3e189d00	0.14903641
240	0x3d82fed3	0.0639626
241	0x3db09beb	0.08623489
242	0x3dc66abf	0.09688329
243	0xbcf83c61	-0.030302228
244	0x3df784e9	0.120858975
245	0xbb9190d1	-0.0044423123
246	0x3bd48bbc	0.006486384
247	0x3dc195a5	0.094523706
248	0xbded0eed	-0.115751125
249	0xbd881141	-0.06643916
250	0xbd06edcf	-0.032941636
251	0x3cd64854	0.026157536
252	0x3c77d517	0.015126488
253	0x3d87c510	0.066293836
254	0x3e0ba63b	0.1363763
255	0xbc5dc1ab	-0.013534944

lstm2.bias_ih_l0 f4 [200]
0	0x3df19912	0.11796774
1	0x3e9a335e	0.30117315
2	0x3ea95cfd	0.33078757
3	0x3c08d5c5	0.008351748
4	0x3c29e656	0.010369858
5	0x3dd66128	0.1046775
6	0xbd24a494	-0.040196016
7	0x3e2d60a5	0.16931398
8	0x3df63d4b	0.120234095
9	0xbd2ed71c	-0.042685613
10	0xbd811a66	-0.06303863
11	0xbd97b4b3	-0.074075125
12	0x3d5aa5da	0.053380825
13	0x3e1d921d	0.15387769
14	0xbd88c879	-0.06678862
15	0x3e520cc0	0.20512676
16	0x3dbfab82	0.093588844
17	0xbd1155e2	-0.035482295
18	0xbd5c4ae7	-0.05378237
19	0x3e17a090	0.14807343
20	0xbdfc5a27	-0.12321883
21	0x3c018bc1	0.007906855
22	0x3f17b03c	0.5925329
23	0xbdc24803	-0.094863914
24	0x3c8dd6e5	0.017314384
25	0xbdd7f9e2	-0.10545708
26	0x3d19e80b	0.03757481
27	0x3d0a2c26	0.03373351
28	0xbe15f31c	-0.1464352
29	0x3da1e9e9	0.07905943
30	0x3dd822ce	0.105535135
31	0x3edee858	0.4353664
32	0x3d8b6263	0.06805875
33	0x3daf1942	0.085497394
34	0xbe0d4f75	-0.13799842
35	0x3d57aaa0	0.052652955
36	0x3dbe781e	0.09300254
37	0x3d8677cb	0.065658174
38	0x3f1013ce	0.5628022
39	0x3d3a7dd2	0.045530148
40	0x3e232dab	0.1593539
41	0xbc8e3edb	-0.017363956
42	0xbe06fe24	-0.13182884
43	0x3d3c4451	0.04596359
44	0x3cb68b2a	0.022283155
45	0x3e21f8e5	0.15817602
46	0x3c95187d	0.018200153
47	0xbd9a24f4	-0.075265795
48	0xbd747604	-0.05968286
49	0xbde3d29c	-0.11124155
50	0x3de66b97	0.1125099
51	0xbdb20fc5	-0.08694414
52	0xbdde46d9	-0.10853357
53	0xbdd680ee	-0.1047381
54	0x3dc23620	0.0948298
55	0xbe1eb030	-0.15496898
56	0xbd6b2cd6	-0.057415806
57	0x3c8b6c95	0.01701955
58	0xbcffa719	-0.031207608
59	0x3d945e5b	0.072445594
60	0xbdede40e	-0.116157636
61	0x3d553b35	0.052058417
62	0xbe25740d	-0.16157551
63	0xbde40d15	-0.11135308
64	0xbca7769a	-0.020442296
65	0x3dc8615b	0.09784194
66	0xbd0355f7	-0.032064404
67	0xbccab43b	-0.024744144
68	0xbd7e3f05	-0.06207182
69	0x3dee2249	0.11627633
70	0xbdb11fc5	-0.08648638
71	0xbd404e17	-0.046949472
72	0xbc5c933b	-0.013462837
73	0x3c00aea5	0.0078541385
74	0xbd2a8250	-0.041628182
75	0xbc84d80e	-0.016216304
76	0xbe054950	-0.13016248
77	0xbe0805e5	-0.13283499
78	0x3da516e8	0.0806101
79	0x3e13b969	0.14426197
80	0x3da7a9b1	0.08186663
81	0xbe008981	-0.12552454
82	0xbe04160a	-0.12899032
83	0xbd636306	-0.055514358
84	0x3dc6c3fe	0.09705351
85	0xbd1d163c	-0.038351282
86	0xbd9394e1	-0.07206131
87	0xbb57e01f	-0.0032939983
88	0xbdaad761	-0.083418615
89	0xbda2dde8	-0.079524815
90	0xbce904d6	-0.028444689
91	0x3afa7fac	0.0019111536
92	0x3cd77636	0.026301485
93	0xbd887f35	-0.06664888
94	0x3d49ea5e	0.049295776
95	0xbce7a7b9	-0.028278219
96	0x3bd4cdbb	0.0064942515
97	0x3df15b25	0.117849626
98	0x3d973dd8	0.07384843
99	0xbe05a33c	-0.1305055
100	0x3d82b2ab	0.063817345
101	0xbc3faab5	-0.011698415
102	0xbd5e308d	-0.05424552
103	0xbe0abc72	-0.13548449
104	0x3c79c2d5	0.0152442055
105	0x3de41a81	0.11137868
106	0x3dc1468f	0.09437286
107	0x3d7b9fd9	0.06143174
108	0x3d44a694	0.048010424
109	0x3e066ac5	0.13126667
110	0xbdf69b18	-0.120413005
111	0x3dd4ed86	0.103968665
112	0x3d77907c	0.060440525
113	0xbdd12c1a	-0.1021349
114	0xbd8726e3	-0.06599214
115	0x3d98cda5	0.074610986
116	0xbe07c883	-0.13260083
117	0x3cc17fea	0.023620564
118	0x3d85fac9	0.06541974
119	0xbcf3d400	-0.029764175
120	0xbb1715ac	-0.002305369
121	0xbdadc4f4	-0.084848315
122	0xbc297814	-0.01034357
123	0xbd9be219	-0.07611484
124	0xbdf77967	-0.120837025
125	0x3d3e0d44	0.04639937
126	0x3b01923a	0.0019770996
127	0x3d67e4e9	0.05661479
128	0x3d7effb2	0.06225557
129	0x3d331ff9	0.043731663
130	0xbd5f08bd	-0.054451693
131	0xbd72360b	-0.05913357
132	0xbdb791c4	-0.089633495
133	0xbd6a54e3	-0.05720986
134	0x3b6683ec	0.0035173846
135	0xbc1a6dc0	-0.0094255805
136	0xbc7d1b33	-0.015448379
137	0x3d96384f	0.07334959
138	0x3d976cc9	0.07393796
139	0xbd265090	-0.040604174
140	0xbdad9715	-0.08476082
141	0x3db8fb11	0.09032262
142	0x3db2d8b4	0.08732739
143	0x3ddb97c1	0.10722304
144	0x3dd271f9	0.10275645
145	0xbdbd2860	-0.092362165
146	0x3d9efca6	0.077630326
147	0xbd94286b	-0.072342716
148	0x3a4bcfc3	0.00077747944
149	0xbdd38893	-0.10328784
150	0xbddc0415	-0.10742966
151	0x3dc8f12e	0.098116264
152	0x3e7a40a6	0.24438724
153	0xbd8034cd	-0.06260071
154	0x3d22a977	0.039712396
155	0x3d25e15a	0.040498115
156	0x3db9a79f	0.09065174
157	0x3d287952	0.041131325
158	0xbd030a94	-0.03199251
159	0xbd0accc7	-0.033886697
160	0xbc97dfed	-0.018539393
161	0x3d363f88	0.044494182
162	0x3c02b053	0.007976609
163	0x3cae5a12	0.021283183
164	0x3ce6e534	0.028185464
165	0x3e413cf9	0.18870915
166	0x3e50c927	0.20389234
167	0x3e201996	0.1563476
168	0x3d0acf3b	0.033889037
169	0xbcffa68f	-0.031207351
170	0xbe143f67	-0.14477311
171	0x3d85524c	0.065098375
172	0x3f1615d0	0.58627033
173	0x3b01f602	0.001983047
174	0x3e02c768	0.1277138
175	0x3d937817	0.0720064
176	0xbe0e6ffe	-0.13909909
177	0x3e165134	0.14679414
178	0x3dc320b5	0.09527723
179	0x3cbbfc93	0.022947585
180	0x3e4a82ce	0.1977646
181	0x3f059178	0.5217509
182	0xbdef8d0d	-0.11696825
183	0x3e56d636	0.20980152
184	0x3b79f57a	0.00381407
185	0xbe00958e	-0.1255705
186	0x3cd50143	0.026001578
187	0x3e2ed654	0.17073947
188	0x3ee0e560	0.43925
189	0x3d6bf33e	0.05760502
190	0x3d8872a5	0.06662492
191	0x3d6879a0	0.056756616
192	0xbdaf489e	-0.085587725
193	0x3bcc40b5	0.0062332996
194	0x3d1d0226	0.038332127
195	0xbdc6346a	-0.09677966
196	0x3e0c1fdf	0.13684033
197	0x3dbf88e1	0.093522795
198	0x3ddba216	0.10724275
199	0x3e06d2df	0.13166378

lstm2.bias_hh_l0 f4 [200]
0	0xbd5e9786	-0.054343723
1	0x3e28d3fd	0.16487117
2	0x3e5a221c	0.21302074
3	0xbd2fe9ea	-0.042947687
4	0xbd8b0ab0	-0.06789148
5	0xbcc0872a	-0.023501951
6	0x3e35e18e	0.17761824
7	0xbd501667	-0.050802615
8	0x3d491ea9	0.049101505
9	0xbda371e7	-0.079807095
10	0x3e133887	0.14377032
11	0x3e13323d	0.14374633
12	0xbcd32e51	-0.025778921
13	0x3e21e33b	0.15809338
14	0xbdb655b3	-0.089030646
15	0x3e7110be	0.23541543
16	0x3d230169	0.039796267
17	0x3c5727ae	0.013132019
18	0x3d05396f	0.032525476
19	0xbd9b5df0	-0.075862765
20	0x3d954943	0.07289364
21	0x3cf1a0c9	0.029495614
22	0x3ec7f481	0.3905373
23	0x3d893695	0.06699864
24	0xbc9376df	-0.018001018
25	0xbd3b96da	-0.04579816
26	0x3c6a624c	0.014305662
27	0x3dbe4754	0.092909485
28	0x3d8573ea	0.065162495
29	0xbdfb21df	-0.1226232
30	0x3e18f2bd	0.14936347
31	0x3edff26a	0.43739635
32	0xbd3d60bf	-0.046234842
33	0x3c0fa235	0.0087667005
34	0xbdc9b18e	-0.09848319
35	0xbbd417a1	-0.0064725433
36	0x3d9a747e	0.0754175
37	0x3dfe693b	0.12422415
38	0x3f07a84c	0.52991176
39	0xbdd962f8	-0.1061458
40	0x3d960a65	0.07326201
41	0x3c64953e	0.013951598
42	0x3dc23977	0.09483617
43	0x3d0d5617	0.03450593
44	0xbdadda7a	-0.08488937
45	0x3ce2e684	0.027697809
46	0x3c387671	0.011258707
47	0x3c0392a2	0.008030565
48	0x3e1e608b	0.15466516
49	0x3d8ad732	0.067793265
50	0x3daee883	0.08540442
51	0xbe362b1c	-0.17789882
52	0x3d003ddb	0.03130899
53	0xbc5d50fa	-0.013508076
54	0xbdf4909c	-0.119416445
55	0xbdafda33	-0.0858654
56	0x3d24f2de	0.04027068
57	0x3d562a43	0.052286398
58	0xbc9cb707	-0.019130243
59	0x3de32061	0.1109016
60	0xbd9c972e	-0.07646023
61	0xbdd5f48d	-0.10447035
62	0x3afd84fe	0.0019342003
63	0xbe5b2f84	-0.21404845
64	0xbdc0dec8	-0.09417492
65	0x3d0f15d3	0.034932923
66	0xbce9c7a0	-0.028537571
67	0xbdf5aede	-0.11996244
68	0x3b7807c5	0.0037846428
69	0x3ddea56d	0.10871396
70	0xbd896284	-0.067082435
71	0xbcddcb3c	-0.027074449
72	0xbdca86e8	-0.098890126
73	0x3dd2f320	0.10300279
74	0xbe0f7710	-0.14010262
75	0xbd52a1c8	-0.051423818
76	0xbe055443	-0.13020425
77	0x3cbe7492	0.023248944
78	0x3d5c38f7	0.053765263
79	0x3d9640fc	0.073366135
80	0xbcf0f34a	-0.029412884
81	0xbe905c6b	-0.2819551
82	0x3b5de415	0.0033857871
83	0xbd7d9f32	-0.0619194
84	0x3dbbe706	0.091749236
85	0x3db9cb5b	0.0907199
86	0xbdf734d3	-0.12070622
87	0xbe51b12f	-0.20477746
88	0xbe79827d	-0.24366184
89	0x3d622f27	0.05522075
90	0x3d2b06e7	0.04175463
91	0x3dfbf596	0.12302701
92	0xbc2ce16d	-0.010551793
93	0xbdc58e4f	-0.09646284
94	0x3dbb6dcb	0.09151801
95	0xbe19dc05	-0.15025337
96	0xbd309875	-0.043114144
97	0x3d432518	0.047642797
98	0x3d496474	0.049168065
99	0x3ddbdbab	0.10735258
100	0x3cb58a7f	0.022160767
101	0xbd58bbcc	-0.052913472
102	0x3c701ae0	0.014654845
103	0x3df2b21e	0.118503794
104	0xbd8133e8	-0.063087285
105	0xbd85393f	-0.065050595
106	0x3b9cb68b	0.004782503
107	0xbd7986d5	-0.0609196
108	0x3d671920	0.056420445
109	0xbd1d6846	-0.03842952
110	0xbd66ce2d	-0.05634897
111	0xbda2f6e2	-0.079572454
112	0xbbc837cb	-0.0061101667
113	0x3da1ede6	0.07906704
114	0xbc59b92c	-0.013288777
115	0xbdd86e9d	-0.10567973
116	0x3df9de3d	0.12200592
117	0xbcbaa3d6	-0.022783201
118	0xbe0d4f89	-0.13799872
119	0x3d494c95	0.0491453
120	0xbd9b50ec	-0.07583794
121	0xbc881928	-0.016613558
122	0xbd8a14de	-0.06742261
123	0x3d0de835	0.034645278
124	0xbb58fa88	-0.0033108313
125	0xbd1498ee	-0.036278658
126	0xbce4ef7b	-0.027946224
127	0x3aff0429	0.0019456196
128	0x3dab901a	0.083770946
129	0x3de545e8	0.11194974
130	0x3d63203b	0.05545066
131	0x3d36504f	0.044510182
132	0xbd9a5e98	-0.075375736
133	0x3d6edb09	0.058314357
134	0xbde9edd7	-0.114223175
135	0x3d73d7dd	0.059532035
136	0x3ddc9555	0.1077067
137	0xbd4352ce	-0.04768639
138	0xbda97f73	-0.08276262
139	0xbd8551a4	-0.06509712
140	0x3c53226b	0.012886624
141	0x3d16656d	0.03671782
142	0x3c26c391	0.010178463
143	0xbd48d83e	-0.04903435
144	0xbdd4e2e7	-0.10394841
145	0x3b75800d	0.0037460357
146	0xbdb326d4	-0.0874764
147	0xbd95aceb	-0.07308372
148	0xbd9e0523	-0.077158235
149	0x3dc53097	0.096284084
150	0xbd782f0b	-0.06059174
151	0x3df7fff2	0.121093646
152	0x3e524eda	0.20537892
153	0x3d87c3e0	0.06629157
154	0xbd588545	-0.05286147
155	0x3dee715d	0.11642716
156	0xbd0d77e5	-0.03453817
157	0xbdc44203	-0.09582903
158	0x3c645c43	0.0139380125
159	0x3d7a4f5a	0.06111083
160	0xbdb53826	-0.088486
161	0xbca9ffd7	-0.020751877
162	0x3df42442	0.11920978
163	0x3d6760e8	0.0564889
164	0x3b8d29b9	0.0043079522
165	0x3e7fa360	0.24964666
166	0x3e192aed	0.14957781
167	0x3dba4b0a	0.09096344
168	0x3d1b3725	0.037894387
169	0x3da7a814	0.08186355
170	0x3c3a4534	0.011369038
171	0x3d93e5d4	0.072215706
172	0x3efd20ac	0.4943899
173	0xbd24f305	-0.040270824
174	0xbdde3df7	-0.108516626
175	0xbd8290df	-0.06375288
176	0x3d89401d	0.06701682
177	0x3dc48103	0.095949195
178	0xbe0875cd	-0.13326187
179	0x3dca15c2	0.09867431
180	0xbd042f53	-0.032271694
181	0x3effae96	0.49937886
182	0xbdaee509	-0.08539779
183	0x3ddc87fb	0.10768124
184	0x3d10b186	0.03532555
185	0x3bbde627	0.0057952586
186	0x3e142fc7	0.1447135
187	0x3e9df4a7	0.30850717
188	0x3f1643b4	0.58697057
189	0x3d86e289	0.06586177
190	0xbc2c9934	-0.010534573
191	0xbd6cfd50	-0.057858765
192	0xbdd98a6e	-0.106221065
193	0x3d38d1ed	0.045122076
194	0x3d88e565	0.066843785
195	0x3cb86037	0.022506816
196	0x3bdc7823	0.0067281886
197	0x3dc9a1a7	0.09845286
198	0x3d730768	0.059333235
199	0x3db015b1	0.08597887
