model.pth (torch, 132517 bytes, 11 tensors)

lstm1.weight_ih_l0 f4 [200, 1]
000000 e7 9a 55 3e 19 11 26 3e 1f 59 c7 3d ba b5 79 3e
       0.20859872 0.1621746 0.097337954 0.2438573
000010 90 9e 47 3e ee bb 03 3c e7 da c9 3d f3 44 1c 3e
       0.1949408 0.008040411 0.098562054 0.15260677
000020 1f ec e7 bd c9 34 e4 bb 4e 9b 0d 3e 6e 8f 93 3c
       -0.113243334 -0.0069643003 0.13828775 0.018012729
000030 7a f5 49 3e 6f 8a 75 3e 44 44 7c 3e 11 7a 1f 3d
       0.19722548 0.2397859 0.24635416 0.03893477
000040 72 4d 53 bc 03 28 6a 3e 1c 5c fb 3d 05 93 91 3c
       -0.012896882 0.22866826 0.12273428 0.0177703
000050 b0 f5 82 bc 72 37 df 3d 82 4e 8e be c8 60 37 3d
       -0.015986294 0.10899247 -0.27794272 0.044770032
000060 0b 11 f5 bb 25 eb fd bd 2f 1e 0c 3e de a2 38 3e
       -0.0074788383 -0.12398366 0.13683389 0.18030879
000070 f8 fc 03 3e 5f 7c 0d 3e 81 0d 15 3c 4e db 32 3e
       0.12889469 0.13816975 0.009097458 0.1746647
000080 f8 98 56 bd 7c 02 8a 3d 8a 3e 19 3e 20 73 a6 3d
       -0.052391976 0.06738755 0.14965263 0.08127427
000090 df 54 3f 3e f5 96 e4 3b 66 f6 69 3d e3 6b d7 3d
       0.1868472 0.0069760033 0.05711975 0.10518625
0000a0 c3 0e d7 bd 14 ed 92 3d fc ca 58 be 7c 33 48 bd
       -0.105008624 0.07174125 -0.21171182 -0.048877224
0000b0 d8 8f c2 bb fc 6f 10 3e 85 a1 d2 3c d5 32 31 3e
       -0.0059375577 0.14105219 0.025711784 0.17304547
0000c0 69 9b 6c 3e 38 83 59 3e 0b 0f 45 3d 65 e9 2d 3e
       0.2310616 0.21241462 0.04811005 0.16983564
0000d0 15 6b 05 3e d3 69 1d 3e f1 78 3c 3e e2 be 43 3e
       0.1302913 0.153724 0.1840551 0.19115785
0000e0 7e f5 48 3e a1 c3 1d 3e 97 23 18 be 04 59 c9 bd
       0.19624898 0.15406658 -0.14857326 -0.098314315
0000f0 28 6e 4b 3e da 1d ae 3d aa d0 17 3d 1d ff ec 3d
       0.1986624 0.085017875 0.037064232 0.115720965
000100 0f 15 09 3d 30 30 ca 3d 57 c8 17 3e 83 f3 e6 3d
       0.03346735 0.09872472 0.14822517 0.11276915
000110 38 fc d5 bd 77 7c 5e bc e5 47 1e 3e 0a e7 df 3c
       -0.104484975 -0.013579479 0.15457113 0.027331848
000120 7a 91 27 be 41 73 72 3d 69 03 35 3d 90 08 0b be
       -0.16364089 0.059191946 0.044192705 -0.13577485
000130 c8 1b 2a 3d 6f df dc 3d 14 cc e4 bc 91 87 d6 3d
       0.0415304 0.10784804 -0.027929343 0.10475076
000140 50 39 96 3c 8a 5e 9f 3b a8 73 14 bd 48 c1 9f 3d
       0.018337876 0.004863565 -0.03624311 0.07800537
000150 43 10 ea 3d d0 9b 0b 3e a4 08 11 3e 97 0d 61 3e
       0.11428883 0.13633657 0.14163452 0.2197784
000160 e0 e1 d1 3d 56 44 85 3e 0c 87 37 bc df e3 12 3e
       0.1024816 0.260287 -0.011201631 0.14344738
000170 fd 1c fb bd c4 6d 58 be 23 22 97 3d b6 72 72 3e
       -0.122613885 -0.21135622 0.07379558 0.23676571
000180 d6 97 01 bd 4b 0a cb bb c5 3d aa 3d dd 8a 2b 3e
       -0.031638943 -0.0061962954 0.08312563 0.16752191
000190 04 33 62 be 75 70 20 be 64 09 73 be f3 9f 5e be
       -0.22089773 -0.15667899 -0.23734051 -0.21740703
0001a0 58 2f e2 3d 8b 51 8c bd b7 36 2e 3d 1c 06 aa bd
       0.11044186 -0.068514906 0.04253265 -0.083019465
0001b0 3f 3f b2 3d cd 5d e3 3d 59 ef 43 3e ca 7d 07 3c
       0.087034695 0.111018755 0.19134273 0.008269737
0001c0 03 44 0b 3e be d4 6b be 58 ba 65 be be b4 8f bd
       0.13600163 -0.23030373 -0.22434366 -0.07016896
0001d0 e5 09 60 be 85 d5 53 3e 7a ca 77 3e 46 39 51 be
       -0.21878774 0.2068692 0.24198332 -0.20432004
0001e0 72 fa 39 3e 55 9f 76 bd a5 37 32 be 40 58 10 3e
       0.18161944 -0.060210545 -0.17404039 0.14096165
0001f0 d8 ec 46 be da 54 ec 3d fb 81 37 bb db 39 c6 3d
       -0.19426286 0.11539622 -0.0028001058 0.09679004
000200 a6 75 db bd c5 1b af bc 4f f3 13 3e 20 5f 37 be
       -0.10715799 -0.021375546 0.14448284 -0.17907381
000210 a1 e5 3d 3d 96 d3 2a 3c 44 91 33 3e cb b0 a6 bc
       0.04636157 0.010426423 0.17535883 -0.020347973
000220 11 3c 11 be 78 7d 28 be 24 e6 32 be f2 91 8d 3e
       -0.1418307 -0.16454113 -0.17470604 0.2765041
000230 4a 56 31 be 72 a6 2e be 45 56 cf 3c 5d a5 00 be
       -0.17318073 -0.17055681 0.025309691 -0.12563081
000240 ce 1b 22 3e 01 65 34 3e e9 04 2c 3b 69 92 3e 3e
       0.15830919 0.17616655 0.0026248044 0.18610539
000250 17 7c 31 3e 58 54 e0 bd f9 a5 dc 3d 63 8b 47 3d
       0.17332493 -0.10953587 0.10773844 0.048716914
000260 ba e8 6c 3e 40 27 d7 3c 42 90 b7 3d 60 72 35 3e
       0.23135653 0.026263833 0.08963062 0.17719412
000270 6b 16 72 3e 52 b8 10 3d 4a 53 41 bd 88 f4 01 3c
       0.23641364 0.03533203 -0.04719857 0.007931836
000280 5a b5 0a 3e 38 17 29 bd 3b 76 54 3e 4b 7b 59 3e
       0.13545743 -0.04128191 0.20748226 0.21238439
000290 b9 28 37 3d 2c f2 4e 3e 2c e3 39 3e 7b bf 94 3d
       0.04471657 0.20209569 0.18153065 0.072630845
0002a0 62 0a a1 bd 21 2e 65 be 8b 9f 1f 3e ec 08 0e 3e
       -0.078633085 -0.22380878 0.15588205 0.13870591
0002b0 5c 76 cc bd c7 73 84 3d 45 db 39 3e b9 94 19 3e
       -0.09983513 0.06467395 0.18150051 0.1499814
0002c0 01 09 a7 b9 32 4b 5d 3e 0e 39 32 3e 49 95 ec 3c
       -0.0003185943 0.21610716 0.17404577 0.028879778
0002d0 90 2c 2e bd d4 8c 47 3e 31 0f d7 bd c0 14 63 3e
       -0.042522967 0.19487315 -0.105009444 0.22175884
0002e0 0a 9a 6d 3d d0 42 cb 3c ba a4 1b 3e da 0c 75 3e
       0.05800823 0.024812132 0.15199557 0.23930684
0002f0 3a fe 61 3e 62 8b 7b 3e a0 58 70 bc ee 63 a7 bb
       0.22069636 0.24564889 -0.014669567 -0.005108348
000300 81 11 81 bd 63 84 53 bd 7c 0c 6a 3e 4e a2 05 3e
       -0.06302167 -0.051639926 0.22856325 0.13050196
000310 b5 b7 02 3e 84 77 8b 3e fc 6c bc 3d 51 bf 80 3d
       0.12765391 0.2723962 0.092004746 0.06286491

lstm1.weight_hh_l0 f4 [200, 50]
000000 79 a7 df 3b 7c 75 d7 bc b7 ca 2a bd e2 2b 64 3d
       0.006825384 -0.026301138 -0.04169723 0.055705912
000010 28 b2 ec 3d 4c 31 6c 3d 59 b6 76 bd 01 c8 44 bd
       0.11557418 0.0576642 -0.060232494 -0.0480423
000020 18 e9 d7 3d 11 41 d8 3d 43 16 46 3c 11 d1 be bb
       0.10542506 0.105592854 0.012090269 -0.0058232625
000030 47 3c 29 3e c1 e1 b2 bd 7f fd 9b 3d dc 77 c5 bd
       0.165269 -0.087344654 0.0761671 -0.09642002
000040 2a 28 be bd d7 2c 9f 3d 02 f5 d7 3d 61 a4 cf bb
       -0.092850044 0.077722244 0.105447784 -0.006336734
000050 92 7b a4 bd 7f ba a8 3d a2 01 54 bd 16 ce b4 3d
       -0.08031382 0.08238696 -0.05175937 0.0882837
000060 89 26 06 bd 00 bf eb bc 37 86 29 3e d0 2a a6 3b
       -0.032751594 -0.0287776 0.16555105 0.0050710216
000070 5a 92 29 be 9c 13 80 3d 06 e3 65 bd 70 91 87 bd
       -0.16559735 0.0625374 -0.05612471 -0.06619537
000080 29 f8 62 3d 3b 17 1b 3e a9 72 24 3e 5b ee 04 3b
       0.055412445 0.1514558 0.16059364 0.0020283672
000090 4c 09 e7 bc 0d 99 a6 bd da ec dd bd 95 49 5e bd
       -0.028202675 -0.08134661 -0.108361915 -0.054269392
0000a0 3c c9 51 3d 33 b5 c4 bd c1 04 07 bc 69 b9 8c 3c
       0.051217303 -0.096048735 -0.0082408795 0.017178254
0000b0 2f f2 d6 3d a1 86 1b 3e 0c 02 c3 bc 60 47 ee 3b
       0.104954116 0.15188076 -0.023804687 0.007271692
0000c0 92 73 79 bd 0a e3 23 be cc 4e a7 bd e0 8f a6 3c
       -0.060901232 -0.16004577 -0.08169326 0.020332277
0000d0 50 bb 1c be d5 93 35 bd 48 53 92 3d d5 c1 f9 3b
       -0.15305829 -0.044330437 0.07144791 0.0076219835
0000e0 c6 b9 b3 ba 72 07 0c be 9d 51 6c 3d 0b ca e3 3c
       -0.0013711981 -0.13674715 0.05769502 0.027806303
0000f0 33 a4 d9 bd 20 5f d6 3d 67 e2 11 3e e4 40 d0 bd
       -0.10627022 0.104673624 0.14246522 -0.10168627
000100 ac 29 60 3d 32 78 00 be 79 21 28 bd 32 d6 95 3d
       0.05472724 -0.12545851 -0.041047547 0.07316245
000110 43 cb de bd 38 ee 47 3c fd 39 d6 bd b1 f8 d9 bd
       -0.10878613 0.012202792 -0.10460279 -0.10643137
000120 82 41 65 bd 0f f6 cb 3d 14 21 b5 bd cc dc 2c 3e
       -0.055970676 0.09959041 -0.088442 0.16881102
000130 1d dc 3e bd 6a dd f5 3d e2 63 14 be 39 74 bd bd
       -0.046596635 0.12005122 -0.14491227 -0.09250683
000140 2b 6f e5 3d 17 4a bb bd 94 09 80 bd a8 85 51 bd
       0.11202844 -0.09144991 -0.06251827 -0.051152855
000150 b8 90 2a 3e 70 61 d1 bd 04 f0 c0 bd 58 bc 65 bd
       0.16656768 -0.10223663 -0.09420779 -0.05608782
000160 19 a7 8d 3d 72 af a8 bd a2 98 66 3d 34 d0 03 be
       0.06916637 -0.082365885 0.056297906 -0.12872392
000170 7e 6f b1 3c e0 32 00 3e e8 c6 99 3d bf 52 31 bd
       0.021659609 0.12519407 0.075086415 -0.043291803
000180 ba 12 89 bd 09 12 8c bc 47 d5 67 3d 27 a1 07 bd
       -0.06693025 -0.017098444 0.05659988 -0.03311267
000190 17 e9 1b be 4e b1 f3 bd 41 90 ec 3d 6d db 0f bd
       -0.15225635 -0.118990526 0.11550952 -0.03512137
0001a0 ba 52 a3 3d ff 33 f2 3d 32 18 5a bd 6b 3c b0 3d
       0.07974763 0.11826324 -0.05324573 0.08605274
0001b0 fe 96 41 bd 5a 91 0c be 4f 63 e7 3c 38 15 f5 3d
       -0.047263138 -0.13727322 0.028245596 0.11966938
0001c0 9a 71 98 bd 5c 1c b1 3d 6b ac f0 bd 7a a0 9c bd
       -0.07443543 0.08647987 -0.11751636 -0.07647796
0001d0 fe db cb ba ef 15 57 bc 96 cb c9 bd 55 c3 47 bd
       -0.0015553234 -0.013127788 -0.09853284 -0.048770268
0001e0 16 c5 01 3e ee a0 d1 bd ba c7 9c bd 2d 4a 1c bd
       0.12672839 -0.10235773 -0.07655282 -0.038156677
0001f0 fa 28 d1 bd d0 51 47 3e 83 f7 33 3d de cc 83 3b
       -0.10212894 0.19464803 0.043937217 0.004022225
000200 9b d4 15 be 96 27 62 bc 0f a6 0f 3e 25 df c0 bd
       -0.14631884 -0.013803383 0.1402819 -0.094175614
000210 0d e6 00 3e 8e e1 c1 3c 52 c1 99 bd cc 8c 20 3e
       0.12587757 0.023667123 -0.07507576 0.1567871
000220 db 30 84 bd 23 07 c3 3d 5a 63 c9 bc 10 cd 26 3d
       -0.06454631 0.095228456 -0.024583507 0.040722907
000230 7b b9 b4 b8 e2 ef 0e bd 7e 7b a5 bd 18 3d 2b 3d
       -8.617617e-05 -0.03489674 -0.08080195 0.04180631
000240 9f 6e da 3c 16 46 bf 3d fb 79 0d 3d 24 26 1c 3d
       0.026664076 0.0933954 0.034540158 0.03812231
000250 45 f1 1b 3e 57 e4 28 be 9e 4c 87 3d 7b a9 62 3c
       0.15228756 -0.16493355 0.066064104 0.013834353
000260 aa 2a 1e be 2d f2 34 3c 72 60 9d 3d 43 93 aa 3d
       -0.15445963 0.011044067 0.07684411 0.08328869
000270 6e f3 c9 3d 45 4e 99 bd 6f 3a da 3d 44 b0 ee 3d
       0.09860884 -0.07485632 0.106556766 0.11654714
000280 90 39 35 3d 63 30 1d 3c f8 34 6f 3d 21 48 ce bd
       0.04424435 0.009594056 0.058400124 -0.10072351
000290 b6 95 3c bc a2 62 2f 3d 13 33 2d be f2 ec b5 3d
       -0.011510303 0.042818673 -0.16914015 0.08883084
0002a0 1d a4 04 3d d2 2e cc 3c aa 61 aa 3d e8 83 29 be
       0.032383073 0.02492467 0.08319409 -0.16554224
0002b0 9c 39 90 bd 40 b6 fe 3d 17 13 45 3d f0 63 6a 3d
       -0.07042238 0.12437105 0.04811391 0.057224214
0002c0 57 4c 8f 3c 8c 84 0b 3e 0b f7 2c be dc 6f 18 3e
       0.017492456 0.13624781 -0.16891114 0.14886421
0002d0 51 38 cf bd 9a b6 9c bd 3a a7 c0 3d 1a f2 92 3d
       -0.101181634 -0.07652016 0.09406896 0.071750835
0002e0 16 f5 20 bd b0 35 a3 bd 17 06 57 bd 23 7f 1a be
       -0.039296232 -0.079692245 -0.052496042 -0.15087561
0002f0 99 03 05 bd 3f 7b 35 bd a4 9a 4b 3d 8d b4 ba bd
       -0.032474134 -0.04430699 0.049708024 -0.091164686
000300 dd 2c 89 bd 4c 05 05 3e f4 79 e0 3d 4b c7 1b 3e
       -0.0669801 0.12990302 0.10960761 0.15212743
000310 32 6e 1c 3c c7 65 41 3d 18 fc 0f 3e 59 5d 92 3d
       0.009547757 0.047216203 0.1406101 0.07146711
000320 4f 0b 2f bc 71 28 02 be 9b c2 83 3d f3 a7 a2 bd
       -0.0106838485 -0.1271074 0.064336024 -0.0794219
000330 00 89 c7 bd 3d 78 8f bc 89 90 84 3d e4 d2 1c be
       -0.097429276 -0.017513389 0.064728804 -0.15314823
000340 fb 2e 2d 3d dd ba 21 3d e5 2c b5 3d ba ed ff 3d
       0.042281132 0.039484847 0.088464536 0.124965146
000350 1c 96 3d 3d 48 ca 02 bd fc 7a b4 bd ed 78 52 3d
       0.046285734 -0.03193119 -0.0881252 0.051384855
000360 0f da f3 bd 8d aa ff bd 29 02 0a be 28 c8 4c bd
       -0.11906826 -0.12483702 -0.13477387 -0.04999557
000370 83 8c 8f 3d 99 2c a4 bd ab f8 20 be 9d 83 fe 3d
       0.07009222 -0.08016319 -0.1571986 0.12427447
000380 f1 b2 4b bd a6 20 13 3e 86 ce 0f 3d 0c 96 18 3d
       -0.0497312 0.14367923 0.035109065 0.03725247
000390 0c 3a c4 bd d3 2d b3 3c d4 f8 66 bc bc 66 9c bd
       -0.09581384 0.021872437 -0.014097411 -0.076367825
0003a0 66 fe d5 bd 0a be 1a bc 19 a7 10 bd da cb 8b 3d
       -0.10448913 -0.009444723 -0.035315607 0.06825991
0003b0 8e c5 6f 3d c8 43 b6 bd 43 6f 23 be cf bf 1d 3e
       0.058538012 -0.08899647 -0.15960412 0.154052
0003c0 ec 63 16 3d 62 df 36 bd ac b8 74 3d 3f c0 84 3d
       0.036716387 -0.04464663 0.05974643 0.064819805
0003d0 26 77 6f 3c 80 d5 98 bd 3e ce 9c 3d d2 69 6f 3d
       0.01461581 -0.07462597 0.07656525 0.058450527
0003e0 d6 cf b1 3d a8 19 b5 3d 32 fb a6 3d 2f 92 2d be
       0.0868222 0.08842784 0.081533805 -0.16950296
0003f0 46 9f 3a be 61 6e be 3c 24 ec 3d 3d 95 5e 53 3d
       -0.1822482 0.023245992 0.04636778 0.051603872

lstm1.bias_ih_l0 f4 [200]
000000 8c 57 33 3e b5 0e c3 bd dc d2 dc 3b dc 54 cb bd
       0.17513865 -0.095242895 0.0067390036 -0.09928295
000010 d2 06 58 bd e4 51 a6 bd 49 49 d5 bd bc fd cb bd
       -0.05274088 -0.08121088 -0.10414369 -0.09960505
000020 d5 dd 80 bd bc e1 fd 3b 50 2e 11 3e eb 94 1c 3d
       -0.06292311 0.007747857 0.14177823 0.038227957
000030 16 fa 85 bd 5d 3c 87 3c 29 7d e7 3d 56 19 d9 bd
       -0.06541841 0.016508276 0.11303169 -0.106005356
000040 cb c0 75 3d 32 0e ef 3d 5f 6d 85 bc f2 72 4c 3d
       0.059998315 0.116726294 -0.016287504 0.049914308
000050 08 db 3d 3d 98 73 30 3b 4e c0 27 bd 66 25 9d bd
       0.046351463 0.0026924368 -0.04095488 -0.07673149
000060 5c c6 95 bc 21 27 11 3e d4 9c 4e bd 77 31 a7 bd
       -0.018283062 0.14175083 -0.05044253 -0.081637315
000070 eb 45 ca bd b8 cf 18 3d e1 75 ac bd 9d 1c 30 3e
       -0.09876617 0.03730747 -0.08420921 0.17198415
000080 11 09 c4 3d 12 e4 f9 3c 8a e8 17 3e c4 37 9a 3d
       0.09572042 0.03050426 0.148348 0.07530168
000090 6c 94 4e 3d 64 67 35 3d 6e 12 24 3d 95 0c eb 3b
       0.050434515 0.044288054 0.04005664 0.0071731308
0000a0 53 d7 16 3e db 6e ef 3c 1a e1 80 bd 33 c0 b0 bd
       0.14730577 0.029227665 -0.06292935 -0.08630409
0000b0 b1 bb a9 3c 74 ba 28 3e ca 3b 0f 3e 26 06 3b bd
       0.020719381 0.16477376 0.13987651 -0.04566016
0000c0 df f4 67 3c ed 58 c6 3d 07 99 2d bb d3 47 b3 ba
       0.014157503 0.0968493 -0.0026488916 -0.0013678021
0000d0 df 77 0e 3e 2c 6f f1 bd 44 a4 30 3d 01 4d aa bd
       0.13912915 -0.117887825 0.043125406 -0.083154686
0000e0 d5 48 48 bd 15 a0 d0 3d 0f 3a b8 bd d2 bd c4 bd
       -0.048897583 0.10186783 -0.08995449 -0.09606518
0000f0 3d 5e cb 3d 7c c1 c5 bd de ea 17 3e b9 ab 5e bc
       0.09930084 -0.09656045 0.14835688 -0.013590747
000100 b4 4c 8d 3d 6c 49 f9 bd 9f 58 17 3e c9 67 cd bd
       0.068993956 -0.12172207 0.147799 -0.10029561
000110 d6 55 f2 3a 6c bd e7 bd 2b ed ff b9 84 79 80 3d
       0.0018488716 -0.11315426 -0.00048814094 0.06273177
000120 a5 ba c9 3d f3 48 c0 bd 10 63 32 3d c0 61 32 3d
       0.09850053 -0.09388914 0.043551505 0.043550253
000130 c0 d1 31 3d eb dc de 3d 88 9e fa 3d 93 5a 8f 3d
       0.043412924 0.108819805 0.12237269 0.069996975
000140 15 5c f2 bd ac 4f 0e 3d 4c d4 db 3d 9b 64 b1 bb
       -0.118339695 0.03474395 0.10733852 -0.0054136044
000150 73 e5 19 3d ca a2 29 3b 0c 41 fc 3d d0 df 94 3d
       0.037572335 0.0025884383 0.12317094 0.07269251
000160 17 57 c4 3d fd 2f 82 3d b2 eb 0c be 25 8d 01 3e
       0.095869236 0.06356809 -0.13761786 0.12651499
000170 54 62 d3 bd d5 87 a7 bd 54 fb f7 3d 2c 0a 5f bd
       -0.10321489 -0.08180205 0.12108484 -0.05445306
000180 af 1c 5b bd 4c e9 f8 bc 1f 0d 01 3e 3b 80 68 bc
       -0.05349415 -0.030384682 0.12602662 -0.014190729
000190 c6 e4 c4 bd 45 e4 5a 3c c4 f0 0d bd 45 c9 f4 bd
       -0.096139476 0.013360088 -0.03465344 -0.119524516
0001a0 bd dd 7e bd d6 1c 40 3d 0f 20 16 be b1 97 8a bd
       -0.062223185 0.0469025 -0.14660667 -0.06767214
0001b0 42 63 a3 3d da 3f 74 bd a0 e8 e1 3d 4b 39 13 3e
       0.07977916 -0.059631206 0.11030698 0.14377324
0001c0 70 69 0e 3e 5f b3 a9 bd 8e 3c 00 be 8b e9 e4 bd
       0.13907409 -0.082861654 -0.125231 -0.11177357
0001d0 fa 57 d0 3d d4 03 2e 3d 69 42 d9 bd 52 97 c7 3d
       0.1017303 0.04248412 -0.1060837 0.09745659
0001e0 92 d0 d9 3d b3 6c 8c bd 4c 1e 98 bd c6 b6 08 3e
       0.10635485 -0.0685667 -0.07427654 0.13350973
0001f0 de 8d aa bd 25 fd 59 3d 90 e3 0b 3e 7b d0 ed 3d
       -0.0832784 0.053219933 0.13661027 0.1161203
000200 04 49 86 bd ab 61 99 3d 88 11 9f bd 87 22 18 bd
       -0.065568954 0.07489332 -0.07767016 -0.037142303
000210 ef 70 b2 3d 32 53 e6 3d 26 c2 94 bd ae bc 91 3d
       0.087129466 0.11246337 -0.072635934 0.07116066
000220 99 2a 6d 3b b9 c5 a6 bd 00 82 da bd 0f 4c 39 3d
       0.003618872 -0.08143181 -0.10669327 0.04523855
000230 f6 16 0b 3e 24 84 f0 bd 61 5e d0 bd b5 9e 54 bd
       0.13582978 -0.11743954 -0.10174251 -0.051909167
000240 a7 5b cd 3c e9 5c 15 3e fb b4 0e be 4e 91 66 3d
       0.025068117 0.14586224 -0.13936226 0.056290917
000250 13 a2 b7 3b d9 ed 03 be b4 7c e6 3d b6 a4 f0 3d
       0.0056040375 -0.128837 0.11254254 0.11750166
000260 e7 c5 4c 3d 69 8e ae 3d 6f 3b 88 3d 50 1a 02 3e
       0.049993422 0.08523256 0.06651961 0.1270535
000270 28 53 22 bb d0 40 e6 bd d9 fa 51 bd 82 47 11 3d
       -0.0024768803 -0.11242831 -0.051264618 0.035468586
000280 57 55 b2 bc cf 10 29 3d 9f 9a 90 bc 04 bf cc bd
       -0.021769209 0.041275796 -0.017651854 -0.09997371
000290 72 82 59 3d 4a 4f 05 be 31 e7 ea 3c 61 fc e1 3d
       0.053102918 -0.13018528 0.028674694 0.110344656
0002a0 28 7f 46 3e 1c bf c7 3d e2 76 0f 3e 4d e8 14 bd
       0.19384444 0.09753248 0.14010194 -0.03635435
0002b0 cd 41 2d 3e 5b e2 c6 bd ac 99 27 bd 85 f4 ba bc
       0.16919632 -0.09711143 -0.040918037 -0.022821674
0002c0 70 53 c6 bc 26 53 b4 3d 5a bb a3 bd 8b 96 bc bd
       -0.024209708 0.08804922 -0.07994719 -0.09208401
0002d0 55 7a 9b 3d 7d 5a 1a 3d d5 74 63 bc 1a 84 45 bd
       0.07591692 0.037683953 -0.013882835 -0.048221685
0002e0 7f c3 83 3d 01 a0 84 3d 71 24 bc 3c 41 e6 a5 3d
       0.06433772 0.06475831 0.022966595 0.08100558
0002f0 d2 46 60 bd 08 5c 3c 3e 40 80 d4 38 a1 17 09 3d
       -0.05475504 0.18394482 0.00010132836 0.0334698
000300 73 37 8a bc 5e ab 24 3c 9f 15 7a bb 79 6f 2a 3e
       -0.016872143 0.010050623 -0.003815986 0.16644086
000310 1a d8 07 be af e6 b2 3d 24 b4 55 bd a1 67 ef 3d
       -0.1326603 0.08735406 -0.05217375 0.116896875

lstm1.bias_hh_l0 f4 [200]
000000 49 94 6e bd cb a2 14 3e 54 ab 59 bc b8 58 a3 bd
       -0.058246884 0.14515226 -0.013285477 -0.07975906
000010 dc 8a f6 3d 58 c1 7a bd 0c 3c f4 bc 62 be 28 3c
       0.12038204 -0.061219543 -0.029813789 0.010299297
000020 b2 5f 72 bb 54 42 d4 bc b3 b6 3a 3b 7e ca d3 bc
       -0.0036983308 -0.025910534 0.0028490245 -0.025853392
000030 fc 13 0d bc 5b 28 8c bd 8f b3 d3 3d 97 a2 90 3b
       -0.008610722 -0.06843635 0.103369825 0.0044139135
000040 d8 15 af 3d a7 72 fa 3b 33 90 ad bc eb 64 8e bd
       0.08549088 0.007643062 -0.021186924 -0.06952842
000050 30 e8 3f bd e5 1e 3f bd 46 8d 37 3d 72 91 fd 3d
       -0.04685229 -0.046660323 0.044812463 0.12381257
000060 7f df 0d 3d 35 1b 05 3e 3e 6e 54 3b 25 95 6f 3d
       0.03463697 0.1299866 0.0032414342 0.058491845
000070 ab 9a 17 3e fe 68 94 bd 55 93 4e 3d 5e 61 67 bd
       0.14805095 -0.07246588 0.050433476 -0.05648934
000080 2f 94 a4 bd 77 d2 ad bd 82 ee 8e 3d 2a 3b ea 3d
       -0.08036076 -0.084874086 0.069790855 0.11437066
000090 68 45 9a bd 66 ba 19 3e 94 45 00 bd 84 1b 24 3e
       -0.075327694 0.15012512 -0.031316355 0.16026121
0000a0 4f 20 b2 3d fe 9e 1e 3c 1f 13 54 bd e7 bc ec bd
       0.086975686 0.009681461 -0.051776048 -0.11559468
0000b0 31 da 25 3e b4 a0 c0 3d 53 4d f1 3d 71 9d d6 3c
       0.16196515 0.09405652 0.117823265 0.02619812
0000c0 27 1d f3 3d e3 71 f1 3d 3f 22 16 3e 09 d4 4d bd
       0.11870795 0.117893 0.14661501 -0.05025104
0000d0 f2 f3 d8 3c 78 d7 f4 bc 6e 3a ee 3c f9 4c 41 bd
       0.02648351 -0.0298879 0.029080596 -0.047192547
0000e0 b9 50 a3 3d bf c6 b7 bd c0 1d 02 be be 38 e4 bd
       0.07974381 -0.08973455 -0.12706661 -0.11143635
0000f0 1b 73 85 bd c2 34 6e 3c 92 e3 63 3d 37 b5 0d 3e
       -0.06516095 0.014538946 0.05563695 0.13838659
000100 8e 32 c0 3d c4 a8 14 bc f6 f6 aa bd 4b 7b 5c bd
       0.093846425 -0.00907344 -0.08347885 -0.05382852
000110 41 45 fc 3d 0f b2 c9 3c ad 3a 4e bd 3a 15 eb 3d
       0.12317897 0.024621038 -0.050348926 0.11478658
000120 9c 6d 21 3e ef 3f a7 3d 16 b8 81 bb b3 f5 a8 3c
       0.15764469 0.08166491 -0.0039587123 0.020624971
000130 18 45 19 3e d5 32 b7 bc 09 e2 28 bd 38 d2 32 3d
       0.14967763 -0.022363106 -0.04123119 0.04365751
000140 40 db 20 be 8b 7c d7 bd 31 be 37 bd f8 41 70 3d
       -0.15708637 -0.105218016 -0.044859115 0.058656663
000150 31 52 5f 3d f0 ca 18 bd 09 d3 02 bd a4 42 aa 3d
       0.054521743 -0.03730291 -0.03193954 0.08313492
000160 ef ad f7 bd 13 d4 37 3e 8c 96 e8 3d 34 78 15 3c
       -0.12093722 0.17951994 0.113568395 0.009122897
000170 48 88 cb bd 5b 5d 42 3d 8c f2 32 bd 39 df c3 3c
       -0.09938103 0.047452312 -0.043688342 0.023910152
000180 a5 7f 78 bd ea 00 eb 3b de 21 9b 3a f5 36 92 bd
       -0.060668606 0.00717174 0.0011835655 -0.071393885
000190 e0 75 a1 bd 80 3a ca bd b8 77 ec bb 9b d5 04 3d
       -0.07883811 -0.09874439 -0.00721642 0.032430273
0001a0 07 42 ac 3d 7d 24 8b 3d 8f d6 89 3d c5 ab d6 bc
       0.08411031 0.06794069 0.06730377 -0.026204953
0001b0 6d 0c 39 3d 0e 5e 7c 3d 54 72 d0 3d bb 18 a8 bd
       0.045177866 0.061613135 0.10178056 -0.08207842
0001c0 03 6e 81 3d 9d 6a 43 bd a5 19 a5 bc c6 84 1e bd
       0.06319811 -0.047709096 -0.02015383 -0.03870084
0001d0 55 dd ee bc 8a f8 5d bd 3b d9 bf bd 36 1b 84 3d
       -0.029158274 -0.054192103 -0.09367605 0.064505026
0001e0 95 37 08 3d aa 02 22 bd 0f 9a 12 3e fc 65 0a bd
       0.033256132 -0.039553322 0.14316581 -0.033788666
0001f0 18 07 a4 bd fe 46 cc 3d 00 05 99 3d eb c9 c5 3d
       -0.080091655 0.09974478 0.07471657 0.096576534
000200 0e b8 ae bc 8d a9 00 3e 4b f9 0e bd 29 8e c9 3d
       -0.021327998 0.12564678 -0.034905713 0.09841568
000210 9b 6c 48 3d 4d 19 22 3d 10 19 d5 3d c5 cb 1d 3e
       0.0489317 0.03957491 0.10405171 0.15409763
000220 0d b9 30 bd c2 e8 81 bc 15 2f ea bd 6b ae e5 bd
       -0.04314523 -0.015858058 -0.114347614 -0.11214908
000230 bc 7a 08 bd c6 24 9b 3d ff 32 05 3d 6f 92 e9 3d
       -0.033320174 0.07575373 0.032519337 0.11404883
000240 5b 40 4a bd ab 5e 8d bd ce 4f b7 3d 61 d8 b2 bd
       -0.04937778 -0.06902822 0.089507684 -0.08732677
000250 37 0b a5 3d a7 51 62 bd 46 08 af 3d e6 fd b8 3c
       0.0805878 -0.05525365 0.085465 0.022582006
000260 d1 22 11 3e d1 a8 3a bd 16 ed a1 bd a2 94 16 3e
       0.14173438 -0.045571152 -0.07906549 0.14705136
000270 54 0f 6f bd 7e 8c a9 bd b5 98 bd 3d bb 8b ce 3d
       -0.058364227 -0.0827875 0.09257642 0.10085245
000280 b7 35 b5 bc cb ec 14 3d 62 fd 44 bd b7 97 22 3e
       -0.02212034 0.036358636 -0.048093207 0.15878187
000290 df 5a 24 3e 2c 2e f4 bc 9f fe 9e 3d 3c d6 c6 bd
       0.1605029 -0.029807173 0.07763409 -0.09708831
0002a0 47 58 b0 3d 39 4d 48 3e 12 c9 44 bc 76 41 a5 3d
       0.086105876 0.19560708 -0.0120108295 0.08069126
0002b0 18 0c 82 3d 99 87 ae 3d fa cf ae 3c a1 8c df 3c
       0.06349963 0.08521957 0.021339405 0.027288737
0002c0 88 0b 1d 3e 04 b8 8c 3d b2 cb 7b bd 51 7a 81 bd
       0.1533643 0.06871036 -0.061473556 -0.06322158
0002d0 93 0d ce 3d 85 2c cb 3d 10 e5 3c bd 92 46 9e bd
       0.10061183 0.09920601 -0.04611689 -0.07728304
0002e0 81 cf e9 3d dc 88 95 3d 55 3d 63 3d b5 6b df 3d
       0.11416531 0.073014945 0.055478413 0.10909215
0002f0 8c ca 47 3d b7 36 98 bd b7 98 82 bd 7c e0 fa 3d
       0.048777148 -0.07432311 -0.06376784 0.12249848
000300 bd 78 a0 3c ee ef ab bd 8c 90 0a 3e c7 80 af bd
       0.019588822 -0.08395372 0.13531703 -0.08569484
000310 13 fa a1 bd d1 12 ab bd 1a df 54 3d b7 03 80 bc
       -0.07909026 -0.08353198 0.05197058 -0.015626771

lstm2.weight_ih_l0 f4 [200, 50]
000000 b6 3c 1a bd 8b c7 0c 3d ab 8c 13 3d 7f 52 b1 bd
       -0.037655555 0.034369987 0.036022823 -0.08658313
000010 cc c1 ab bd 1f 32 e9 3d ff ad a3 bc b0 22 04 be
       -0.08386573 0.11386513 -0.019980429 -0.12903857
000020 3a 67 f7 bd 53 e0 fb bd dd fa 12 bd aa 00 07 3e
       -0.12080236 -0.12298646 -0.035883773 0.13183847
000030 c9 19 b4 3d 05 9f 42 bd b3 99 cb bc 31 a2 14 3d
       0.08793981 -0.047514934 -0.024853563 0.03628749
000040 9c 66 b8 bd 1b 31 01 3d 43 a9 8c bc 48 2f 18 bd
       -0.09003946 0.03154097 -0.017170554 -0.037154466
000050 1e d9 01 be 28 fd d6 3d 3e ef 83 3e 40 a4 a2 bd
       -0.1268048 0.104975045 0.25768465 -0.079414845
000060 ce 01 65 bd 27 71 77 3b ce f0 75 bb 7a 99 e7 3c
       -0.055909924 0.0037756653 -0.0037527564 0.028271426
000070 ff ec ca bd 64 49 f7 3d 34 73 55 bd 25 55 ea bd
       -0.09908485 0.12074545 -0.05211182 -0.11442021
000080 33 73 37 3c 85 f4 b7 bd 83 04 04 3e 5d 7a 4b 3b
       0.011196899 -0.08982185 0.12892346 0.0031048276
000090 4e 47 01 3e 96 4a 5f 3d 47 e9 fb 3d 8d 97 b1 3d
       0.12624857 0.05451449 0.123003535 0.08671484
0000a0 26 cd 12 3e 84 ba 86 3c df 4c 90 bd 90 da 9a 3d
       0.1433607 0.01644636 -0.07045912 0.07561219
0000b0 90 94 e6 3c 97 98 b5 3d 84 e7 76 3d 24 14 bc 3d
       0.028147012 0.08866995 0.060279384 0.09183529
0000c0 55 4d ec bd 05 b2 a4 bd 2d 3f c7 bd 5c b0 ea ba
       -0.115381874 -0.08041767 -0.09728847 -0.0017905342
0000d0 4e b5 43 be 3a 7e 8f bd 61 3a af bd b1 63 6c bd
       -0.19112131 -0.07006498 -0.08556057 -0.05771226
0000e0 3c 14 80 3d 1b dc 18 be e2 bd 8d 3c b0 7a 8b bd
       0.062538594 -0.14927714 0.017302457 -0.0681051
0000f0 7a 1b 0e 3e 87 12 42 3d f3 fa d5 3c d5 3c a2 bd
       0.13877669 0.04738095 0.026120638 -0.07921759
000100 b1 5b 3f bd 1d f1 e6 bd c1 e6 2f bd 9c 0b d3 bc
       -0.046718303 -0.112764575 -0.042944673 -0.025762372
000110 06 1c 83 bd 92 75 0e be 70 7b 54 3d 41 14 40 bc
       -0.064018294 -0.13912037 0.05187553 -0.011723579
000120 67 2d c5 3b 95 05 d2 bd 94 df 52 3d f0 3a 43 39
       0.0060173753 -0.10254971 0.051482752 0.00018618605
000130 e8 7b 28 3d c8 22 90 bd fc 5c c7 bd 1f 40 13 3e
       0.04113379 -0.07037884 -0.09734532 0.14379929
000140 ca 50 1b 3e 69 9e 64 be 9f 1c 96 3d ae 2f 9c bc
       0.15167537 -0.22326054 0.07329678 -0.019065704
000150 f7 6e 96 3d 4a a0 be 3d 6f fc c9 bd ea 05 06 be
       0.073453836 0.093079165 -0.09862601 -0.13088194
000160 73 ee 88 bd 44 25 62 bd 58 1d c4 3d 50 0c 70 3d
       -0.066861056 -0.05521132 0.095759094 0.058605492
000170 e4 45 22 3e 2a 1d da 3d 42 94 3c 3e 12 56 23 3e
       0.15846974 0.10650094 0.18415931 0.15950802
000180 7f 08 4d bd 49 a1 1c 3e 00 cc 1f 3d 7f 75 29 bc
       -0.05005693 0.152959 0.03901291 -0.010342955
000190 27 82 8c 3c 63 26 b5 3c c2 eb 32 be f7 29 3f 3d
       0.017151905 0.02211303 -0.17472747 0.04667088
0001a0 6d 7a bd 3d 06 e3 73 bd c3 e5 bc 3c 9c fc 88 bc
       0.092518665 -0.05954268 0.023058778 -0.016722016
0001b0 a0 f8 a5 bd 08 e0 bc 3c b0 30 16 3e e2 41 bd 3d
       -0.08104062 0.023056045 0.1466701 0.09241082
0001c0 7b 05 88 bd 15 1e bd bd d7 83 d9 bd 2d 6d a6 bd
       -0.0664167 -0.09234253 -0.106208496 -0.081262924
0001d0 80 d4 7e 3d 62 27 24 3e 5e 78 93 bd 88 0f a9 bd
       0.062214375 0.16030648 -0.072006926 -0.082549155
0001e0 76 a9 3f bc 78 a7 da 3b 93 cd 20 3e ad 64 73 3d
       -0.0116981175 0.006672796 0.1570342 0.059422184
0001f0 7f cf d0 bd 6a 5b 8e 3d 82 9e 99 bd 00 47 05 bd
       -0.10195827 0.069510296 -0.07500936 -0.032538414
000200 1d 9c 82 3d 13 23 ca 3b 32 df 20 3e 45 df c9 bd
       0.063774325 0.006168732 0.15710142 -0.098570384
000210 6e db 7f 3d 50 bf 05 3e b9 c6 c5 bd cd 31 0f 3e
       0.062465124 0.13061261 -0.09657044 0.13983841
000220 5c a5 07 be b6 76 b8 3d 05 9e ce bd 81 ee 88 3b
       -0.13246673 0.09007017 -0.100887336 0.0041788225
000230 74 48 f1 3d 9d 4c 69 3d 34 c5 9e 3d 42 6e 9f 3d
       0.117813975 0.05695783 0.07752457 0.07784702
000240 3c cd 18 3e 0a d4 32 3e 77 21 8a 3d 50 d6 83 3d
       0.1492204 0.17463699 0.06744664 0.06437361
000250 be 4f eb 3d de 5c 24 3c 86 ad 9f bd fc 65 29 3d
       0.11489819 0.010031907 -0.07796769 0.041357026
000260 eb b1 8d bd e0 12 13 be f2 c3 88 3c 11 81 97 bd
       -0.06918701 -0.14362669 0.016694997 -0.07397664
000270 0f 76 06 be 37 12 43 3d a6 a5 de bd 7c ec 97 3d
       -0.13130973 0.047624793 -0.10871439 0.07418153
000280 66 b4 0b 3d 2c 3a 8f bc b8 d9 2f 3e cc 18 b9 bc
       0.03410759 -0.017483793 0.17172897 -0.022594832
000290 8d 88 90 3d b8 fe 35 3c 42 82 a7 ba 30 c8 b2 bb
       0.07057295 0.011108093 -0.0012779909 -0.005455993
0002a0 ab 7c 10 3d 9b 86 17 bc 53 c1 f8 3d d5 fd f1 bd
       0.035275143 -0.009248401 0.12146249 -0.11815993
0002b0 da 94 97 3d eb d9 8b bd de 3a 24 be 44 02 23 3e
       0.07401438 -0.06828674 -0.16038081 0.15918833
0002c0 fd f1 15 3d d5 a7 a1 3d 0e c1 c3 bd c3 cc 15 3e
       0.03660773 0.078933395 -0.09558307 0.14628892
0002d0 67 4e eb 3d 71 57 8e 3b 80 b0 34 3e 59 3e 14 3e
       0.114895634 0.00434392 0.17645454 0.14476909
0002e0 2f 39 c8 3d 2b 24 80 bc c4 6d 2a be 1c 73 d3 bd
       0.09776532 -0.015642246 -0.16643435 -0.1032469
0002f0 71 ac 46 3d 88 8d 10 3d 4c 8c 70 bd a0 0d 42 bd
       0.048504297 0.035291225 -0.058727548 -0.047376275
000300 8b 8b e5 bc b4 d8 ba 3d ef 9d 64 3c 78 a8 89 bc
       -0.02802064 0.09123364 0.01395367 -0.016803965
000310 46 f7 f3 bd e0 cf 2e 3d 95 4f df 3d 90 0a 7c 3c
       -0.11912398 0.042678714 0.10903851 0.015383378
000320 e9 12 2a be d1 31 a5 bd a6 bd af bd 1e ba f3 bd
       -0.16608776 -0.08066142 -0.085810944 -0.119007334
000330 f3 79 48 3e 50 fc 42 3d 55 9f 86 bd 31 14 85 bd
       0.1957777 0.047603905 -0.06573359 -0.06497992
000340 37 bc 81 bd 3c 3e 27 3e eb 76 11 bc ac 50 33 3d
       -0.06334727 0.16332334 -0.00887845 0.043778107
000350 cd 1f 17 3e 13 e6 06 3d 14 02 44 be c0 71 57 bd
       0.14758225 0.03293426 -0.19141418 -0.052598715
000360 dd dc 73 be e3 39 a9 bc d4 c1 0e 3e b3 60 9d bd
       -0.23814721 -0.020657485 0.13941127 -0.076844595
000370 d4 0f 49 3e 62 63 40 be 78 15 7a 3d 48 d5 5c bd
       0.19634944 -0.18787912 0.06105563 -0.05391434
000380 a3 20 27 be 4a 19 52 bd 50 13 a0 3c 47 82 29 3e
       -0.16321044 -0.05129365 0.019540459 0.16553603
000390 4d 34 cf bd 35 b8 ae 3d d1 5b bb bd 94 c4 8d bc
       -0.101173975 0.085312285 -0.09148372 -0.01730565
0003a0 0c ef 41 3d f2 20 45 bd b2 69 49 3e 65 6b 2c bd
       0.047347113 -0.048127122 0.19669226 -0.042094607
0003b0 49 94 31 be 09 44 4a be 7e b5 2f be 82 e9 38 bd
       -0.17341723 -0.19752516 -0.17159078 -0.045144565
0003c0 7a ad f5 bd 4e c2 90 3d 54 83 9c 3d 8a 15 1d be
       -0.11995979 0.07068311 0.07642236 -0.15340248
0003d0 e7 93 15 bc 0f 77 2f 3e 4b b3 06 3e de e3 a8 3d
       -0.009129501 0.17135261 0.13154332 0.08246587
0003e0 91 d8 ab 3d 72 45 24 be d6 24 bf bd 60 f9 28 3d
       0.08390916 -0.16042116 -0.09333198 0.041253448
0003f0 20 8c 37 be 46 c3 90 bd 4f 96 10 bd 3a a6 fe bd
       -0.17924547 -0.070684955 -0.035299595 -0.12434049

lstm2.weight_hh_l0 f4 [200, 50]
000000 a3 22 fa 3d e2 0a b9 bc 39 fe 97 bc b7 c5 bd bc
       0.12213638 -0.022588197 -0.01855384 -0.023165567
000010 a3 39 e7 bd 66 81 98 3c c6 30 26 3e d3 39 1a 3d
       -0.1129029 0.01861639 0.16229543 0.0376528
000020 29 cc ee 3b e9 71 bd bd d1 d1 74 bd e7 5b 08 bd
       0.0072875214 -0.09250242 -0.05977041 -0.03329077
000030 13 d8 fe bc 6a 4a 25 3e 21 7b 74 3d d3 c9 21 3e
       -0.031108892 0.16141668 0.059687737 0.15799646
000040 97 d1 1d be 14 ab fe 3d 08 5d a2 bd e3 11 ee 3d
       -0.15411983 0.12434974 -0.079279006 0.11624505
000050 0e 6e ee 3d 46 8b 97 bd df e2 a9 bc 69 09 b7 bd
       0.11642085 -0.07399611 -0.020738063 -0.08937342
000060 6d 06 33 bc 7b ff e1 b9 1a dd 67 be f0 e2 57 3d
       -0.010926825 -0.00043105692 -0.22642937 0.05270666
000070 59 8b 3f 3c 8f cb 0c be 43 d1 de bd c2 77 90 bc
       0.011690938 -0.13749526 -0.10879757 -0.01763523
000080 22 49 39 3d 8f 60 10 bd 81 cc 4f 3c 2f e3 fa bc
       0.04523576 -0.035248335 0.012683035 -0.030625908
000090 35 e8 6f 3d b1 07 02 be 5e 1a 1f bd d5 67 bb bd
       0.05857106 -0.12698247 -0.038843505 -0.09150664
0000a0 1e 32 c6 3d ba aa ef 3c a1 d7 4c bd 1b ec 05 bd
       0.09677528 0.029256213 -0.050010327 -0.03269587
0000b0 45 82 66 3a 64 c5 0c 3e 10 7f 91 3d a3 5b fd 3d
       0.00087932154 0.13747174 0.071043134 0.12370994
0000c0 00 e2 7e bc fc 5b db 3d f3 bf 80 bd d4 5f 8b bb
       -0.015556812 0.10710904 -0.062866114 -0.004253367
0000d0 42 69 d1 bd 8f f0 0a 3e d4 0b 4f bc dc 72 e9 3d
       -0.102251545 0.13568328 -0.012637097 0.11398861
0000e0 0a a9 26 be c7 73 93 3d e6 f2 ea bd a5 63 05 3e
       -0.16275421 0.07199817 -0.114721105 0.13026293
0000f0 58 c3 8e bd c3 10 82 bd b5 91 aa 3d ff c5 6e 3d
       -0.069708526 -0.06350853 0.08328573 0.058294293
000100 49 14 15 bd ad 59 7c 3c 34 ec b7 3d 60 10 90 bd
       -0.0363963 0.01540224 0.08980599 -0.07034373
000110 92 81 84 3d 1a cd b1 3d 63 b8 1a 3e 14 fd 33 bc
       0.06470026 0.08681698 0.151094 -0.0109856315
000120 df 3a 22 bd 32 45 86 3d c3 54 ea 3d 9a e4 4e 3c
       -0.039606925 0.06556167 0.11441948 0.012627745
000130 20 4f 03 bd ac 8c a6 bc b2 00 d7 3c 52 fc f0 bd
       -0.03205788 -0.02033075 0.026245449 -0.11766876
000140 cf df 13 be a2 4a 96 bc 81 0a b8 bd 1d b8 63 bd
       -0.14440845 -0.018346135 -0.089863785 -0.055595506
000150 67 cb de 3c 43 a1 2a 3d 80 0f 83 3c a1 8f 20 3c
       0.0271966 0.041657697 0.015998602 0.009799869
000160 16 bf 46 3d 9c 54 4b bc 3c 42 bb 3d 32 dc 23 3b
       0.048522078 -0.012410309 0.091434926 0.0025003073
000170 c9 3c ac 3d ce 1e c1 3d 80 87 1e bd e7 de 98 bc
       0.08410031 0.09429704 -0.03870344 -0.018660976
000180 b5 37 1f bd 60 e3 a9 bd 6b a9 d2 3d a4 c8 d2 3d
       -0.038871486 -0.082953215 0.1028622 0.102921754
000190 4e fb df bd cb 26 a6 bd 38 4d 21 3d f4 d6 26 3c
       -0.109366044 -0.08112868 0.039380282 0.010183085
0001a0 2d e0 a7 bc aa 76 c1 bc bf df e7 bd f4 7e ad 3d
       -0.020492638 -0.023616154 -0.11321973 0.0847148
0001b0 47 4a bf 3d a1 9f 01 bc 53 59 d2 3d 57 e3 06 bd
       0.09340339 -0.007911594 0.102709435 -0.032931652
0001c0 4c 5c 86 bc 71 44 f6 3d 5b 84 9e bd c2 93 73 bd
       -0.016401432 0.12024773 -0.077400886 -0.059467085
0001d0 88 66 06 be 30 1c 09 3e d3 41 50 bd 03 6c b1 3d
       -0.1312505 0.13389659 -0.050844025 0.0866318
0001e0 77 f2 37 3e 41 2f 7c 3d 1b b8 b7 bd 9e 0c b2 3d
       0.17963587 0.061568502 -0.08970662 0.08693813
0001f0 bc 57 29 be 6b f2 da bd a7 b1 1a be 60 0e ac bd
       -0.16537374 -0.10690769 -0.15106831 -0.08401179
000200 6b 39 de bd e9 dd 3b be 19 17 88 bd d7 07 eb 3c
       -0.10850795 -0.18346371 -0.066450305 0.028690262
000210 4b 6c 37 3c c2 3d 8a bd 38 ac 98 3c 22 44 02 be
       0.011195253 -0.067500606 0.018636808 -0.12721303
000220 a5 15 e4 bd 25 9f dc 3c bf 9d 2c be 7c a1 30 3e
       -0.11136941 0.026931355 -0.1685705 0.17249101
000230 49 c1 9b 3d 04 e4 d5 3c 2e a1 03 3e fc cf 22 3d
       0.076052256 0.026109703 0.12854454 0.03974913
000240 10 9c d0 3c 01 b3 2e bd d7 f4 2c 3d da 33 06 3e
       0.025465041 -0.04265118 0.042225685 0.13105717
000250 bf 46 a4 bd c1 2c b0 3d f6 cb b9 3c 9c 5c df 3c
       -0.08021306 0.08602286 0.022680264 0.02726584
000260 ad b0 a7 3d 99 28 d1 3d ec 81 52 bd 4a 17 96 3d
       0.08187995 0.102128215 -0.051393434 0.07328661
000270 ae 9a 3c bd c3 9a 7d 3c cf 1c db bd 3c e6 d7 bd
       -0.04604595 0.015478793 -0.10698854 -0.105419606
000280 dc 9b fc bd 20 07 a9 3d 3a e5 47 3c 89 51 e2 3d
       -0.12334415 0.08253312 0.012200648 0.11050708
000290 d6 f0 b5 bd ff 23 12 3e b7 0b 54 bd 23 9f e2 39
       -0.088838264 0.14271544 -0.051768985 0.00043224645
0002a0 0d 83 77 bd ab a0 8a bc 07 b1 1c 3b 44 2e 0e 3d
       -0.060427714 -0.016922316 0.0023909227 0.03471209
0002b0 d2 20 28 3e 97 cc d3 3c f3 be a9 3d a5 b6 c8 bd
       0.1641877 0.025854392 0.08288374 -0.09800462
0002c0 b6 69 fa bd 3f 96 3a bb 01 10 48 bd af 9d 74 bc
       -0.12227194 -0.0028470901 -0.048843388 -0.014930173
0002d0 93 d2 1f be 93 b7 c3 bd 18 4a 05 3e a4 ea 90 3c
       -0.15607671 -0.095564984 0.13016546 0.01769001
0002e0 97 5b c0 3d b6 ff 7f bc c7 3a 10 ba d5 5c 78 3d
       0.093924694 -0.015624931 -0.00055019226 0.060635407
0002f0 b9 20 1f be 10 1b 73 3d 42 4c 2e bd c5 08 a1 bc
       -0.15539826 0.05935198 -0.042553194 -0.019657502
000300 97 ef c5 bd 2a 1c 8e 3d aa 4e 51 3d 22 cd dd bc
       -0.09664839 0.069389656 0.05110041 -0.027075354
000310 8e 64 cb 3d 6e 55 ce 3c f3 e4 f4 bd 7e 75 ca 3d
       0.09931289 0.02518722 -0.11957731 0.09885691
000320 21 e2 a8 bd 8b 85 a0 3d c8 4e 06 bd cb 1a da bd
       -0.08246256 0.07837971 -0.032789975 -0.106496416
000330 a6 91 ac bc 02 c8 9f 3d 00 97 5a 3d fe 64 d5 bc
       -0.021065544 0.0780182 0.05336666 -0.026049133
000340 62 ed e0 3d b0 a8 b2 bd a5 df 1e bd db ed a1 3d
       0.10982777 -0.08723581 -0.038787503 0.079066955
000350 67 b1 f3 bc c3 c6 3c 3d c3 8f 48 bd 38 d5 d8 bc
       -0.029747678 0.04608799 -0.048965227 -0.026468858
000360 f3 17 6f bc a9 0f 0c bd 9d 22 51 bd c7 dd 4e bd
       -0.014593112 -0.034194622 -0.0510584 -0.050504472
000370 38 d3 40 bd 5f 8f 0d bd 43 55 51 3c 2e e8 c7 3d
       -0.047076434 -0.034560557 0.012776676 0.09761082
000380 f8 25 e1 bd 88 48 7c 3d 6f b0 6d be 68 5d bf 3d
       -0.1099357 0.06159261 -0.23211835 0.09343988
000390 43 0c a9 bd dd e6 e9 bb 8e b3 31 be f5 e5 45 bc
       -0.08254292 -0.0071381168 -0.17353651 -0.012078752
0003a0 27 12 06 3d 34 6f 4f 3e 64 ae 58 bd 43 34 7b bc
       0.032732155 0.20257264 -0.052900687 -0.015332284
0003b0 a6 fa 07 be 9a 76 66 bd 01 bf 5a 3d f2 ce 83 bd
       -0.13279209 -0.05626545 0.05340481 -0.06435956
0003c0 78 ab 47 3d da 54 02 3e 6a ae 7d 3d 46 f6 3a 3e
       0.04874751 0.12727681 0.061933912 0.18258008
0003d0 68 8c e1 3d 72 c4 d8 3d 25 b1 29 3e ec 64 d3 bd
       0.110131085 0.10584344 0.16571482 -0.10321984
0003e0 f5 ca 3b 3d c1 d7 0e 3e f9 7a ba 3d f9 4c 46 3d
       0.04584785 0.13949491 0.091054864 0.04841325
0003f0 ab f2 d3 bd 61 0a c4 3d e0 da 4e 3d b6 40 e9 3d
       -0.103490196 0.09572292 0.050501704 0.11389296

lstm2.bias_ih_l0 f4 [200]
000000 41 fa 98 bd a1 f0 aa 3c b9 67 a4 bd e1 e4 fd 3d
       -0.07469607 0.020866694 -0.08027596 0.12397171
000010 6f 3b a5 3c fd d7 bc bc 8b 8f 4b 3e 8c b5 f9 3d
       0.020169942 -0.02305221 0.19878976 0.121928304
000020 80 c4 ef 3d 98 97 29 3e be a5 03 3d f9 49 db 3d
       0.11707401 0.16561735 0.032140486 0.107074685
000030 f7 7d 36 3e 5e dc 61 bd a6 83 fe 3d c6 8a 17 3c
       0.1782149 -0.0551418 0.12427454 0.009249395
000040 fb 3f e5 bc cb b1 da 3d 10 94 b8 bd 42 b8 51 3d
       -0.02798461 0.106784426 -0.09012616 0.051201113
000050 8f 70 e8 3d 2e a8 9e bd ee 8e b7 3d e4 e4 2e bd
       0.11349594 -0.077469215 0.089628085 -0.042698756
000060 06 57 e0 3d 01 86 11 3e e6 48 1b 3e cf ba 5d 3d
       0.109540984 0.14211275 0.15164527 0.054133233
000070 ea a9 2a bc de a7 24 3b 81 0e 6f bd 5a 72 03 3e
       -0.010416487 0.002512447 -0.05836344 0.1283659
000080 34 6f b8 3d 2d 0b 39 bc f9 5b d1 bd 00 11 ac bd
       0.09005585 -0.011294168 -0.102226205 -0.0840168
000090 ea ea 57 bb 6f 55 0f 3d 53 24 bf bd 71 fc 0e 3d
       -0.0032946416 0.034993585 -0.093331 0.034908716
0000a0 4f bf b3 3d 03 13 da bd 1b a1 1a 3e bf 95 de ba
       0.087767236 -0.106481574 0.1510052 -0.0016981884
0000b0 6a 97 35 3d 0a 9d 96 bd 63 2a 05 be 83 12 c7 bc
       0.044333853 -0.073541716 -0.1300445 -0.02430082
0000c0 bb 2f 00 be 96 18 e2 bd b2 43 63 bd fc 80 ca bd
       -0.12518208 -0.11039846 -0.05548448 -0.09887883
0000d0 4c 1b c4 3d ba d3 e9 bd 08 32 04 be 17 d1 90 3d
       0.09575519 -0.11417337 -0.1290971 0.07071131
0000e0 46 ea 88 bd 28 51 88 bd cb b0 2d bc cc 15 ef 3d
       -0.06685309 -0.06656104 -0.010601233 0.11674079
0000f0 7b 96 e5 3d 94 76 91 3d 23 4c 52 bd 20 e8 b4 bd
       0.112103425 0.07102695 -0.05134214 -0.08833337
000100 fc d7 ee 3d 69 93 cc bd 12 ad 70 bd 99 1b 81 3d
       0.116622895 -0.09989054 -0.058758803 0.06304092
000110 6f 0a 50 3d f7 69 71 bd 64 aa ea bd 4a a5 7c 3d
       0.0507912 -0.058938947 -0.11458281 0.06168107
000120 38 ca 46 3c 70 a5 8e bd 07 93 e2 3d 8f d3 8b 3d
       0.012133174 -0.069651484 0.110631995 0.06827461
000130 f2 86 e6 3d 2a d4 d1 3d 02 d1 1f bd d7 5b d0 3b
       0.112562075 0.10245545 -0.039017685 0.0063586044
000140 a4 90 26 3d 3f bd 6b bd 73 03 c7 bc b1 d3 d8 3d
       0.040665284 -0.057553526 -0.024293637 0.10587252
000150 c7 d8 18 3e 79 96 47 3d c9 16 b7 bd fc 6d 0d bd
       0.14926444 0.048727486 -0.08939893 -0.034528717
000160 8c 32 f6 ba d8 0e 80 bc b2 f9 76 3c 5a 72 60 bc
       -0.0018783375 -0.015632078 0.01507418 -0.013699139
000170 37 0a c7 bc 75 3c a4 3c 67 d2 14 be 71 05 0b 3e
       -0.024296863 0.02004836 -0.14533387 0.13576294
000180 dc 5c b7 bd 24 24 1e bd 3c b2 af 3d 75 f8 9b bd
       -0.089532584 -0.038608685 0.085789174 -0.07615749
000190 59 ca c4 3d 53 1f 33 bb ef 97 e2 bd e1 33 f2 bd
       0.09608907 -0.0027331903 -0.11064135 -0.11826301
0001a0 f0 fa 1f 3c 92 c4 10 bd 01 19 35 bc c2 06 85 bd
       0.009764418 -0.035343714 -0.011053325 -0.064954296
0001b0 b1 27 3f bd 29 d5 4d bd 05 6e 7c bd 57 82 46 bd
       -0.046668712 -0.050252113 -0.06162836 -0.048464146
0001c0 6f 5c c0 3d 48 b6 31 bd 1b 28 cf bc ac 7b ac 3d
       0.0939263 -0.043386728 -0.025287678 0.08422026
0001d0 d1 d5 d6 bd 64 70 a7 3d ec b0 0d 3e b7 85 ef bc
       -0.10490001 0.08175734 0.13837022 -0.029238565
0001e0 56 70 cb bc 82 fa 06 be 65 12 27 3d b0 f7 14 bb
       -0.02483384 -0.13181499 0.040789027 -0.002273064
0001f0 40 ba e5 bb 08 02 f2 3d c7 0c 44 3d 5c ac c2 bb
       -0.007010728 0.11816794 0.047863748 -0.005940957
000200 2d 47 21 3d 4f 11 4f 3d 54 c9 cc bd 8f 02 a2 3d
       0.03937452 0.050553616 -0.09999338 0.07910644
000210 c5 55 b6 bc 15 3d 80 3d 97 02 24 bd 20 a1 32 bc
       -0.022257695 0.062616505 -0.040041532 -0.010902673
000220 eb 55 c5 bd 45 f7 9d 3b 5f ae ec 3b 68 81 05 3e
       -0.09635528 0.0048207366 0.007222935 0.13037646
000230 79 26 6e bb 73 45 1e 3d 0c 93 95 bc 0b fd d6 bd
       -0.003633885 0.03864045 -0.018258594 -0.10497483
000240 bf 25 8e bd 50 21 ad bc e5 88 e2 3d b7 4a 05 3e
       -0.06940793 -0.021134049 0.11061267 0.13016783
000250 a4 17 cb bc dc 27 cc bc fc 2f 9c 3c 92 70 ad 3d
       -0.024791546 -0.02492135 0.01906585 0.08468737
000260 ef ca 70 bc 18 b0 0c 3e d9 53 54 3d 49 4d 93 bd
       -0.014696821 0.1373905 0.051837776 -0.07192475
000270 01 71 f2 bb b7 0f 06 3e 20 c1 03 be b4 aa ad bc
       -0.007398725 0.13091932 -0.1286664 -0.021199562
000280 f0 7d d0 bd cf 2f d2 bc cf ec cd 3d 64 fb 0e bd
       -0.10180271 -0.025657563 0.10054933 -0.034907714
000290 2f 88 33 bd d1 20 1c 3d 6f 01 50 3d 1b 9d 0d bd
       -0.043831047 0.038117234 0.050782617 -0.034573656
0002a0 59 6a d9 bb 0f 69 a8 bc 63 a6 a2 bd 09 cd b0 3d
       -0.006634992 -0.020557908 -0.07941892 0.08632857
0002b0 07 35 1f 3e 0b 66 48 3d 49 23 7c 3d 50 f9 c3 3c
       0.15547572 0.04892544 0.061557088 0.023922592
0002c0 33 1d 32 3e a7 bd 67 3d 24 01 3d bd 10 3a e3 3d
       0.17393951 0.05657735 -0.046143666 0.11095059
0002d0 63 c9 1b 3e 05 c9 e3 bd e3 6c 5b bd 7a 28 09 3e
       0.15213542 -0.11122326 -0.05357064 0.13394347
0002e0 74 96 e4 3c 96 cd 24 3d f3 a2 05 bd cf c1 c5 bd
       0.027903773 0.040235125 -0.032626104 -0.09656107
0002f0 d0 f1 40 bd b6 ed 0f 3e b5 24 84 bc 83 a8 38 bd
       -0.04710561 0.14055523 -0.016130785 -0.04508258
000300 e7 82 e1 3c 6e 4c c7 3d 81 6f 88 3d ff 02 1f 3d
       0.02752824 0.09731375 0.06661893 0.038821217
000310 de 8d f6 bd 39 75 fa 3d c8 ad bb bc b1 74 24 3e
       -0.12038778 0.1222939 -0.022910014 0.16060139

lstm2.bias_hh_l0 f4 [200]
000000 85 d4 c1 3d 54 5f 85 bd c7 d0 7d 3d 61 a4 89 3c
       0.09464363 -0.06512323 0.061966684 0.016802015
000010 29 f9 74 3d d5 9d fc 3d fa a4 21 3e 96 a8 f2 bd
       0.05980793 0.123347916 0.1578559 -0.118485615
000020 26 40 8f bd dd ec 77 bc b5 8f b6 bd 90 ba 0c 3e
       -0.06994657 -0.015132156 -0.08914129 0.13743043
000030 aa c2 fd 3c 13 3e 12 3e 56 5a c9 3c da 11 12 3d
       0.030976612 0.14281492 0.024579208 0.035661556
000040 3b 8e aa 3c d7 b6 f0 3d 48 73 5f 3d b5 a6 15 3e
       0.020819774 0.11753624 0.0545533 0.14614375
000050 3d 37 be 3d ec 25 ed 3d 66 46 58 bd b6 14 af 3d
       0.092878796 0.11579499 -0.052801512 0.08548872
000060 c4 4c 3b bd c2 78 6f bd 11 41 31 bc 1a f2 44 bd
       -0.045727506 -0.058464773 -0.010818736 -0.04808245
000070 3c a8 13 3e 8e 77 b3 bd ed 16 52 bd ff 10 74 bd
       0.14419645 -0.087630376 -0.051291395 -0.05958652
000080 b9 6d 45 bc 19 9b 57 bc 25 f9 ab bd 3b 3f a8 bd
       -0.012050086 -0.013159537 -0.0839713 -0.08215185
000090 74 9a 7c bd 34 e1 e2 bd 7d 35 d5 bd ab 89 d9 3d
       -0.061670735 -0.1107811 -0.10410593 0.10621961
0000a0 6c cb a0 bd 6a db f3 bc f0 e2 b6 3d d7 7e 99 bc
       -0.078513 -0.02976771 0.08930004 -0.01873724
0000b0 6a 22 80 bb ac db d2 3d 40 9c a7 3d 72 82 fb 3d
       -0.0039103525 0.10295805 0.08184099 0.1228074
0000c0 0b 7e 03 bc 86 a4 97 3d 08 41 0f be 3e 37 b1 3d
       -0.008025656 0.07404427 -0.13989651 0.08653115
0000d0 da 7f cc bc 1f a8 12 3e da 0d db bd 1d 99 9e 39
       -0.024963308 0.14321946 -0.10696001 0.00030250187
0000e0 f2 da d8 bd e9 f2 16 bd a4 02 df bd 0e 79 fc bd
       -0.105886355 -0.03685275 -0.108891755 -0.12327777
0000f0 14 2a 17 3e 31 61 fe 3d 11 77 ca bd 26 4f 45 3d
       0.14762145 0.124208815 -0.09885991 0.048171185
000100 03 25 8a 3c 4e a1 eb bc 69 6f ee bd 98 aa 87 3d
       0.016863352 -0.02876344 -0.116423436 0.06624335
000110 31 a9 13 3e 0c 04 84 bd bf 7b f7 bd 0f 80 1f bd
       0.1442001 -0.064460844 -0.120841496 -0.038940486
000120 43 aa d7 3d 06 f3 e6 3d dd 69 ff bd 08 75 c9 bd
       0.10530522 0.11276822 -0.12471364 -0.09836775
000130 59 12 bd 3c 56 7d 12 be 4e af 4a 3d 94 a4 50 bc
       0.023080038 -0.14305624 0.04948359 -0.012734551
000140 84 8d fa 3d b1 82 f3 bd 13 ad 3b bd 34 d6 e4 bc
       0.12234023 -0.11890162 -0.045819353 -0.027934171
000150 17 26 03 3e f7 f1 d9 bd db ed ad bd 76 1d 67 bd
       0.12807499 -0.10641854 -0.08492633 -0.05642458
000160 d9 10 5e 3d 27 5e a8 bd 19 e3 a5 3d 34 13 e4 3d
       0.054215286 -0.08221083 0.08099956 0.11136475
000170 0f 77 97 bc 44 48 f8 3d f9 8f 69 bd 79 22 2c 3e
       -0.018489389 0.121231586 -0.05702207 0.16810025
000180 58 1b a6 bd 6c 7c f7 bd 30 5d 1f 3b 83 5d a2 bb
       -0.08110684 -0.120842785 0.0024317019 -0.004954995
000190 03 fe 9e 3d cb cd 6b bd 0f da ea bd 79 61 9f 3d
       0.07763293 -0.057569306 -0.114673726 0.07782263
0001a0 dd 5d e7 3d dd 96 e2 3d 0d 7d 52 3c 2a e4 89 bd
       0.112972 0.11063931 0.012847197 -0.06732972
0001b0 25 e4 01 bd 90 65 75 3a 02 18 84 bc f3 3d ec 3d
       -0.031711716 0.00093611423 -0.016124729 0.115352534
0001c0 15 88 20 3d 7f 13 9c bd bf ba e3 3d ca 39 93 3d
       0.039192278 -0.07620906 0.11119603 0.07188757
0001d0 bf 59 b6 bd fc 0b b9 3d 66 dd 45 3c ac b1 b6 bd
       -0.089038365 0.09035489 0.012076711 -0.08920607
0001e0 e7 37 90 bd 55 b6 f3 3d b8 6d ce 3d fb eb db bd
       -0.070419125 0.119000115 0.10079521 -0.10738369
0001f0 50 6b 52 3d a4 e0 15 3c a7 95 06 be c9 e8 c2 bd
       0.051371872 0.009147797 -0.13143025 -0.095170565
000200 a8 05 ca 3c 4f 88 da 3c 80 21 e3 bd 15 c1 bc bb
       0.0246609 0.026676325 -0.11090374 -0.005760322
000210 6f d2 da 3d f1 96 d8 bd 50 df 9f bd d0 23 59 bd
       0.10684668 -0.10575665 -0.07806265 -0.05301267
000220 13 dd b8 bd 51 ae cc 3d de ca fb bd 15 60 7c 3b
       -0.090265416 0.09994186 -0.12294553 0.0038509418
000230 ae 80 c5 bd 34 4a eb 3d 52 bd 0e bb 1a f7 0e 3e
       -0.09643684 0.114887625 -0.0021780324 0.1396145
000240 31 83 27 bd 23 ff 12 3e 89 43 09 bd 7f 5f 6e 3d
       -0.0408966 0.1435514 -0.033511672 0.05819654
000250 92 ae d8 bd a6 3a 67 bd fa 69 17 3e 52 5f 08 be
       -0.10580172 -0.056452416 0.1478652 -0.13317612
000260 6f 29 f5 3d 13 f5 a1 bd 16 93 8b ba b9 c9 cc 3d
       0.119707935 -0.07908072 -0.0010648693 0.09999413
000270 4d 93 b2 3d d0 f5 6d 3c 72 f5 91 3d 30 c8 fe 3d
       0.08719502 0.014523938 0.07126893 0.124405265
000280 bc 89 99 3c 82 fc 74 bc ce a0 5a 3d c8 35 91 3d
       0.018742435 -0.014952781 0.05337601 0.07090336
000290 73 22 b9 3d 98 4f 06 be 22 db a6 3d 67 59 df 3d
       0.09039774 -0.131163 0.08147265 0.10905724
0002a0 b9 7d 54 3c 05 6c d0 3d ab 78 5e bd c5 b4 a7 bd
       0.012969428 0.10176853 -0.054314297 -0.08188776
0002b0 6b f2 14 3d 48 ba 1d bd 31 ef 5a 3d b3 18 b4 bd
       0.036364 -0.03850773 0.053450767 -0.087937735
0002c0 a2 a5 6a bd dd 32 8e 3d 7a 0f 0d 3e 2f 10 9b bd
       -0.057286866 0.06943295 0.13775435 -0.07571446
0002d0 b7 d4 8e 3b a1 cd c4 3d 92 56 d2 bd b4 ab c8 3d
       0.0043588537 0.09609533 -0.10270418 0.09798375
0002e0 7d f8 1b bd 46 27 94 3c a5 fb a3 bc af e1 69 3d
       -0.038078774 0.018085133 -0.020017454 0.057099994
0002f0 c8 2e b9 3d 81 30 33 bd 7d e7 10 3d e2 b2 cc 39
       0.09042126 -0.04374743 0.035377014 0.0003904319
000300 fb 1a 90 3d 38 74 14 3e bd d0 ca 3d 7a 44 46 3d
       0.07036396 0.14497459 0.09903095 0.048405148
000310 ed 6b 7c 3d 0f 34 95 bd b0 34 19 be b7 06 a6 3d
       0.061626364 -0.0728532 -0.14961505 0.081067495
