model_100.pth (torch, 132765 bytes, 11 tensors)

lstm1.weight_ih_l0 f4 [200, 1]
00000000: ee4f 76bd 68b2 463e df02 9dbb 55af bfbd
00000010: acc9 213d 2e97 323e f688 b53e effa 763e
00000020: 0c52 943e b3b7 84be 98f1 5a3e 29a2 c93c
00000030: 2d0f 913e b6ba 413e 350d 023e aef7 7cbb
00000040: d7ad ca3e 45be 3dbd cf7d 613e ea70 0e3f
00000050: 9fc6 953e 551f e83d 6566 153e 3df2 c83d
00000060: ab14 873d 2353 6e3c 9451 1a3e faf7 2e3e
00000070: ebbf 34bd 3f54 b6bd 9600 2d3e 35f7 dcbd
00000080: 8194 9b3d 16b1 833e 6456 593e 851c b03d
00000090: 5b9b 943e 4408 123e 36f1 673e d107 633e
000000a0: bf2c 313d 66ae 3e3e ba18 143f 9c72 6c3e
000000b0: 3278 843e da29 0cbd 7c12 693e 840e 3d3d
000000c0: dd1e 1bbe 03f1 3c3e 1c5e c6bd b55f bcbd
000000d0: f80b 4abe be13 5abe 375a 40bc df28 52bd
000000e0: 0969 693e 2e0d 3d3e b007 c13d 3d57 09be
000000f0: 7585 973d d3b2 193e a09c 883e 7dff 7a3e
00000100: f5e9 7d3d 2f2a 833d 4d4f d03d 578e 493e
00000110: bbec 303e 5014 b93e 7f32 7b3e df86 6e3d
00000120: 1cff 78bc 8ea5 263e bacd fdbd 1e69 1e3e
00000130: e4f6 8f3e c0c8 8a3e 719a 2bbd c15e 083e
00000140: be21 313d d0b0 99be 9d27 393d 4012 463e
00000150: 6d3e ac3d 6945 513b 81fe e63d acda cd3d
00000160: c4f6 e93d 7181 2d3e 7145 503d 74eb 4a3e
00000170: 0e95 f1be 49b9 043e 2996 933e 0a98 363e
00000180: cb4e 513e 5072 973e 16b8 4cbe 6c25 f33d
00000190: 0c92 cf3d c06a 73be c214 d0bd 989d ec3d
000001a0: 1fe5 9fbe 936a 343e 36ab e6bd 647b 733e
000001b0: 026a 5d3e ea31 5abe 3ad2 6dbd 8ac1 613e
000001c0: a6fd 643e 810c 68be 9154 3e3e d7fc e63d
000001d0: 7d2e 993e 90d6 bb3c 3d0b 5f3e c4a3 de3e
000001e0: 3655 573d 1657 3d3e 17c7 61be 59c6 a8bd
000001f0: 6749 dd3d 66f1 b63d b858 83be 9c2e 25be
00000200: 6cc8 603e cc17 e7bd 7eb3 54be 7347 803e
00000210: d052 4fbe f90c 6e3e 1b34 8abe f3e9 82be
00000220: 60f2 c1bd fc59 2b3e 3829 59be e821 5d3e
00000230: c49d d93d d7a7 a53e 8cf1 b4be 0f8a 003f
00000240: 680b a1be 4bbb b9bd 6f5f 42be 84f5 42be
00000250: 0f92 ecbd e918 853e 365f dfbd c782 80bc
00000260: cbab 70be 1231 c8bd 2e40 783d 8ac1 723d
00000270: a05d ef3e 2fff 313e 7d67 8e3e d118 94be
00000280: 0a87 973e 0f7a 813e d25c 743e f476 373d
00000290: a1c4 3c3d ffb4 693c 20c8 993e 6074 c7bb
000002a0: fd1d c83d 191c 563f 7213 b13e 3cb4 663e
000002b0: 65db 923d 5765 8abc 25e7 cbbd 4136 6c3e
000002c0: 1b53 923e b1dd 9e3e d895 0dbd 7221 673d
000002d0: 337a 2b3e 6746 2fbe c641 963c 7b72 3c3e
000002e0: 83be 193e 029b 08be 5717 323e 0b79 533e
000002f0: 7c3f 9b3e 0dd2 933e 6a68 163e 12df ac3e
00000300: f07e 1a3f ec23 8f3e eb0d 8a3e 6cb5 34bd
00000310: b515 9f3e 4ca1 4a3e 4dd4 83be 6728 083e
-0.06013482 0.19403994 -0.004791602 -0.09359614 0.03949897 0.17440483 0.35456055 0.24119161
0.28968847 -0.259214 0.21381223 0.024613457 0.2833189 0.18918881 0.1270035 -0.0038599777
0.39585754 -0.046324033 0.22020648 0.55641043 0.29253098 0.11334101 0.14589842 0.09811828
0.06595739 0.0145461885 0.15070182 0.17086783 -0.04412834 -0.089027874 0.16894755 -0.107893385
0.07596684 0.25721043 0.21224362 0.0859919 0.29024777 0.14260966 0.22650608 0.2217095
0.043255564 0.18621215 0.5785023 0.23090595 0.25872952 -0.0342196 0.22760957 0.04615642
-0.15148492 0.18451314 -0.09685919 -0.09197942 -0.19731128 -0.21296594 -0.011740259 -0.05130851
0.22793974 0.18462059 0.094252944 -0.13412185 0.07398502 0.15009622 0.26681995 0.24511524
0.061990697 0.0640453 0.101713754 0.19683205 0.17277806 0.3614831 0.24530981 0.05823409
-0.015197542 0.16274092 -0.12392755 0.15469787 0.2811805 0.27106285 -0.041895334 0.13317396
0.04324507 -0.3001771 0.045203794 0.193429 0.08410344 0.003193224 0.112790115 0.10051474
0.1142402 0.16943909 0.050847474 0.1981638 -0.47184032 0.12961306 0.288255 0.17831436
0.20440213 0.295794 -0.19992098 0.11872372 0.10135278 -0.2377119 -0.10160209 0.11553496
-0.31229493 0.1761878 -0.11263125 0.23777539 0.2162247 -0.21308103 -0.058061816 0.22046486
0.22362384 -0.2266102 0.18586947 0.11278694 0.2991828 0.02292946 0.21781631 0.43484318
0.052571498 0.18490252 -0.22048603 -0.08240957 0.10805016 0.08932762 -0.25653625 -0.16131061
0.21951455 -0.11283836 -0.20771596 0.2505451 -0.20246434 0.23247136 -0.26992878 -0.25569114
-0.094700575 0.16733545 -0.2120713 0.21594965 0.106257945 0.32354614 -0.35340536 0.5021066
-0.31454015 -0.090689264 -0.18981718 -0.1903897 -0.11551296 0.25995567 -0.10906832 -0.01568736
-0.23503034 -0.097749844 0.06060808 0.059266604 0.46751118 0.17382501 0.2781333 -0.28925183
0.29595214 0.25288436 0.23863533 0.044791177 0.046085957 0.014264344 0.30035496 -0.006086871
0.09771345 0.83636624 0.34585148 0.22529691 0.071707524 -0.016894026 -0.09956197 0.23067571
0.2857903 0.31028512 -0.03456673 0.05642838 0.16745834 -0.171167 0.01834191 0.18403046
0.1501408 -0.13340381 0.17391716 0.20651643 0.30321872 0.28871194 0.14688268 0.3376394
0.6034994 0.27957094 0.26963744 -0.04411833 0.3107125 0.19788092 -0.2574791 0.13296662

lstm1.weight_hh_l0 f4 [200, 50]
00000000: b4a1 833d 1b41 05be e7ea 983d bd73 323e
00000010: 6dec 2cbe 3591 c03c d6e8 85bc e161 c2bd
00000020: ad51 6d3d a55d de3d f966 a93c 7120 9b3d
00000030: c209 083c 9960 653d 7e01 f53c 0a8b 983d
00000040: f9cb c43d 2988 973b 3656 31bd 989d 12be
00000050: 9762 1abc 0ce1 48bc da60 3cbd 6904 70bd
00000060: a6a7 8c3c 8fb6 1dbe 2098 ebbb 2c01 f8bd
00000070: 1db8 babb ba41 913c 16f6 c6bd 8f08 943d
00000080: 5eb7 db3d b90d c4bd cccd a13c 1085 e23d
00000090: 32d0 193e fb70 9abb a119 003e aabd 5dbd
000000a0: 5365 9f3d 165d d13d e0cb b5bc 8c74 023d
000000b0: d523 013e 1977 a5bd e48f 003e 3187 043e
000000c0: 7068 c93c 9e4c f3bc 6828 26be cd95 ef3c
000000d0: fa1d f13d d054 8ebc 212f af3d 05e5 9dbd
000000e0: 5c22 f0bd 6f83 003e b3a9 e13d cf68 f23a
000000f0: 7fff d13c 55f8 82bd ecb1 df3c 0a42 5bbd
00000100: 20dc 9bbd 493f 3ebc f96f c9bd 7e7f 4abd
00000110: 1fcd 25bd 433b ba3c 54a7 3ebd 7478 b2bd
00000120: 059a f23d 5f73 5b3c 2483 e03d f054 cebd
00000130: 52cd a6bb 26d2 953c 7387 c2bd e47e 823d
00000140: 8e4e 063e 348e 31be 636d a2bd 9631 e03d
00000150: 968b 12bd 6202 ce3d 1355 dc3d ace9 81bc
00000160: c1ba c53c 118d aebb 7d0d 0dbe e8ed 82bd
00000170: f65c 0ebe c006 fd3d 6562 0abe 6522 d3bd
00000180: c9d0 aa3c 4ae3 72bd 8c25 0b3e 2843 95bd
00000190: 745f 903d 7afa 32bd e57a 6f3b 177d 48bd
000001a0: 021e 0e3c 720b 47bd 2a95 833d cb74 793d
000001b0: dbd9 3c3c 2815 8cbd 021a 99bd 4e59 d9ba
000001c0: 3b35 f9bc cf03 453d 53f7 84bd 5130 c43c
000001d0: a64a 9abd c6a4 aebd 51ce 753c 526e 143e
000001e0: d678 0cbe 069c 693d 19bb 6c3d c3f1 983d
000001f0: f6f0 a53d 3539 ddbd 1918 6d3d d1e4 eebc
00000200: 4fed 97bd a065 eb3d a293 0cbe db80 91bd
00000210: 6485 c33d 4548 bbbd 6a3d f7bd 719e d73d
00000220: e11c aebd 9d93 cdbd c0c4 bfbd a13a 103d
00000230: 605a 74bd 2a97 bc3d e244 21be e055 423d
00000240: 9089 c8bc 5cfa c73d f693 093e b194 043d
00000250: 7bec 1f3e ac21 e93d c741 1abd 8cb3 f6bd
00000260: 0955 3cbe 6bd8 f73d 5ab2 ddbd dfb5 21be
00000270: bb4b 063e 32eb b73c 80a3 f63c d19d 4dbd
00000280: fa7b 943d 1101 36be ef9b 66be f220 ad3d
00000290: cbb6 cc3c da01 463c 338a 0fbe 3898 0b3d
000002a0: fb21 8ebd 2130 3cbe da95 0abe 471e 80bd
000002b0: 40a4 4ebd 07f5 67bd c156 4c3e d7b1 20be
000002c0: 3a4a 503e 70e8 dfbc afe2 cb3d 4aa8 c3bd
000002d0: 89e7 0a3e a7bc 1dbd cf21 343d 6a96 7cbd
000002e0: b781 0dbd 0268 353d 6b3e c73c 14fe 02bc
000002f0: 51a4 253e 6c8b 96bd 3d14 bb3c 7048 d3bd
00000300: ce60 f3bd 04b0 98bd cd0b 3c3e d121 40be
00000310: 8cb3 d0bc 485a 043e 7e0d 1ebe 7f81 35be
00000320: 721a acbe 2be4 6dbd 7b07 8c3e dd35 8bbe
00000330: a042 283e 5c87 6a3d d765 acbe 8bca 053e
00000340: f33a cd3d 3f16 e33d 0107 89be 5b33 7c3e
00000350: a84c 603e d5a7 933d 6cb3 0f3e fe4a d33d
00000360: 2445 673e a667 7abd d763 4c3e d843 693e
00000370: d517 523e 3775 373c 515d 68be a36a 223e
00000380: 77fb b1be 0651 773e 9013 2ebd d7f6 48be
00000390: 1260 acbd c975 833e 8bd8 d93b 0fb4 5bbe
000003a0: ac4d 64be dd8c ea3d 4540 86be ca35 523e
000003b0: a145 0fbd a0e9 3c3e 57af e0bd 4d0b e43c
000003c0: 4ca7 98be 097f 433e 3fa4 1dbd c3aa dc3c
000003d0: 7d99 11bd ff2e 443e 29e1 6e3b 69fd 08be
000003e0: 57e0 873e 23cf 193d ba90 a2bd 9afc 613d
000003f0: 6072 503c ebd0 033e 1cef 883d 2fd9 a7bd
0.06427327 -0.13013117 0.07466679 0.17426963 -0.16887064 0.02350674 -0.016346376 -0.09491325
0.05793922 0.10857705 0.020678984 0.07574547 0.008303108 0.056000326 0.029907938 0.074483946
0.09609217 0.004624386 -0.043295108 -0.1431793 -0.00942292 -0.012260687 -0.045990802 -0.058597956
0.017169785 -0.15401672 -0.0071897656 -0.121095985 -0.0056982175 0.017731536 -0.09714906 0.07228195
0.10728334 -0.0957293 0.019751452 0.11060536 0.15020826 -0.0047131754 0.12509777 -0.054135956
0.07782998 0.10222833 -0.022191942 0.03184943 0.12611325 -0.08079357 0.1255489 0.12942196
0.024585932 -0.02969962 -0.16226351 0.029246235 0.11773296 -0.017374426 0.08553911 -0.07709698
-0.117253035 0.12550138 0.11018696 0.001849437 0.025634525 -0.06395022 0.02730652 -0.053529777
-0.07610345 -0.011611768 -0.0983581 -0.049437992 -0.04047882 0.022733336 -0.046546295 -0.08714381
0.11845783 0.013394206 0.10962513 -0.10074794 -0.005090394 0.018288683 -0.09498491 0.06371859
0.13115904 -0.17339402 -0.0793102 0.10946958 -0.03577765 0.10059048 0.10758414 -0.015858494
0.024136903 -0.005326875 -0.13774677 -0.06393033 -0.1390265 0.12354803 -0.13514097 -0.103092946
0.02085151 -0.05929879 0.13588542 -0.072882 0.07049456 -0.043695904 0.0036541757 -0.04894742
0.008674147 -0.0485949 0.06424935 0.060902398 0.01152655 -0.06839973 -0.07475664 -0.0016582401
-0.03042089 0.048099335 -0.06492486 0.02394882 -0.07533769 -0.08527522 0.015002803 0.14495209
-0.1371797 0.05703356 0.057795618 0.074679874 0.081026 -0.10801927 0.05788431 -0.029161843
-0.0741831 0.11493993 -0.13728192 -0.07104655 0.095469266 -0.09144644 -0.12072261 0.10528267
-0.08501602 -0.100379206 -0.09363699 0.035212163 -0.0596565 0.0920852 -0.15748933 0.047445178
-0.024479657 0.09764549 0.13435349 0.032368366 0.15617554 0.113833755 -0.037660386 -0.120459646
-0.18391813 0.12101825 -0.108250335 -0.15792035 0.13114826 0.022451017 0.03010726 -0.050199334
0.07250209 -0.17773844 -0.22520421 0.084535494 0.024989506 0.012085402 -0.14017563 0.034080714
-0.06940075 -0.18377735 -0.13533726 -0.06255775 -0.05044961 -0.05663016 0.19954969 -0.1569284
0.20340815 -0.027332515 0.09955346 -0.09553583 0.13564886 -0.03850999 0.043977555 -0.061666884
-0.034547534 0.044288643 0.024321755 -0.007995147 0.16175963 -0.07350811 0.022836799 -0.10316551
-0.118836984 -0.07455447 0.18363877 -0.187629 -0.02547624 0.12925065 -0.15434834 -0.1772518
-0.33613926 -0.058078926 0.27349457 -0.27189532 0.16431665 0.057257995 -0.33671448 0.13065545
0.10021009 0.110882275 -0.26763156 0.24628966 0.21904242 0.07209746 0.14033288 0.10317038
0.22584969 -0.061134003 0.19959961 0.22779787 0.20516904 0.01119738 -0.22691847 0.15860991
-0.34762165 0.24152002 -0.042499125 -0.19625412 -0.084167615 0.256758 0.0066481284 -0.21455406
-0.22295254 0.11452649 -0.2622091 0.20528331 -0.034978513 0.18448496 -0.109709434 0.02783742
-0.29815137 0.19091429 -0.038486715 0.026936894 -0.03554677 0.19158553 0.0036450124 -0.13377918
0.26538345 0.037551057 -0.07937761 0.05517254 0.012722582 0.12872665 0.066862315 -0.08195721

lstm1.bias_ih_l0 f4 [200]
00000000: ef1f c7bd a233 a13d d79d edbd 9de2 5ebe
00000010: cbb8 b03e 99d9 863c f2e4 c03d 7856 4cbd
00000020: 10b0 ac3b 7942 17be 0632 d03d 268a d53d
00000030: d413 803c 2ebc 333e 4601 8dbd ea4f 843d
00000040: 7d71 b93c 8dd5 c63d ee05 5f3d 2b2b 913e
00000050: bfcf 15be b4e8 903c e680 6cbd bc3e 88bd
00000060: 90d6 923c 92e1 33bc 5e24 3abd 44a2 f53c
00000070: b3b0 bebc 13a4 c73d 71c0 71bd 1c49 38bd
00000080: 21fb c03b a29c d93d 06e3 d8bc 99a7 043e
00000090: ab3d a13d 84c6 f4bc 004f 0f3e 1393 dd3c
000000a0: e031 a7bd 738a 673e f14c d83e ff55 a73e
000000b0: 3e69 80bb f59b c83d 42a1 b73d 3df3 2b3c
000000c0: 5d3d acbd b245 a83d 12f3 343d 80e5 fcbd
000000d0: 5263 17be b408 5d3d b6c8 d0bc 6be0 4b3d
000000e0: b714 ecbc 1d18 f73d 5901 963d 5138 1cbe
000000f0: 3c80 8c3d 3697 75bc 8adf 843c ad98 6abd
00000100: fd04 dc3d dc1c 48bd afc2 3bbe 7587 f2bd
00000110: 400d 47bd 0112 acbc 6d71 d9bd fd1a afbd
00000120: 6db8 4b3d 9cc6 1abd 9bc9 5b3c 1716 7a3d
00000130: ee8d 9dbd f612 e7bd c09c 8d39 a7ae 1ebd
00000140: 15ad 33bd f8b0 ec3a 547d 04be b606 073e
00000150: 00a5 eb3d 0417 c13d 1c58 85bd 0454 6ebd
00000160: 977b 8e3d ea3b 49bd 8468 bc3d 994e 703d
00000170: d8b5 97be e01f 103d 4050 edbc 5674 9ebd
00000180: 0363 a7bd 558e c03d 3459 59bd 9e10 283c
00000190: b262 4fbd e528 903d 53d2 8ebd 1d57 a6bd
000001a0: 8ebd 23bc 0a71 873d 7d69 12bd 475e babd
000001b0: 97e6 aa3d 56e8 04bd 6283 2fbd b730 ae3d
000001c0: f873 6b3d a7b9 33bd 80fc 6c3d c4b9 923c
000001d0: 06f3 58b8 4c04 90bd 70a5 bf3c 7922 ab3d
000001e0: 8a9f cf3d 5faa 383d 4144 23bd 828f f33d
000001f0: bea2 10be be13 383d 08aa 733d a3f8 2e3d
00000200: c54c 7bbd 1457 be3d 8d35 adbd d332 d1bd
00000210: 598a aebd e264 333c 3f36 5fbd 79dd e43d
00000220: f6b6 98bc 3cf6 343d 758c 2fbc 197f e73c
00000230: 106c 62bd cc60 153d af44 7ebd fd66 9e3d
00000240: ed6d bf3d 6795 fa3d 3955 4e3d 554a e2bd
00000250: 07a9 383d 0986 4dbc 1676 1abe e621 7cbd
00000260: 2399 26bd 8753 53be 53b3 863e f6a7 abbd
00000270: e990 35bd edc8 ac3d 9319 353d 220f e7bd
00000280: 3dd2 0fbe 6899 fe3d 11c1 7bbd d477 993c
00000290: 6ec5 df3d 911e 2d3d bac7 6b3e daca 513d
000002a0: 8f9c 20bd f6da bc3e 814d 6ebb 9340 1e3e
000002b0: c8b4 c13d 69f4 5e3d 7509 2c3d 3871 89bd
000002c0: 4380 94bd 8607 3a3e aea3 003d 7811 893d
000002d0: f96a 7bbd 72a1 3e3c ba8f 233c 2003 923a
000002e0: b030 343e 5da1 743e fd85 a6bd cddd 95bd
000002f0: d75d 593d 78c3 7dbc df6e 4c3d 1db0 563e
00000300: 47ee a53e e3c9 813e 1006 ee3d 33c8 27bd
00000310: 5a61 aabd 77e1 dbbc 7423 8d3d 7a85 65bd
-0.09722888 0.07871176 -0.11602371 -0.21766134 0.34515986 0.01646118 0.09418668 -0.04988715
0.0052700117 -0.14771451 0.10165791 0.1042674 0.015634455 0.17552254 -0.068850085 0.06460555
0.022637123 0.097087 0.054449014 0.28353247 -0.1463003 0.017689086 -0.057740115 -0.06652591
0.017924577 -0.010979073 -0.04544484 0.0299846 -0.023277616 0.097480915 -0.059021417 -0.044991598
0.005889312 0.106255785 -0.02647544 0.12954558 0.0787309 -0.029879816 0.1399498 0.02704767
-0.0816381 0.22611408 0.42246202 0.32682797 -0.003918796 0.097953714 0.08966304 0.010495004
-0.084101416 0.08216418 0.044177122 -0.12348461 -0.14783981 0.053963378 -0.025486331 0.04977457
-0.028818471 0.12065146 0.07324476 -0.15255858 0.06860396 -0.014989665 0.016219873 -0.05727451
0.10743139 -0.048855647 -0.18335985 -0.11842243 -0.04859662 -0.021004679 -0.106173374 -0.085500695
0.04973643 -0.037787065 0.013414766 0.061056223 -0.076930866 -0.112829134 0.00027010404 -0.03874078
-0.043866236 0.0018058112 -0.12938434 0.13186154 0.115060806 0.09428218 -0.06510946 -0.058185592
0.06957167 -0.049129404 0.09199622 0.058668707 -0.29630923 0.03518665 -0.02896893 -0.07737033
-0.08173182 0.09402148 -0.053063586 0.010257868 -0.050631233 0.0703905 -0.0697371 -0.08122084
-0.009993924 0.06613357 -0.035745133 -0.09100013 0.08344763 -0.032448135 -0.042849906 0.08505385
0.057483643 -0.043878224 0.05785799 0.017910846 -5.1724746e-05 -0.070320696 0.023394316 0.083561845
0.101378515 0.045084354 -0.039860014 0.11892606 -0.14124581 0.044940703 0.059488326 0.042717587
-0.06135251 0.092939526 -0.084574796 -0.10214772 -0.085224815 0.010949345 -0.054495092 0.11175055
-0.01864193 0.04418014 -0.01071464 0.028258847 -0.055278838 0.036469266 -0.06207722 0.07734487
0.093471386 0.122355275 0.050374243 -0.11049334 0.045083072 -0.0125441635 -0.15084109 -0.061555766
-0.040673386 -0.20637332 0.2630869 -0.083816454 -0.04432765 0.08436761 0.044213843 -0.11282183
-0.14045043 0.12431604 -0.06146342 0.018733896 0.109263286 0.04226548 0.23025408 0.051218845
-0.039211806 0.36885804 -0.0036362114 0.1545432 0.094583094 0.054432306 0.042001206 -0.06711048
-0.072510265 0.18166932 0.031406097 0.06692785 -0.061381314 0.011635171 0.009982998 0.0011139847
0.17596698 0.2388968 -0.08131025 -0.07317696 0.05306801 -0.015488498 0.049910422 0.2096562
0.32408354 0.2534934 0.1162225 -0.04096241 -0.083193496 -0.026840908 0.06891528 -0.056035496

lstm1.bias_hh_l0 f4 [200]
00000000: 1dfa 06be 6606 7bbc ad1f 57bc 55d1 41be
00000010: 2fc2 863e a36a cb3c 5e9b 20bd 82a1 c73d
00000020: 6ebf d2bd b2ab 8abd cd51 83bd ecdb ed3d
00000030: 611b 0bbe b195 0b3c a392 c53d 4a00 cabc
00000040: fb66 4c3e afdb 03be 38a9 d83d 83e9 f73e
00000050: 03e4 b4bd 9728 333e d586 bbbd 85c2 b73c
00000060: 5993 87bd 59de b4bd ac88 cc3d e140 b3bd
00000070: ae7a d33d 9230 013e a99f f6bd 6474 2c3d
00000080: 369d 80bd cefa 0e3d f2df ea3c dde2 4e3e
00000090: de3c 06bd ace6 803d bc75 cb3d 6a26 9fbd
000000a0: a65d 013e 3bec 3b3c 7389 c93e 4165 9e3e
000000b0: 3f8d 3e3e 00cd 6bbd 3334 85bd 6ac3 7bbd
000000c0: 6940 923d 2458 963d df06 0abe 6c3b 2a3d
000000d0: f820 9fbd fbf7 e3bd dab1 21bd ac2f 94bd
000000e0: 097f 743d eb77 daba 2263 5fbd 83e3 50bd
000000f0: 3827 efbd 6c75 31bd 5807 0e3d 5c74 873c
00000100: 8986 e4bd cda9 32bc 8515 0cbe db42 61bc
00000110: cdbd 21be 4f88 be3d a505 dd3c b70b 043e
00000120: 6ecc b0bd 2531 b2bd 2e03 9e3d 1b3c 04be
00000130: 64a4 bdbd ad81 0f3e aae7 68bd 9a57 f53b
00000140: e9eb 38bd cb84 3bbd 12c1 79bd 0303 f2bd
00000150: 944a 9f3b 8737 e1bc 796d 953b 5a89 3cbd
00000160: 1a40 673d 6e9a 793c a056 24bd 2dfc 233e
00000170: 65b1 07be 0577 323d 8afb 873d f81b 0abe
00000180: 7dff c63d 1038 493d 3d6a e13c a0b7 e13d
00000190: f12a bb3d 4153 843d 556e b43d 2741 58bd
000001a0: 9344 653d d256 55bd 712c 4d3d 19e5 bd3d
000001b0: 2b3b 59bd 9ce1 1abd 0cc8 55bd 0bda cd3b
000001c0: 6958 833d d105 b33d e7c5 a53c 40b0 8c3c
000001d0: cfd6 fe3c 705b a1bd 2279 d7bc dfa4 febc
000001e0: d3f4 d1bc 4716 e4bc fa6b f8bc cc39 07bc
000001f0: cd25 0ebd 3945 aa3d 9bb9 78bd 63c8 d8bd
00000200: 4921 03be f882 863d 2bd8 c8bd 63c9 813d
00000210: 44e4 34bd e7dd aabc 9ca5 c4bc faf1 39bd
00000220: 9de1 18bc 9d92 d23d 6145 793c 2d6d ca3c
00000230: 2592 0ebe 5951 9b3d 1a64 913d 5551 f1bd
00000240: 93c5 0abd f1d7 963b 6045 b0bc ce70 d53c
00000250: 7445 88bd c1a5 b73d 3c61 6dbd 5f3f b8bd
00000260: 7139 583d 375a 66bd b2d9 923e 9b4a 7dbd
00000270: 4ab8 14be bb26 c63d 0632 25bc 9c1c c6bd
00000280: f5cb 02be ca9e 073e 164d bd3d cc8c 433e
00000290: ba09 bf3d 91e2 0c3d f5d0 ef3d 0f58 84bd
000002a0: 59c1 eb3c 0e17 f13e f094 f03d 4e77 003e
000002b0: 4200 813d 0acf 2fbe 9c71 b83a 7eaa f7bd
000002c0: d384 c83d 9a10 143e 40b7 663c fb0c b1ba
000002d0: 7de2 143d 8708 5bbd 0469 ae3d c72d 153e
000002e0: 8a99 923d a6b7 0f39 f8e2 1dbd 0e90 ea3d
000002f0: a694 ef3d 5dda 3abd b44f 9dbd 5fbe 64bc
00000300: e9d8 9e3e 8386 c13e bc8a 8dbc 975c 3b3d
00000310: 344b b2bd 1097 463d 796a b33c 8f84 233e
-0.13181348 -0.01532135 -0.013130111 -0.1892751 0.26320025 0.024831122 -0.03921067 0.09747602
-0.102904186 -0.067710295 -0.06412087 0.116142124 -0.13584663 0.008519576 0.09647109 -0.024658341
0.19961159 -0.12876771 0.10579151 0.48420343 -0.08832552 0.17495953 -0.091565765 0.022431621
-0.06619901 -0.08831472 0.099870056 -0.08752609 0.10326134 0.12616184 -0.120421715 0.042103186
-0.062799856 0.034907155 0.028671239 0.20203729 -0.03277289 0.06293997 0.099345654 -0.07770999
0.1263338 0.011469896 0.39362678 0.30936626 0.18608569 -0.05756855 -0.06504097 -0.06146566
0.071411915 0.0734103 -0.13479184 0.041560575 -0.0776996 -0.11131283 -0.039476253 -0.07235655
0.059691463 -0.0016667818 -0.0545379 -0.050998222 -0.11677402 -0.043324873 0.034674972 0.016534977
-0.11158473 -0.0109047415 -0.13680084 -0.01374885 -0.1579506 0.093033426 0.02698023 0.12895094
-0.08632742 -0.0870078 0.0771545 -0.12913553 -0.09259871 0.14014311 -0.056861557 0.0074872496
-0.045146856 -0.045780938 -0.06097514 -0.11816981 0.0048611853 -0.027492298 0.0045601693 -0.046029426
0.056457616 0.015234573 -0.040121675 0.16014166 -0.13251264 0.043570537 0.06639774 -0.13487232
0.09716699 0.04912573 0.027516479 0.11021352 0.0913905 0.06461192 0.08810107 -0.05279651
0.0559736 -0.05208475 0.05009121 0.092722125 -0.053034943 -0.037812814 -0.052192733 0.0062820963
0.06413347 0.08741344 0.020235969 0.017173886 0.031108288 -0.078787684 -0.026302878 -0.031084476
-0.025629437 -0.027842654 -0.030324925 -0.008253526 -0.03470402 0.083139844 -0.060723882 -0.10585096
-0.12805666 0.06567949 -0.09806856 0.063372396 -0.044163004 -0.020857764 -0.02400475 -0.045396782
-0.009331134 0.102818705 0.015214295 0.024710262 -0.13922937 0.07583875 0.07099171 -0.11783091
-0.033879828 0.004603379 -0.021517456 0.026054766 -0.06653872 0.08967162 -0.057954058 -0.08996462
0.052789155 -0.05623838 0.28681713 -0.061838727 -0.14523426 0.09675356 -0.010082727 -0.096734256
-0.12773116 0.13244167 0.092432186 0.19096678 0.09328027 0.034395758 0.11709777 -0.06462108
0.028778719 0.47087902 0.117471576 0.12545511 0.06298877 -0.17168823 0.0014071944 -0.12093066
0.09790959 0.14459458 0.014081776 -0.0013507897 0.03634881 -0.05347493 0.08516124 0.14568244
0.071581915 0.00013705957 -0.038546532 0.114532575 0.11698274 -0.045618404 -0.07681218 -0.013961404
0.31024864 0.37797937 -0.017278068 0.045742597 -0.0870575 0.04848391 0.021901356 0.15968536

lstm2.weight_ih_l0 f4 [200, 50]
00000000: 8943 373d 0539 e5bd cd55 a4bc 2a77 e4bd
00000010: 0292 99be df2d ae3d aae1 afbd 52d8 0f3e
00000020: d6ea 313c 66ee c13c 3ccb ffbd c758 26bc
00000030: e008 b9bb 1613 1fbe 723c 7b3d 77dd 7dbc
00000040: c154 99bd 400f a93d 338c ddbc ca53 293d
00000050: 94d1 93bb f95b 41bb e294 25be 2205 a63d
00000060: 4c04 c2bd 7fa3 83bd b5f5 c73c dd03 033d
00000070: bf89 193e afe7 6f3d e714 753c 5ed4 5c3e
00000080: 661d c0bd 4790 2b3e 69ac 69bd 79e8 20be
00000090: ca91 ffbd c321 183b 5a78 ad3c a81f f63d
000000a0: 849c 7a3d 5daf 98ba 3dfb b6be ebbe 133e
000000b0: 8c98 ca3c 88a2 2bbd 047b b53c 9719 df3c
000000c0: 9057 34be a6af 99bd cd0e af3c d153 873d
000000d0: 58a0 883d 4651 f83d 81fe 183e 123e 1b3d
000000e0: 98be b93c 24b2 1e39 4868 9c3d f179 673d
000000f0: 0516 003e bcf4 8fbd 0986 d6bd a7bb 9e3e
00000100: dd2c 193d 8f49 783d 47c8 34be 8065 f13c
00000110: 4a34 cebb d988 12be 4df1 1dbe 5bb9 04be
00000120: 8534 293e be6d 0ebe c66f 11bd 10da d93d
00000130: b68d 303e a721 b83c f4a0 ddbd 8173 1d3d
00000140: bf6f 7a3d 3812 09be 2653 15bd 2f10 2ebe
00000150: 72bd fd3d 467a 0ebd 8372 cdbd 9f81 943c
00000160: 99ef b23d 9c23 4e3d e2c0 1d3e c346 84bd
00000170: 292e 983e 091b 63be b019 9d3c 4aae d63d
00000180: 410a 35bc c74a 2c3e da7d c83d 7ad3 8cbd
00000190: 7df2 ccbb 78b9 61bd b34d 293e d7be 9e3d
000001a0: d164 83be 5704 923d e328 263d 2430 eb3d
000001b0: 0acf bf3d bcae 0dbe 568c a4bd a7e7 603d
000001c0: b90e 673d b6f6 a4bd 7b9b 97bb 81c9 2b3e
000001d0: 7cf9 a53c 440c ca3d 7827 403e 2777 ad3e
000001e0: 957d 003e 0488 d63d de5d 40bd adf9 f4bd
000001f0: f21d fcbc d6fe 51bd dff5 dbbd c422 17be
00000200: 893a 073e a2cc e73a 30f6 85bc c0c2 87bc
00000210: 8af0 b4bc 13e8 8b3c e32a e4bc d259 70be
00000220: c38b 673d 2f85 863d d024 4bbe f0b6 473e
00000230: cb66 a7bd 9204 4f3e 3e9b aabe 5d68 47bb
00000240: 7861 2cbe 24a1 1d3d b79a 103d ccf5 c0ba
00000250: 613f 26bc 1199 203e 41d0 2bbe 1148 ae3d
00000260: 3d73 4b3e 4220 333d 004e 81bd 95c7 43bc
00000270: 0085 77be 3c1d 9b3e f97d ad3d a813 28bd
00000280: 56a2 a7bd 476e bfbc aefe 9f3d 0e6a db3d
00000290: 2116 003e ae62 1b3e 017b ac3e ed4c 21be
000002a0: d576 1a3e 8c2c 923e 4edb 663e 8ec9 76bd
000002b0: 156b d33d 7284 f6bc d63e 5ebe e7f2 653e
000002c0: fcdf 95be 7458 08be 5c5b 22be 9e06 3f3e
000002d0: 5794 04be e1bd 64be 773b a0bd cd2a fb3d
000002e0: a529 1abd 9e74 023e de6f 63ba b0e5 e3bc
000002f0: d6ae 143d 417d b93d cc7a b9bd e082 a93e
00000300: be86 8dbd 40f5 0a3e 267e f4bc 5419 473e
00000310: ccb4 f23c b5bb 03bc bd1c 253e bb03 4ebb
00000320: 2db2 a43d ce14 4f3c 7501 183d 6c8b 05be
00000330: 7c5c 1bbe c7f5 b63d b090 1dbe 0074 353e
00000340: a46f 00bd 0885 14be 2c8d 77bd 68f4 243e
00000350: a923 d3bb d8d0 cbbc 52be 62bb 49a0 d83d
00000360: 4abc 4f3d 42a4 1bbd e0b1 133e 0c62 943e
00000370: c735 a83d 3bb8 71bd 7b42 f23c 6f06 c6bd
00000380: 94da 303d c21e 4d3e 17be 83be 1167 0a3d
00000390: 6d3c b53d b20a 5ebd 8e59 54be 0369 233d
000003a0: 612d 49be 6302 bd3d 566a 523d 508f 7abd
000003b0: ba09 24be a69a b13d 9ce8 5dbd 7aa1 a13d
000003c0: 13d1 4a3d 81c5 663e e8f3 8ebe b097 f8ba
000003d0: 1282 b43c 6ff1 9c3c 7b0c 18be 9d34 003d
000003e0: 0072 12be ff24 e23d a329 bcbc 2e26 2fbd
000003f0: 1b8c 9ebd 7ae6 19bd 6506 b1be 45c7 54bd
0.04474214 -0.11192516 -0.020060444 -0.11155541 -0.29994208 0.08504843 -0.08587964 0.14047363
0.010859212 0.023673248 -0.12489936 -0.010153002 -0.00564681 -0.15534624 0.061336942 -0.015494696
-0.07486869 0.08254862 -0.027044391 0.041339673 -0.0045110676 -0.0029504283 -0.16170076 0.08106448
-0.09473476 -0.06427669 0.024409154 0.031986106 0.14993952 0.05857056 0.014958597 0.21565387
-0.09380607 0.16754256 -0.05704919 -0.15713681 -0.12478979 0.0023213483 0.021175552 0.12017757
0.06118442 -0.0011648942 -0.35738555 0.14428298 0.024730943 -0.04190305 0.022153385 0.027233882
-0.17611527 -0.075042054 0.021369362 0.066077836 0.06671208 0.12124877 0.14940836 0.03790099
0.02267389 0.00015134417 0.076370776 0.056512777 0.125084 -0.07029101 -0.10474784 0.31002542
0.0373963 0.060617026 -0.17654525 0.029467344 -0.0062928544 -0.14310016 -0.1542408 -0.12961332
0.16523941 -0.13909051 -0.035506986 0.10637295 0.17241558 0.022476984 -0.10821715 0.03844023
0.061141726 -0.13385856 -0.03645625 -0.16998361 0.123896495 -0.034784578 -0.10031607 0.018128214
0.08737106 0.05032693 0.1540561 -0.06458809 0.29722717 -0.22178282 0.019177288 0.10482462
-0.011049808 0.168254 0.09789629 -0.068762735 -0.006254493 -0.055108517 0.16533546 0.077512436
-0.25662854 0.07129734 0.040566336 0.114837915 0.093656614 -0.13836187 -0.080345795 0.05490842
0.056410525 -0.08054869 -0.004626689 0.16776086 0.020260565 0.09865621 0.18765056 0.3387997
0.12547906 0.10475162 -0.04696452 -0.119616844 -0.030775998 -0.05126842 -0.107402556 -0.14759356
0.13205923 0.0017684887 -0.016352743 -0.016572356 -0.022087354 0.017078435 -0.027852481 -0.23471764
0.05652977 0.065683715 -0.19838262 0.19503379 -0.08173903 0.20216587 -0.33321565 -0.0030427196
-0.16834056 0.038483754 0.035303798 -0.0014721691 -0.010146947 0.1568339 -0.16778661 0.08509839
0.19868179 0.043731935 -0.063137054 -0.0119494395 -0.24171829 0.30295742 0.08471293 -0.04103437
-0.0818526 -0.023368014 0.07812248 0.10713588 0.12508442 0.15174362 0.33687595 -0.15752001
0.15084393 0.28549612 0.22544596 -0.06025081 0.10323159 -0.030092452 -0.21703658 0.22455941
-0.2927245 -0.13314992 -0.15855163 0.18654868 -0.12947212 -0.22338058 -0.07823842 0.12264023
-0.03763737 0.12739798 -0.00086760323 -0.027819484 0.03629955 0.090570934 -0.09056625 0.33107662
-0.06910466 0.13570118 -0.029845309 0.19443256 0.029627226 -0.008040358 0.16124244 -0.003143533
0.08041797 0.012639238 0.037110765 -0.13041466 -0.15171999 0.08933597 -0.15387225 0.17720032
-0.03135647 -0.14503872 -0.060437366 0.16108859 -0.00644346 -0.024879858 -0.0034598303 0.10577447
0.050716676 -0.037998445 0.14423323 0.28981054 0.08213382 -0.059013586 0.029572716 -0.09669196
0.043177202 0.20031264 -0.25730965 0.033789698 0.08849416 -0.05420942 -0.20737287 0.03989507
-0.19646217 0.09228971 0.05137094 -0.06117183 -0.16019335 0.08672075 -0.05417691 0.07892127
0.049515795 0.2253628 -0.2792046 -0.0018966105 0.022034679 0.019158093 -0.14848511 0.031300176
-0.143013 0.11042213 -0.022969073 -0.04276102 -0.07741567 -0.037573315 -0.3457519 -0.05194785

lstm2.weight_hh_l0 f4 [200, 50]
00000000: 4b66 263d a2e3 66bd 6821 17be 7916 293e
00000010: 5303 6e3d e68a 26bd 7134 f83d 7d41 fcbd
00000020: 236e 633c 13be e83d 8733 9ebd 0ffe afbd
00000030: c981 c13d 87fd 10be 179e 67bd 9fb8 963d
00000040: 5ed0 d6bd 84bd 5abc d702 e9bc 805e 5f3d
00000050: 816b 5c3d 5f2c 68bd ec9a b2bc a845 c0bd
00000060: 7312 a1bd e242 aa3d d296 7a3d 090c 3fbd
00000070: f36e b8bd 824d a7bd 657a 02be cf9e dbbd
00000080: ca50 4a3d e41e c33d daa4 58bc fac6 8d3c
00000090: bd27 ecbd 4b1a c93c e022 9b3d e29c 7cbc
000000a0: c4e5 7b3c 9bc5 de3d c3d0 6dbc 4147 42bb
000000b0: a156 a6bd 1081 973b fd0c f03c bb6d 913c
000000c0: c28b bd3d 6d74 5cbc d020 b83d 7f74 f8bc
000000d0: 6452 39bd 2dcb b4bd cb7f 3a3b ed06 123e
000000e0: d26e 353d f06d b73b 0727 f4bd 6d42 aa3c
000000f0: e855 8abd bc4a 20bd 643b 7fbd ba70 133d
00000100: a221 81bc 2195 3f3e 85b1 1b3d 5c81 193d
00000110: 00df dc3d a15f 1abd b841 293d 402e 5a3c
00000120: 27bd 793d 192b 1abd 5382 22be 6e8b 043e
00000130: f3e3 05be 089a 01be 0ff8 313e 7202 c43d
00000140: 18ad 0abe e720 993d 2c39 503b 3cb2 8dbc
00000150: de10 01be f267 d0bd a515 55bd 1d69 753d
00000160: 85f6 2f3d 2c6e c73d e60b 7b3d d488 8ebd
00000170: e3d3 643d 0a8b d13d 0fbc b9bd e072 983d
00000180: 4a88 c1bc c735 f3bc a606 e63d 57d6 d7bd
00000190: 0f1d 173d 5090 7d3d 4520 bf3c 8764 9e3d
000001a0: ddc2 bcba edc8 1bbe 8ff3 2abd 2b13 a73d
000001b0: 9276 063e 57e6 f6bd 3a5c 2a3d 8075 03be
000001c0: 7535 ee3d 72cb 72bd ee68 dd3a ae77 1dbd
000001d0: c9a0 8dbd 8b6f da3c 2d15 563c 2af0 8f3d
000001e0: 1dd3 dabc 04dd c5bc 5fa2 fd3d 1c95 96bd
000001f0: 11ac d2bd ba34 5a3c 720e 373d c5f8 893d
00000200: 014d ec3c 19ee 0e3d fa56 fc3d 1731 073e
00000210: fb1e 8abd 5855 1dbd 33c9 f23c 5b1c cf3d
00000220: 0e72 1a3e b01e 6fbd 4612 4ebd c4e0 483d
00000230: ecc5 41bd 8707 bbbc 814e 673d f63d 32be
00000240: 177c 903d ced2 dcbc 88bc 2c3d 3d86 6a3b
00000250: 2608 073c e670 50bd 7b87 883e 99b4 26be
00000260: 94a6 8bbe 89a0 ab3d c7f4 adbd 880a be3d
00000270: b17e c8bd 5a22 babd 6813 58be 6108 4bbd
00000280: a810 22be 0a31 983c af89 11be c7c0 843c
00000290: 58b1 833e c020 773e 1273 59be 8343 903c
000002a0: b3b3 92bc 0962 61be 9fcd 943d dd1f a83e
000002b0: c10b 623e 9435 e9bc 1ab3 7dbe ce0e 543e
000002c0: a960 6ebe 58bd 7a3e a407 943d 7544 1fbe
000002d0: 3c20 40be f71a 803e 8c1a 45be 9f1b 25be
000002e0: ce02 95be 09f0 fb3c bbb9 6dbe 2960 6ebe
000002f0: 829f e7bd 5c6c 62be 338a 053d ffbc 503e
00000300: cce9 82be 9a26 233e 10b0 8ebd c694 113e
00000310: a2d4 8f3e 59ff 2d3e 3635 883e 7ab8 55be
00000320: 36db 8bbc 8f73 ab3d baeb b23d 2ab1 9b3d
00000330: 604f 4c3d 0bc4 ccbd 366e b6bd a28f b63d
00000340: c7c7 2ebd 223e 79bd 03c5 7d3d 3b98 01bb
00000350: 4944 e4bb 01eb 963d eb9b b4bd a0fb 893b
00000360: 401d 8bbd b270 b4bd 6370 31be ea65 903d
00000370: 93f0 b13b 5eb5 083e ec68 c5bd ee0f 98bd
00000380: af3d ecbd 6314 bbbd e4c0 253d 88f7 603d
00000390: dfdb 61bd 5661 ad3c 5347 053c c3ed 8e3b
000003a0: 9efe 903d 1567 73bd 7464 7bbd 2352 e03c
000003b0: 2f4a d0bd a4e1 29bd 1b04 1ebd fb6b 83bc
000003c0: 53d4 9a3d 9a81 24bb 130d 5abd d6c2 9f3c
000003d0: ef41 dfbd cfdb 82bd 46b5 ea3d 270d a63d
000003e0: ad13 8a3d 10da b6bc 8422 cbbd 5e0f 213e
000003f0: 661a 323d 23b6 cc3d 19fa 4fbd 2201 afbd
0.040624898 -0.05636943 -0.14758837 0.16512479 0.05810864 -0.040659808 0.121193774 -0.123171784
0.013881239 0.11364379 -0.07724672 -0.0859338 0.09448583 -0.14159213 -0.05654725 0.073594324
-0.10488962 -0.013350848 -0.028443737 0.05453348 0.05381346 -0.05668294 -0.021802388 -0.09388286
-0.07864847 0.08313538 0.06117899 -0.046642337 -0.09005537 -0.0816908 -0.12742002 -0.1072365
0.049393453 0.09527376 -0.013222897 0.017306793 -0.11531017 0.02454867 0.07575011 -0.015418263
0.015374605 0.10877534 -0.014515105 -0.0029644521 -0.08121992 0.0046235397 0.029303068 0.017752519
0.09255172 -0.013455492 0.089906335 -0.030328987 -0.04524459 -0.08827815 0.0028457518 0.14260454
0.04429514 0.0055978224 -0.119215064 0.020783627 -0.067546666 -0.039133772 -0.0623125 0.035996176
-0.015763108 0.18709232 0.038011093 0.037476882 0.107847214 -0.037688855 0.04132244 0.013316691
0.060971405 -0.037638757 -0.15870027 0.12943813 -0.13075237 -0.12656415 0.17379783 0.09570779
-0.13542593 0.07476979 0.0031772358 -0.017296903 -0.1260409 -0.10176076 -0.052022595 0.059914697
0.04295971 0.097378105 0.061290644 -0.06959692 0.055866133 0.10231598 -0.090690725 0.07443786
-0.023624558 -0.029688729 0.11231737 -0.10538929 0.036892947 0.061905205 0.023330817 0.07734018
-0.0014401336 -0.15213366 -0.04173618 0.08157953 0.13131168 -0.120556526 0.04159186 -0.12837791
0.1163129 -0.05927605 0.0016892233 -0.038444214 -0.06915433 0.026664516 0.013066572 0.070282295
-0.026711995 -0.02415324 0.123844855 -0.07352659 -0.10286725 0.013318235 0.04469151 0.06736902
0.028845312 0.034895036 0.12321277 0.1320232 -0.0674419 -0.03841147 0.029636955 0.1011283
0.15082571 -0.058378875 -0.050310396 0.04904248 -0.047307894 -0.022830738 0.05647135 -0.17406449
0.07054918 -0.026955988 0.042171985 0.0035785579 0.008241689 -0.05088892 0.26665863 -0.1627983
-0.27275527 0.08380229 -0.08493953 0.092793524 -0.097897895 -0.09088583 -0.21101153 -0.049568538
-0.15826666 0.018578071 -0.14212678 0.016205205 0.2572124 0.24133587 -0.21235302 0.017610317
-0.017907953 -0.22010054 0.072657816 0.3283681 0.22074796 -0.02846793 -0.24775353 0.20708773
-0.2327906 0.24486291 0.0722802 -0.15553458 -0.18762296 0.25020573 -0.19248408 -0.16123818
-0.29103702 0.030754106 -0.23215382 -0.2327887 -0.113097206 -0.22111648 0.0326025 0.20384596
-0.25568998 0.15932694 -0.06967175 0.14216909 0.28091913 0.16991939 0.26603097 -0.20871153
-0.017072301 0.083716504 0.087363675 0.07602151 0.049880385 -0.0999833 -0.0890774 0.089141145
-0.04267099 -0.06085027 0.061955463 -0.0019774574 -0.006966148 0.07369042 -0.088188015 0.0042109042
-0.06792688 -0.088105574 -0.17328028 0.070506886 0.00543029 0.13350436 -0.09639153 -0.07424913
-0.11535203 -0.09134748 0.040467158 0.054923564 -0.055141326 0.021164577 0.008134681 0.0043618395
0.070798144 -0.05942448 -0.061375096 0.027382916 -0.101703994 -0.041474953 -0.038578134 -0.0160427
0.07560029 -0.0025101663 -0.053235125 0.019502085 -0.10901248 -0.063895814 0.114603564 0.08107977
0.06742034 -0.022320777 -0.09918693 0.15728518 0.043482207 0.09995677 -0.05077562 -0.08545138

lstm2.bias_ih_l0 f4 [200]
00000000: c320 cf3d de55 0bbe 5f93 01bd e6b7 be3d
00000010: 34f6 c13d 1796 c53d a9dc 673e 5792 5b3d
00000020: cffc e13d 4cec 473c 70b7 9c3c 66f1 06be
00000030: c3e8 d9bc 90eb 6bbd 7c26 70bd 55de 913d
00000040: ef30 8c3d 4b96 36bc 2c49 0ebe 253b a93c
00000050: c79c c6bc f74d c3bd f8d1 343e 70df 093d
00000060: 778d 5b3c 0e8a fe3d bf3a 63bc e392 afbd
00000070: 16f1 d4bd 6de0 333d 4dab 91bd aa9f 173e
00000080: 1264 ae3d 0bb3 04be e7e2 163d ab3e 0a3d
00000090: 455f c43e c224 9d3d 27d4 5abb 98ff d4bd
000000a0: d906 df3b d435 a33d e66e 133e f983 4b3e
000000b0: 42a1 443d d0dc e03d 6e2f b2bd 2777 8a3d
000000c0: f366 5abd 3990 263d a84b 8cbd 763e 5a3d
000000d0: dad3 69bc 65f6 2bbd 59ed 633d 6c65 b9bb
000000e0: e7f2 05be 7600 133d e153 183e cc8d 36bd
000000f0: cc85 ce3d 2665 fbbd d8ce 943d 0762 533d
00000100: 5b41 16be 3665 ecbd 7a93 c73c 51c8 d53c
00000110: d1ff 43bb 4b1c dabd 7ad3 ff3d 40a7 1bbe
00000120: ed5d 473d a815 01bc 15d6 fcbd 74bc ca3d
00000130: 42ee 333e a1bd e83c d434 dcbd a134 3abd
00000140: 1f10 fcbd 5770 173e fb9b aa3c fe3d b8bd
00000150: d538 a83d c52b 8abd 9349 25be 16f6 e23d
00000160: 8fad 32bd 9864 f9bd 5c87 57bc 8b9a a93c
00000170: 9f96 2d3e e021 65be d7db 25be 1b44 9cbd
00000180: b0a9 133e 9eae 48bd 53d4 f53d fee9 37bd
00000190: cd6d 393b c1b3 b33c afbc ecbd 598b 4f3d
000001a0: fb7b 09be 985b 353e 9812 e13d 24ad e43d
000001b0: 4700 03be 97f8 a6bd 2f78 093d 25a3 9abd
000001c0: a014 8ebc b013 e1bd 81e1 083d c95e 153e
000001d0: de29 9ebd ec9a 88bd 24ca b63d c111 273b
000001e0: c86e 0c3e 5694 4dbc 48bb 7abd ed86 013e
000001f0: 6b5d 623c 52ed 683d f94b 73bd 7aa6 e6bd
00000200: 1b93 cdbd eb93 43bc d902 1ebe 77eb a23d
00000210: c4c9 0dbe 65eb 9f3d eaad 96bc d4f4 123d
00000220: 8e3e 6e3b 7687 9fbd f12f a43d a2a0 83bd
00000230: 3d26 22be 4d15 ef3d 6e65 efbc fa16 663d
00000240: 96c1 e23d 35b9 16bd c8dd 653d 473c 153e
00000250: 3a73 153e b96f df3d 7341 9dbd 1af8 b2bd
00000260: 58b6 9e3d e5b4 74bc 5091 ff3c 15fa d9bd
00000270: 4623 e83d 5a9e ad3d db6b 9abd d4f3 1c3e
00000280: 100a a63d d219 c53d 6c8b c23d 8d9c 333d
00000290: ba83 f83c 342d bb3d 1b16 a2bc 725a 003c
000002a0: 6be1 70bb 5369 aebd 12a1 193e b9e6 02be
000002b0: 6f5b fd3d e965 863b e044 053d f80c b73d
000002c0: 30a2 3abc c1d3 ab3d 74eb f8bc 91c8 2fbd
000002d0: 5a90 833d 41cc 6bbd 6dde a03c 4ad8 9f3d
000002e0: e1f4 af3c f019 2f3e 9268 5e3e d37f bfbd
000002f0: 7ef1 1b3e 7db5 903b 6ecf f43d 6068 3f3c
00000300: 9f07 c53c 9e9d ba3e eabb c93d fb0a 113e
00000310: d666 9cbc f585 943d b4e7 ba3c df59 863d
0.10113671 -0.13606974 -0.031634685 0.093124196 0.09470788 0.09647768 0.22642769 0.053606357
0.110345475 0.012202334 0.019130439 -0.13178024 -0.026600247 -0.057597697 -0.05863045 0.071224846
0.06845271 -0.011144231 -0.138951 0.020658085 -0.02424468 -0.09536355 0.17658222 0.033660352
0.013400427 0.124286756 -0.013868987 -0.08572938 -0.10397546 0.0439152 -0.07112751 0.14807001
0.08515181 -0.12958924 0.036837485 0.03375117 0.38353935 0.076730266 -0.0033390613 -0.10400313
0.006806236 0.07969251 0.14397773 0.19874562 0.04800535 0.10979617 -0.08700453 0.06761008
-0.053320836 0.040664885 -0.06850368 0.053282224 -0.014271701 -0.041983027 0.055646274 -0.0056578424
-0.13080941 0.03588911 0.14875747 -0.04456882 0.100841135 -0.12275152 0.07266015 0.051607158
-0.14673369 -0.11542742 0.024362314 0.026096495 -0.0029907117 -0.10649928 0.12491508 -0.1520052
0.04867356 -0.007878698 -0.123455204 0.09899226 0.17571357 0.028410735 -0.10752264 -0.045460347
-0.12307762 0.14788948 0.02082633 -0.08996199 0.08213965 -0.067466296 -0.16141348 0.110820934
-0.04362255 -0.1217739 -0.013154831 0.020703575 0.16951989 -0.22376204 -0.16197143 -0.076301776
0.144202 -0.048994653 0.12003388 -0.044900887 0.0028294206 0.0219363 -0.11559426 0.05067
-0.13426201 0.17710721 0.109898746 0.111658365 -0.12793075 -0.081528835 0.03356188 -0.075506486
-0.01734382 -0.10990083 0.033418182 0.14586939 -0.07722829 -0.06670174 0.08925274 0.002549276
0.13714135 -0.012547573 -0.06121376 0.12649126 0.013816218 0.05686695 -0.059398625 -0.11262222
-0.10037824 -0.011937122 -0.15430774 0.079550676 -0.13846499 0.0780857 -0.018393476 0.035878018
0.0036353203 -0.07789509 0.080169566 -0.06427123 -0.15834899 0.11673985 -0.02922317 0.056174256
0.1107208 -0.03679772 0.05611971 0.14573775 0.14594737 0.10909981 -0.07678499 -0.08738728
0.07749623 -0.014935707 0.03119722 -0.106434025 0.11334853 0.08477469 -0.07540103 0.15327388
0.08107388 0.096240655 0.09499249 0.04385047 0.03033625 0.09139481 -0.019785931 0.007834064
-0.0036755453 -0.08516183 0.1500285 -0.12783326 0.12370955 0.004101504 0.032536387 0.089380205
-0.011391208 0.08389998 -0.03038571 -0.042915884 0.06424017 -0.05756784 0.01963731 0.07804926
0.021479072 0.17099738 0.21719578 -0.093505524 0.1522884 0.0044161663 0.119536266 0.0116826
0.024051486 0.36448377 0.09850295 0.14164345 -0.019092005 0.07252113 0.022815563 0.0656011

lstm2.bias_hh_l0 f4 [200]
00000000: 4d84 753c a8d7 983d 3b56 793d bd8a e13d
00000010: d408 bbbd 039b 85bd f93c 333e 00dd 0cbe
00000020: 74b8 13bd 2fcf e43d 4330 80bd f34d 2bbd
00000030: 6761 da3b 7a58 08bc f6c5 a73d c0fa 313a
00000040: ee4c 273e cdaa 0b3d 965c 27bd 73d0 8f3d
00000050: 2a39 7c3d 2116 b1bd cd9e 84bb d60f 4abd
00000060: 6292 86bd 18a7 883d 7ef7 9fbd 9409 72bd
00000070: 6ab3 e6bd 3b71 d03d ab5a 733d e9c0 59bd
00000080: b7dd fb3c efac d4bc 4a71 a0bd b4ff 8fbc
00000090: 5801 6c3e e2f8 0e3e feff 173e 7a9f 153e
000000a0: c3bc d13c 7e3a b73d ee86 5c3d c7a7 a43e
000000b0: eac0 6d3d f6fa e3bd 6890 ba3c 651c b63d
000000c0: 7b4a 51bd a315 0a3d 4ae1 d3bd 0968 80bd
000000d0: 496a 06be 5a22 1c3d 4b1a 72bd d029 febd
000000e0: ff5d 7abd b879 403d 89f1 43bb 82b6 54bd
000000f0: dd5e a43c 6a14 9e3d bccc fdbd 5ba6 32bd
00000100: c4c1 c43d 43a5 073e ee5a 383c 8559 debd
00000110: d1e7 18bd 332b ae3d 18f7 a83c a043 06be
00000120: fb9a 3f3e d054 2a3c cbba e53d 9027 bcbd
00000130: 4906 69bd aaa6 0f3e c01c a53d 6804 aa3d
00000140: 55c4 f3bd 5747 003e 4f3b 9fbd 9c3f 9e3d
00000150: af97 4cbd 511d d0bd 827f e6bd 9677 17bd
00000160: c202 9ebd 486f cb3d 6312 42bd 3b94 20bd
00000170: e8c9 4abd 0b66 e0bd 611b 1dbd 6cd8 043c
00000180: 6cca 8e3d 9fc7 b03d 9c1e a73c a0bf 793d
00000190: 684e ad3d 49c6 1b3d 40f3 1a3d 25c9 2a3d
000001a0: 60bc 5e3d c4d4 9ebc 6705 78bd 06d3 013e
000001b0: 24a6 05be 9cdf f93b 836b fe3d dcee 42bd
000001c0: a86d e03d 7003 0abe 6ecf c7bd a1c4 00bd
000001d0: d273 ddbd 696a f9bb fa33 a4bd 86a1 23be
000001e0: 8a4b 8bbd a1d9 90bd 74f1 803d cc1f 7cbd
000001f0: 48b6 90bd b33e 9d3d 6a1c ce3b 1266 113e
00000200: e8d3 193d 3373 3cbd c6ce 90bc 3748 8ebd
00000210: 2614 3e3c 536f 5cbd 2d0c 513d 7daa bcbd
00000220: 5fda 253d 2ec2 f2bd 4876 cabc 4157 843c
00000230: 63ca 06be 4dd2 d1bd 79c7 07be db3c b53d
00000240: deb3 bdbd 3fe9 813c f0a2 013e 69c9 2b3e
00000250: 6cf7 853d 765e 49bd cb60 3a3d cabd cd3d
00000260: b407 9bbd a36a 0abc c842 5d3d 4d70 d7bd
00000270: f46a 123d 58cc b5bd 1592 0cbe c992 3c3d
00000280: 48d8 c73d 8664 11be d9b2 763c 5001 683c
00000290: 787b 82bc cf77 a4bc 7db3 d83d 177f 9a3c
000002a0: 135a f2bd c672 00bd 0f8f 56bd 7bc5 c83c
000002b0: a68c d13d 24cf b4bd 47f1 cb3d 0e9c 7a3d
000002c0: 7f90 a8bd d0e1 c73c c2f0 723d 035c d03d
000002d0: c883 75bb 41a8 e6bd babe 5fbd aa57 c23d
000002e0: 2c11 f6bd 8ca8 0f3e 9ec1 633e bbd0 51bd
000002f0: 3631 433e 1296 93bc 428f d53d 003a 143e
00000300: d37f bd3d 234e 7a3e 9fc6 733c 1240 c83d
00000310: 2cf0 c93d 53c6 92bd a439 c93d 29ab abbd
0.014985156 0.07463008 0.06087325 0.1101279 -0.09132543 -0.06523707 0.17503728 -0.1375618
-0.03606458 0.1117233 -0.06259205 -0.041822385 0.0066644433 -0.008321876 0.08192055 0.0006789379
0.1633794 0.034098435 -0.04085978 0.070221804 0.061577953 -0.08646799 -0.004047251 -0.04933151
-0.06570889 0.066724956 -0.07810877 -0.059091166 -0.11264689 0.10177847 0.05941264 -0.05316249
0.03074537 -0.025961367 -0.07834108 -0.017577983 0.23047388 0.13962129 0.14843747 0.14611617
0.025602704 0.089467034 0.053839616 0.32159254 0.058045305 -0.111318514 0.022773936 0.088921346
-0.05109642 0.03371204 -0.10345705 -0.06269843 -0.13126482 0.038118698 -0.059107106 -0.12410319
-0.061124798 0.04699108 -0.0029898605 -0.051931866 0.020064766 0.077187374 -0.123925656 -0.04361568
0.0960727 0.13246636 0.011252148 -0.10856918 -0.037330452 0.08504333 0.020625636 -0.13111734
0.18711464 0.010396197 0.112172686 -0.091872334 -0.05689076 0.14028421 0.08062124 0.08301622
-0.11902682 0.12527214 -0.07774984 0.07726976 -0.049949344 -0.10161842 -0.11254789 -0.03697928
-0.0771537 0.099333346 -0.047380816 -0.039203864 -0.04950896 -0.10956963 -0.03835619 0.00810824
0.06972203 0.08631825 0.020400338 0.060973763 0.084622204 0.038030896 0.037829638 0.041695733
0.054378867 -0.019388564 -0.060552027 0.12678155 -0.13051659 0.0076255333 0.1242285 -0.047591075
0.10958415 -0.13477874 -0.09756361 -0.03143752 -0.108131066 -0.007611562 -0.08017726 -0.15979585
-0.06801517 -0.070727594 0.062960535 -0.06155376 -0.070660174 0.076779746 0.0062900083 0.14199093
0.037555605 -0.0460083 -0.017676722 -0.06947368 0.011601483 -0.053817105 0.051037002 -0.092122056
0.040491458 -0.11853443 -0.024714604 0.016154887 -0.13163142 -0.1024519 -0.13259687 0.08849498
-0.092628226 0.01585829 0.12659812 0.1677605 0.065413326 -0.04916235 0.045502465 0.10045965
-0.07569829 -0.008448276 0.054018766 -0.105194665 0.03574653 -0.08876866 -0.13727601 0.046038423
0.09758049 -0.14198503 0.015057289 0.014160469 -0.015928015 -0.02007666 0.1058111 0.01885943
-0.118335865 -0.031359456 -0.052382525 0.024508229 0.10231905 -0.088285714 0.099581294 0.06118398
-0.082306854 0.024399668 0.059311636 0.101738 -0.003746258 -0.11262561 -0.05462525 0.09489377
-0.12014994 0.1402914 0.22241828 -0.05122445 0.19061741 -0.018015895 0.10427715 0.1447525
0.09252896 0.2444387 0.014878898 0.097778454 0.09860262 -0.071667336 0.09825447 -0.083822556

fc1.weight f4 [25, 50]
00000000: 7eca d3bd c86d b23d e5f6 0a3e 4ef2 c83d
00000010: 3078 2d3d 7bf5 e3bd 4ab0 76bd d09c c23d
00000020: 6c8c d73d 6a6f f9bd 8c30 813d de99 ff3d
00000030: 8069 653b c88e d8bd 3c10 5e3d f076 a23c
00000040: 84ed 56bd 7338 e8bd 2672 d2bd 5052 943c
00000050: a66e 87bd b23e acbd 36f3 ca3d e8df 703d
00000060: 225a 3dbd b686 57bd 68f0 b2bd 40f4 3bbb
00000070: 86bc dabd 525b f53d e06a 38bc 0895 a1bd
00000080: a2cd e03d 3856 3a3d 94a1 21bd 8e28 f43d
00000090: a608 5dbd 3773 013e e4ef 5c3d 3c46 16bd
000000a0: 0880 8bbd c6a9 e5bd a6fe 0fbe aad1 41bd
000000b0: 08cb 6cbd 7407 053d ce6f f4bd 1433 33bd
000000c0: be34 cc3d 18fe 94bd 6045 36bd 2d71 013b
000000d0: 7621 e7bd 5f6c 403d edd7 0dba 3464 8a3d
000000e0: 8655 9dba 7e2b e13c c0b1 033e 157e 5e3d
000000f0: 43b9 c43d b90b ab3d 8e44 70bd 328a cebd
00000100: c8c7 553d ed59 953d 6046 983c 9535 bcbd
00000110: 9981 953d 15f7 053e ef7f 7c3d cbe4 1dbb
00000120: 308a 90bd 36b6 98bd 67ef f5bd f2a6 653d
00000130: daa7 7e3d 832f 963c 6623 a03a 934c 7fbd
00000140: a1e6 1c3e b65c babd 35a5 f03d 8ece 603d
00000150: 90e7 d83d 134b e63d 12df 333d e909 f03d
00000160: b2ab db3c f721 37bd 8504 c03d e8cf 92bd
00000170: 3391 bcbd 7d40 a8bc c70d b23d c196 f2bd
00000180: 7e3a 3dbd 8eec c8bd 41c4 c93d 264f 123e
00000190: 9fc2 c13d 564c 3bbe c710 103e 827e 5b3e
000001a0: a1df 223e 3b94 7e3d c37d 153e f150 00bd
000001b0: 83bc febd 9ef6 363e 3212 4fbe 1c22 efbd
000001c0: 7758 acbd 870f 433b 2111 27bd 2da7 633e
000001d0: 895a a83d 44dd ac3c 3f99 b1bd 501b cf3d
000001e0: faec 19bd a771 093c cb4d f43d 3201 193d
000001f0: 0129 1ebe 118c 70bd 08ef 603d 9ab4 d53d
00000200: 3b82 c23d 7ba2 023e bea9 4d3d 76f5 c6bc
00000210: 37a2 11bd 7805 8b3d bc4e f0bd ab8a 72be
00000220: c779 263f b9a7 0d3e fd4b 1d3e 776f 803d
00000230: b9c9 8b3d 8cf1 0abd 3692 19be 6406 b8be
00000240: e714 c23d 5756 b2bd 87f9 8d3d 7184 843d
00000250: cd80 ac3d 6bfb a6bd a77e 8cbc 8792 5abc
00000260: b74d 1b3d 2ee1 ee3d 4a22 be3c d56e 92bd
00000270: fa33 88bd ea87 c23d c169 153e 42a2 c83d
00000280: a91e e13d 6bfe 953d 2d28 a43d 2b59 cf3d
00000290: 8929 a43d 34dc 883c bf73 acbd de57 fb3d
000002a0: 2015 b23d 74c4 b23d f787 bf3c 1df5 413d
000002b0: ccc1 babd dde9 ef3d f305 733d f604 c33d
000002c0: a589 aabc 3c10 14be 3780 233b 98dd 793d
000002d0: c571 8abd e6b6 5fbc 9e8d b9bd 4534 733b
000002e0: 8846 643d e813 d0bd bfbe ca3d 7779 a8bd
000002f0: ba68 103b a5ad e3bc ca25 a5bb 0af2 b83d
00000300: e87a 403c 2421 26bc c7cb edbd f12d d3bd
00000310: 5ac0 14be 18f9 f43c cc1f dfba 2e1a d5bd
00000320: 3f96 c83d 687e 95bc b5fa 03be 794c fbbd
00000330: a06c 593d 5cdd 2f3e a5ca 11be ad88 b63d
00000340: 1347 b5bd 4ce2 bbbd 1e3c 8cbd 1635 93bc
00000350: 8bec e7bd d3dc ffbd f017 063e 1d82 05bd
00000360: 4c90 3abd 63c2 e4bd 7a91 8d3c 7453 523b
00000370: c53b e93d e992 183e bb3a 223e e698 ab3d
00000380: b3c8 463c 4d16 443e ec3c 2ebe 4d4a 903d
00000390: 48ca 39bb 3828 26be 5a79 22be 4a14 3b3e
000003a0: 7cdd 5dbc 7ed5 e8bd f4fb e4bb 6a32 603e
000003b0: 2cca c5be faa1 dabd 1111 33bd 3605 15be
000003c0: 0890 cebd 2feb 2f3e 2772 2ebe 4080 4b3e
000003d0: 18c0 a5bd 4518 50bd 80df 9b3b 021a 0a3e
000003e0: e473 103e 759c 0dbd 2f7b 983c d140 61bd
000003f0: 9843 febd e996 29be 117f 17be 1bf0 213d
-0.10341357 0.08712345 0.13570745 0.09811841 0.042350948 -0.11130806 -0.060226716 0.09502566
0.1052483 -0.12179454 0.06308088 0.1248052 0.003500551 -0.10574108 0.0542147 0.019832104
-0.052472606 -0.11338892 -0.10275678 0.018105656 -0.066129014 -0.08410396 0.0990967 0.058807284
-0.046228535 -0.052618705 -0.0873726 -0.002867952 -0.10680489 0.119803086 -0.01125595 -0.078897536
0.10976721 0.04549238 -0.039460734 0.11921798 -0.053963326 0.12641607 0.053939715 -0.036688074
-0.068115294 -0.11214022 -0.14061984 -0.04731909 -0.057810813 0.03247781 -0.119353876 -0.043749884
0.09970997 -0.07275027 -0.044499755 0.0019751296 -0.11285679 0.04697835 -0.00054108986 0.067573935
-0.0012003637 0.027486559 0.12860775 0.05431946 0.09605648 0.08351845 -0.05865913 -0.100849524
0.05219248 0.072925426 0.018588245 -0.091899075 0.073001094 0.13082536 0.061645444 -0.002409267
-0.07057607 -0.07456629 -0.12008553 0.056067415 0.062171794 0.018333202 0.0012217581 -0.062328886
0.15322353 -0.090997145 0.11750261 0.054884486 0.10591042 0.11244788 0.04391391 0.1172064
0.02681527 -0.044710126 0.09375862 -0.07168561 -0.09207382 -0.020538563 0.08694034 -0.1184516
-0.04619836 -0.09810744 0.098518856 0.14288005 0.09460949 -0.18290839 0.140689 0.21434978
0.1590562 0.062153082 0.14598756 -0.03132719 -0.124382995 0.17867514 -0.20221785 -0.11676428
-0.08415311 0.0029763894 -0.04078782 0.22231741 0.08220393 0.021101601 -0.086718075 0.10112631
-0.037579514 0.008388913 0.119289 0.037354656 -0.15445329 -0.058727328 0.054915458 0.10434838
0.09497496 0.12757294 0.050210707 -0.024286967 -0.03555509 0.067881525 -0.117337674 -0.2368571
0.6502957 0.13833512 0.15361018 0.0627126 0.06825585 -0.033921763 -0.14997181 -0.35942376
0.09476643 -0.08707874 0.06932359 0.06470574 0.08423004 -0.08153423 -0.017150236 -0.013340599
0.03791591 0.11664043 0.02320971 -0.07150046 -0.06650539 0.0949858 0.14591123 0.09796573
0.10992176 0.07323917 0.080154754 0.10124429 0.08015735 0.016706564 -0.08420514 0.12272619
0.086954355 0.08728877 0.023380263 0.0473529 -0.09118995 0.11714528 0.059331845 0.095224306
-0.020817587 -0.14459318 0.0024948248 0.061002344 -0.06759981 -0.013654446 -0.090602145 0.0037110012
0.055731326 -0.10160047 0.09899663 -0.082262926 0.0022035078 -0.027792761 -0.005039905 0.0903054
0.011748053 -0.010139737 -0.11611133 -0.10311497 -0.14526501 0.029903933 -0.0017023026 -0.10405384
0.09794282 -0.018248752 -0.12888606 -0.122704454 0.05308211 0.17174286 -0.14237459 0.089127876
-0.08851447 -0.09174022 -0.06847404 -0.01796965 -0.11324414 -0.12493291 0.13095069 -0.03259479
-0.04554777 -0.11169889 0.017281283 0.00320932 0.11388353 0.14899792 0.15842716 0.083787724
0.012132811 0.19149132 -0.17015427 0.07045422 -0.0028349329 -0.1622628 -0.15866604 0.18269458
-0.0135415755 -0.113688454 -0.006988043 0.21894231 -0.38630807 -0.10675426 -0.043717448 -0.14552769
-0.100860655 0.17179559 -0.17035733 0.19873142 -0.080932796 -0.050804395 0.004756868 0.13486484
0.14106709 -0.034573037 0.018613426 -0.054993454 -0.12415236 -0.16561474 -0.14794566 0.039535623

fc1.bias f4 [25]
00000000: b5e9 adbd 76ff 193d 5f28 81bd f27c 783d
00000010: aa15 2e3e 7b05 17bd 9042 81bd f6a1 d53d
00000020: 93d0 a33d 56a2 563d fa22 afbd 7847 833c
00000030: 8ad5 85bd 3a06 073d 019e 143d 01d8 36bd
00000040: 72b1 eb3c 9eac e03d 44ee d0bd c2d3 cebd
00000050: 426f b3bd dd2a 063e c3c0 8fbd 9bba 8b3c
00000060: d325 b33d
-0.08491842 0.037597142 -0.06306528 0.060666032 0.17000452 -0.03687046 -0.06311524 0.10431282
0.07998767 0.05240091 -0.08551593 0.01602529 -0.0653487 0.032964922 0.036283497 -0.04463959
0.028771136 0.10970424 -0.102016956 -0.10098983 -0.08761455 0.13102289 -0.07019188 0.017056754
0.08747449
