Models/model_SP500.pth (torch, 132793 bytes, 11 tensors)

lstm1.weight_ih_l0 f4 [200, 1]
00000000: 89bc 58bd 0b39 a1bd 94b3 383e c9ea debd
00000010: a3cf e2bd 0b72 763d 4c12 fe3c 2b14 383e
00000020: 30e4 0f3f 8259 2b3e a7d1 8a3e bfd7 973d
00000030: 506b 6c3d 90a8 bc3d 99e5 eabd 73eb a5bd
00000040: cddf eb3d ebd8 083e 2933 913e c0d8 0d3e
00000050: a2b1 a43e 104d 763c 97ae f63c 5d42 3b3e
00000060: f9d5 013e a42b 27bc 7601 943e 3ad9 143d
00000070: c23e 643d c2be a13e 7fee 6f3e 3fe6 973c
00000080: c84b b13c 3157 793e daa0 2fbd 775f 1e3e
00000090: dc44 8e3c 1efd 5c3e d22e 923d 844d ffbd
000000a0: 012e 6f3e bb14 2bbe d023 50be e339 293e
000000b0: 63bc 793e 38c1 ed3d d2bf 663e 18ef 18be
000000c0: 238d e0bc 7954 3b3e fe7a a93d 69e3 c33d
000000d0: 636e 813c fc5a 47be 52bc 88bd a6ab 223e
000000e0: f650 b7bd fb18 253d 288e 46bd 2525 1e3e
000000f0: 03ec 243e 4d14 0bbd eb17 923d c7bd 823d
00000100: e70c c2bd da69 3cbd 262c 533d 992a 61bd
00000110: cb2f 2d3e deaf 813c 1606 a13e 1f30 993b
00000120: 81eb 2f3e 7582 a4bc c03b 953e 46e0 ac3d
00000130: 4b1c 593e e23a 163e 1c0a 573d 91dd 8e3e
00000140: 89dc e63d f828 593e cd40 f9bd 7f24 503e
00000150: 7200 eabc ac97 1cbb 2123 a93d 240f 44bb
00000160: 45bd 5dbc fcd0 69bd 1079 683e 1404 f6bd
00000170: 33d8 12be 8f0e 26bd 6527 cf3d c8ff 123d
00000180: 357b 50bc cfb8 46bc 6ab0 4fbd 3450 85bd
00000190: 998b 87bd be3b fa3d e2db 573e fd51 4d3e
000001a0: a106 03be 115f 51be 132a 353e 9ea0 493e
000001b0: 3e8e aabe 8fd0 8dbe 711d b93d 83f2 113d
000001c0: 5f73 663e c3c0 933d c841 7a3e 2aa3 51ba
000001d0: 15cc 93bd b459 19be bfbf 6ebe efc3 65be
000001e0: 7519 b3be 11e2 1cbd 2a3f c43c 42b3 b8bd
000001f0: a2bd 6d3e bb3b 7bbe 7835 803e d85e 00bd
00000200: d04a 713e 20a7 1fbd cb24 e63d 3294 d83d
00000210: 087a dc3c 1ff7 2c3e 507a f43d 6cad 4e3d
00000220: bdb1 273e a0c2 6a3e 4307 5a3c 05a1 663b
00000230: 2d35 253e 6cd0 613e 85c4 813e 0f59 49be
00000240: 988c 543e bb7a 60be 1119 213e 2eed e3bd
00000250: 96f4 d83d 5cb8 88bd 1120 b4bd 008e 8a3d
00000260: b462 853e 4f29 93be 6b32 26be cc49 883b
00000270: f814 7e3c f4d7 8b3e 4e0d db3e 8526 0a3e
00000280: 95fa a73e 87d5 853c b086 0b3e 869e 423c
00000290: 00c7 c1bd cc09 b0bd 0987 db3d ce2d dabd
000002a0: 575e 8e3e 0fa3 783e 7a11 ae3e 9416 b1bc
000002b0: 1c89 9d3d f9e0 c5bb f050 623e b73c 233e
000002c0: f6b7 043e 1fc3 233e d2f0 813e 6df7 fc3e
000002d0: dc08 8f3e cf1d 883d 2950 613d 6f78 3a3e
000002e0: a625 d43d 1010 843c 549e ba3d e101 6e3e
000002f0: cd84 0ebe 4390 0b3d 07aa 733e 8f93 4ebe
00000300: 974f 97be 1d5d 35bd c4d3 7f3e 123e 8e3e
00000310: 7232 c73c b9d9 ab3d 1d06 b83d bd30 10bd
-0.052914176 -0.07872208 0.18037254 -0.108846255 -0.1107476 0.060167354 0.031014584 0.17976443
0.5620756 0.16733363 0.27113077 0.07414197 0.05771953 0.09211838 -0.114695735 -0.08101549
0.11517296 0.13363998 0.28359345 0.13852215 0.32166773 0.015033022 0.030112548 0.18287034
0.1267928 -0.010203276 0.28907365 0.036339976 0.055723913 0.3159085 0.23430823 0.018542407
0.02164258 0.24349667 -0.04287801 0.15466104 0.01736682 0.21580932 0.071378365 -0.12465957
0.23357393 -0.16707127 -0.20326161 0.16525988 0.2438827 0.11609119 0.22534111 -0.14934957
-0.02741105 0.18293943 0.08275412 0.095648594 0.015799707 -0.19468302 -0.06676544 0.15885791
-0.08950989 0.040307026 -0.048475415 0.15443857 0.16105656 -0.033954907 0.07133468 0.063838534
-0.09475117 -0.045999385 0.051555775 -0.054972265 0.16912763 0.01583093 0.31449956 0.004674926
0.17179681 -0.020081738 0.29147148 0.08441214 0.21202199 0.146709 0.052499875 0.27903417
0.112725325 0.21207035 -0.12170563 0.20326422 -0.028564665 -0.0023894114 0.082586534 -0.002991625
-0.013533895 -0.05708407 0.22702432 -0.120124966 -0.14340286 -0.040541228 0.10114936 0.035888463
-0.012724687 -0.012129023 -0.05070535 -0.06509438 -0.06618423 0.12218426 0.21079972 0.20050807
-0.12795497 -0.20446421 0.17691831 0.19690177 -0.33311647 -0.2769818 0.09038819 0.035631668
0.22504948 0.07214501 0.24439156 -0.00079970306 -0.0721666 -0.14975625 -0.23315333 -0.22438024
-0.3498036 -0.03830153 0.0239559 -0.09018566 0.2321687 -0.24534504 0.25040793 -0.03134045
0.23563695 -0.038977742 0.112374865 0.10575141 0.026913658 0.16891144 0.11937392 0.050458357
0.16376396 0.22925806 0.013307395 0.003519119 0.16133566 0.22052163 0.25345245 -0.1966288
0.20756757 -0.21921818 0.15732218 -0.11129223 0.10593526 -0.06675789 -0.08795179 0.067653656
0.26051867 -0.28742453 -0.1623017 0.004159188 0.015507929 0.27313197 0.42783588 0.13491257
0.32808366 0.01633717 0.13625598 0.011878615 -0.09461784 -0.085956186 0.10719115 -0.10653268
0.2780635 0.24280952 0.3399771 -0.021617211 0.07692167 -0.0060387817 0.22101188 0.1594113
0.129608 0.15992402 0.25379044 0.4940752 0.27936447 0.066463105 0.055008087 0.18210004
0.10358743 0.01612094 0.0911223 0.23242904 -0.13917847 0.034073126 0.23795329 -0.20173477
-0.2955291 -0.044278253 0.24983126 0.2778173 0.024316046 0.08391137 0.08985541 -0.03520273

lstm1.weight_hh_l0 f4 [200, 50]
00000000: 91e5 0bbb 3379 f53d 1733 3bbb ca73 1c3d
00000010: b600 4c3d 2dbc 14bc a987 f13c bd32 96bb
00000020: 3115 29bd 8365 02be 596c 8abd 0885 023e
00000030: a0df d63d a70f 0d3e e6e3 903d 1973 543d
00000040: 138c 063e b214 a2bd 6c84 05be 0778 e6bc
00000050: 2fb8 b4bd 432e 01bc ce77 3b3d ab77 d93d
00000060: 8d27 aa3d 38b6 a8bd 162f e1bd a71b ab3d
00000070: 6d74 a03d 7bdf 09bd 3f21 113e 9496 c2bd
00000080: c25f 3e3d eb65 8a3d b5b3 c93d 33a6 473b
00000090: c5d7 92b9 a018 453e 8406 c83d e817 0fbe
000000a0: f041 90bd 974a 933c ea85 a5bd 3465 bcbd
000000b0: da3e f53d 893d 8d3d 6179 923d 549e d73d
000000c0: fd9c bc3d f42a cc3d 05ac d0bd 8945 c03c
000000d0: a9f1 6f3d ac90 dc3d e57f c6bd 2532 eebd
000000e0: e3d0 c73d a467 8fbd 131a 82bd 1ea6 9cbd
000000f0: 8bb5 0dbe fae1 a6bd 1287 2a3c 2626 b6bd
00000100: 110e 613c c532 6d3d ce95 e13c 066b 7f3d
00000110: 641b cdbd 9805 0d3e c629 c3bc 651d d9bd
00000120: d35d ca3d baa8 7d3d f04f 0c3e ed64 49bd
00000130: 61b2 cfbd 5a32 b43c fe5d 003d 0c47 d13d
00000140: a31c cdbd 5b1d e33d a646 c43d cba5 efbd
00000150: eada 92bd 120b 86bd 6c26 97bd 6aac bb3d
00000160: 6faa b6bd adff 1fbd 7220 f23c dee1 ba3d
00000170: 34d8 d83c 466f 973d 702b 0d3b 58dc 983d
00000180: c2e9 873c 8db4 38bc b13f 43bd 1224 313d
00000190: 1ffd cebd b8ed 0dbe 21d8 19bd 7627 753d
000001a0: 873e 993d 4df3 803d 5bb8 473d 023f b33d
000001b0: 2bb7 403d 98c3 53bb e554 ae3a 79dc e03c
000001c0: f980 7dbc 1162 08be 9315 6ebd b065 d3bd
000001d0: 4206 033e 5a33 e23d 1a4a 823c 1453 a73d
000001e0: 2cc6 1bbe 0360 de3d 1d80 8bbc a95d 5eba
000001f0: d706 6e3d 1286 03bd a1dc a0bd eaf1 03be
00000200: d136 103e b9e2 fb3b ce24 0b3d ff42 97bc
00000210: e1f9 8e3d b701 153e 8c59 183e cd27 afbc
00000220: 241a c9bd a254 383e 83c3 d03d 0664 ad3d
00000230: b3a3 cd3d a8a6 05bd 3550 843d 2e3d 593d
00000240: ea59 1a3e 16de 513c 9614 79bd 941c 1c3e
00000250: 907f 053e 18c0 12bd 33ba 453c 6c36 b5bd
00000260: 5a81 a73d f77b d5bd 2b45 d43b 909a af3b
00000270: 39d3 20bd 3503 103e 94c0 2e3e 7703 24bd
00000280: cc48 7dbc 8497 7f3c fd36 d7bb 2d51 b0bd
00000290: 3f9f 1abd 7db5 d83c b319 02bd 921c b23d
000002a0: c5ca 4cbe 9d70 2a3d 82a2 883d 9700 93bd
000002b0: d5b1 b73d fa0f ce3d 6f37 0c3e c920 813d
000002c0: 2766 433e b9f7 163d 99dd c5bc 8034 7ebe
000002d0: 8310 703d 3991 093e 553a 993d 77a7 643d
000002e0: 6234 e23c a009 78bd db3d 0e3e f8e7 853d
000002f0: 0783 bbbd 9fec 82bd 4538 833d d6e5 0cbe
00000300: 7dbf a0be 22c0 ed3d 3d3b 2f3e 54c9 d1bc
00000310: 1cfe 233e f86c c03d 225e 133e 36ef 8abd
00000320: 58f0 88bd b4ff 153e a92f 1bbe 15dc eeba
00000330: da57 df3d f27f 9cbd 3aeb 0d3d 80f7 0d3d
00000340: 6a18 c6bb e462 20be ace6 1c3d 5ff5 003e
00000350: 165c bcbd c310 043d 3040 71bd 11e5 3e3d
00000360: 310c b8bd 8264 cf3d 2394 d63d 85d9 ea3d
00000370: 307d eabd 5a2d 5fbc 0379 1d3d fc1d 0fbe
00000380: 41ca cdbd 68fb 273d ffc5 f13d 6f2b c2bc
00000390: 984b d3bc c74c 023e e189 e2bc 3708 9e3c
000003a0: ef3d a8bd bcc0 683d 19f0 c0bd 3c3e e83d
000003b0: ffb2 14be e250 023e ca27 0b3e 70ae 153e
000003c0: 79f9 f3bc b2a9 7abc 1521 9d3b 33e8 d13c
000003d0: fd51 81bd 9bcd aa3d 559b 2fbd 1cda a7bd
000003e0: 8f48 f13c f554 dc3d 9f8f aa3d 0b08 013e
000003f0: 26cc 223d 9459 0dbe 2115 efbd 7f99 943d
-0.002134655 0.119860075 -0.0028564387 0.038196363 0.049805366 -0.009078068 0.029483633 -0.004583685
-0.041279975 -0.12734036 -0.06758947 0.1274606 0.10491872 0.13775502 0.07074718 0.05186758
0.13139372 -0.079141036 -0.13038796 -0.028133405 -0.08824193 -0.007884565 0.04576855 0.10618528
0.08308325 -0.082378805 -0.10995309 0.08354884 0.078347065 -0.033660393 0.14172839 -0.09501377
0.04647804 0.067577206 0.098487295 0.0030464053 -0.0002800805 0.19247675 0.09766868 -0.13973963
-0.070438266 0.017979903 -0.08082183 -0.091989905 0.119748786 0.068965025 0.071520574 0.105282456
0.09209631 0.0996913 -0.1018906 0.023470657 0.058580074 0.107697815 -0.09692363 -0.11630658
0.09756639 -0.0700219 -0.063526295 -0.07648872 -0.13838784 -0.0814857 0.01040818 -0.08893995
0.013736264 0.057909746 0.027537253 0.062357925 -0.1001499 0.13771665 -0.02382363 -0.1060131
0.09881177 0.06192849 0.13702369 -0.049168516 -0.10141445 0.021996666 0.031339638 0.10218629
-0.10015228 0.110895835 0.095837876 -0.117015444 -0.07170661 -0.0654508 -0.07380375 0.09163745
-0.089192264 -0.03906219 0.029556487 0.09125112 0.026470281 0.073942706 0.0021540783 0.07463902
0.016590957 -0.011273515 -0.047668163 0.04324729 -0.10106873 -0.13860214 -0.037559632 0.059852086
0.07482629 0.06296406 0.0487598 0.08752252 0.047049683 -0.0032312628 0.0013300447 0.02744888
-0.015472644 -0.1331866 -0.058126044 -0.1032213 0.12795356 0.11044951 0.015904475 0.08170143
-0.15212315 0.108581565 -0.017028863 -0.00084825844 0.05811199 -0.03211028 -0.078545816 -0.12885252
0.14083411 0.0076869396 0.033970647 -0.018464563 0.06981254 0.14551435 0.1487791 -0.021381283
-0.09819439 0.18001035 0.10193541 0.084663436 0.10040989 -0.03262964 0.06460611 0.05303686
0.15073362 0.012809297 -0.060810648 0.15245277 0.13036942 -0.035827726 0.012068319 -0.08848271
0.08178969 -0.10424035 0.006477972 0.0053590015 -0.039263938 0.14063723 0.1706565 -0.040042367
-0.015459251 0.015600089 -0.0065678344 -0.08609233 -0.037749525 0.026453728 -0.03176279 0.086968556
-0.19999225 0.041611303 0.06671621 -0.07177847 0.08969466 0.10061641 0.13693021 0.063050814
0.19081937 0.03685734 -0.024153518 -0.24824715 0.058609497 0.13434304 0.07481829 0.05582377
0.027612869 -0.060556054 0.13890783 0.06538385 -0.09155851 -0.06392788 0.06407217 -0.1375955
-0.31396094 0.11608912 0.17112441 -0.025608696 0.16014904 0.09395784 0.14391378 -0.06783907
-0.06686467 0.14648324 -0.151549 -0.0018223549 0.10905428 -0.07641591 0.034648158 0.034659863
-0.006045391 -0.15662724 0.038305923 0.12593602 -0.091972515 0.032242548 -0.058899105 0.046605173
-0.089867 0.10126592 0.104774736 0.1146727 -0.11449659 -0.0136216525 0.038445484 -0.13976282
-0.100483425 0.041011244 0.11805343 -0.023702351 -0.025792882 0.127246 -0.027653636 0.019291027
-0.08214938 0.05682443 -0.09420795 0.11339995 -0.14521407 0.12726167 0.13589397 0.14617324
-0.029782044 -0.015299248 0.0047952035 0.025623417 -0.06314466 0.083399974 -0.042872746 -0.08195898
0.029453544 0.10758392 0.08328175 0.12600724 0.039745472 -0.13803703 -0.11673952 0.072558396

lstm1.bias_ih_l0 f4 [200]
00000000: 1eb1 e83d 2664 e5bd 7ba4 bf3d c36d 553e
00000010: 6a74 363d 7e17 f7bd f0f4 9abd 3634 103e
00000020: c852 bd3e 6ee1 8f3e c255 9abd ef35 d7bd
00000030: ce70 033e 7e57 94bc f0e9 313e e47d 15be
00000040: d670 eebd b616 0b3e 0a55 e23d 4f72 003e
00000050: 7b0a ea3d 3576 94bb 4d0c 183b 1564 e1bd
00000060: 6e83 fe3d 425f b03c 7423 ce3c baf0 39bd
00000070: 763f 2c3d ba10 ef3c a73d 5cbd 953a 833d
00000080: fe03 48bd 83b7 c9bd 28ed 0abe c21c 6a3d
00000090: e254 0dbc e358 48bd 16c6 d33d 89b0 7abd
000000a0: 0e06 dc3d 2ca9 65bd 2631 33bb 6561 80bb
000000b0: 2666 afbd 66b8 f53c bc1a e7bd 2c12 52bd
000000c0: a42c 0abe 9b80 bdbd cd8f a63d 39dc e7bd
000000d0: d670 60bd fdd9 fd3c 3ca9 e63d d6e2 f3bd
000000e0: 9b77 57bd 361d eebd a606 40be 70a2 213d
000000f0: fbe2 92bd aa9e a0bc 423d 173c 5512 05be
00000100: af8b 6fbd d351 fdbd ebce d0bc d4fb e7bd
00000110: 6dd1 043e eec8 cfbd 9aa0 d83d e2ac 52bc
00000120: 28b7 dcbd 1e7c 583d e7e7 38bd 0396 693d
00000130: df26 09be fc12 193d ded2 633d b8bf 0fbe
00000140: b6f7 c93d 2374 043e d0be e7bd f7d1 e7bd
00000150: dc70 81bd 4572 1cbe cdb0 d2ba 5420 e33d
00000160: 3112 06be 3d3b 53bc efa9 f8bd 601b f83d
00000170: f40f 443e 494c 6fbd 46f4 e0bd 82ca 76b9
00000180: 8c43 c1bd f648 19be 82d1 053e f797 edbc
00000190: 0a67 9f3d 379d 68bd b2db 433c 9655 4c3d
000001a0: b896 8d3d db33 2ebd 568e 6abd 9779 663d
000001b0: 464d 71bd 6eab bfbd 1ee8 103e 6ea0 3ebc
000001c0: d731 4d3d 3624 b53d 4403 a7bd eaaa dcbb
000001d0: fbf7 fabb 29d8 36bc 76c8 9ebc 773f ce3b
000001e0: 5a78 e6bc 9b92 b6bc 7ad2 be3b 34b6 e73d
000001f0: e91f 9c3d 342c 423d d44d 2c3c e2cf a63d
00000200: adb3 9d3d 64d3 bebd fe14 1c3d e1fc f9bc
00000210: 0920 03bd 77df 023e 7091 813d 03a1 59bd
00000220: 0471 fc3c db85 17be 1f8f b1bd c2ff 823d
00000230: b193 f5bc 6af6 a9bd 08ab 0f3d 7037 733c
00000240: b3af 22bd 0afa 3a3c 8846 abbd 9cf6 9c3d
00000250: 609f dd3c 36b8 abbd bf8d cdbd 0118 07be
00000260: 917b d8bd c922 08bd 5bfb 90bd 9817 c0bd
00000270: a49c 073e e0fc fabb 7e29 cb3e 0732 ac3d
00000280: 0a69 16be 8706 9f3a 7e2f fe3c 0589 60bc
00000290: 2265 e73d 944c 553c be48 abbd c7be 97bd
000002a0: 285c 4cbd a8c8 5e3c 9158 273d d4d3 ff3d
000002b0: 8b5f 2fbe 28f9 04be fd53 173e 1c7c c93d
000002c0: 5392 2c3e 7b73 023e c10a b63d e500 b4bc
000002d0: d633 083c 1f6b f33d 9159 a33c 9648 01bd
000002e0: 7b5a 883d c365 6fbd 3d30 4abd 8397 303e
000002f0: 598e 45bd 3715 03be a80c 043e 43e1 2f3b
00000300: b269 8b3d c583 8c3d ab00 b4bd 2547 87bd
00000310: 6741 1dbb 3952 563d 49f0 623d d4ed 8ebc
0.113619074 -0.112007424 0.09357544 0.20842652 0.044544615 -0.12065028 -0.07566249 0.14082417
0.3697722 0.28101677 -0.07535888 -0.10508334 0.12836 -0.018108126 0.17374396 -0.14598805
-0.116426155 0.13582882 0.11051376 0.12543605 0.1142778 -0.004530693 0.0023200691 -0.11005417
0.12427412 0.021529797 0.02516339 -0.04539559 0.04205271 0.02918278 -0.053769734 0.06407658
-0.048831932 -0.09849455 -0.1356703 0.05715633 -0.008626195 -0.048912894 0.10340516 -0.061203513
0.10743342 -0.056069538 -0.0027342527 -0.0039178603 -0.08564405 0.029995155 -0.11284396 -0.05128686
-0.13493592 -0.09253045 0.081328966 -0.11321301 -0.05479511 0.030987734 0.11262748 -0.119085
-0.0526043 -0.11626665 -0.18752536 0.039461553 -0.07172199 -0.019606907 0.009230914 -0.12995274
-0.058482822 -0.12369122 -0.025489291 -0.11327329 0.12970515 -0.10145746 0.10577507 -0.012858601
-0.10777122 0.052852742 -0.045143034 0.057027828 -0.13393734 0.03737162 0.05562102 -0.14037979
0.098617 0.12934928 -0.113156915 -0.113193445 -0.06320354 -0.15277965 -0.0016074419 0.110901505
-0.13092877 -0.0128925415 -0.12141787 0.12114596 0.1914671 -0.05842236 -0.109840915 -0.00023535828
-0.09436712 -0.14969239 0.13068202 -0.029003127 0.07783325 -0.056790557 0.011954235 0.04988631
0.06913513 -0.042529922 -0.05726465 0.0562683 -0.058911584 -0.093588695 0.14151046 -0.011634929
0.05009636 0.08844797 -0.0815492 -0.0067342417 -0.007658956 -0.011159935 -0.019382697 0.0062941867
-0.02813356 -0.022286704 0.0058234306 0.11314049 0.07623274 0.047405437 0.010516603 0.08145119
0.07700286 -0.09317663 0.038105957 -0.03051609 -0.032012973 0.12780558 0.06326568 -0.05313207
0.030815609 -0.14797156 -0.08669876 0.06396438 -0.029977651 -0.08298953 0.035075217 0.01484476
-0.03971834 0.011412153 -0.08363062 0.076642245 0.027053535 -0.08384745 -0.100368015 -0.1319275
-0.105704434 -0.0332363 -0.07079192 -0.093795 0.13243347 -0.0076595396 0.39680094 0.084079795
-0.14688507 0.0012132683 0.031028505 -0.013704543 0.112985864 0.013018746 -0.08363484 -0.07409435
-0.049892575 0.013597645 0.040855948 0.12491575 -0.1712629 -0.1298567 0.14778133 0.09838125
0.16852693 0.12739365 0.0888877 -0.021973083 0.00831314 0.11885666 0.01994017 -0.031563364
0.06657883 -0.058446657 -0.04936241 0.17245297 -0.048231456 -0.12801062 0.12895453 0.0026837147
0.06807269 0.068610705 -0.0878919 -0.066053666 -0.0023995282 0.052324507 0.055404935 -0.01744739

lstm1.bias_hh_l0 f4 [200]
00000000: 157d 703d 984f dbbc f89e 803c efe5 5c3e
00000010: f4bb 22bb b301 26bd d073 983d d4f8 073e
00000020: 5e7d ae3e c215 be3d 351e b53c 675c c8bd
00000030: fff4 bbbd 5b43 11bd a418 0a3e 4987 b23d
00000040: 8445 b4bc 75be c43b 4c8a 31bd c382 143e
00000050: c0eb 593e b43b 20bd 1417 0ebe 550a ff3c
00000060: fec3 0c3e abc4 373d 2dcc 1a3e 5391 fd3d
00000070: 9b1f 0a3e f9f0 7f3d e5e3 5dbd 5fbd e43c
00000080: fa4e 7ebd 438f 9ebd e5f5 e8ba 5724 1fbd
00000090: 3765 883d 3604 f93d 1526 c6bc b261 3fbe
000000a0: 7d08 133e bf2d 383e fd0d 633e 7ad6 d93d
000000b0: cf00 1d3e e6b8 1d3e c83e babd 7d9b 8dbd
000000c0: b39a 59bc 84e3 8d3a 5802 76bd dca8 babc
000000d0: bd27 b43d 3a33 213d c638 a9bd e7f1 c0bc
000000e0: e00c f3bd d4fe 543c ee22 36be 3a1e ffbd
000000f0: 477c f3bd 118c b9bd afb3 03be 3db9 ccbd
00000100: 98c9 83bd d132 ffbd 44f6 14be 50b2 cabd
00000110: f916 233e bb31 693d e802 d2bd 9e1f 3ebd
00000120: 6716 b0bd e3bf 03bb 4b79 da3c 12b9 413e
00000130: 4066 5f3d b6f8 dbbd d870 643d a6f3 4abe
00000140: 4a37 dabd 89a4 bcbd bab0 03be bba1 ddbd
00000150: a098 963c d6a6 bd3d 0b93 833d 36ee d0bd
00000160: d883 8fbd b8c6 1ebd f36e a03d 9371 4fbc
00000170: 9f86 70bd 29d0 063d 88c8 303d a8f0 d8bd
00000180: 5fc9 88bc 8d6d cd3d c5e6 a63d d10a ed3d
00000190: 6224 7dbd 8748 edbd a56f 9e3d 2d46 d9bd
000001a0: 0476 dc3b d60a 983d 3290 2f3d 41fd 203d
000001b0: 3cf7 0b3e 6299 d33d c07d cb3c a16c aabc
000001c0: 4799 c73d e4cf 46bd 62fa f7bd efba 06bd
000001d0: ab8b a83d 8fa5 38bd 4008 3ebd b779 b5bb
000001e0: b8a0 dc3c 9733 a33d 2659 d93d 3a5b 823b
000001f0: 9f69 54bd 8c06 4e3b a431 f03d a85a f4bd
00000200: 7234 3abd aa3d a43d a2dc c53d 0739 673d
00000210: 139f 13bd 5e30 6a3a 5e99 8c3d 2978 13bd
00000220: 67be 803d b970 983d edad 4d3d 2b44 dabd
00000230: 9959 d63c 36e8 00bd 8e42 01be faf3 6b3d
00000240: 3b54 7d3d 929f cabc 5af7 d73d 1fd7 9b3c
00000250: bf7d 75bc 0ec8 7a3c 0ecd 3ebd 1541 ecbd
00000260: 3863 173d ad35 5e3d 934b 47bd 57d8 e63c
00000270: 9f99 ad3d 863e b33d 68f3 fc3e b4f5 3e3e
00000280: 9bea 91bd 9da0 18be dc18 4e3d 981b 00be
00000290: 142d 0e3e 75fd d43d b614 9b3d bd7b f13d
000002a0: b6be 133e 0b09 c23d 45f5 963d 48b4 22bb
000002b0: f097 a8bc 2044 383d 7690 6d3d fc86 273e
000002c0: 89a1 993c 92c3 a23d 3dfa ba3d 1c74 373d
000002d0: c5ba da3d 0327 a43d ed4a 6b3c 297a 003e
000002e0: c74c fabd 9acb b9bd f343 b63d c438 76bd
000002f0: 69b0 1dbd 0ae6 c4bc d3a0 8cbc b3e1 62bd
00000300: 681b 473c 4dc1 bd3d fa30 02bd d1ab a8bd
00000310: f9c5 e63d b9a0 87bc 849a ee3d 8ef5 f83c
0.058713038 -0.026771352 0.015700802 0.21572088 -0.0024831267 -0.040528964 0.074439645 0.13278514
0.34080023 0.09281494 0.02210913 -0.09783249 -0.09177589 -0.035464626 0.13485962 0.0871721
-0.022005804 0.0060041496 -0.04334478 0.14503007 0.21281338 -0.039119437 -0.13875991 0.031132856
0.1374664 0.04486529 0.1511695 0.12381234 0.13488619 0.06248567 -0.054172415 0.02792233
-0.062087037 -0.07742169 -0.0017773478 -0.038853016 0.0665993 0.12159006 -0.02418808 -0.18689612
0.14358707 0.17986201 0.22173305 0.10636611 0.1533234 0.15402564 -0.09094006 -0.06914423
-0.013281512 0.0010825251 -0.06006083 -0.022785597 0.08796642 0.039355494 -0.08262782 -0.023552848
-0.1186769 0.013000209 -0.17786762 -0.12456937 -0.118889384 -0.09059919 -0.12861513 -0.09996269
-0.06434935 -0.12460864 -0.14547068 -0.09897292 0.15926732 0.056932192 -0.102544606 -0.04641687
-0.08598023 -0.0020103387 0.026669165 0.18918255 0.054540873 -0.10740797 0.05577168 -0.19819507
-0.10655077 -0.0921107 -0.12860385 -0.10821863 0.018383324 0.09260337 0.064245306 -0.10201685
-0.07007569 -0.03876373 0.07833662 -0.012661356 -0.058722135 0.03291336 0.04315999 -0.105927765
-0.016697584 0.10030661 0.081494845 0.11574329 -0.061802275 -0.11586099 0.07736138 -0.10609088
0.0067279357 0.07423942 0.042862125 0.03930402 0.13668531 0.1033199 0.024840236 -0.020803751
0.09746032 -0.048538104 -0.121083036 -0.032893118 0.082297646 -0.045079764 -0.046394587 -0.005538191
0.026932105 0.07968824 0.10612707 0.00397816 -0.05185854 0.0031437008 0.11728218 -0.11931354
-0.045460172 0.08019574 0.09661223 0.05645087 -0.036040377 0.0008933599 0.0686519 -0.036003266
0.06286316 0.07443375 0.050214697 -0.10657533 0.02616577 -0.031471454 -0.12623045 0.05760572
0.061847907 -0.024734292 0.105452254 0.019023476 -0.0149835935 0.015306486 -0.046582274 -0.11535851
0.036959857 0.054250408 -0.048656058 0.02817933 0.084765665 0.0875216 0.49404454 0.18648416
-0.071248256 -0.14905019 0.050316676 -0.12510526 0.13884383 0.103999056 0.0757231 0.11791179
0.14428219 0.09474381 0.07371 -0.0024826694 -0.020580262 0.044986844 0.057999097 0.16360086
0.018753784 0.07947458 0.091297604 0.044788465 0.10680155 0.080152534 0.014361125 0.125466
-0.12221675 -0.09072037 0.08899679 -0.06011273 -0.038498316 -0.024035472 -0.01716653 -0.055391025
0.01215253 0.09265385 -0.03178499 -0.082358964 0.11268229 -0.01655613 0.11650565 0.030390527

lstm2.weight_ih_l0 f4 [200, 50]
00000000: fa1e cf3a 3000 fd3d 04b1 e4bd 546c 013e
00000010: 3bbc 0dbd 5a3c 7a3d 6e1e 3fbd 014a ba3a
00000020: 6bed bebd 5261 d5bd 36d8 1d3e bc7f ef3c
00000030: 589a f5bd 6ddd cebd 9e50 b4bd 79cc 053e
00000040: f862 b8bc 6e41 1cbe b82b f33b f300 153d
00000050: b024 973d c80f 00bd cd65 033d 7858 0f3d
00000060: 1908 ed3c 36ba c23d 1ea8 cf3d e179 91bd
00000070: 203f 97bd 6ad4 a1bd d051 0a3e 719b 093e
00000080: d09e dc3d 1557 f73d 27fc a6bd 9dd8 dbbd
00000090: 2c87 98bd a6df 23bd 7988 783d beb9 29bd
000000a0: 0f8e fcbd 381f debd 0a71 8e3d 1227 a6bd
000000b0: 0845 183b 179b cfbd a4ae 2c3e 6457 b83c
000000c0: 64ba 573d cbeb 0ebe 62bb c53d d5d5 80be
000000d0: ca1e 863e 7c25 89bd 7b4f 743e b3c0 89be
000000e0: 9ace ee3d 104a 5d3e b73d 0fbf 9255 bfbe
000000f0: 7619 9b3e fe06 92bd cc2f a73e 1111 e33d
00000100: e86a 83bd bf60 15be 0384 8c3e c92c 803c
00000110: 250b f0be c705 9bbe 7704 14bf 3852 e2be
00000120: d833 bb3d 5445 023e 41af 923e 682a d6be
00000130: f7a5 ae3e 9d16 98be 874f 043e 166f b4be
00000140: 3f2c 643e 1cae 4a3e 14f8 68be 86cf 703e
00000150: eec6 de3c 023d b0bd b909 a33e b9e6 ec3e
00000160: e819 0ebe 0660 d0bd db2f 103f 55e4 15bd
00000170: d5a1 b0be c3d2 79be 7dd2 683e e03b fabe
00000180: db31 1a3e 45e7 203e 07c4 8e3e 9a17 13be
00000190: 0976 64bd c902 8dbc f863 cb3d 995c 1d3d
000001a0: aaf1 943d 4251 18be aefc 47bd 0e30 113e
000001b0: 0936 08bd 30cf 09be 94fc ce3d 0d4c a53c
000001c0: 2aef 623d a91a 043c 1220 7d3d 85dd a3bd
000001d0: eb8e 81bd d011 d4bd e0e4 333d e78c ba3d
000001e0: 7113 edbd 23a5 013e 9ea0 a2bb 41bf 793a
000001f0: d976 85bd b41a 48be 5eb5 8ebd bfc2 bd3d
00000200: cffa 4b3d 08a9 72bc 9177 ff3d 7e5e 07be
00000210: 0808 35bd bcfb 03be db2f 023e e45f a03d
00000220: fde2 96bd 0bf0 a73c 16e2 b8bd 07f6 023e
00000230: 0187 da3d 2335 55bc edf9 38ba 40cd 623d
00000240: acdb 923c 7f0b eb3d 90f4 22bc 4e2c 53bc
00000250: 4aec 0ebe 21d3 0d3e 81a9 293e 8c12 b3bd
00000260: 4f94 013d 559a 553e af57 313d a317 efbd
00000270: 0aaf bf3d b9a7 4f3d a614 183b b0af 0b3c
00000280: ccb0 e43d b14a a6bd 46d7 5fbc ab71 16bd
00000290: 2531 30bd 64ae 333d eec6 323d 04cf 48b9
000002a0: a0a0 22be 724e 11be f5ea ddbd 21af 29bb
000002b0: 41c5 983c c806 d63d c816 363e b41f 19be
000002c0: a487 2d3e 9d55 23be 147e a83d 458c 3abd
000002d0: 968b 323e 21f4 fc3d 0bba 23be 0d24 393e
000002e0: b83c 07bd 457a e2bc d6f6 be3d b69a 6d3e
000002f0: 800a f9bd 010c 9c3c abf9 c93b 7808 713d
00000300: 4302 133d 1300 143d 229e 2a3e c0bd 0a3d
00000310: faab 4fbd e8ba cb3d e2fb c3bc 7058 aa3c
00000320: 626e f23d 54f5 86bd 51b9 2c3d 331e bd3d
00000330: 86c2 00bd cb37 2dbe 87ac b4bc 8763 1c3e
00000340: f337 3fbe 52cd 5fbe 207a 38bd 9e33 0cbd
00000350: ef0d ab3d 1534 ff3d 943a f93d c69c 3fbd
00000360: 4830 003e b286 82bd 467a dc3b a10e a03d
00000370: e855 2e3c 557a 43bd 8866 2a3c 2804 8a3d
00000380: 8184 0b3e 7468 98be b9ca 003b a330 913d
00000390: 3568 223e 6321 913d 9edf be3c d0f5 0fbd
000003a0: 60be 07be eeca e63c afda 08bd 701b 5f3d
000003b0: c5a0 143e 649f 233e 49b3 203d 399d 5d3d
000003c0: 8d5a aebd da4c 073d 338a 9f3d de9b 65bd
000003d0: b22c e63d a3ca 1abe bf6d c83d 3216 323d
000003e0: 5bc9 823d 4711 d93d 7bca cbbd f612 3abd
000003f0: d453 3dbd 406e 783d 11e6 23bd 98e9 523d
0.0015802078 0.123535514 -0.111665756 0.1263898 -0.03460334 0.061092712 -0.04665988 0.0014212729
-0.09322628 -0.10418953 0.15414509 0.029235713 -0.11992329 -0.10100827 -0.08804439 0.13066281
-0.02250813 -0.15259334 0.007420983 0.03637786 0.073800445 -0.03126505 0.032079507 0.03499648
0.028934525 0.09508173 0.10139488 -0.07103325 -0.07385087 -0.07901843 0.13507771 0.13438202
0.107724786 0.120771565 -0.08153563 -0.10734675 -0.07447657 -0.04000821 0.060677025 -0.041436903
-0.12331783 -0.10845798 0.06955154 -0.08112921 0.0023234505 -0.10137003 0.16863495 0.022502609
0.05266799 -0.13957135 0.09654881 -0.2516314 0.26195365 -0.06696603 0.23858444 -0.2690483
0.116605 0.21610284 -0.55953544 -0.37369972 0.30292863 -0.0713024 0.32653654 0.110872395
-0.06416875 -0.14587687 0.27444467 0.015646355 -0.46883503 -0.30277845 -0.5781931 -0.44203353
0.09140748 0.12721759 0.28649333 -0.41829228 0.34110996 -0.29704753 0.12920962 -0.35241002
0.22282504 0.1979298 -0.22750884 0.23516664 0.027194466 -0.08605386 0.31843355 0.46269777
-0.1387707 -0.10174565 0.5632302 -0.036594708 -0.34498468 -0.24396805 0.22736545 -0.48873806
0.15058081 0.15713222 0.27883932 -0.14364472 -0.05577663 -0.017213242 0.09931177 0.038418386
0.07272656 -0.14874747 -0.04882496 0.14178488 -0.033254657 -0.13457942 0.10106769 0.020177865
0.055403866 0.008062997 0.061798163 -0.08001236 -0.063260876 -0.1035496 0.043919444 0.09108906
-0.11575974 0.12660651 -0.0049629947 0.0009527095 -0.06516809 -0.19541436 -0.06968187 0.092656605
0.049799737 -0.014810808 0.12473977 -0.1321964 -0.044197112 -0.12888998 0.12713568 0.0783079
-0.07367513 0.020500204 -0.090274975 0.12789164 0.10670281 -0.013013157 -0.0007056285 0.055371523
0.017927013 0.11476802 -0.009946004 -0.012888981 -0.13957325 0.1385007 0.16568567 -0.08743772
0.03163558 0.20859654 0.043296512 -0.1167443 0.09359558 0.050697062 0.0023205667 0.008525774
0.11166534 -0.08119715 -0.013662165 -0.036729496 -0.043015618 0.043867484 0.043646745 -0.00019150606
-0.15881586 -0.14190081 -0.1083583 -0.0025891738 0.018648745 0.10450512 0.17782128 -0.149535
0.16946274 -0.15950628 0.082271725 -0.045543928 0.1743606 0.123512514 -0.15988939 0.18080159
-0.03301689 -0.027646193 0.09324424 0.23203549 -0.12160206 0.019048693 0.006163796 0.058845967
0.03589083 0.036132883 0.16661885 0.033872366 -0.05070112 0.09947759 -0.023923818 0.020794123
0.1183746 -0.065897614 0.04216892 0.09234276 -0.031435512 -0.16915815 -0.022054924 0.15272342
-0.18673687 -0.21855667 -0.045038342 -0.034228913 0.08352267 0.12461106 0.12169376 -0.04678037
0.12518418 -0.06373347 0.0067284433 0.0781529 0.010640599 -0.047724087 0.010400422 0.06739074
0.13624765 -0.2976719 0.0019652082 0.07089355 0.15860064 0.07086446 0.023299988 -0.035146534
-0.13256216 0.028172936 -0.033411678 0.054469526 0.14514454 0.15978771 0.03923348 0.054105017
-0.08513365 0.033032276 0.07790031 -0.05605685 0.11238994 -0.15116362 0.097865574 0.0434782
0.06386062 0.105989985 -0.099507295 -0.04542824 -0.046222523 0.060652018 -0.04001433 0.051492304

lstm2.weight_hh_l0 f4 [200, 50]
00000000: baad 43be 0016 5e3e b511 a8bd 0982 ac3d
00000010: cdeb 0dbe 1b0b 4dbd bc09 a4bd dcb9 10be
00000020: 3b7d 91bc bbbc 563d 3108 dfbc d07c 80bd
00000030: 6fd1 863d 4fef ec3d b385 efbc 81f9 013e
00000040: cef7 113f 5e1e 62be a0ee 593c 66bc ccbd
00000050: 41f0 b93d ed13 8c3d febe 3f3e 8295 5ebd
00000060: 7eb7 6fbc 06f1 e03d aa4b f2bd 5ea1 ff3d
00000070: 8aa1 863e a241 983d 8b98 063b 593e 78bd
00000080: 7257 913d b27a d23d 4c80 d93d 3fd2 95bd
00000090: 2714 94bc 86b7 b93d 251c 19bd c396 b33d
000000a0: a42c 20be 3d1c babd f7cd 23bd 4bf3 023d
000000b0: b5b9 4a3d e140 53bc 9beb 07bc 8315 e53d
000000c0: 0ea7 443c 43eb f23c ad59 01bf c789 883d
000000d0: 1355 bf3d db14 03be 047c 85be bf71 323e
000000e0: 9ae0 53be cefd 5bbd 6987 c83d 2fb5 fe3e
000000f0: 1b84 e93d 6a66 99bd da3b 1f3e 6057 a63e
00000100: b577 d33e 9db0 a83e 27b9 b0be d1c0 a9be
00000110: f658 68bd ab3b 90be 1444 1c3d 5ab6 973e
00000120: 6994 c1bd a3ac 08be e584 e33d 8922 2b3d
00000130: fd82 c6bd a6d2 253e a25e bdbe c69f 9c3e
00000140: 194e 74be b5d9 2bbe 5501 b6be 6f6a 96bd
00000150: dcee b73e 0ee6 c0be e5fa 34bd b919 a8be
00000160: 42cf d73e 0341 473c 10d7 6dbe 56e1 5bbe
00000170: d3b2 79be 0304 d3bd 4fe6 e83e 00cf 61bd
00000180: 1966 003e 3e19 223e 73eb 963c 9801 073e
00000190: 938a 133e 1440 09be 85ca 033d 3e03 7c3c
000001a0: 3e5e 17bc 73ed 1dbe 2c55 503d 2716 923d
000001b0: cacd 223d 505c fbbc 26ce a83d 2eba b33d
000001c0: a257 a6ba fe64 4e3d 2452 3dbd 3008 943c
000001d0: de7d 0cbe 8460 ddbc d917 fbbd e517 663c
000001e0: 160f 12be 9607 98bc 5e60 13be 1ab7 dc3d
000001f0: 868d 303d b119 cdbd 040a 06be 7d85 273d
00000200: 3fd7 92bd aeb0 5cbd 6549 f7bd fb57 cf3c
00000210: 69ac fa3d 0fd8 bf3c 23d4 d1bc 4c8e db3d
00000220: ab9e b4bd 591a 873d 255a 1abd f231 25bd
00000230: b9c9 453d 2a6a 1b3e 8398 0e3e 1cc4 b2bc
00000240: 62b5 3cbe 8fc1 61bd 97d0 a03d ffa3 d1bd
00000250: 13a4 9e3c 03dc bebd bb53 213e e882 06bd
00000260: 0034 d53d 3e18 f93c d014 423d 92fb c8bd
00000270: e95c a6bd 2205 d33c 948c be3d 9545 93bd
00000280: 7869 053e 27e7 723d dc24 0fbe cf60 64bd
00000290: 69f3 c73d 1bf7 fe3d 4b13 cfbd c5c3 043c
000002a0: b2c7 1a3d 4c14 4cbc 639c d4bd b5d2 16bd
000002b0: 18d7 3a3d 77cf 93bd 0c00 033d 021b edbd
000002c0: 2737 da3d 4ec9 37bc ac05 9ebd 5011 4d3d
000002d0: 6f8b 833d 0ed6 913d eda4 a93c 829e c03d
000002e0: c6c0 ec3c 5f78 4cbd 0118 c53d d3fb 3fbd
000002f0: 916f 673d d08f a1bd 10f4 ac3c 01d5 abbd
00000300: fb3b be3d e399 f3bd b9b5 83bd 9941 63bd
00000310: b75a d2bd a28c bc3d a865 abbd 6cbe 063e
00000320: a245 aebc c1d0 32be 6dfd 0b3d 4f4b bc3c
00000330: 970e b73c 6e51 b53d e14f cc3d f4d4 a73c
00000340: 9198 5c3d 68fc c53d 5434 0a3e 1269 45bd
00000350: e5be 913d f6c2 38bc e945 0d3e f107 21bb
00000360: 75a5 15be da3d f3bd 0b71 d3bc 0477 b43d
00000370: 41b9 28bd f9d9 af3d 24aa 6bbc 1bfd 91bd
00000380: a01d 293d 25de 85bd c7f9 b1bd d0d0 fbbb
00000390: 626a 03bd 912d 403d e30c f03d 34e6 c13d
000003a0: 4ff7 fdbd 1b9c 49bd 61d2 003e a474 6c3d
000003b0: 1435 483c 2733 e93d 1f25 3ebc 23fd 01be
000003c0: 5e4a 48bc ad60 453d 35a2 0ebc b11e bbbd
000003d0: b8e0 8e3d 124e 45bd fec5 edbd f152 d5bd
000003e0: 87e6 213d 5a38 d8bd 429b 0fbe 2748 2b3e
000003f0: 566d 0b3a 6910 973d 60d5 4a3d b220 01be
-0.1910924 0.2168808 -0.08206502 0.0842324 -0.13859482 -0.05005942 -0.08009669 -0.141334
-0.01775991 0.05242608 -0.027225586 -0.06273806 0.06582915 0.11569082 -0.029238557 0.12692834
0.57018745 -0.22081897 0.013301522 -0.09996872 0.09079028 0.06839738 0.18725201 -0.0543418
-0.01463115 0.109834716 -0.11830838 0.1248195 0.2629512 0.074343935 0.00205377 -0.060606334
0.07096757 0.102773085 0.10620174 -0.07315492 -0.018076016 0.090682074 -0.037380356 0.0876899
-0.15642029 -0.09087417 -0.039991345 0.031970304 0.04949351 -0.012893886 -0.008295919 0.11185744
0.01200272 0.029653197 -0.5052746 0.06666904 0.093423985 -0.12800924 -0.2607118 0.17426203
-0.20691147 -0.053708844 0.097914524 0.49747607 0.1140215 -0.07490237 0.15550175 0.32488537
0.41302267 0.32947245 -0.3451626 -0.3315492 -0.056725465 -0.28170523 0.03815086 0.2963131
-0.09452135 -0.13347106 0.11109332 0.041780982 -0.09692953 0.16193637 -0.36986262 0.30590647
-0.23857917 -0.16782267 -0.3554789 -0.07344519 0.35924423 -0.37675518 -0.044184584 -0.32832125
0.42150313 0.012161496 -0.23226571 -0.21472678 -0.24384622 -0.103034995 0.45488212 -0.05512905
0.12538947 0.15829942 0.018422818 0.13184202 0.1440833 -0.1340335 0.03217556 0.015381632
-0.009238778 -0.15422611 0.050862476 0.071331315 0.039747037 -0.030683666 0.08242445 0.08775745
-0.0012690912 0.050389282 -0.046220914 0.01807031 -0.1371989 -0.027023561 -0.12260408 0.014043783
-0.14263567 -0.018558305 -0.1439223 0.10777111 0.043103717 -0.10014666 -0.13089758 0.04089879
-0.07169961 -0.053879432 -0.12074546 0.025310507 0.12239916 0.023418454 -0.02561385 0.107205
-0.08819326 0.06596822 -0.037683625 -0.040330835 0.04828808 0.15177217 0.13925366 -0.021822028
-0.18428567 -0.055116232 0.07852285 -0.10236358 0.019365346 -0.09319308 0.15754597 -0.032839686
0.10410309 0.030407067 0.04738313 -0.09813608 -0.0812319 0.025759283 0.09304157 -0.07191006
0.13028514 0.059302475 -0.13978904 -0.055756386 0.09763224 0.124494754 -0.10111102 0.008103316
0.0377881 -0.012456011 -0.10381391 -0.03682204 0.045615286 -0.07217305 0.031982467 -0.11577417
0.10655051 -0.011217428 -0.077159256 0.05006534 0.06423079 0.07120906 0.020708526 0.09405233
0.028900515 -0.049919482 0.09623719 -0.046871018 0.056502882 -0.07888758 0.021112472 -0.08390237
0.09288784 -0.11894586 -0.06431145 -0.05548248 -0.10271209 0.09206511 -0.08368999 0.13158578
-0.021273438 -0.17462446 0.034177233 0.022985129 0.022345824 0.08853422 0.09976173 0.020487286
0.053856436 0.09667283 0.13496524 -0.048195906 0.07116488 -0.011276951 0.137962 -0.0024571384
-0.14613898 -0.118770316 -0.025810739 0.08811763 -0.041192297 0.08586497 -0.014383826 -0.07128354
0.04128802 -0.06536511 -0.08690219 -0.0076848045 -0.032083876 0.046918456 0.11721208 0.09467736
-0.12400686 -0.04922114 0.12580253 0.057728425 0.012219686 0.1138671 -0.01160553 -0.1269422
-0.012224762 0.0481879 -0.008705665 -0.09136713 0.069764555 -0.048170157 -0.1161003 -0.104162104
0.03952649 -0.10557623 -0.1402407 0.16726743 0.00053187215 0.07376177 0.049519897 -0.12610129

lstm2.bias_ih_l0 f4 [200]
00000000: 7f4d cdbd f03a 0bbd 284e 0e3c f6c7 cebd
00000010: 89e5 5ebc df13 0a3d 94c8 573d cd09 09bd
00000020: 2d9a 903d 5fc6 ce3c a7ff c93d 3f52 e93d
00000030: 7632 88bd 07e8 993c 3e45 00bd de32 04be
00000040: a9f9 e03e 3b26 f43d 8308 e6bc fed5 8f3c
00000050: a260 473d 1ad0 153e 7406 78bd 7c38 eebd
00000060: 2fd2 143d 6d04 bdbd 7059 14be 6a5b 2fbd
00000070: b02d 2e3e b69f 43bd 22d8 983c b55d 7dbd
00000080: 9295 be3d 7514 e13c 02df 863d f14b 4c3c
00000090: b07d c23d 5ef4 3f3d 57a0 dc3c 8aff be3d
000000a0: 6157 a83c 82ac 18bd 13ba 853c bc27 9abd
000000b0: a719 38bd baef 48bc 94f6 9a3d 3308 54bd
000000c0: 1d8c 7cbd bc69 24bc e80c 703d ae3c 103e
000000d0: dd01 1c3d 0955 e43d ebec 92bc 089f 363d
000000e0: dfde b03d 0ae6 d6bd ce87 2ebb a372 013d
000000f0: 334b dfbd b38a 21bd 8f0d b93d 75dd a9bd
00000100: 2ac1 8e3d 7059 363d 2f76 373d 301f a03d
00000110: 098f 21be 29bd f0bd cdc4 d8bd cc5f b33d
00000120: e13d 23bd 9e24 1fbd 2ba8 c2ba f5a6 73bc
00000130: 9d19 a53d 0271 0f3e a56c 0abe 00a9 a03d
00000140: d664 e6bd ff7c 853d db68 cd3d 4956 3a3d
00000150: 0f88 023e 7cdc 453c 2e4a 20bd ac4b ddbd
00000160: 2995 babd 13f7 e8bd 1862 81bd 6559 babd
00000170: d9a0 5fbd ee5d 903c 8792 6d3d cfbf 91bd
00000180: 3f63 73bd 63f9 86bc 78d4 45bc dfbb 6d3d
00000190: a65b df3d e968 10bd a1b6 9b3d 91f5 1fbe
000001a0: 1ca2 e33d 434e 933b a4bf 09bd 10e2 10bd
000001b0: 1c2d edbb 4596 a93d 3b6b 9ebd 6403 483d
000001c0: 1f38 663d dec4 c5bd 71a8 adbd fa5f 0fbc
000001d0: c676 ef3c ef7c e7bc 5f8b c8bd 4fed 1abe
000001e0: 8895 8fbc 05ac d3bd 1196 50bd c891 fdbd
000001f0: 114d e73d 7222 a63d d511 49bc ecf2 d73d
00000200: 58f0 33bd daf0 3f3d 63b4 2ebd b026 7e3d
00000210: 0e69 c6bb 6567 dc3d 6dc4 b83d 437c 2cbd
00000220: 20a8 73bd c2b4 363d 40c3 963d 1ff4 1abe
00000230: 85ee 3bbc 92da a63b aa27 08be e2c2 f3bd
00000240: 9bbe 7f3d fa66 59bd 0d85 ec3d 73ca 6d3d
00000250: 4316 51bd 36c4 893d a9c4 47bc f1fd 133e
00000260: 0e1d 413d b64d 013e f352 a53c bca1 dabb
00000270: 798f 413d bbf8 043d b446 833d 63f7 943d
00000280: 62d1 d63d 42ae c7bd 62a0 073c 1d7f e63d
00000290: cd6e 113d 4006 54bd efb4 c23e e4c2 f53c
000002a0: b88b a8bd 8ee3 1d3e f1e3 cebd d661 123e
000002b0: 808e b83c 82f8 02be 7001 6abd 36ef 2a3d
000002c0: dbfc 143d e9f2 243e b9d3 893e e429 91bd
000002d0: 43ff b63d b7e0 99bd 338d ce3c 23e6 ba3d
000002e0: 5ecf d2bd 0290 4a3d 43e0 f1bd b256 d6bd
000002f0: 59e8 8bbd ebdc 42bd 07e6 2ebc fe10 d23d
00000300: 652e d63d 95c7 06bc bef4 81bd c13a ac3d
00000310: 56b6 88bc 4c12 8a3d b479 933d 5476 243d
-0.10024547 -0.033991754 0.008685626 -0.10096733 -0.01360453 0.033710357 0.05268152 -0.033456612
0.07060657 0.025241075 0.09863215 0.1139264 -0.0665025 0.018787397 -0.031316034 -0.1291003
0.43940476 0.119213544 -0.02808023 0.017558094 0.04867614 0.14630166 -0.06055303 -0.11631867
0.03633326 -0.0922936 -0.14487243 -0.04281179 0.17009616 -0.047759734 0.018657748 -0.061856944
0.09305872 0.027475575 0.06585504 0.012469278 0.09496629 0.046863906 0.026931925 0.09326084
0.020549478 -0.03727389 0.016324079 -0.0752711 -0.04494634 -0.0122641865 0.07566562 -0.051765632
-0.06165706 -0.010034975 0.05860606 0.14085647 0.038087714 0.11149032 -0.017935237 0.044585258
0.08636259 -0.10493095 -0.002663124 0.031603467 -0.10903015 -0.039438915 0.09035789 -0.08294193
0.06970437 0.044518888 0.044790443 0.078184485 -0.1577722 -0.117548294 -0.10584412 0.08758506
-0.039853934 -0.03885328 -0.0014851143 -0.014871349 0.08061526 0.14007953 -0.13518007 0.07844734
-0.11249702 0.06517982 0.10029765 0.045492444 0.12747215 0.012076493 -0.039133243 -0.10805449
-0.09110481 -0.11375251 -0.06317538 -0.09099082 -0.054596756 0.017622914 0.058001067 -0.07116663
-0.05942082 -0.016476339 -0.012074582 0.058040496 0.109061524 -0.0352563 0.07603193 -0.1562102
0.11114904 0.0044954135 -0.03363003 -0.03537184 -0.0072380435 0.08280615 -0.07735296 0.04883136
0.056205865 -0.0965669 -0.08479393 -0.00875091 0.02923144 -0.028257815 -0.09792208 -0.15129589
-0.017527357 -0.103355445 -0.050924364 -0.12381321 0.11293996 0.08112039 -0.012272318 0.105443805
-0.04393038 0.046860553 -0.0426525 0.062048614 -0.006055004 0.107619084 0.0902184 -0.042110693
-0.05948651 0.044605978 0.0736146 -0.15132187 -0.011470442 0.0050919736 -0.1329638 -0.11902405
0.062437635 -0.05307672 0.11548815 0.0580544 -0.05104662 0.067268774 -0.0121928835 0.1445234
0.04714685 0.126273 0.020181155 -0.0066721123 0.047255967 0.03246377 0.0640997 0.07273748
0.10489155 -0.09750034 0.008277984 0.11254714 0.03550606 -0.051763773 0.38028666 0.030000158
-0.08229774 0.15418836 -0.1010207 0.14295134 0.022528887 -0.1279011 -0.057130277 0.041732036
0.036373954 0.16108288 0.26919344 -0.07088068 0.08935406 -0.07513564 0.025213813 0.09125926
-0.102934584 0.049453743 -0.11810353 -0.104657546 -0.06831426 -0.047573965 -0.01067496 0.10257147
0.10458068 -0.008226295 -0.06345509 0.08409644 -0.016688507 0.06741771 0.072009474 0.04015191

lstm2.bias_hh_l0 f4 [200]
00000000: 26e2 a5bc 08e5 283e e549 0abd ee83 e63d
00000010: dd6a 6cbd 6bcc d6bb 6f67 823d 2ec8 0bbe
00000020: 5e9e 913b 46e5 573d 9f7e 893c c3f6 023e
00000030: a918 cdbc aaca 4dbc 05ce e6bc c99e f23d
00000040: 004f 0e3f dc3f 013d 94ab f1bd e40d 59bd
00000050: 39d1 983d 7891 123e a077 243e 68d8 5cbd
00000060: 9908 62bd 1b1d 04be c106 cbbd 832b 5ebc
00000070: c3c2 333e 02cf ebba f0c0 373d 92fb 793d
00000080: 0653 6a3d 4b83 abbc c643 943c 6d3a 33bc
00000090: 889d a13d b24e 14bd f5d0 a3bb 22dd bbbd
000000a0: a331 513d 4410 adbd 44db beba 7836 ce3d
000000b0: d17c d2bd 92a0 10bc bd0a 3d3c ad10 253e
000000c0: 5d63 c23d 2d8a 04be 4309 bd3d 0836 3b3e
000000d0: da51 febd b89a c33c aaf3 0e3e b823 923c
000000e0: 1b4b 13be 4ce6 80bd dfde 0a3e 50a4 28be
000000f0: 670a fe3d 27c0 e3bd 2b64 e3bd 03f6 c4bd
00000100: a624 06be 7f10 c33b 09c3 1dbd 2a63 ca3d
00000110: 75c4 35bb 3db5 b0bd 81ea d93c a4f4 913c
00000120: cf73 c4bd 84a7 5b3d d26a debd 94fb 183d
00000130: b714 9dbd 4cfb bd3c 877c 9a3b 1c5f 8fbd
00000140: 0ef0 8c3c a004 083e e1e8 a83d d3ff 84bd
00000150: cdf5 8c3a 5f48 ccbc 30db 823c e92f 1bbe
00000160: 5b1d adbb 7114 e33c 2256 cd3d 5b67 a4bd
00000170: 7516 6a3c 64a4 87bc 3ef9 30be e80b 85bd
00000180: e70b a23c b6da 06bc a1b6 e93d 3df1 95bd
00000190: 50dd cfbc b054 a73d 3246 62bd 0ad9 9f3d
000001a0: 7614 31bd 8ba0 8a3d 38c2 6fbd 31d4 913d
000001b0: 5fca cc3c dadc 0ebe d03a 98bc 1848 13be
000001c0: 982f 26bc b8c4 2a3d 393e c73d e1da cb3d
000001d0: 7e7e af3c fcfd 4a3c 478a 833d 7a18 99bc
000001e0: 0d33 64bd e8cc 173e f1ca bc3d 6eab 9b3b
000001f0: f2fd 613a 491f 803d 68d2 083d 7fac 65bd
00000200: 5ca1 7e3c b460 f7bd 977f 2fbd 2d38 9bbd
00000210: ec2f f6bd 69dd 9d3d af23 913d de3b bdbd
00000220: 893c 963c 9466 c53d 68fb 903d 010e f1bb
00000230: 2216 bfbd 75e7 91bd 24d2 0abe 6514 9439
00000240: a008 e9bc 99c8 03be 0431 973d adc4 473d
00000250: a849 1dbc 9563 243c 765a d8bd e569 1f3e
00000260: edef 8b3d 853d 993d 79c8 a53d 6772 95bd
00000270: 5da7 573d 1b8b 1fbe 6fb7 113b a4ac 143e
00000280: 3b64 403d b6a2 d23d 40b5 06be afdd d7bd
00000290: f7b8 dcbb 7828 dbbd 1a3c 183f 9af3 dcbd
000002a0: 06f4 1abe eeea 95bd 0f76 8d3d c127 ec3d
000002b0: f968 503d 370f 87bd e012 df3d 25f2 c93d
000002c0: 6448 09be 341b 59bd d226 d53e 931a 1a3d
000002d0: 4959 bdbd 8445 f43c d3a7 7abb b385 e3bd
000002e0: e43b 8f3d 36f3 72bd 7595 82bc f082 273d
000002f0: 8bb1 74bd adde 183e 7911 0dbe 9f98 16bd
00000300: f9e0 cebd 9cb3 97bd 6bc0 8e3d 8158 ca3d
00000310: f2d2 87bd 2a42 173e e547 ffbc 2711 023e
-0.020249438 0.16493618 -0.033761878 0.11255632 -0.0577191 -0.0065551302 0.06367385 -0.13650581
0.0044439277 0.052708887 0.01678401 0.12789445 -0.025036173 -0.012560526 -0.02817441 0.11846692
0.55589294 0.03155504 -0.11800304 -0.052991763 0.07461781 0.14313304 0.16061258 -0.05391732
-0.05518398 -0.12901728 -0.099133976 -0.013560179 0.17554764 -0.001799077 0.044861734 0.06103093
0.057208084 -0.020936629 0.018098723 -0.010939223 0.07891375 -0.036207862 -0.004999275 -0.09173037
0.051072728 -0.08450368 -0.0014561196 0.10068983 -0.10277713 -0.008827345 0.011538205 0.16119643
0.09491608 -0.12943335 0.09230282 0.1828233 -0.12417956 0.023877487 0.13960138 0.017839298
-0.14384119 -0.06293926 0.13561581 -0.1646893 0.12404328 -0.111206345 -0.1110309 -0.096172355
-0.13099918 0.005952894 -0.03851608 0.09882195 -0.0027735506 -0.086283185 0.026601078 0.017816849
-0.09592401 0.053626552 -0.10860218 0.0373493 -0.07669967 0.023191117 0.004714552 -0.070005625
0.01720431 0.13283014 0.08247543 -0.06494107 0.0010754407 -0.024936853 0.015973657 -0.15154995
-0.0052830405 0.027719708 0.10026194 -0.08027526 0.014287581 -0.01655788 -0.17282578 -0.064964116
0.019781066 -0.008230856 0.11411787 -0.07321403 -0.025374085 0.0817045 -0.055242725 0.07805069
-0.043232404 0.067689024 -0.05853483 0.071205504 0.024998842 -0.13951436 -0.018582731 -0.1438297
-0.010143183 0.041691512 0.09728665 0.09953857 0.02142262 0.012389656 0.06422859 -0.01868843
-0.05571275 0.1482426 0.092183955 0.0047506606 0.00086209096 0.06255967 0.033403784 -0.05607271
0.015541401 -0.120789915 -0.04284629 -0.07579074 -0.12020859 0.07708246 0.07086884 -0.092399344
0.018339412 0.09638706 0.07079202 -0.0073564057 -0.093303934 -0.07124225 -0.13556725 0.00028243955
-0.028446496 -0.1286949 0.07382396 0.04877155 -0.009600081 0.010033508 -0.10564129 0.1556774
0.068328716 0.07482437 0.08094878 -0.07297211 0.052649844 -0.15580408 0.002223458 0.14518982
0.046970587 0.10284941 -0.13155079 -0.1054033 -0.0067359167 -0.10701078 0.5946671 -0.10788651
-0.1513215 -0.073202 0.069072835 0.1153102 0.05088136 -0.06594699 0.10892272 0.098606385
-0.13406521 -0.05300446 0.4163118 0.037623 -0.092455454 0.029818304 -0.0038247004 -0.111094855
0.06993845 -0.059313975 -0.015940407 0.040896356 -0.05973963 0.14928694 -0.13776197 -0.036766645
-0.10101504 -0.07407305 0.069702946 0.09880162 -0.066320315 0.14771333 -0.031162212 0.12701856

fc1.weight f4 [25, 50]
00000000: 407e c4bd 3e8d 663e 79d5 273d 3136 efbd
00000010: 7275 3cbe 98cf bc3d bd55 cb3c e7f2 ef3b
00000020: 53b8 edbd 3127 0a3c 3f38 97bd d535 66bb
00000030: b432 9a3d 5093 113e 082e 6cbc 64b6 8f3d
00000040: a6be b23e 2f9d 2fbe c64e dabd 8ca2 30be
00000050: 3d13 eb3d 4d75 233e 6060 cdb7 3c8c a4bd
00000060: 5763 ab3d a356 04be 1624 a13d bfa1 ee3d
00000070: e525 d23d b025 9c3d 4d4a 5a3d 711b 28bc
00000080: a3e2 5cbd 2aa9 ecbb ddb1 173e 177e 09be
00000090: 51b8 18bd 62f8 123d 8705 343e 3192 08be
000000a0: 7b6e 32bd 9114 1cbe 6c75 edbb 603f 823c
000000b0: 30c0 ef3d b031 03bd e05b 473e 15fc 2f3d
000000c0: fdbd fcbd 3510 ba3d e143 f2bd e0df 36bc
000000d0: 18cf 953d fb80 0e3e 3ef2 0ebe 28ec be3c
000000e0: 306a 2b3d b4a2 5cbd 801b b4bb c4c4 db3d
000000f0: 0a37 fabd 5452 e9bd 88a1 333d 1c19 243d
00000100: 16a8 fe3d cec1 ebbd fdfa e1bd 6edc 98bd
00000110: 901d 61bc 92e7 62bd fb8f 00be 8c66 adbc
00000120: b282 21bd 9002 2bbc ce50 943d 7c6c dbbd
00000130: 1492 e5bd 38f2 8cbc 4e7e c7bd f405 53bd
00000140: 0010 3d3c ec5a d03d da97 f43d 1fef debd
00000150: f069 69bc 6763 013e 6cd2 f6bd a888 213d
00000160: 408c 1c3c d019 7d3d 048f 2f3d 0978 013e
00000170: 4c39 05be c05c 0f3c 1288 d4bd 98a4 cc3c
00000180: 1223 34bd d600 75bd 9e7d c43d 44f6 5abd
00000190: 641d fc3d ac6d a83d 2618 793d d3b2 65bd
000001a0: 3b6f 2b3e 5e4a 0e3c ef5e b23c b550 dd3d
000001b0: bd08 9d3d f277 2bbe 451f aebd 346d fdbc
000001c0: 4968 343d 600a 0e3c 36b9 b7bc c834 d4bd
000001d0: 4727 0bbe 2b77 14bd 8102 d2bc b308 87bd
000001e0: 8a58 e7bd 2813 dfbd 95b6 edbc 4f8d 8fbd
000001f0: 3031 0dbe cceb 853a d63f 973d 9cd1 13be
00000200: ec18 74bd b975 0ebe cf30 033e 1cbf c23d
00000210: 856f 383e 3f3d 8e3d fbf1 97bd 793c 273e
00000220: bab8 4f3d 0ffb c8bd 4ff0 613d 8225 bf3c
00000230: 8b7e abbd 1dd1 4bbd 6324 153b 5bbe 01bd
00000240: 9f1d ec3d 35f7 ffbc b4a1 763d 15de 31be
00000250: 016b 233e 22bd 28be 9549 0a3e 4592 9fbd
00000260: d8c7 0fbe e087 693d 83fd dbbd f85c ec3d
00000270: 953e 8f3d 6489 0d3e a0b0 92bd 24c7 00be
00000280: cb32 debc 2a9d 863d de37 e9bc 1dd5 203d
00000290: 9818 d1bd 7111 3d3d a3b3 103e 2040 153e
000002a0: e049 da3d 5d05 a73d cc82 c53d c6ee 9f3d
000002b0: 5f46 c13d c794 323d fa92 993d 2b20 a7bd
000002c0: c12e 9ebd 89ae 5cbc 8da0 95bd 09e4 88bd
000002d0: 2eb3 823d 44cc f4bd 7451 ed3d aace f83d
000002e0: 92c7 123d 3ff9 00be d137 fb3d c5a3 873d
000002f0: eda1 083d 7e83 b73d e25e 6a3d cb89 f63d
00000300: 81da cd3d 0417 83bd dc81 433b f498 823d
00000310: 9dcf fa3d 77a7 ad3d ba53 eabd 6662 003e
00000320: 7d7a bfbd d6da 07bf e812 cdbc 699e 743b
00000330: 62fd 2f3b 5193 203e 1ead a13d eee0 683d
00000340: 013e b03c a53c 7dbd 4088 943e 2287 593d
00000350: 398a 2cbd 1b47 30be e654 f93c 6a17 a138
00000360: 8867 63bf 7e87 533c f9a4 443e 8904 823d
00000370: 6aba 49be 3322 713d fa33 b1be ed59 acbd
00000380: 7f97 87bc 0595 cdb9 3c60 223e a198 003d
00000390: 8d5f cbbe 5de4 653e a7f7 25be 2446 b3bc
000003a0: 2a91 943c 5fe5 adbd ad0e d33b e08e acbd
000003b0: e0d6 df3d e01a ccbd 8a02 873d 2312 d63d
000003c0: 3879 61bd bc5c b43d f595 d13d 9d52 3bbd
000003d0: 7286 8cbd dcea 223d eb37 e13d e7e7 8abd
000003e0: c485 95bd f46a 863c 69ed 30bd ea14 a73d
000003f0: 73fd 51bd 9112 233b 887f 9bbd 8aa6 0ebb
-0.09594393 0.22514817 0.040975068 -0.11680258 -0.18404177 0.09219283 0.024821157 0.0073226574
-0.11607423 0.0084321955 -0.07383775 -0.0035127301 0.07529202 0.14216352 -0.014415272 0.0701721
0.34911078 -0.17149805 -0.10659556 -0.17249507 0.11478279 0.15962715 -2.4482782e-05 -0.0803456
0.08368557 -0.12923674 0.07868211 0.11651944 0.10261134 0.07624376 0.053293515 -0.010260449
-0.053927075 -0.0072223144 0.14813943 -0.13427006 -0.037285153 0.035881408 0.17580234 -0.13337018
-0.043562394 -0.1524222 -0.007246664 0.01589936 0.11706579 -0.032029808 0.19468641 0.042965014
-0.12340925 0.090851225 -0.11829353 -0.011161774 0.073148906 0.1391639 -0.13959596 0.023305967
0.041849315 -0.053866103 -0.0054964423 0.107308894 -0.12217529 -0.11392656 0.04385522 0.04006301
0.124344036 -0.11511575 -0.110342 -0.074639186 -0.013739958 -0.055396624 -0.12554924 -0.021167062
-0.03943128 -0.010437623 0.07241975 -0.10714051 -0.11209503 -0.017205343 -0.097408876 -0.05151935
0.011539459 0.10173592 0.11943026 -0.108854525 -0.014246449 0.12635575 -0.120518535 0.039436966
0.009554923 0.061792195 0.042861 0.12643446 -0.13010138 0.008750141 -0.10377516 0.024980828
-0.04397876 -0.05981525 0.09594272 -0.053457513 0.12310293 0.08224043 0.060814045 -0.056078743
0.1674165 0.008684723 0.021773783 0.10806409 0.07667682 -0.16744974 -0.08502058 -0.030935861
0.044044767 0.008669466 -0.022427183 -0.1036163 -0.13589202 -0.03624646 -0.02563596 -0.06593456
-0.11296184 -0.10892326 -0.029017726 -0.07009374 -0.13788295 0.0010217368 0.073852226 -0.14435428
-0.05959408 -0.13912095 0.12811588 0.095091075 0.18011291 0.069452755 -0.07419201 0.16331662
0.05071328 -0.098135106 0.055160817 0.023333315 -0.083737455 -0.049759973 0.0022757284 -0.031675678
0.11529087 -0.031245807 0.060212806 -0.17369874 0.15958788 -0.16478398 0.13504632 -0.077915706
-0.14041078 0.057014346 -0.10741713 0.1154117 0.069943585 0.13821942 -0.07162595 -0.12575966
-0.02712383 0.065729454 -0.028469022 0.03926574 -0.10209769 0.04615921 0.14131026 0.14575243
0.10658622 0.0815532 0.09644088 0.07809214 0.0943725 0.043598916 0.07498737 -0.081604324
-0.07723761 -0.013469347 -0.07306013 -0.06684119 0.06381832 -0.11953023 0.115878016 0.12148793
0.035834856 -0.1259508 0.122665055 0.066230334 0.03335755 0.08960627 0.057219394 0.12038001
0.10051442 -0.06400874 0.002983204 0.0637683 0.1224663 0.08479207 -0.11441751 0.12537536
-0.09349535 -0.5306829 -0.02503343 0.0037325865 0.0026853909 0.15681197 0.078943476 0.056855135
0.02151394 -0.061825413 0.290102 0.05310739 -0.042124007 -0.17214625 0.03043599 7.6814395e-05
-0.8882985 0.012910722 0.19203557 0.06348521 -0.19700018 0.058870506 -0.34609967 -0.084155895
-0.016551731 -0.00039211675 0.15857023 0.03139556 -0.39721337 0.22450395 -0.16207753 -0.021884032
0.018135626 -0.08491015 0.0064409585 -0.08425689 0.10929656 -0.099660635 0.06592281 0.10452678
-0.055047244 0.0880675 0.1023368 -0.045733083 -0.06861581 0.03977476 0.10996994 -0.06782513
-0.073009044 0.016408421 -0.043195162 0.08158286 -0.0512671 0.0024882893 -0.07592684 -0.0021766745

fc1.bias f4 [25]
00000000: db72 ef3d f9e3 94bd fca7 683c 8ef1 e3bd
00000010: 7d28 a13d e714 a33d e266 53bd c797 ddbb
00000020: 7272 d93c 4be2 0dbe ef7e 873d 1e18 b93d
00000030: 6649 27bc ca6f 6a3d 3e50 9d3d 10e5 05bd
00000040: 0155 73bd 3cad ca3d 2091 293e 8292 ab3d
00000050: bc38 8a3d 7940 1a3d bd31 f33d f1d1 fa3c
00000060: 6663 ccbc
0.11691829 -0.07270045 0.014200207 -0.11130057 0.07869051 0.07962971 -0.05161179 -0.006762478
0.02654383 -0.13855855 0.066160075 0.09037803 -0.010210371 0.057235517 0.076813206 -0.032689154
-0.059407238 0.09896323 0.16559267 0.083775535 0.067491025 0.037659142 0.11874721 0.030617686
-0.02494974
