Models/model_TSLA.pth (torch, 132779 bytes, 11 tensors)

lstm1.weight_ih_l0 f4 [200, 1]
0	0xbe038286	-0.1284276
1	0x3da060ef	0.078309886
2	0x3d853fcc	0.06506309
3	0x3c793024	0.0152092315
4	0xbcabaa7b	-0.020955315
5	0x3d872e8f	0.06600677
6	0x3e4ea1f6	0.2017897
7	0x3e2f889d	0.17141958
8	0xbca4a084	-0.020096071
9	0xbda0ec36	-0.07857554
10	0x3e39e1db	0.18152563
11	0x3dcbb8a8	0.0994733
12	0x3dbd6ddd	0.092494704
13	0x3e1a6507	0.15077601
14	0x3e39af85	0.18133362
15	0x3e3496d7	0.17635666
16	0xbd96e36d	-0.07367597
17	0x3d67d95b	0.05660377
18	0x3e2ce8a9	0.16885628
19	0x3dd0cdb4	0.10195485
20	0x3dfe8e05	0.12429432
21	0xbe0d1e61	-0.1378112
22	0x3e892e5a	0.26793176
23	0xbde809e0	-0.113300085
24	0x3beb9f96	0.007190655
25	0x3d99a9fd	0.07503126
26	0x3d70a7b4	0.058753684
27	0xbd21632e	-0.039401226
28	0x3de3b2b0	0.11118066
29	0xbe8e959a	-0.27848512
30	0x3d46bb9f	0.048518773
31	0x3ef52a74	0.47883952
32	0x3e838b72	0.25692326
33	0x3e049051	0.12945677
34	0x3d6d7786	0.057975315
35	0xbd8933f9	-0.06699366
36	0x3db68f0c	0.08914003
37	0xbd557199	-0.05211029
38	0x3d6ae607	0.057348277
39	0x3ead3207	0.3382723
40	0x3de3fb6b	0.111319385
41	0x3e263d05	0.16234215
42	0x3db4d5ef	0.08829867
43	0x3e561780	0.20907402
44	0x3db95689	0.090497084
45	0x3da4e94a	0.08052309
46	0x3e4dfa6e	0.20115063
47	0xbdb60988	-0.08888537
48	0x3e04fbe8	0.1298672
49	0xbd0bdf54	-0.03414853
50	0x3d85f8c7	0.06541591
51	0xbe61525d	-0.22004075
52	0x3b83da3d	0.0040238188
53	0x3d989f91	0.0745231
54	0x3e234a87	0.15946399
55	0x3d6b8838	0.057502955
56	0x3e0d3ffa	0.13793936
57	0x3d33b539	0.043874
58	0x3d3a9b33	0.045558166
59	0xbcf43125	-0.02980859
60	0xbd4d0242	-0.05005098
61	0x3e21dd86	0.1580716
62	0xbcf96fab	-0.030448755
63	0x3d8b8052	0.068115845
64	0x3df59759	0.11991758
65	0x3e351057	0.17682014
66	0xbda0b2f5	-0.07846633
67	0xbe09b148	-0.13446534
68	0x3e57cefa	0.21075049
69	0x3ddcf3ad	0.10788665
70	0xbe40eb21	-0.18839695
71	0xbe869d2e	-0.26291794
72	0xbc413a4a	-0.011793682
73	0xbdfe17cd	-0.124068834
74	0xbdc9dedc	-0.0985696
75	0xbd05dab4	-0.032679275
76	0xbd9a96d2	-0.07548298
77	0x3ba333e9	0.0049805534
78	0x3de73145	0.11288694
79	0xbe026b49	-0.12736239
80	0xbc93ebbd	-0.018056745
81	0x3c3323ab	0.010933797
82	0x3e6e328a	0.23261467
83	0xbd00e2dd	-0.031466354
84	0x3e100bc0	0.14066982
85	0x3d138b8a	0.036021747
86	0x3e62591d	0.22104307
87	0x3d022dfa	0.031782128
88	0xbd165f46	-0.036711954
89	0x3e8ecc5d	0.27890292
90	0xbbd324c4	-0.006443592
91	0xbd8514b2	-0.06498088
92	0x3e05378f	0.13009475
93	0x3cb91dde	0.02259725
94	0x3e059aca	0.13047329
95	0x3cb51801	0.022106173
96	0xbc961646	-0.018321168
97	0xbe415a71	-0.18882157
98	0x3dfd2e49	0.12362344
99	0x3d83a378	0.064276636
100	0x3e28277c	0.16421312
101	0xbe6ec0e5	-0.23315771
102	0x3e1ffd60	0.15623999
103	0xbe684caa	-0.22685495
104	0xbe61b061	-0.2203994
105	0xbde953b2	-0.11392917
106	0x3e1941f4	0.14966565
107	0x3e671c46	0.22569379
108	0xbd986c84	-0.07442573
109	0x3d30568c	0.043051288
110	0xbe0c0326	-0.13673076
111	0x3e653cbe	0.22386453
112	0x3e5f1be0	0.21787977
113	0x3e609ca0	0.21934748
114	0x3e3925ed	0.18080874
115	0x3d02c4e9	0.03192607
116	0x3e560a98	0.20902479
117	0x3d4a6c1e	0.049419515
118	0xbe6d6ccf	-0.23186038
119	0x3aa96098	0.0012922464
120	0x3e93c63c	0.28862178
121	0xbe5eb6e3	-0.21749453
122	0xbe6c53e6	-0.2307888
123	0xbd9c71fc	-0.07638928
124	0x3dd713aa	0.105017975
125	0xbcbced98	-0.023062512
126	0xbe6977a2	-0.22799543
127	0xbdfd2dc4	-0.12362245
128	0xbe8333f9	-0.2562559
129	0xbe2da76d	-0.16958399
130	0xbe3e1aef	-0.18564962
131	0x3eb9bca0	0.36276722
132	0x3e71669e	0.23574302
133	0xbe52bbb9	-0.20579423
134	0x3e556317	0.20838581
135	0x3e25ad72	0.16179445
136	0xbe861be3	-0.2619315
137	0x3d5966c2	0.053076513
138	0x3e2a9dae	0.16661713
139	0x3e3ddd32	0.1854141
140	0x3c0bc4ff	0.008530854
141	0x3e366c3c	0.17814726
142	0xbd90cbef	-0.07070147
143	0x3e3219fb	0.17392723
144	0xbe44fa1c	-0.19236034
145	0xbe3ea2ac	-0.18616742
146	0x3e372f05	0.1788903
147	0xbe23ec74	-0.16008168
148	0x3e0bc150	0.13647962
149	0x3d4048c2	0.046944387
150	0x3d22a260	0.039705634
151	0x3de12fae	0.10995422
152	0x3d11c4dc	0.03558813
153	0x3e8f540e	0.27993816
154	0x3e674bb5	0.22587474
155	0xbd57a1f2	-0.052644677
156	0x3d82ec6c	0.0639275
157	0xbd39a285	-0.045321006
158	0x3e07bbbc	0.13255209
159	0x3df4d2bf	0.11954259
160	0x3e7045f6	0.23464188
161	0x3e78eac2	0.24308303
162	0x3d87fd15	0.066400684
163	0xbce176e7	-0.027522517
164	0x3ddf6299	0.10907478
165	0x3e2eaa05	0.17057045
166	0x3e0be1df	0.13660382
167	0xbd80ef81	-0.06295682
168	0x3e6bcf93	0.23028402
169	0xbda4896d	-0.080340244
170	0xbc78228b	-0.015144954
171	0xbdb49af0	-0.088186145
172	0x3e75c83d	0.24002166
173	0xbda56604	-0.080760986
174	0x3ddc4317	0.10754984
175	0x3d41b1c6	0.04728868
176	0x3dee2e71	0.11629952
177	0x3e535db1	0.20641209
178	0x3e0af363	0.13569407
179	0xbe8c17f8	-0.27362037
180	0x3e1342e5	0.14380987
181	0x3eda52fc	0.42641437
182	0x3cde00f1	0.027100058
183	0x3e5e8a0d	0.2173235
184	0x3e2af1d6	0.16693816
185	0xbdb78599	-0.089610286
186	0x3d6a8ec3	0.057265054
187	0xbaa76a71	-0.0012772811
188	0x3e0589cb	0.13040845
189	0x3ec7974b	0.38982615
190	0xbe0d8355	-0.1381963
191	0x3e72ad3d	0.23698898
192	0x3de849de	0.11342214
193	0x3de43c49	0.11144311
194	0x3e5b008a	0.21386924
195	0xbc5cd63d	-0.013478813
196	0x3e44d06b	0.1922013
197	0xbe843cc6	-0.25827616
198	0x3bb6a03a	0.0055732997
199	0x3db522b3	0.08844509

lstm1.weight_hh_l0 f4 [200, 50]
0	0x3e036239	0.12830438
1	0xbe0b0b4f	-0.13578533
2	0x3e0f71d2	0.14008263
3	0xbc841f30	-0.016128153
4	0x3d1327e3	0.03592671
5	0xbe056858	-0.13028085
6	0xbdd80e6a	-0.10549624
7	0x3a4bf804	0.00077807927
8	0x3cc2d6a1	0.023783984
9	0xbdc3df5a	-0.09564085
10	0x3ced5a26	0.02897365
11	0x3d5ca26c	0.053865835
12	0x3e09d051	0.13458373
13	0x3bae61e9	0.0053217304
14	0x3e19def7	0.1502646
15	0x3d6119c5	0.054956216
16	0xbdd12005	-0.10211185
17	0x3d593983	0.053033363
18	0x3dcd9ab0	0.1003927
19	0x3d84a2ce	0.06476365
20	0xbcfcf53e	-0.03087866
21	0xbe659402	-0.22419742
22	0xbe1b05f4	-0.1513899
23	0xb932c1b5	-0.00017047564
24	0x3d50b8de	0.050957553
25	0xbdac2e6f	-0.08407294
26	0xbd98404a	-0.07434137
27	0xbe235a89	-0.15952505
28	0xbe0207d8	-0.12698305
29	0xbe466298	-0.19373548
30	0x3d51a9d0	0.051187336
31	0x3bd409d5	0.0064708986
32	0x3e0b6ac0	0.1361494
33	0xbd253b2c	-0.040339634
34	0x3d844f10	0.064603925
35	0x3af233c7	0.0018478566
36	0x3caeb9fd	0.02132892
37	0xbdfb6f69	-0.12277109
38	0x3dcfd4a3	0.10147979
39	0x3ded5022	0.1158755
40	0x3dd67737	0.10471957
41	0x3e1a9b37	0.15098272
42	0x3d8bf500	0.068338394
43	0x3e21f8f2	0.15817621
44	0x3d9e9500	0.07743263
45	0xbde9d7c5	-0.11418108
46	0xbda844b3	-0.08216228
47	0xbe5b3520	-0.21406984
48	0x3d78d202	0.060747154
49	0xbd135ff6	-0.035980187
50	0xbe355dab	-0.17711513
51	0x3e5632cf	0.2091782
52	0x3e1a0bc5	0.15043552
53	0xbead1782	-0.33806998
54	0x3e15f863	0.14645533
55	0xbc70cddf	-0.014697521
56	0x3e15b35e	0.14619204
57	0x3e06b9df	0.13156842
58	0xbe3a8461	-0.18214561
59	0xbeb9de4d	-0.36302415
60	0xbd502bb0	-0.050822914
61	0x3e5ec70f	0.21755622
62	0x3ccad648	0.02476038
63	0xbdebaf24	-0.11508015
64	0x3d14a42f	0.03628939
65	0x3dd12c05	0.10213474
66	0x3e029dee	0.12755558
67	0x3bffa491	0.0078016003
68	0xbdfdce5f	-0.12392878
69	0x3d6c7a41	0.057733778
70	0x3c98c76c	0.01864978
71	0x3e85eb0d	0.26155892
72	0xbeb273bf	-0.34853932
73	0xbdac2f3f	-0.08407449
74	0xbe7ce60e	-0.24697134
75	0x3e28d465	0.16487272
76	0xbd82566c	-0.0636414
77	0xbd02d8be	-0.031944983
78	0xbd07a299	-0.03311405
79	0x3e1c39a6	0.15256366
80	0xbde1a2e3	-0.11017396
81	0x3eb45453	0.35220584
82	0xbb478851	-0.003044624
83	0xbe64b580	-0.22334862
84	0x3d6baae8	0.057536036
85	0x3bc086d3	0.0058754473
86	0xbdfdfb1d	-0.12401412
87	0xbc98d6f6	-0.018657189
88	0xbb434343	-0.002979473
89	0x3dfbcf4a	0.122953966
90	0x3e830c94	0.25595534
91	0x3e0974a4	0.13423401
92	0x3e0ad816	0.13558993
93	0x3cc6c6ee	0.024264779
94	0xbe7869c7	-0.24259101
95	0xbe13a876	-0.14419731
96	0x3e11b475	0.14228995
97	0x3e24de52	0.16100433
98	0x3c831d40	0.016005158
99	0xbe056508	-0.13026822
100	0xbe1dab39	-0.15397348
101	0xbe3cad51	-0.1842549
102	0x3e257bf1	0.16160561
103	0x3d38d310	0.04512316
104	0xbd4c2774	-0.049842313
105	0x3cc9d57d	0.024637932
106	0x3e0bc9f6	0.1365126
107	0x3e073a83	0.13205914
108	0xbe3f7bf7	-0.18699633
109	0xbbb5482a	-0.0055322843
110	0x3dab6294	0.08368412
111	0x3e361e16	0.17784914
112	0x3d22a6b7	0.039709773
113	0xbd64f995	-0.055902082
114	0xbd294e4c	-0.041334435
115	0xbd2e9611	-0.042623583
116	0xbd55b29e	-0.052172296
117	0x3db11abb	0.086476766
118	0xbd79ef17	-0.06101903
119	0x3da640d6	0.08117835
120	0xbcdc2ab4	-0.026875831
121	0x3b48e374	0.003065315
122	0xbe72d79c	-0.23715061
123	0x3da057ea	0.07829268
124	0x3d204a8f	0.039133605
125	0x3e255425	0.1614538
126	0xbdb63375	-0.088965334
127	0xbe1e2bbf	-0.15446375
128	0xbdb364ef	-0.08759486
129	0xbd515b8d	-0.0511127
130	0x3dc1475e	0.0943744
131	0x3ddf5d59	0.109064765
132	0x3e1f1e02	0.15538791
133	0x3cd86d3c	0.026419275
134	0xbd9d3d82	-0.07677747
135	0x3d9158b0	0.07096994
136	0xbe1253b9	-0.1428975
137	0x3de48f1f	0.11160111
138	0x3d46c37a	0.048526265
139	0x3d227ae8	0.039667994
140	0xbd948d5d	-0.072535254
141	0x3dae93f6	0.08524315
142	0x3de4837c	0.11157891
143	0x3dee0757	0.11622494
144	0x3c678805	0.014131551
145	0xbe30a7ef	-0.17251562
146	0x3d58ac7b	0.052898865
147	0xbe1fe761	-0.15615608
148	0x3d884c72	0.06655206
149	0xbd833ff7	-0.06408685
150	0xbe34f023	-0.1766973
151	0x3d6de392	0.058078356
152	0xbdab472f	-0.083631866
153	0xbe23c1fc	-0.15991968
154	0xbe24e1a3	-0.16101699
155	0xbd84c883	-0.06483557
156	0xbd82c48e	-0.06385146
157	0x3e164d1e	0.14677855
158	0xbe4e50f5	-0.2014807
159	0xbdc1cec9	-0.09463269
160	0xbdea1194	-0.11429134
161	0xbd850ee1	-0.064969786
162	0x3dd0d532	0.10196914
163	0x3e05947b	0.13044922
164	0x3dfc3c9e	0.12316249
165	0x3e06a755	0.1314977
166	0x3cc2193b	0.023693671
167	0x3d5078c5	0.050896425
168	0xbe244ee4	-0.1604572
169	0xbc97504f	-0.018470911
170	0xbccb5b30	-0.024823755
171	0xbd8c7de0	-0.06859946
172	0xbd853a4a	-0.065052584
173	0xbb8c3f8a	-0.0042800354
174	0xbe2600e0	-0.16211271
175	0x3e0ffb21	0.14060642
176	0x3c96bb91	0.018399986
177	0x3da19dc5	0.0789142
178	0xbe13cdde	-0.14434001
179	0x39fcbde5	0.00048206668
180	0xbe167bad	-0.14695616
181	0x3c9b77af	0.018977968
182	0xbd04ed51	-0.032452885
183	0x3dc4f820	0.096176386
184	0x3d14e43e	0.03635048
185	0xbe0c6a2e	-0.1371238
186	0x3da88478	0.082283914
187	0x3dba4320	0.09094834
188	0x3de11a57	0.10991352
189	0xbe3a8859	-0.18216075
190	0x3d33a1ca	0.043855466
191	0xbdab31d4	-0.08359113
192	0xbc91aa35	-0.017781356
193	0x3ca1e2b2	0.019761417
194	0x3c460501	0.012086154
195	0xbc1cdb1c	-0.009573724
196	0x3e90df3f	0.28295323
197	0xbd1a6343	-0.03769232
198	0xbc44c779	-0.012010449
199	0xbe041339	-0.12897958
200	0xbe1f83f2	-0.15577677
201	0x3e55ef10	0.20891976
202	0x3dcf176e	0.10111891
203	0x3cf29cff	0.029615877
204	0x3d132ba3	0.035930287
205	0x3cd0a068	0.025467113
206	0x3d5a78c8	0.053337842
207	0x3d1ca58c	0.038243815
208	0xbd75f5ba	-0.060048796
209	0xbdde82b0	-0.108647704
210	0xbd34ee96	-0.044172846
211	0xbd22211f	-0.039582368
212	0x3d5da679	0.05411384
213	0xbe1952bd	-0.14972968
214	0xbdc18071	-0.094483264
215	0x3e16935a	0.14704648
216	0xbda45aa9	-0.080251046
217	0x3dbfd3a5	0.0936654
218	0xbe26343b	-0.16230862
219	0x3da1af5e	0.07894777
220	0xbe4e1e92	-0.20128849
221	0x3d5f44f3	0.054509114
222	0xbe05c48b	-0.13063256
223	0x3cd9e87e	0.026600119
224	0x3d9684d1	0.073495515
225	0x3c949180	0.018135786
226	0xbde713d5	-0.112830795
227	0xbe1c3501	-0.15254594
228	0x3dc5a9f2	0.09651555
229	0x3e9c9814	0.30584776
230	0x3d84956f	0.06473815
231	0xbdd39d57	-0.103327446
232	0xbb015451	-0.0019734094
233	0xbd7b4026	-0.061340474
234	0xbd179876	-0.037010632
235	0x3d34c7bc	0.044135794
236	0x3d599d13	0.053128313
237	0xbc3c8192	-0.011505501
238	0xbd6da353	-0.058017086
239	0xbe0eb491	-0.13936068
240	0x3e0b2563	0.1358848
241	0x3e31d33f	0.1736574
242	0xbd8013a7	-0.062537484
243	0xbd001091	-0.0312658
244	0xbd050fb9	-0.032485697
245	0xbe2bfce1	-0.16795684
246	0x3ea404a0	0.3203478
247	0x3e9182c2	0.28420073
248	0x3da20515	0.079111256
249	0x3daa6ce8	0.083215535
250	0x3af176c2	0.0018422233
251	0xbd2c368a	-0.0420442
252	0x3d2d2164	0.042268172
253	0x3dd44868	0.10365373
254	0x3e1a0826	0.15042171
255	0x3dc8c172	0.09802522

lstm1.bias_ih_l0 f4 [200]
0	0x3e077375	0.13227637
1	0x3ead0dd0	0.337996
2	0x3dbe87cb	0.09303244
3	0xbc71cf64	-0.014758918
4	0x3e496c61	0.1967025
5	0xbd3bd067	-0.045853045
6	0x3da0900f	0.07839977
7	0x3dec2729	0.11530907
8	0x3dcdd324	0.100500375
9	0x3c228784	0.009920005
10	0x3dcdf3a2	0.10056235
11	0x3df0e2fd	0.117620446
12	0x3d0255d3	0.03182013
13	0x3d848b6a	0.064719036
14	0xbd90075c	-0.07032654
15	0xbe218f98	-0.15777433
16	0xbd3b4bce	-0.04572659
17	0x3e1aa08a	0.15100303
18	0x3cdff2d3	0.027337467
19	0x3ce12586	0.027483713
20	0x3e70064c	0.23439902
21	0x3d1d680b	0.0384293
22	0x3e6f16dd	0.23348565
23	0x3d8fdef8	0.0702495
24	0x3cf69ca8	0.030103996
25	0xbdc026e9	-0.093824215
26	0x3e43ae26	0.19109401
27	0x3d6e8e66	0.05824127
28	0x3d515e81	0.051115517
29	0x3de0c81c	0.10975668
30	0x3cb74572	0.022371981
31	0x3e356e3f	0.17717837
32	0x3e15db55	0.1463445
33	0x3dc2b786	0.095076606
34	0x3d2bf985	0.041986007
35	0x3dd0e7f0	0.102004886
36	0x3ddf70cc	0.10910186
37	0xbe06a377	-0.13148294
38	0x3d1fff18	0.039061636
39	0xbd56e97e	-0.05246877
40	0xbd2997e4	-0.04140462
41	0x3e566130	0.20935512
42	0xbd8a5cb0	-0.0675596
43	0xbdebc930	-0.11512983
44	0x3e1d2282	0.15345195
45	0x3d62f611	0.05541045
46	0x3c952bb1	0.01820931
47	0xbc934f64	-0.017982192
48	0xbd657b65	-0.05602588
49	0xbdf15db3	-0.1178545
50	0x3d2b9c67	0.041897204
51	0xbda32e25	-0.07967786
52	0xbe064970	-0.13113952
53	0x3d12c6fa	0.03583429
54	0xbd43d145	-0.047806997
55	0xbd39b6dc	-0.045340404
56	0x3d92b074	0.07162562
57	0x3d3b04a7	0.045658734
58	0xbabce2de	-0.0014410873
59	0xbdce94e9	-0.10086996
60	0xbdd10fa6	-0.10208063
61	0xbde94642	-0.11390354
62	0x3dc4e94a	0.09614809
63	0xbd70e26d	-0.058809686
64	0xbc1159a0	-0.008871466
65	0xbb9ce65d	-0.0047882036
66	0x3d70e1cb	0.058809083
67	0xbd39e839	-0.04538748
68	0xbd873b0a	-0.06603058
69	0x3c9f0713	0.019412553
70	0x3d835ef9	0.06414599
71	0xbd744c5b	-0.05964313
72	0x3d049ade	0.032374255
73	0xbd572493	-0.052525114
74	0x3de0e9fc	0.10982129
75	0xbdf8251a	-0.121164516
76	0x3dceb88f	0.100937955
77	0xbdffbb7c	-0.12486932
78	0xbc3c5126	-0.011493957
79	0xbdb325fc	-0.08747479
80	0xbd83747b	-0.06418701
81	0xbe097335	-0.13422854
82	0x3da4c4a0	0.08045316
83	0x3d2bf14c	0.041978166
84	0x3d6322d6	0.055453144
85	0xbd2b0ccf	-0.041760262
86	0x3e16e3d1	0.14735343
87	0x3cdc59e3	0.02689833
88	0xbd8ef3b5	-0.06980077
89	0x3dc893ec	0.09793839
90	0x3dccace8	0.09993917
91	0x3d921766	0.07133369
92	0x3daa43e2	0.08313729
93	0x3e012491	0.12611605
94	0xbe04b206	-0.12958536
95	0x3daa689e	0.083207354
96	0x3d396963	0.04526652
97	0xbd9237ef	-0.07139575
98	0x3cb7ad45	0.022421489
99	0x3e0b98ff	0.13632582
100	0xbdeb8117	-0.11499231
101	0xbcce7db1	-0.025206419
102	0xbcfd24f1	-0.030901404
103	0xbd00df91	-0.03146321
104	0xbdab60f3	-0.08368101
105	0x3e201f6f	0.15636991
106	0x3d6e702e	0.05821245
107	0xbd5cb0dd	-0.053879607
108	0x3d95d6c8	0.07316357
109	0xbd52dba7	-0.051479008
110	0xbd9d5663	-0.076824926
111	0xbdda04c6	-0.10645442
112	0x3d8bb396	0.06821363
113	0xbe248fe5	-0.16070516
114	0xbd5e4794	-0.05426748
115	0x3c823715	0.015895406
116	0x3d9e35be	0.07725094
117	0x3d903282	0.070408836
118	0x3ca81cdc	0.020521574
119	0x3db18bb4	0.086692244
120	0xbd5fdec5	-0.05465581
121	0x3d6fcd30	0.05854529
122	0xbda153ba	-0.07877298
123	0xbc639034	-0.013889361
124	0x3bb53be0	0.0055308193
125	0xbc495acc	-0.012289714
126	0xbdd3443a	-0.103157476
127	0xbe082826	-0.13296565
128	0xbd97b8cc	-0.07408294
129	0xbd823757	-0.063582115
130	0xbd15d7bd	-0.036582697
131	0xbb8a5563	-0.0042216047
132	0x3d0bb774	0.0341105
133	0x3cc34eba	0.02384125
134	0xbc84cc7d	-0.016210789
135	0xbd8a10fb	-0.0674152
136	0x3d807a06	0.06273274
137	0x3a57efaa	0.0008237312
138	0xbd2121cf	-0.039338883
139	0xbd8d0c0e	-0.06887065
140	0x3cc50a80	0.024052858
141	0xbda84f12	-0.082182065
142	0x3d40baf1	0.04705328
143	0x3d239996	0.039941393
144	0xbdb8c880	-0.09022617
145	0x3bb310c8	0.005464647
146	0x3d4af8f9	0.049553845
147	0xbd774c7f	-0.060375687
148	0xbcc251c3	-0.023720628
149	0xbda45ecd	-0.08025894
150	0xbd874687	-0.06605249
151	0x3eb2c0c8	0.34912705
152	0xbdd93b6b	-0.10607036
153	0xbc86b602	-0.01644421
154	0x3d8bf889	0.06834514
155	0xbd8d103a	-0.068878606
156	0x3d875f72	0.066100016
157	0xbdef16c4	-0.11674264
158	0xbda18d93	-0.07888331
159	0xbcf117d8	-0.029430315
160	0xbdf05fdc	-0.11737034
161	0x3c5c7475	0.0134555
162	0xbdf1fe41	-0.11816073
163	0x3dcbf03a	0.09957929
164	0xba21e768	-0.0006176145
165	0xbd9be4c7	-0.07611995
166	0x3ddb7787	0.107161574
167	0x3e1403f5	0.14454634
168	0x3d8eac73	0.06966486
169	0xbcce6f0c	-0.025199436
170	0x3ea751fa	0.3267973
171	0x3db6fcf4	0.08934966
172	0x3eab3f4c	0.3344673
173	0xbda1a0ca	-0.07891996
174	0xbdd7897d	-0.10524271
175	0xbdfb2709	-0.12263305
176	0xbcd5e3ad	-0.02610954
177	0x3d9be67a	0.07612319
178	0x3de5983b	0.11210676
179	0xbd89ef59	-0.06735105
180	0x3d91c68f	0.0711795
181	0x3eb74354	0.35793555
182	0x3dea0bbc	0.114280194
183	0x3e14ed9c	0.14543766
184	0x3c86f99e	0.016476449
185	0x3de1996c	0.11015591
186	0x3dc2c096	0.09509389
187	0xbdba4d7b	-0.090968095
188	0x3e21f437	0.15815817
189	0x3ddac0ec	0.10681328
190	0xbde16367	-0.110052876
191	0x3e871020	0.2637949
192	0x3d2a7a83	0.041620743
193	0x3d064a94	0.032785967
194	0x3d9ff693	0.07810702
195	0x3e09eaaf	0.13468431
196	0x3e807327	0.25087854
197	0x3e0b1eda	0.13585988
198	0x3de7f35e	0.113257155
199	0xbbcc30f6	-0.0062314225

lstm1.bias_hh_l0 f4 [200]
0	0xbdb559cd	-0.08855019
1	0x3ec277c9	0.37982014
2	0x3def96ed	0.11698709
3	0x3da38ff5	0.07986442
4	0x3e638537	0.22218786
5	0xbd3bfaf1	-0.045893613
6	0xbd924dcc	-0.07143745
7	0x3ccaeacf	0.024770169
8	0x3df0dcae	0.11760841
9	0xbce68211	-0.028138192
10	0xbd9f8d50	-0.07790625
11	0x3d723eee	0.059142046
12	0x3dc24afd	0.09486959
13	0x3dd6cc04	0.10488132
14	0x3dc16ac8	0.09444195
15	0x3dd2725d	0.10275719
16	0xbe046941	-0.12930776
17	0x3bd456ae	0.0064800596
18	0x3e0f0703	0.13967519
19	0xbe071ea8	-0.13195288
20	0x3e4294f0	0.19002128
21	0xbcce0d28	-0.025152758
22	0x3e5ac695	0.21364816
23	0x3bee532f	0.0072731
24	0xbcec04e1	-0.02881092
25	0xbd1e29bb	-0.038614016
26	0x3d91900e	0.071075544
27	0x3d27adb6	0.040937148
28	0x3e1ea417	0.15492283
29	0x3df2ba0a	0.118518904
30	0x3d9223a6	0.07135706
31	0x3e534f93	0.20635824
32	0x3d8fe08b	0.0702525
33	0x3d9ca742	0.076490894
34	0xbdcc3be8	-0.09972364
35	0x3c4d97ba	0.012548381
36	0x3d845fc0	0.06463575
37	0x3dccdba9	0.10002834
38	0x3d8e3278	0.0694322
39	0xbbb80c44	-0.0056166966
40	0x3d8de7e4	0.06928995
41	0x3e28f352	0.1649907
42	0x3d63b1e5	0.055589575
43	0x3dc80380	0.097662926
44	0xbcecaa0b	-0.028889677
45	0xbda1c666	-0.078991696
46	0x3e396b19	0.18107261
47	0x3e128f61	0.14312507
48	0x3d94d7b1	0.07267702
49	0x3dfbb2db	0.12289973
50	0xbdf50e3f	-0.11965608
51	0x3d8415bd	0.06449459
52	0x3d81cf24	0.06338337
53	0xbdbba3fd	-0.09162138
54	0xbd59f2a9	-0.053209934
55	0xbd067f62	-0.032836325
56	0xbe06ec35	-0.13176043
57	0x3d8b883d	0.06813095
58	0x3e006f3b	0.12542431
59	0xbbee2950	-0.0072681084
60	0x3d602993	0.05472715
61	0xbdd7765a	-0.10520621
62	0x3dedf342	0.11618663
63	0xbdf68470	-0.12036979
64	0xbd384359	-0.044986103
65	0xbe1bd194	-0.15216666
66	0xbe1d8104	-0.15381247
67	0xbcd6b66c	-0.026210032
68	0x3cc28981	0.023747208
69	0x3a7f23fa	0.0009732839
70	0xbe21d815	-0.15805085
71	0xbc275fd6	-0.01021572
72	0x3e2446cd	0.16042633
73	0xbd817ab7	-0.06322234
74	0x3be6cd13	0.0070434897
75	0x3d8fa0fe	0.07013129
76	0xbdf8d897	-0.12150686
77	0x3d97674c	0.07392749
78	0x3c862b38	0.01637803
79	0xbdf07998	-0.11741942
80	0x3d92062f	0.07130086
81	0xbe227d8b	-0.15868203
82	0x3df511bc	0.11966273
83	0x3e03d495	0.12874062
84	0xbdf2f48a	-0.118630484
85	0xbcde3f29	-0.027129726
86	0x3cac58f4	0.02103851
87	0xbdf5dfd3	-0.12005582
88	0xbbb38e8a	-0.0054796385
89	0xbdb5002e	-0.08837925
90	0xbba78fe4	-0.0051135886
91	0xbe2ab7b6	-0.16671643
92	0x3dbbe53a	0.09174581
93	0x3e0385ed	0.12844057
94	0xbdf998ad	-0.12187324
95	0xbe1a6aeb	-0.15079848
96	0xbd9c6aa1	-0.07637525
97	0xbded1806	-0.11576848
98	0x3de63535	0.11240617
99	0xbd108a54	-0.03528817
100	0x3c7a26fe	0.0152680855
101	0x3d967662	0.073467985
102	0x3c90d9e1	0.017682018
103	0xbd03966b	-0.03212587
104	0x3e1663e0	0.14686537
105	0xbdb36c9d	-0.08760951
106	0xbbdbde0d	-0.00670982
107	0xbc44e0a3	-0.012016448
108	0xbda26e96	-0.07931249
109	0xbd1e0843	-0.038582098
110	0x3dbedef3	0.09319868
111	0x3d10aa34	0.03531857
112	0xbd209673	-0.03920598
113	0x3d7a24ab	0.061070126
114	0xbda5d3c4	-0.08097032
115	0x3d84f765	0.06492499
116	0xbd5ba298	-0.05362186
117	0xbc60ca97	-0.013720176
118	0xbd9d61d7	-0.07684677
119	0xbd78e09d	-0.060761083
120	0xbd90d208	-0.0707131
121	0x3d992794	0.07478252
122	0x3d364da0	0.044507623
123	0x3d13eb43	0.036113035
124	0xbca62dcf	-0.020285515
125	0x3e02e5e4	0.12783009
126	0x3e12c0e3	0.14331393
127	0x3df3de30	0.11907613
128	0x3de40e84	0.11135581
129	0x3e2adb77	0.16685282
130	0xbca66d49	-0.020315783
131	0xbd89b8d3	-0.067247055
132	0xbca6eb84	-0.020375974
133	0xbd02cb09	-0.03193191
134	0x3a48c4a5	0.0007658697
135	0x3d4910d4	0.049088314
136	0x3c2113a6	0.009831345
137	0xbc750052	-0.01495369
138	0xbd583bb3	-0.05279131
139	0xbd20bdf7	-0.039243665
140	0x3d338e02	0.0438366
141	0x3dbc2c1c	0.09188101
142	0xbd26be0d	-0.04070859
143	0xbda4af6f	-0.08041274
144	0x3df35ce2	0.1188295
145	0xbd92d477	-0.07169431
146	0xbb437668	-0.0029825214
147	0x3d8886fb	0.066663705
148	0xbb5470fb	-0.0032415974
149	0x3d759cd5	0.05996402
150	0x3cad28d5	0.021137634
151	0x3e65b092	0.22430637
152	0xbcb42d34	-0.02199421
153	0x3e178f0e	0.14800665
154	0x3e22d15b	0.15900175
155	0xbdede0f6	-0.116151735
156	0x3da2f864	0.07957533
157	0xbd029eb9	-0.03188965
158	0x3dbe7f47	0.0930162
159	0x3d8a9d56	0.06768291
160	0xbddb6500	-0.107126236
161	0x3d916c2b	0.071007095
162	0xbdacd041	-0.08438159
163	0xbd87a734	-0.06623688
164	0x3d299f13	0.04141147
165	0x3c11c5dc	0.008897271
166	0xbbaed4cf	-0.0053354274
167	0xbcce3e2d	-0.025176132
168	0x3ded88c3	0.11598351
169	0x3cb4e826	0.022083353
170	0x3e75ee5b	0.24016707
171	0x3e0c5b70	0.13706756
172	0x3ea3c57e	0.31986612
173	0x3ce18f7c	0.027534239
174	0x3cbdf228	0.023186758
175	0xbdadd69f	-0.08488201
176	0x3e26f6f1	0.16305138
177	0x3d1639be	0.03667616
178	0x3de5168f	0.11185943
179	0x3d4f3e9b	0.050596815
180	0xbab1c687	-0.0013563194
181	0x3eaab672	0.3334232
182	0xbcf989d8	-0.030461237
183	0x3dec5153	0.11538949
184	0x3dee3215	0.11630646
185	0x3d3a0648	0.045416147
186	0x3d615fe2	0.05502308
187	0x3c8ecfbc	0.01743304
188	0xbdc5c508	-0.09656721
189	0xbcf61bfe	-0.030042645
190	0xbe0ce349	-0.13758577
191	0x3e69c2f1	0.2282827
192	0x3d804d2d	0.0626472
193	0x3c4cb910	0.012495294
194	0x3e03cb03	0.12870412
195	0xbd9a05de	-0.0752065
196	0x3b359d05	0.0027712
197	0x3e0d98dc	0.13827842
198	0x3df19f22	0.1179793
199	0xbdee374a	-0.11631639

lstm2.weight_ih_l0 f4 [200, 50]
0	0xbd88601a	-0.06658955
1	0xbe793f1f	-0.24340485
2	0xbddc8865	-0.10768203
3	0xbd78a03a	-0.06069968
4	0xbe01fa63	-0.12693171
5	0x3c95948d	0.018259311
6	0x3d3f4839	0.046699736
7	0x3dc95c08	0.09832007
8	0xbdc1dac4	-0.09465554
9	0xbda7f644	-0.08201268
10	0x3d0f1deb	0.03494064
11	0xbd75495e	-0.05988442
12	0xbc9da782	-0.019244913
13	0x3dbb1b89	0.09136111
14	0xbc82de6a	-0.015975196
15	0x3d1046b6	0.035223685
16	0x3d71bab8	0.05901596
17	0xbdf2a0f5	-0.11847106
18	0xbe1fbb33	-0.15598755
19	0xbdf0a99c	-0.117511004
20	0x3e23f7d9	0.16012515
21	0xbe3dc11e	-0.185307
22	0xbe5a7351	-0.21333052
23	0x3e0b76aa	0.13619485
24	0x3c9819f0	0.018567055
25	0xbe1055d4	-0.14095241
26	0xbde55f01	-0.11199761
27	0xbdce0185	-0.100588836
28	0xbdc2bbb3	-0.09508457
29	0xbe518f26	-0.20464763
30	0xbd7795ca	-0.060445584
31	0x3db01dc5	0.08599428
32	0x3dc50032	0.09619178
33	0x3ddbf46d	0.1073998
34	0x3ddb51da	0.10708971
35	0xbdb320d1	-0.087464936
36	0xbdbeaa11	-0.09309781
37	0x3e050f50	0.12994123
38	0xbd9503e5	-0.072761334
39	0x3d851b52	0.064993516
40	0x3cbed1ce	0.023293402
41	0x3da39578	0.07987493
42	0xbb1aa8ce	-0.002359915
43	0xbd5637aa	-0.05229918
44	0x3df89c7d	0.12139223
45	0xbd6535eb	-0.055959623
46	0x3e86cdc5	0.26328865
47	0xbe807390	-0.25088167
48	0x3e00faf0	0.12595725
49	0x3dd23ce0	0.10265517
50	0x3ddcc605	0.10779957
51	0xbd9eadab	-0.07747968
52	0x3e33cbb8	0.17558181
53	0xbdfdafe6	-0.123870656
54	0xbe2f0d98	-0.1709503
55	0xbd1382ec	-0.03601353
56	0x3debfda6	0.11522989
57	0x3db26321	0.087103136
58	0x3cb01222	0.021493021
59	0x3d924212	0.07141508
60	0xbe246d32	-0.1605728
61	0x3dc875c3	0.09788086
62	0xbbcb606d	-0.006206563
63	0x3dd54b32	0.10414733
64	0x3dfb967f	0.12284564
65	0x3de62182	0.1123686
66	0x3c1de0bf	0.009636103
67	0x3b838ffb	0.0040149665
68	0xbdde8be4	-0.10866526
69	0xbdcbd1ae	-0.099521026
70	0x3dc43365	0.09580115
71	0x3ac772d3	0.0015216715
72	0xbd8f4ccc	-0.0699707
73	0xbd5a13b2	-0.05324144
74	0xbc865b14	-0.016400851
75	0x3d1c818e	0.03820949
76	0xbe54d501	-0.2078438
77	0x3d877046	0.06613211
78	0xbdf586fa	-0.11988635
79	0xbd9976be	-0.074933514
80	0xbe1b7daa	-0.15184656
81	0x3d60eebb	0.05491517
82	0x3caf6f78	0.021415457
83	0xbe3e2325	-0.18568094
84	0x3e30255b	0.1720175
85	0x3c37daab	0.011221568
86	0xbde63f6e	-0.11242567
87	0xbd2ce6e7	-0.042212393
88	0x3dd02f3f	0.101652615
89	0xbdb32a4d	-0.087483026
90	0x3dd5bd18	0.104364574
91	0x3de96d8b	0.11397847
92	0x3bfe3ec6	0.007758948
93	0x3e2df27a	0.16987029
94	0x3dae5423	0.085121416
95	0x3d78c426	0.060733937
96	0x3d8b5982	0.06804182
97	0xbe1a1f02	-0.15050891
98	0x3da16ebe	0.078824505
99	0xbcf9b370	-0.03048107
100	0xbf0453c7	-0.51690334
101	0x3e6d454d	0.23170967
102	0x3edf7c56	0.43649548
103	0xbea1a82e	-0.31573623
104	0xbe2228e2	-0.15835908
105	0xbdec8ac5	-0.11549906
106	0x3ea24e63	0.3170043
107	0x3df558f5	0.11979858
108	0xbe77696e	-0.24161312
109	0xbea2674f	-0.31719443
110	0xbec968f6	-0.3933789
111	0x3ebfd895	0.37469926
112	0x3ec2db73	0.3805805
113	0xbd62d326	-0.055377148
114	0x3d0286a7	0.031866696
115	0x3ef0f060	0.47058392
116	0x3f011d74	0.50435567
117	0x3e009400	0.12556458
118	0xbeec9fb0	-0.46215582
119	0x3e03cd87	0.12871371
120	0xbe0b0b0c	-0.13578433
121	0x3ea92533	0.33036193
122	0xbebf3032	-0.37341458
123	0xbe809ec5	-0.25121132
124	0xbeceb617	-0.403733
125	0x3efa76df	0.48918816
126	0xbea71b50	-0.32638025
127	0xbe9e62fc	-0.30934894
128	0xbea7fada	-0.32808572
129	0x3e9a12c7	0.3009245
130	0xbe80f89b	-0.2518967
131	0x3e9d56e1	0.30730346
132	0x3ed62b71	0.41830018
133	0xbeabc84c	-0.33551252
134	0x3ef8143d	0.4845294
135	0xbdf44739	-0.11927647
136	0xbdbc2ced	-0.091882564
137	0xbed046bd	-0.4067897
138	0x3c6914d0	0.0142261535
139	0x3d43bca0	0.04778731
140	0x3f0d80ed	0.5527485
141	0x3e2be3f8	0.16786182
142	0x3f0c9659	0.5491691
143	0x3ef4c5d4	0.4780718
144	0xbf19ae6e	-0.60031784
145	0xbea3a68c	-0.31963003
146	0x3c87db89	0.016584175
147	0x3ec21b12	0.37911278
148	0xbbd6a7f9	-0.0065507856
149	0xbf124ba4	-0.5714667
150	0xbdcd9538	-0.10038227
151	0xbe2fbfce	-0.17163011
152	0x3e3774f3	0.17915706
153	0xbd54a8c9	-0.05191878
154	0xbe7835e3	-0.24239306
155	0x3c6b54af	0.014363452
156	0xbd18df41	-0.037322287
157	0x3df124b9	0.117745824
158	0xbda1963f	-0.07889985
159	0xbdb8850f	-0.09009754
160	0x3d880954	0.06642404
161	0x3d1e8d69	0.038709078
162	0xbcc3becd	-0.023894692
163	0x3e280edd	0.1641192
164	0x3e16ca23	0.14725547
165	0xbd95a065	-0.073059835
166	0x3e06f798	0.13180387
167	0x3dceae86	0.100918815
168	0xbe06368c	-0.13106745
169	0x3e152388	0.14564335
170	0x3e247cb2	0.16063192
171	0x3d7f1ce7	0.062283423
172	0xbe278564	-0.16359478
173	0x3deda257	0.116032295
174	0x3ce103a4	0.027467556
175	0xbc6653df	-0.014058082
176	0xbcf3090d	-0.029667402
177	0xbc088cc5	-0.008334343
178	0xbc98c801	-0.018650057
179	0xbc7f8a8c	-0.015596997
180	0xbd4e9ffb	-0.050445538
181	0xbcbe958e	-0.023264673
182	0x3d776716	0.060401045
183	0x3cf0889f	0.029362021
184	0x3b4ad754	0.00309511
185	0x3d639e4b	0.05557088
186	0xbb04ef78	-0.0020284336
187	0x3d63d285	0.05562069
188	0x3dacac7b	0.084313355
189	0xbddbe272	-0.107365504
190	0x3e46fc82	0.19432262
191	0xbbd2a675	-0.0064285346
192	0x3db3fef1	0.087888606
193	0x3cc90092	0.024536405
194	0xbdb7d8e9	-0.08976919
195	0xbda98cfc	-0.08278844
196	0x3da8fa25	0.08250836
197	0xbd43bc62	-0.047787078
198	0xbd34f554	-0.044179276
199	0xbdb7b964	-0.08970907
200	0xbe833fa6	-0.25634497
201	0x3bd1f0b4	0.006406868
202	0x3e8c54b1	0.27408364
203	0xbe9cc315	-0.30617586
204	0xbc5de42d	-0.013543171
205	0xbdc3e12a	-0.09564431
206	0x3e93b13b	0.28846154
207	0x3def3592	0.116801396
208	0x3be9c6b7	0.0071342844
209	0xbdbd6118	-0.09247035
210	0xbe4cdde7	-0.20006524
211	0x3d216ac5	0.039408464
212	0x3dc542a3	0.096318506
213	0x3dade614	0.084911495
214	0x3b88e9db	0.0041782684
215	0x3e58f4e4	0.21187168
216	0x3e826849	0.25470188
217	0x3d824a2e	0.06361805
218	0xbe20d4ff	-0.15706252
219	0x3dc09c3a	0.09404798
220	0x3dccd48d	0.10001478
221	0x3d65e6f8	0.056128472
222	0xbe69bc6a	-0.2282578
223	0xbdf567bf	-0.119826786
224	0xbd0132aa	-0.031542458
225	0x3ebc8d37	0.36826488
226	0xbe71c0cb	-0.23608701
227	0xbdd24f77	-0.10269063
228	0xbd3ae5d3	-0.045629334
229	0x3e5f6e0c	0.21819323
230	0xbdb41a01	-0.08794022
231	0x3dfc8e22	0.12331797
232	0x3e0da4a6	0.1383234
233	0xbe6b10a3	-0.22955565
234	0x3e80fcb9	0.25192812
235	0xbe8a0b4d	-0.26961747
236	0xbda9d1ee	-0.08291994
237	0xbe972854	-0.29522955
238	0x3d8cf98b	0.06883534
239	0x3b94e371	0.0045437147
240	0x3e479033	0.19488601
241	0x3d647398	0.0557743
242	0x3e1b1bfa	0.15147391
243	0x3e0983fe	0.13429257
244	0xbe18c24d	-0.1491787
245	0xbe0e67c4	-0.13906771
246	0xbe0d6ed8	-0.13811815
247	0x3e3303f4	0.17481977
248	0xbdd2b9cb	-0.102893434
249	0xbe56da96	-0.20981821
250	0x3de86eed	0.113492824
251	0xbd87a45c	-0.06623146
252	0x3ddfceda	0.10928126
253	0x3c1fe9c0	0.00976032
254	0x3bfa2ff6	0.007635112
255	0x3dafc6d3	0.085828446

lstm2.weight_hh_l0 f4 [200, 50]
0	0xbd92ffa0	-0.07177663
1	0x3d0f9505	0.035054225
2	0x3cdce679	0.026965367
3	0x3bd42e0d	0.0064752162
4	0x3e4a89e0	0.19779158
5	0x3d28461e	0.041082494
6	0x3d71ea3a	0.059061266
7	0xbe0bfb81	-0.1367016
8	0xbd21ec6e	-0.039532118
9	0xbd159bea	-0.036525644
10	0x3d07ebb3	0.033183765
11	0xbd19ac7e	-0.037518017
12	0xbda93ede	-0.08263944
13	0x3baafe49	0.0052183014
14	0x3dd1521e	0.10220741
15	0xbdf79a96	-0.12090032
16	0x3dcefe8b	0.10107144
17	0x3dbbe046	0.09173636
18	0xbcbe872c	-0.023257814
19	0x3da81205	0.08206562
20	0xbcebaceb	-0.028768977
21	0x3da95fe0	0.0827024
22	0x3d5f365a	0.054495193
23	0xbe163dc1	-0.14671995
24	0x3df7b8e5	0.12095813
25	0x3d8c9081	0.068634994
26	0xbb993786	-0.0046758084
27	0xbe5a7809	-0.21334852
28	0x3d5962dc	0.053072795
29	0x3e1dc950	0.15408826
30	0x3d287d14	0.04113491
31	0xbde3bd1c	-0.11120054
32	0xbdad870e	-0.08473025
33	0xbcdd326a	-0.027001578
34	0x3d07d07f	0.03315782
35	0xbc123a74	-0.008925069
36	0x3de0c6b3	0.10975399
37	0x3e120e00	0.14263153
38	0x3df8621c	0.12128088
39	0x3b47750f	0.0030434763
40	0x3d77d02d	0.060501266
41	0x3d3074b6	0.043080054
42	0xbd565dec	-0.052335665
43	0x3df549b0	0.119769454
44	0xbe1f714f	-0.15570568
45	0x3e047d9a	0.12938538
46	0xbd8cb1ea	-0.06869872
47	0x3e0c2a37	0.13687979
48	0x3cdc397d	0.026882881
49	0xbd6ed88c	-0.058311984
50	0x3d8fb5fb	0.07017132
51	0x3e0d96ee	0.13827106
52	0x3b834a68	0.0040066727
53	0x3beb49fb	0.00718045
54	0xbd246553	-0.040135693
55	0xbdbf2555	-0.093332924
56	0x3de0dd46	0.109797046
57	0xbdc98a4a	-0.0984083
58	0x3d301c29	0.042995606
59	0xbc3c1fc0	-0.011482179
60	0xbd33f1f8	-0.04393193
61	0x3cea56b1	0.02860579
62	0x3d784324	0.060610905
63	0xbda2769b	-0.079327784
64	0xbc2522c7	-0.010079092
65	0xbdab1747	-0.08354049
66	0x3c8321ac	0.016007267
67	0xbc3dcd75	-0.011584629
68	0xbd58b06c	-0.052902624
69	0x3d4dd7c6	0.050254606
70	0x3ccd359d	0.025049979
71	0x3d3fbe93	0.046812605
72	0x3ac5800b	0.0015068067
73	0x3d70713c	0.05870174
74	0x3e13098d	0.14359112
75	0xbbe6ebf1	-0.0070471694
76	0x3dbdac6f	0.09261405
77	0xbe1148fb	-0.14187996
78	0x3db3aef3	0.08773603
79	0xbde5b637	-0.11216395
80	0xbcb846ff	-0.022494791
81	0xbb8317d9	-0.0040006456
82	0xbd78de20	-0.06075871
83	0xbdc3f409	-0.095680304
84	0xbe02a2ba	-0.12757388
85	0x3ddc3047	0.10751396
86	0xbc2e10a3	-0.010624084
87	0xb805ba5e	-3.188324e-05
88	0xbc8c5059	-0.017128156
89	0x3de8e15b	0.11371108
90	0x3ca4f6fa	0.020137299
91	0x3e06f9e7	0.13181268
92	0x3dc7ab40	0.0974946
93	0xbd1e97a0	-0.03871882
94	0x3d31f361	0.043444995
95	0x3d30de44	0.04318072
96	0x3d937cfa	0.07201572
97	0x3e0bd041	0.13653661
98	0x3db0d78f	0.086348645
99	0xbdd4b40a	-0.10385902
100	0xbebe8b9d	-0.3721589
101	0x3eace3e3	0.33767614
102	0x3cbfce2c	0.02341374
103	0x3f0922ef	0.5356893
104	0x3e34972e	0.17635795
105	0x3ef63386	0.48086184
106	0xbd7b81ff	-0.06140327
107	0x3ec014dd	0.37515917
108	0xbf0a69fa	-0.5406796
109	0xbe820581	-0.25394824
110	0xbf139867	-0.5765442
111	0xbeb33804	-0.35003674
112	0x3e7d0ae7	0.2471119
113	0xbd9c5920	-0.07634187
114	0xbde5aeff	-0.112150185
115	0x3efc0c97	0.49228355
116	0xbed7fd45	-0.42185417
117	0xbecb3a6b	-0.39693007
118	0xbf0a81d4	-0.5410435
119	0xbe0ab1f9	-0.13544454
120	0x3ec61289	0.38686016
121	0xbe691e9c	-0.22765583
122	0x3f114834	0.567508
123	0x3ea44bcb	0.32089075
124	0x3e4e1305	0.20124443
125	0xbe832cf6	-0.2562024
126	0x3ea2f0ca	0.31824332
127	0x3f0cc74f	0.5499162
128	0xbe8badfa	-0.2728117
129	0xbee89941	-0.45429423
130	0xbef5adac	-0.47984064
131	0x3eeb2f39	0.45934466
132	0xbe64ec3c	-0.22355741
133	0x3e41ab22	0.18912938
134	0x3eaf4288	0.34230447
135	0x3ed68c33	0.4190384
136	0xbd08b39d	-0.033374418
137	0xbe9d65f2	-0.3074184
138	0xbe915550	-0.283854
139	0x3ebb1334	0.36538088
140	0x3dcc0c05	0.0996323
141	0x3eb708bf	0.3574886
142	0x3ebd015a	0.36915094
143	0xbd3b6088	-0.045746356
144	0x3e6c469e	0.23073813
145	0xbdb2e89a	-0.087357715
146	0xbea53d45	-0.32273307
147	0x3ee652f6	0.4498517
148	0xbdc04651	-0.09388412
149	0xbe2c8aad	-0.16849776
150	0xbc23d1de	-0.009998767
151	0x3dece780	0.115675926
152	0xbde15820	-0.11003137
153	0xbdea0298	-0.11426276
154	0x3cef67f0	0.029224366
155	0xbd94fb81	-0.07274533
156	0xbd25eeb5	-0.040510852
157	0x3d603f65	0.054747958
158	0xbe1d4b4b	-0.15360753
159	0x3da115cc	0.078654855
160	0x3dd86bc3	0.10567429
161	0xbd71f8bf	-0.059075113
162	0xbe0fc1df	-0.140388
163	0x3e2053dd	0.15656991
164	0xbcfbed25	-0.030752728
165	0xbde5cee8	-0.11221105
166	0xbde2f58f	-0.11081993
167	0x3d21be4e	0.03948813
168	0xbd7d58cb	-0.061852258
169	0x3a88f485	0.0010448849
170	0xbcfdce17	-0.03098206
171	0x3db48f33	0.088163756
172	0x3e209eaf	0.15685533
173	0xbc0897f7	-0.0083370125
174	0x3de170b3	0.11007824
175	0xbe0744ed	-0.13209887
176	0x3e17bbae	0.14817688
177	0x3d99a41b	0.07502004
178	0x3ddd6c25	0.108116426
179	0xbd3995b5	-0.045308787
180	0xbbf63f2f	-0.0075148563
181	0xbbfbc275	-0.007683093
182	0x3e0c4a8e	0.13700315
183	0xbc96f009	-0.018425005
184	0xbdf04091	-0.11731065
185	0xbdc4e1e8	-0.09613401
186	0xbda81b90	-0.08208382
187	0xbdba30f6	-0.0909137
188	0xbe037547	-0.12837707
189	0xbde5f681	-0.112286575
190	0xbd83f5c7	-0.06443363
191	0xbcd6e158	-0.0262305
192	0x3c8d2cbb	0.017233243
193	0x3e0f1c9b	0.13975756
194	0x3c78875f	0.015168994
195	0xbd8db1cc	-0.06918678
196	0xbd929a8f	-0.07158386
197	0x3bad8e08	0.0052964725
198	0xbdd686dd	-0.10474942
199	0xbcab368e	-0.020900037
200	0xbe97a5c7	-0.29618666
201	0x3ddadd0f	0.10686695
202	0xbe4e285a	-0.2013258
203	0x3e4141bf	0.18872736
204	0x3d1e2df6	0.03861805
205	0x3e3f0baa	0.18656793
206	0xbe9bb73c	-0.30413234
207	0x3da753b6	0.081702635
208	0xbda827a7	-0.08210688
209	0xbda77d82	-0.081782356
210	0xbdc15499	-0.09439964
211	0xbd87f0ea	-0.066377476
212	0xbe2913c8	-0.16511452
213	0x3e088b91	0.1333449
214	0xbdc2d907	-0.09514051
215	0x3e207a1c	0.15671581
216	0xbdc2f09e	-0.0951855
217	0xbd1404e9	-0.036137495
218	0xbe2b5dd1	-0.16735007
219	0xbe55919f	-0.20856331
220	0x3df6782d	0.120346405
221	0xbe0aef6e	-0.13567898
222	0x3db18d5c	0.0866954
223	0x3e223974	0.15842229
224	0x3de7d538	0.11319965
225	0x3d1108e1	0.03540886
226	0x3dbf148c	0.09330091
227	0x3e5d3103	0.21600728
228	0x3cad92e2	0.021188203
229	0xbdbdc86a	-0.092667416
230	0xbe426e11	-0.189873
231	0x3e853af2	0.26021534
232	0xbda4561f	-0.08024239
233	0xbb7814a1	-0.0037854093
234	0x3e833cb6	0.25632256
235	0x3e01144b	0.12605397
236	0x3ccbe46e	0.024889197
237	0xbd519169	-0.051164065
238	0x3bce9120	0.0063039213
239	0x3bd8a5d7	0.0066115665
240	0xbdf905b5	-0.12159292
241	0x3e73557a	0.23763075
242	0x3e503c13	0.20335416
243	0xbea5c7ca	-0.3237899
244	0x3d834c6c	0.06411061
245	0xbe68e3da	-0.22743168
246	0xbca8d1cd	-0.020607853
247	0x3dca4ad3	0.09877553
248	0x3e13062b	0.14357822
249	0xbcdaba4b	-0.02670016
250	0xbe0ec321	-0.13941623
251	0xbc46cd79	-0.012133949
252	0x3dd8f357	0.105932884
253	0x3dd9f6b6	0.106427595
254	0x3e50ef02	0.20403674
255	0xbd40180d	-0.046897937

lstm2.bias_ih_l0 f4 [200]
0	0x3d9d6efe	0.07687186
1	0x3ddcfffc	0.10791013
2	0x3ef6b231	0.48182824
3	0x3d4db3a1	0.050220136
4	0x3e4c6a6c	0.19962472
5	0x3e034263	0.12818293
6	0x3f144545	0.57918197
7	0x3e09c86f	0.13455366
8	0xbdd578f6	-0.10423462
9	0x3d66e04a	0.056366242
10	0x3d4fc36b	0.050723474
11	0xbe1a7718	-0.15084493
12	0xbdf0be53	-0.117550515
13	0x3dbb0b63	0.09133031
14	0x3e4ec062	0.20190576
15	0x3d31a84f	0.043373402
16	0x3e157c78	0.14598262
17	0xbe0eeb56	-0.13956961
18	0x3d50cf0f	0.050978716
19	0x3dc6b894	0.09703174
20	0xba665a03	-0.00087872165
21	0x3f333c14	0.70013547
22	0xbd820177	-0.06347936
23	0xbd56033a	-0.05224917
24	0xbe055ecc	-0.13024443
25	0xbd860d6c	-0.06545529
26	0xbd3255d5	-0.043538887
27	0x3e1ce00d	0.15319844
28	0x3e2dab92	0.1695998
29	0x3e23abe2	0.15983537
30	0x3e17359e	0.14766547
31	0x3d88b837	0.06675761
32	0xbde9b813	-0.114120625
33	0xbd952b40	-0.0728364
34	0x3ab87986	0.0014074303
35	0x3d63fcb8	0.055660933
36	0x3e17966a	0.14803472
37	0x3d5b7638	0.05357954
38	0xbc8ce16c	-0.017197333
39	0x3e37badc	0.17942375
40	0x3e657450	0.22407651
41	0x3d611497	0.054951277
42	0xbdda17a3	-0.106490396
43	0xbddd0652	-0.10792221
44	0x3c49116b	0.012272219
45	0xbdbe46c1	-0.09290839
46	0xbbe4f60d	-0.0069873394
47	0x3d45e074	0.04830976
48	0x3db72944	0.08943418
49	0xbc780362	-0.015137525
50	0x3c99d285	0.018777141
51	0x3d8ec6ef	0.06971537
52	0xbe1d146f	-0.15339826
53	0xbdea37a5	-0.114363946
54	0xbe0fc312	-0.14039257
55	0x3d59fe5f	0.053221103
56	0x3dd43cf4	0.103631884
57	0x3c055829	0.008138695
58	0xbd5d53a2	-0.054034837
59	0xbdcaf9e8	-0.09910947
60	0x3d62372d	0.0552284
61	0x3dbd15bb	0.092326604
62	0xbd1fad61	-0.038983706
63	0xbde6f0d5	-0.11276404
64	0xbc517747	-0.012784786
65	0xbe078528	-0.13234389
66	0x3e081c9a	0.1329216
67	0xbe1d9025	-0.15387018
68	0xbd0506c3	-0.03247715
69	0x3b9c9c5c	0.0047793817
70	0xbc9dc76b	-0.019260129
71	0x3e9a7128	0.30164456
72	0xbc77af55	-0.015117486
73	0xbc73cc20	-0.01488021
74	0xbb973ac0	-0.004615158
75	0xbc1fb36c	-0.009747367
76	0x3dea657d	0.114451386
77	0x3ce387d5	0.02777473
78	0x3daae138	0.08343738
79	0xbde4e001	-0.11175538
80	0x3dc7ada9	0.0974992
81	0xbe1b7ae2	-0.15183595
82	0xbd21c5a6	-0.039495133
83	0x3d40849b	0.047001462
84	0xbdaec01a	-0.08532734
85	0x3da2becf	0.0794655
86	0xbe546b4e	-0.20744058
87	0x3d89a5f7	0.067211084
88	0xbc3ccc96	-0.011523386
89	0xbd4217b4	-0.047385886
90	0xbdb957e9	-0.09049971
91	0xbe04dc95	-0.1297477
92	0x3de7cdd6	0.11318557
93	0x3b938759	0.0045022187
94	0xbdf1f57f	-0.11814403
95	0xbc1f3247	-0.009716577
96	0x3d484e23	0.048902642
97	0xbdd1041a	-0.102058604
98	0xbe20581d	-0.15658613
99	0xbab71039	-0.0013966627
100	0xbd15f1ae	-0.036607437
101	0x3dcce7b0	0.100051284
102	0xbdfeaf4a	-0.124357775
103	0xbc831fb4	-0.016006328
104	0xb9cd20c4	-0.0003912506
105	0xbd0f31fc	-0.03495978
106	0x3d848acf	0.06471788
107	0x3daae2b7	0.08344024
108	0xbdac0521	-0.08399416
109	0xbdabcbb9	-0.083884664
110	0xbd80669c	-0.06269571
111	0xbdca2ddf	-0.098720305
112	0x3dcf2253	0.10113969
113	0x3da70662	0.08155514
114	0xbd6526f4	-0.05594535
115	0x3c82808e	0.01593044
116	0xbde6fe3c	-0.1127896
117	0xbcbe377e	-0.02321982
118	0x3db92c9a	0.0904171
119	0xbdd3ddec	-0.103450626
120	0xbdb42903	-0.08796885
121	0x3d85425a	0.06506796
122	0x3d3e9a13	0.046533655
123	0x3e078517	0.13234363
124	0x3d3036e1	0.043021087
125	0xbcbd8080	-0.023132563
126	0xbd688096	-0.056763254
127	0xbd9e68bc	-0.0773482
128	0xbd51ee7e	-0.051252834
129	0xbda4f4ee	-0.08054529
130	0x3da32df0	0.07967746
131	0xbd091041	-0.033462767
132	0x3b918585	0.0044409656
133	0xbda5cd52	-0.08095802
134	0x3dc20627	0.0947383
135	0x3bfba68d	0.0076797665
136	0x3dcf2518	0.10114497
137	0x3d641ff5	0.05569454
138	0xbda468b8	-0.08027786
139	0xbd77ac17	-0.060466852
140	0x3d801b22	0.06255175
141	0xbd84bf84	-0.06481841
142	0x3e08bbb4	0.13352853
143	0x3b89de5d	0.004207416
144	0x3d8f8b2c	0.07008967
145	0xbc3c8792	-0.011506932
146	0xbc84c444	-0.016206868
147	0x3dbabaa8	0.09117633
148	0x3bdc23ad	0.00671812
149	0xbceda5a5	-0.02900965
150	0xbc88d60c	-0.016703628
151	0x3df9d885	0.12199501
152	0x3eb3dda8	0.35130048
153	0x3b9f93de	0.004869922
154	0x3e2dbc84	0.16966444
155	0xbe078533	-0.13234405
156	0x3f16a0b8	0.5883899
157	0x3d89a6b5	0.0672125
158	0x3c8ba3af	0.017045824
159	0x3d8c3e1f	0.06847786
160	0x3da5890e	0.08082782
161	0xbe058813	-0.1304019
162	0x3d3f78e9	0.04674617
163	0x3caf145e	0.021372017
164	0x3e63abc4	0.22233492
165	0xbd2df90c	-0.042473838
166	0x3e5a3aa3	0.2131143
167	0x3d837595	0.06418911
168	0x3dcd8860	0.10035777
169	0x3d7a3519	0.061085794
170	0x3ce210fe	0.027595993
171	0x3f560861	0.83606535
172	0xbdafad52	-0.0857798
173	0xbc7d3870	-0.01545535
174	0xbdd37bd5	-0.103263535
175	0xbd78d656	-0.06075128
176	0x3c716629	0.01473383
177	0xbd456e4e	-0.048200898
178	0x3e013a94	0.12620002
179	0xbd80f606	-0.06296925
180	0x3e043a31	0.12912823
181	0x387114d6	5.7478283e-05
182	0xbd95e059	-0.073181815
183	0xbdcffe89	-0.101559706
184	0x3e137380	0.14399529
185	0x3d9f8ccc	0.07790527
186	0xbda531c8	-0.08066136
187	0x3d2d96c8	0.042380124
188	0x3cb86b65	0.022512147
189	0x3dd09f61	0.10186649
190	0x3dc30498	0.095223606
191	0xbde4a48c	-0.11164197
192	0x3d51d40c	0.051227614
193	0xbdf72096	-0.12066762
194	0x3dbf5828	0.09342986
195	0xbba606b6	-0.005066718
196	0xbdf7897b	-0.12086769
197	0xbccb2c0f	-0.024801282
198	0xbd6c10fe	-0.057633393
199	0x3db9931e	0.090612635

lstm2.bias_hh_l0 f4 [200]
0	0xbe08679e	-0.13320777
1	0x3da12c46	0.078697726
2	0x3f13acaf	0.5768537
3	0x3dc2a7c2	0.095046535
4	0x3e45443e	0.19264314
5	0xbe06c87d	-0.13162418
6	0x3ed9c55d	0.4253339
7	0xbdd863d0	-0.10565913
8	0xbc8d28c9	-0.017231362
9	0x3d98c918	0.074602306
10	0xbd8a8ea4	-0.06765488
11	0x3dc0fa6c	0.09422764
12	0x3c330a40	0.010927737
13	0xbdce8249	-0.10083444
14	0x3e1a5f2c	0.15075368
15	0xbd82f218	-0.06393832
16	0x3d286d40	0.041119814
17	0x3ddaf73a	0.10691686
18	0x3d9e30a9	0.07724125
19	0xbdb6a1e8	-0.089176
20	0xbda4727e	-0.0802965
21	0x3f60496f	0.8761205
22	0xbdb422e6	-0.08795719
23	0xbddfed8d	-0.10933981
24	0xbae596d0	-0.0017516259
25	0xbd521f0c	-0.05129914
26	0xbcbb3d97	-0.022856517
27	0x3d84d835	0.06486551
28	0x3d372c29	0.04471985
29	0x3daef731	0.08543242
30	0x3cf1648e	0.029466894
31	0x3d9522dd	0.0728204
32	0xbd5d3482	-0.054005153
33	0x3df78456	0.12085788
34	0x3e20bf0c	0.15697879
35	0x3db8b81b	0.0901949
36	0xbd8d9f1d	-0.06915114
37	0x3e26c6d5	0.16286786
38	0x3cb83f8c	0.022491239
39	0x3d35817a	0.04431293
40	0x3dec549c	0.115395755
41	0xbd27bb8d	-0.040950347
42	0xbd9209b5	-0.07130758
43	0x3d7d5c0e	0.06185537
44	0xbdbd60d3	-0.092469834
45	0xbe271429	-0.16316284
46	0x3cc1d143	0.023659354
47	0xbd8eca60	-0.06972194
48	0x3ddf55f6	0.109050676
49	0xbda542e0	-0.08069396
50	0xbdd7eb4d	-0.10542927
51	0x3d9604a1	0.07325102
52	0xbe648fad	-0.22320433
53	0x3cbeac48	0.02327551
54	0xbe2f569c	-0.17122883
55	0xbce4faaa	-0.027951557
56	0x3e636997	0.22208248
57	0x3e020dbd	0.12700553
58	0xbd619186	-0.055070423
59	0x3ce2c7de	0.027683195
60	0xbdec2835	-0.115311064
61	0xbd92633d	-0.071478345
62	0xbdaa97a9	-0.08329708
63	0xbd5d613f	-0.05404782
64	0xbd82854a	-0.06373079
65	0x3d1d751e	0.03844177
66	0xbd5ee58e	-0.05441814
67	0xbdf48294	-0.11938968
68	0xbd14a2ca	-0.03628806
69	0x3df5316f	0.11972319
70	0x3d1a29e9	0.037637625
71	0x3e968ff8	0.29406714
72	0xbd8c431c	-0.068487376
73	0x3e0cc38e	0.13746473
74	0x3de73e36	0.11291163
75	0xbda5bf96	-0.08093183
76	0x3deac44e	0.114632234
77	0x3c991747	0.018687857
78	0xbe0905e1	-0.13381149
79	0xbd748a85	-0.059702415
80	0x3de9e689	0.11420924
81	0xbde978aa	-0.11399968
82	0x3ce7a6b7	0.028277738
83	0x3d8870de	0.06662153
84	0x3d02ed07	0.03196433
85	0x3d8bc571	0.06824768
86	0xbe01013e	-0.1259813
87	0x39d0c39a	0.00039818586
88	0xbdbb2eb3	-0.091397665
89	0x3e0fba12	0.14035824
90	0xbd03274c	-0.0320199
91	0xbd57b7b1	-0.052665416
92	0x3da1797c	0.078844994
93	0x3d90a215	0.07062165
94	0x3dc172f8	0.09445757
95	0xbdf69129	-0.12039406
96	0x3da07a54	0.07835832
97	0xbd3c53e4	-0.04597844
98	0x3d984cc3	0.07436516
99	0xbd4f0fde	-0.05055224
100	0x3caba684	0.020953424
101	0xbdae5166	-0.08511619
102	0x3e0c1971	0.1368158
103	0x3e12216f	0.14270566
104	0x3d543ded	0.05181687
105	0x3e0d6c81	0.13810922
106	0xbd1316e1	-0.03591049
107	0xbcf6acd8	-0.030111715
108	0xbdbf1e0b	-0.09331902
109	0xbcac84bf	-0.021059392
110	0x39e9088d	0.00044447594
111	0xbd2a1689	-0.041525397
112	0x3d6a5db0	0.057218254
113	0xbb978d10	-0.0046249703
114	0x3d2cb76c	0.042167112
115	0x3df8e8bf	0.12153768
116	0x3dfd7022	0.12374903
117	0xbde34b15	-0.11098305
118	0xbdf0aef0	-0.11752117
119	0x3e013a33	0.12619857
120	0x3d1d13ba	0.03834889
121	0xbc52af90	-0.01285924
122	0x3df80e5c	0.12112114
123	0xbd147209	-0.036241565
124	0xbd3243c3	-0.043521654
125	0xbd5730c8	-0.052536756
126	0x3dcfa33b	0.101385556
127	0x3de7bd38	0.113153875
128	0x3c25ff20	0.010131627
129	0xbc9f80a2	-0.019470517
130	0xbd6cc39f	-0.057803746
131	0x3d547aed	0.051875044
132	0x3dad5517	0.08463495
133	0x3db82f52	0.08993401
134	0x3ca1227e	0.019669767
135	0x3d946dd9	0.07247514
136	0xbd030f81	-0.031997208
137	0xbda8b992	-0.0823852
138	0x3d84e740	0.0648942
139	0x3d457da5	0.048215527
140	0xbdc2851e	-0.09498046
141	0x3de8ba12	0.11363615
142	0xbceedc89	-0.029157894
143	0x3d5fb234	0.054613307
144	0xbe26592b	-0.16244952
145	0x3cf9beb0	0.030486435
146	0xbd9a1c59	-0.07524938
147	0xbd2c5b80	-0.04207945
148	0xbd93dd43	-0.07219937
149	0xbcbc1fcb	-0.022964379
150	0xbdba9cdc	-0.0911195
151	0x3e00ff0e	0.12597296
152	0x3f0c9a2f	0.54922765
153	0x3cfa63d7	0.030565185
154	0x3eb30959	0.3496807
155	0x3d5ebde6	0.05438032
156	0x3ee50adb	0.44734845
157	0xbd9d0039	-0.07666058
158	0xbe02e99d	-0.12784429
159	0xbd103636	-0.03520795
160	0x3def265a	0.11677237
161	0xbdc00ff8	-0.09378046
162	0xbe07ff49	-0.13280977
163	0x3b19b9be	0.0023456658
164	0x3e474cec	0.19462937
165	0x3dae4e37	0.08511012
166	0x3e465739	0.1936921
167	0x3d65fc72	0.056148954
168	0x3d4c333a	0.04985354
169	0xbd200a65	-0.039072413
170	0x3d664ba5	0.056224484
171	0x3f346c93	0.7047817
172	0x3db1db92	0.08684458
173	0xbb23ebb7	-0.0025012323
174	0x3dafaf7f	0.08578395
175	0xbcf0bdec	-0.029387437
176	0x3d92bad0	0.07164538
177	0xbd3649d4	-0.044504
178	0xbdb86548	-0.09003693
179	0x3e108234	0.14112169
180	0x3df17efd	0.11791799
181	0x3e35d731	0.1775787
182	0xbaba9eaa	-0.0014237959
183	0xbc71fdf9	-0.014770024
184	0x3d4f5782	0.050620563
185	0xbd9ceac8	-0.076619685
186	0xbda6e154	-0.08148447
187	0x3d09ac91	0.033611838
188	0xbdb4f369	-0.08835489
189	0x3e1039ce	0.1408455
190	0x3dc83c34	0.09777108
191	0x3dfa3e0d	0.122188665
192	0xbcf39b9f	-0.029737292
193	0x3da3d054	0.0799872
194	0xbdcaa786	-0.09895234
195	0xbb64b47e	-0.003489762
196	0xbe035c83	-0.12828259
197	0xbdf77b50	-0.12084067
198	0x3db9e9bc	0.090777844
199	0x3c1ddf2e	0.00963573
