Models/model_AMZN.pth (torch, 132779 bytes, 11 tensors)

lstm1.weight_ih_l0 f4 [200, 1]
00000000: 7574 823a 93b3 a33c 8237 933d 0982 a53c
00000010: 7862 03bd 39da af3d 2fa4 893e 64c5 593e
00000020: 897d 5b3e 9909 3c3e 8059 543e 4ddc bcbc
00000030: e3d8 063e ac1c 8b3d 68b3 943d 1a64 7f3d
00000040: adbb fe3d 44e1 563d 0049 ab3d dae3 573e
00000050: f88c 1bbe f02b 693e 9631 2f3e c739 7b3e
00000060: ab00 9b3d dc07 b33d 8e03 743d 7064 143d
00000070: c947 c63d fa43 7e3d 9932 b4bb d0b0 0dbd
00000080: 6f58 05be 0f08 873d 1b14 103f f07f 023d
00000090: f69d 253d bc86 7a3e e710 453d 837a 413e
000000a0: 9639 123e 6f86 0f3d 2d12 c83d 1d22 2b3d
000000b0: f3eb 1bbd 0f10 e4bd 6a2b 593e 7f4e 243e
000000c0: a8aa 713d fab2 d13d 4598 313d ea10 823e
000000d0: 3a24 ed3c 9f73 df3d b6a2 813b c78c e53d
000000e0: 1055 723e f462 3a3e 9fa2 f13d a1a7 013d
000000f0: c374 923d e926 ba3c 1511 483d 6627 5b3d
00000100: 8f6f d639 9c72 1ebe b798 00be 2436 b33c
00000110: 3921 6abd c720 56bc d4d4 8ebc 876a ee3d
00000120: 6700 db3b 9bcf 5e3d b1e6 0f3e 6746 e73d
00000130: 5b30 dcbd d640 febd 4ea5 833d 80e0 6bbd
00000140: cc15 573d a56b ac3d 759b 5ebe a1bd ed3d
00000150: d30d 37be 8958 2a3e 8132 303d 945e 843e
00000160: ed62 1a3d f258 873d 300b b93d 5c9c 50be
00000170: fe20 02bc 4d6d 603e ea08 5f3e 467c 0fbe
00000180: 1ccc 8ebc 43c9 06bd 6753 8abe ef1a 1f3e
00000190: fd11 913d 9045 69be 056f 87bd 9a38 3c3e
000001a0: 51b8 39be 57df dc3d d0e9 8a3e da7a 31be
000001b0: 80bb 50be e9b4 0ebe 380d 133e 5127 3b3e
000001c0: ef9a eabd e0e9 ff3d b555 d9bd 0a72 a3bd
000001d0: fa67 3abe 4178 65bd 342b 943e 1f32 6bbe
000001e0: d81f f93c c075 533e ff3a 0bbe 552f 6b3e
000001f0: 669e 48be b036 9d3b e48b 81be f334 87be
00000200: 3431 21be 1e9d 34be b646 dc3d f4e6 253e
00000210: 8a0b 453e 3856 4bbe e26b e53e 2708 e13d
00000220: c9e1 653e ed1f a0bd a300 7ebe 6cf6 713e
00000230: d4a5 87be 13b3 433e 4c3a 413e a7f6 833e
00000240: e167 db3d 2df0 7f3e c850 3fbe 4f93 573e
00000250: 4ed4 913e fca6 8ebd b467 b53c befc 8a3e
00000260: ea16 793e 23ed 393d bbbe e23b 76cf 4bbc
00000270: b81c 863e e08a ba3e 698a 9d3d 0b9a f23c
00000280: 9739 9a3d 2cb1 383e 47db 233e 5f2d 273e
00000290: 57a9 4c3e 8365 04be a49c 663c 3016 263e
000002a0: f606 c23d 66e6 5b3e 1f81 bbb7 a599 0b3e
000002b0: 4af1 2c3e 585e cd3b 21b8 0b3e 307c 223e
000002c0: 089e 74bd c160 cabd e657 52bd 98c1 bebd
000002d0: dcd2 e23c 5b6c 1cbd 677b cfbd 7f95 e23c
000002e0: ba17 193f 3c98 1b3e def4 653e 8b58 273e
000002f0: 02ae 913e bbca 2abd bedf 6d3e 8536 20be
00000300: 0aea 173e f57d 5d3e ca7f 243e add7 66bc
00000310: 691a dd3c 6496 963d 635e 963c 6b32 6f3d
0.000995292 0.019983089 0.07188322 0.020203607 -0.03207633 0.085865445 0.26883075 0.21266705
0.21434607 0.18363036 0.20737267 -0.023054266 0.13168673 0.06792578 0.072607815 0.062351324
0.1243814 0.052460924 0.08363533 0.21083012 -0.15190494 0.22770667 0.1710876 0.24533759
0.07568487 0.087417334 0.059573703 0.036228597 0.09681661 0.062076546 -0.005499196 -0.03459245
-0.13022016 0.06593334 0.5628068 0.031860292 0.040433846 0.2446546 0.048111822 0.18894391
0.1427978 0.035040315 0.09769092 0.04178058 -0.038066816 -0.111358754 0.21207967 0.16045569
0.05900064 0.10239215 0.043358106 0.2540353 0.028947938 0.10910725 0.0039561642 0.11208492
0.23665261 0.1820181 0.11798596 0.031654004 0.07151177 0.022723632 0.048844416 0.05350437
0.00040900378 -0.15473408 -0.12558256 0.021876402 -0.05716059 -0.013069338 -0.017435469 0.11641412
0.0066833976 0.054397207 0.14052846 0.11292725 -0.107514106 -0.1241471 0.06428014 -0.057587147
0.05251102 0.08418969 -0.2173899 0.116084345 -0.17876367 0.16635336 0.043016914 0.25853407
0.037692 0.06608762 0.09035337 -0.20372146 -0.007942436 0.21916695 0.21780744 -0.1401225
-0.017431311 -0.032906782 -0.27016756 0.15537618 0.07083509 -0.22780442 -0.06612972 0.18380967
-0.18136717 0.10784786 0.2713151 -0.1733202 -0.20384026 -0.13936199 0.14360511 0.18276717
-0.114553325 0.1249578 -0.106120504 -0.079807356 -0.18203726 -0.056022886 0.2893921 -0.22968338
0.030410692 0.20650387 -0.13596724 0.22967274 -0.19591674 0.004797779 -0.2530204 -0.26407585
-0.15741426 -0.1763806 0.107556745 0.16201383 0.19242683 -0.19857109 0.4480887 0.10987883
0.22449411 -0.07818589 -0.2480493 0.23629159 -0.26493704 0.1911128 0.18869895 0.25774118
0.10713173 0.24993964 -0.1868316 0.21052288 0.28482288 -0.069654435 0.022144176 0.27145952
0.24325147 0.045392167 0.0069197095 -0.012439599 0.26193786 0.36434078 0.07692415 0.029614469
0.07530516 0.18036336 0.16001616 0.16325901 0.19986473 -0.12929349 0.014075432 0.16219401
0.09473984 0.21474609 -2.2352264e-05 0.1363283 0.1688892 0.00626735 0.13644458 0.15867686
-0.059721023 -0.098817356 -0.051353358 -0.09314269 0.027688436 -0.038189273 -0.10130959 0.027659176
0.5980183 0.15194792 0.2245669 0.1634237 0.2845307 -0.041697245 0.23229882 -0.15645798
0.14835373 0.2163008 0.16064373 -0.014089507 0.026990132 0.073529035 0.018355554 0.05839769

lstm1.weight_hh_l0 f4 [200, 50]
00000000: 3f57 233e 16da d73d 08b0 e43d a89d d93c
00000010: b9ce 07bd da6e f73d 948e aebc fea2 e73d
00000020: 3607 aebd 9d4d f93b 021a f13c 084f e1bc
00000030: 4ea3 cb3d 467f ed3c d304 a8bd bb40 d13d
00000040: 0251 aabc 2813 86bd ef01 a53c f069 023c
00000050: e2a0 b43d c52c 2b3e 5337 913d 20e4 a9bb
00000060: af0d ec3d 8882 0cbd d6da 403d 1d89 74bd
00000070: dfe0 15be f6bd b23d 6a28 e3bd 26ea a0bd
00000080: af76 8c3d e62b 29be 7839 97bd 2df2 6cbd
00000090: 1e4a 90bd 5162 5e3d 04bf f3bd b60f a03d
000000a0: 1ec9 80bc f231 4c3e eb2b 6abd f387 ea3d
000000b0: 0be9 3b3d e932 133e 5b80 0bbd 7dca 2b3d
000000c0: c5d7 14be 8ec7 083d f400 823c dbf5 abbd
000000d0: dca2 0c3d de0b e93d 538d 9dbc ade5 50bd
000000e0: 8d86 31bc ef42 92bd f123 12be 2220 573d
000000f0: aacc 9ebb dda4 ad3c 9f36 81bd 8b7d 16bc
00000100: faec 893d aaa4 b9b9 0e6d f5bd a73c 1fbd
00000110: a09f 083d 7fdf 7abd 125c 463c bcaa 84bc
00000120: 2300 5d3d 5057 ec3c 70aa 403d 9799 593d
00000130: e8c1 26be 8531 6ebd f496 96bd 9b9a 963d
00000140: 3949 dc3d f467 0bbd cc6e 34bc 7181 0fbe
00000150: b229 babd 0655 283e cc00 123c 53a8 6ebd
00000160: 215b 0abe 2440 7bbd 9274 f6bd 0ac6 0fbe
00000170: 89f3 d53d 7eea e53d 4ea3 ee3d daf6 f1bd
00000180: 7c50 35be 8c5b 1e3e 51bb 40be 2b2e 2fbc
00000190: a9ca ba3d 3407 15be d510 11be 00d5 dd3d
000001a0: da0f b4bd 0fbf 90bd 675d 0e3e 2c93 1a3c
000001b0: 49c2 92bd 3eba cd3a cb0a e03d fcb6 363e
000001c0: 184f b8bd 0a2e 193e 6283 273d b945 8d3d
000001d0: 07a8 373d 71f9 a73d a3a1 48bc 2479 4ebe
000001e0: 0937 f73d a9e9 0b3d 540b 1ebe bef0 8e3d
000001f0: a15e a83d 8836 a73d 73b6 6cbd 5557 07be
00000200: 1b1e cabd cd73 7fbc c6e3 ac3d 6da9 623c
00000210: 0419 ae3c 9c49 4fbe 77bd 40bd 364a 1f3e
00000220: c46b 08bd 498a a63c 02ad 41be 3c4d 043b
00000230: 432c 0dbc 6e81 243e 94e5 b63c f799 a03d
00000240: 5d9c 323e 2dda c33d 01c5 3abe 6a24 23bd
00000250: 065c 623e 3b94 dabc deae f03d f4b4 263d
00000260: b160 25be 5e26 833d cb0a 14be 7d1b d83d
00000270: c58e e43d 3929 6dbd dc37 913d 1e49 84bd
00000280: 74da 183e 3efe 29ba 7ba4 223d 78a0 85bd
00000290: c2a1 9c3d 1936 0fbd 342e 65bd 8b7d bebd
000002a0: 5f5a 8c3d aaf9 763d 7a14 ec3c f81f 193e
000002b0: da84 1ebe 45ac 753d f98a 4d3d 3ec7 c23c
000002c0: 4ca3 ccbd 9b18 5f3b ffef 1f3d 93f6 823d
000002d0: 3209 cfbd 444f ccbd 5c9b d7bd 480a 11be
000002e0: 827f 6dbd 32ee 203e b88c 4b3d 51db 3c3e
000002f0: 968d fabd 2c9e d33c d763 d7bd 9b57 ae3d
00000300: 57e9 c53d 1cbd 2e3e 74e2 083e 7934 d6bd
00000310: fdc3 30bd b384 e93d 2dd4 b3bd fe9e 403d
00000320: 1649 dfbd 10ac ec3d ba69 f53c 028c 043e
00000330: 5f90 e9bd 5a9f 5f3b ea6c 153c a94a 0c3e
00000340: 85a3 5b3d 0185 be3d 41b3 1fbd df4f e13c
00000350: 7a17 18bd 38ff d4bd 0203 823d 2351 803c
00000360: 0eee 223d d1a5 c1bd bc92 e53d 20c0 913c
00000370: 2c1c 313e e70f ca3d 6254 383d 4459 053e
00000380: 2ce7 37bd 8563 593d 89e7 dd3d bd6e 1fbd
00000390: a5ae 70bd 49ab b43d 35ae a4bd 1ceb 99bd
000003a0: dc81 6e3b 046a ecbd d51b 753d c02d d3bd
000003b0: 7921 83bd ad4e 59bd a03b 17be 11d6 293e
000003c0: 60e6 90bd 32d0 babd 5ecf 313d aa6a bcbd
000003d0: a328 6fbd 74f8 00be 32fc cd3c 7d3f 853d
000003e0: 4c67 e1bc d8af 293d 2faa 11bd 688f 473c
000003f0: 37ce 68bd f849 a43d 392c 23be ffc1 3fbc
0.1595125 0.105396435 0.11166388 0.026564434 -0.03315613 0.1208169 -0.02130822 0.11310385
-0.08497469 0.007608129 0.029431347 -0.027503505 0.09943257 0.028991353 -0.08204045 0.102174245
-0.02079058 -0.065466225 0.020142524 0.007959828 0.088197485 0.16716297 0.070906304 -0.0051846653
0.115260474 -0.03430417 0.0470837 -0.059701074 -0.14636563 0.087276384 -0.11091693 -0.0785716
0.068585746 -0.16520652 -0.07384008 -0.057848144 -0.07045387 0.05429298 -0.11901668 0.078154966
-0.0157209 0.19940928 -0.05717079 0.114517115 0.045876544 0.1437489 -0.034057956 0.041941155
-0.14535435 0.033393435 0.015869595 -0.083965026 0.034335002 0.113792166 -0.019232428 -0.051000286
-0.010835302 -0.07141673 -0.14271523 0.05252088 -0.004846175 0.021196777 -0.06309246 -0.009185205
0.06734653 -0.00035408634 -0.11983691 -0.038876202 0.033355355 -0.0612483 0.012106912 -0.016194694
0.05395521 0.028850228 0.047037542 0.05312499 -0.16284907 -0.058152694 -0.07353011 0.073537074
0.107561536 -0.034034684 -0.011012744 -0.14014222 -0.09089984 0.16438684 0.008911323 -0.058265995
-0.13511325 -0.061340466 -0.12033953 -0.1404039 0.10446841 0.112263665 0.11652242 -0.11814661
-0.17706484 0.1546461 -0.18821456 -0.01069216 0.091206856 -0.14553529 -0.14166577 0.10831642
-0.08792086 -0.070676915 0.13902818 0.009434503 -0.07165963 0.0015695763 0.109395586 0.1784324
-0.08999461 0.14958969 0.04089678 0.06898064 0.044837978 0.08201874 -0.012245568 -0.20163399
0.12071044 0.034158383 -0.15434009 0.06979512 0.08221174 0.08164698 -0.057791185 -0.13216908
-0.098690234 -0.015591574 0.08441882 0.01383434 0.021252163 -0.20242923 -0.047055688 0.15555653
-0.0333059 0.020329611 -0.18913653 0.0020187637 -0.00861651 0.16064999 0.022326268 0.078418665
0.1744246 0.09563098 -0.18239214 -0.03982965 0.22105417 -0.02668201 0.11752103 0.040699914
-0.16150166 0.06403802 -0.14457242 0.10552118 0.111600436 -0.05790064 0.070907325 -0.064592585
0.14927083 -0.00064847234 0.039707642 -0.065247476 0.0764804 -0.0349637 -0.055952266 -0.09301289
0.068531744 0.060296692 0.028818358 0.14953601 -0.15480366 0.059978742 0.050181363 0.023776647
-0.09992084 0.0034041766 0.039047237 0.063946865 -0.10109176 -0.09976056 -0.10527679 -0.14164078
-0.05798293 0.15715864 0.049694747 0.18443038 -0.122340366 0.025832258 -0.1051709 0.08512803
0.09663647 0.17064327 0.13367635 -0.10459227 -0.04315566 0.114022635 -0.08780704 0.047026627
-0.10902612 0.11556256 0.02995764 0.12944034 -0.1140449 0.003412208 0.009120205 0.13700356
0.05362274 0.09302712 -0.03898931 0.027503906 -0.037131764 -0.104002416 0.0634823 0.015663689
0.039777808 -0.09455455 0.11209628 0.017791808 0.17295903 0.098663144 0.04500235 0.13022333
-0.044898197 0.053073425 0.108351775 -0.038923968 -0.058760304 0.088217326 -0.0804104 -0.07515547
0.003639332 -0.115436584 0.059840996 -0.103114605 -0.06402869 -0.053053547 -0.14768839 0.16585566
-0.070751905 -0.09121741 0.04341065 -0.09200032 -0.058388364 -0.12594777 0.02514467 0.0650625
-0.027515076 0.041427463 -0.03556269 0.012180187 -0.056837287 0.08021921 -0.15934838 -0.011703967

lstm1.bias_ih_l0 f4 [200]
00000000: c8f2 7d3d 03b7 cb3d 26d9 1d3e f55a a03d
00000010: 3b9f f93d 0a85 45bd 9257 acbd 652e 73bd
00000020: 010a a73c 7848 4d3d 76d8 073e ee7d 19bc
00000030: a3df bd3d ba7a 97bd bb08 0b3d 924a 983d
00000040: a469 dcbc a121 8dbc 7d10 1fbb 6431 e63d
00000050: 00d9 0ebe 70f1 83bd 2d82 893d 2322 6f3e
00000060: d487 c1bd d7bc b8bd 06d0 363d b4f4 a83e
00000070: 5171 7abd 0ecf c43d 68d4 e63d 1f27 aebd
00000080: 493d 993c 0553 d13d b4d2 d83e 4457 44bd
00000090: b610 123e 3621 213e 5e37 a6bb af6c 043e
000000a0: fa45 39bd 2c21 e33d 35e2 04be 6d42 bc3d
000000b0: 0cc2 9bbd 0f91 383e 72cb dabd f1cd d4bd
000000c0: 17a4 143e 0047 853d 6469 92bd a632 01be
000000d0: c799 86bd 7448 993d f149 003e f89b e3bd
000000e0: 000f f5bd 4535 123d ce47 943d 4d01 443d
000000f0: 2011 dfbc 763d 7f3d 312a d0bd 093e 183c
00000100: 8c82 bbbd b1bf 923d 53a4 50be d2d1 a53c
00000110: df96 fbbb 4bb1 a13d 412a 21be cb92 adbd
00000120: 8f95 3f3d 1acb cfbd 6ec4 d43c e810 fd3d
00000130: 6ea6 b33c 34e3 bd3d ec54 d7bb 4046 42bd
00000140: 1a8b f73c 404b 763d c69a cd3c 4130 433d
00000150: 1ada 19be 0fba 87ba c34b 0b3e 74a9 71bd
00000160: ecc0 90bd 77e1 48bc 1616 b43d 852c a3bd
00000170: 3665 c1bd 1748 ac3d 64a5 ef3d 9b5c b9bd
00000180: b23e 9c3d 4cc4 d7bb 3520 133d 567d 54bc
00000190: 5cd3 643d 00bd 9e3d ac9a 05be 6fb0 d53c
000001a0: 76c9 553c e5ce b33c b2cd 533c 3147 99bd
000001b0: 39d1 98bc 6923 2a3d 7bf1 8fbd 3bce c63d
000001c0: 9d10 bc3c 7a4d 77bd 2053 c0bc 6bc8 983d
000001d0: b4d8 a83d c1d7 2cbd efd9 d83d 762a 473d
000001e0: 4625 593b 8242 72bd 71ee 99bc d8cf 73bd
000001f0: 7d1a 4bbd cab7 113d 8776 d3bc d489 c2bc
00000200: 6c8f 5dbd f013 543d 65c3 783d f292 323d
00000210: da76 e9bd b01f 193d e167 99ba c8e8 78bc
00000220: 6755 a8bd 5ec7 fa3d f61d 9b3d 0ec4 ca3d
00000230: 7909 3fbc 6bc3 19be d134 fbbc 61ac 69bd
00000240: f2e1 83bd 0ecc 69bc 394b 0fbd 73f4 8d3d
00000250: 4b5f c1bd cbee 8dbd b307 bc3d 5e88 ec3d
00000260: a09a 92bc 2dcd e23d 41a9 e2bd 84fd bd3c
00000270: 71c3 b63d bdad 66bd 5eae 8abd 9758 90bb
00000280: 43a0 d2bd 9dcb 75bd 1890 003e b923 e8bd
00000290: c380 bc3c 7ca4 ad3c 41c3 8ebd dbb2 e33b
000002a0: 3e87 71bc d4c6 b1bd 391e ffbd e9d9 873d
000002b0: 3732 c93d 74a6 0a3e 2576 c43c 0ce7 eb3d
000002c0: 941e da3d 0525 853e 727e 95bd 6c1f 113e
000002d0: 6ec5 c4bd 95b1 a23c 689d 97bd 7ad2 4d3d
000002e0: a386 003f dd97 2c3d b8e5 dfbd 4f2d fa3d
000002f0: e6a6 b1bb b839 9abd cdfd 19bd 15f7 6d3d
00000300: 33be 473d 502f 06bd a7dc 8c3d 51c7 4b3e
00000310: 4aa0 93bd c754 febd 6851 833e 65f4 323d
0.061999112 0.09947016 0.15414867 0.07829849 0.12188574 -0.04822258 -0.0841514 -0.059370417
0.020390512 0.05011794 0.13266167 -0.009368403 0.09271171 -0.07396455 0.033943873 0.07436098
-0.026905842 -0.01722795 -0.0024271302 0.11239889 -0.13949966 -0.06442535 0.06714282 0.23352866
-0.09449735 -0.09020393 0.04463198 0.32999194 -0.061143223 0.09609805 0.11270982 -0.085035555
0.01870598 0.10220913 0.42348254 -0.047934785 0.14264187 0.15735325 -0.0050725183 0.12932085
-0.04523275 0.110903114 -0.12976916 0.09192357 -0.07605371 0.18024085 -0.10683335 -0.10390843
0.1451572 0.06507683 -0.07149008 -0.12616977 -0.065722995 0.074845225 0.12528206 -0.11113733
-0.11965752 0.035695333 0.07240258 0.047852803 -0.027229846 0.062314473 -0.10164297 0.009292134
-0.09155759 0.071654685 -0.20375185 0.020241652 -0.0076778973 0.07895144 -0.15738775 -0.08475264
0.04677349 -0.101461604 0.025972571 0.1235674 0.021929946 0.09271851 -0.006571403 -0.047430277
0.030217696 0.060130358 0.025098216 0.04765344 -0.15024605 -0.0010355132 0.1360312 -0.058999494
-0.07068047 -0.012260786 0.08793275 -0.07967476 -0.094431326 0.084121875 0.11701468 -0.09050866
0.07629146 -0.0065846797 0.035919387 -0.012969336 0.05586563 0.07750893 -0.13047284 0.026085107
0.01304852 0.021949241 0.01292746 -0.07484282 -0.018654453 0.041537676 -0.070284806 0.09707304
0.02295714 -0.06037662 -0.023477137 0.07460102 0.08244458 -0.042197946 0.105884425 0.04862448
0.003313379 -0.059145458 -0.018790456 -0.059524387 -0.049585808 0.035575666 -0.025813354 -0.023747362
-0.054091856 0.051776826 0.060733218 0.04359717 -0.11399622 0.037383735 -0.0011703932 -0.015192218
-0.08219414 0.122450575 0.07574074 0.09900676 -0.011659973 -0.15015952 -0.030664833 -0.05704916
-0.0643958 -0.014269842 -0.034983847 0.069313906 -0.09442004 -0.06930312 0.09181156 0.115494475
-0.017895997 0.110742904 -0.11067439 0.023192175 0.08923996 -0.056318033 -0.06771539 -0.004405092
-0.10284474 -0.060008634 0.12554967 -0.113349386 0.023010617 0.021196596 -0.069708355 0.0069488115
-0.014741717 -0.086805016 -0.124569364 0.0663336 0.09824031 0.1354006 0.023982117 0.11518678
0.106503636 0.26004806 -0.07299508 0.14172143 -0.09607969 0.019860068 -0.0740307 0.050249554
0.5020544 0.042137016 -0.10932487 0.12215673 -0.005421507 -0.0753054 -0.03759556 0.058096964
0.048765372 -0.032759964 0.068780236 0.19900252 -0.07208307 -0.12418514 0.25648046 0.043690104

lstm1.bias_hh_l0 f4 [200]
00000000: fd3e 193d 41c2 dcbc 87fb d6bd 5de4 4ebd
00000010: 20ec 673c 0819 24bc 1f4a 793d a995 033e
00000020: 6a3a 1c3e c630 79bd 7b95 3a3d be3a 013d
00000030: 7a7a a5bd 4e2e e0bd 29ca b8bd 1e71 e4bd
00000040: 8591 9cbd e1bc 2dbe 8961 8a3d 4e4d 89bd
00000050: 0fec abbd ac2e e43d b414 843c e29d 8b3e
00000060: 50e4 863d 9be2 983d 4907 2e3e c2ec 9e3e
00000070: d9c7 8f3d 4f94 d0bc 28ab 923d fb97 693d
00000080: a6ab 223e c992 163e 706c 203f 826f 063d
00000090: 06ac 943d 343a ea3d d5a5 3ebd 87eb 2b3d
000000a0: ba23 eb3d 325a 543d aaaf 9f3d dfb9 e83d
000000b0: 6c9b 24bd f6d4 e0bc 2a8e bdbd 04d2 ad3c
000000c0: 91ed 7e3e fc28 933d 1822 a43d 0203 1c3e
000000d0: 466f 0b3e 0ef8 22bd 938f 9ebc 9fc6 dabc
000000e0: 3076 c3bd 1846 ddbc 9aff 8b3d 03cc 74bd
000000f0: d329 6f3d 231a 91bd cf2f 063e f8b1 153d
00000100: 0fcb 453d 210b d6bd adfc 90bc b8b0 b63d
00000110: fe32 143d fe5d 15be 85bd bdbc ee58 2b3c
00000120: c98b 15be 6189 723a 198c 8dbd 95aa efbd
00000130: 2e44 8cbd 98d7 af3d 78cd c8bd 6cd7 6a3d
00000140: 717a 14bd 902e 96bd 5f43 f7bd b340 0bbe
00000150: 7318 aabd 82e6 3abd 2d92 5f3d e041 523e
00000160: db05 d23d 92c9 5f3d e877 423b cdb2 1abc
00000170: c874 ffbd f93c 26bd ffa4 163e 3308 51bd
00000180: 3806 b43d 9a6a 573c 55fa e03c 3960 a63d
00000190: 827c 35bd 3bc5 71bd 15f5 34bd dff0 89bd
000001a0: 62ca 1dbc 1348 c63c 7b2a c83c 19df e6bc
000001b0: 1e29 d53a aadf a5bd 8d9e de3d 03e5 0fbd
000001c0: 3de2 c0bc 405a 043d bd00 003d 2377 aebd
000001d0: d6a2 493d a13e 8a3c 1b06 14be fccc b1bd
000001e0: 41c0 673d 5fe2 af3b eb87 eb3c 5e0d 713d
000001f0: 16bd 593c dd0b a9bc 0bf5 023e 8e36 053e
00000200: 7127 7a3d af3c 1eba d572 82bd 59e0 e03c
00000210: 4a84 443d e8a3 05bd ccbb 86bd d0b5 fcbc
00000220: bf77 853d 858b 90bc 1fa6 07bc 9286 87bd
00000230: b994 b03c 97a1 6c3d c981 ef3c 493b fa3c
00000240: 6440 a43d e16d eabc 67ce dcbc a44e 413d
00000250: 0fbf 0bbd 3778 a5bc 4efa d8bc d8f1 763d
00000260: d5af 1c3e 4982 c1bb abb0 1a3e 4099 583d
00000270: 7877 6ebd c3b4 31bc 5b2b f83c 968f 9c3d
00000280: b613 113e f865 a1bd 6809 b83d 3148 c03d
00000290: dbb2 eb3d 79f2 07be 76e8 a1bd aa3a 23be
000002a0: 31ad d03c 3c48 c43d d4f7 b0bc 2dba 41bd
000002b0: 4300 ffbc 46f6 9e3e a373 f93d b98c 023e
000002c0: 1cc2 ac3d b039 733e 8052 ea3b ca43 ecbd
000002d0: 683f b4bd 5742 03bb dd9b 053e 9eb1 023e
000002e0: 3b12 d73e a801 c7bd df8c 173e 8722 a03d
000002f0: 99ac 403e 30eb 8a3d f391 363e 4e4c 453e
00000300: d0b2 a23d b1af 8bbd 1f58 bdbc 332e 23bb
00000310: 75da cc3c 45e0 183e 362f ac3d 4da6 aa3c
0.037413586 -0.026948096 -0.10497194 -0.050510753 0.014155418 -0.010015734 0.060861703 0.1285006
0.15256658 -0.06083753 0.045552712 0.03155016 -0.08080001 -0.10946332 -0.09022934 -0.11154388
-0.07644943 -0.16966583 0.067568846 -0.06704198 -0.08394634 0.111417145 0.016123153 0.27268893
0.06586516 0.074650966 0.16994967 0.31040007 0.0702054 -0.025461344 0.07161552 0.057029705
0.15885791 0.14704432 0.6266546 0.032821186 0.07259373 0.114368826 -0.04654487 0.041972663
0.11481424 0.05184383 0.07797177 0.11363577 -0.040187284 -0.027445298 -0.09255631 0.021218307
0.24895312 0.071855515 0.08014315 0.15235522 0.13616666 -0.039787345 -0.01935557 -0.026706038
-0.09544027 -0.027010962 0.068358615 -0.059764873 0.058389496 -0.07085063 0.13104175 0.036546677
0.048289355 -0.104513414 -0.01769861 0.08920425 0.036181442 -0.14586636 -0.023161659 0.010458214
-0.14604105 0.00092520384 -0.06911487 -0.11702458 -0.06848942 0.08586043 -0.09804815 0.05733435
-0.03624958 -0.073331 -0.12073397 -0.135989 -0.083054446 -0.045629986 0.054582763 0.20532942
0.10255023 0.05463559 0.002967352 -0.0094420435 -0.12473446 -0.04058549 0.14711379 -0.05103321
0.08790249 0.013147974 0.027463118 0.08123822 -0.044308193 -0.059025984 -0.04417904 -0.06735396
-0.009630771 0.02420429 0.024434319 -0.028182553 0.0016262864 -0.08099301 0.10870085 -0.035130512
-0.023545379 0.03231263 0.031250704 -0.08518817 0.049227558 0.016875567 -0.14455454 -0.08681676
0.056579832 0.0053675617 0.028751334 0.05885064 0.0132897105 -0.02063554 0.12788789 0.13009092
0.06107277 -0.0006036264 -0.06369559 0.027450727 0.047977723 -0.032627016 -0.06578788 -0.030848414
0.065169804 -0.017644653 -0.008279352 -0.06617464 0.021555291 0.05777129 0.029236691 0.030545847
0.08020094 -0.028616847 -0.026953889 0.04719414 -0.034117755 -0.020198924 -0.026486542 0.060289234
0.1530145 -0.005905424 0.15106456 0.052880526 -0.058219403 -0.01084632 0.030294111 0.07644574
0.14167675 -0.07880777 0.08986169 0.093887694 0.11508723 -0.1327609 -0.079056665 -0.15940347
0.02547321 0.0958409 -0.021602549 -0.04729669 -0.031128054 0.31047267 0.12180259 0.12748994
0.08435461 0.23752475 0.007150948 -0.11536367 -0.08801156 -0.0020028555 0.13047738 0.12763068
0.42006096 -0.09717113 0.14799832 0.078190856 0.18815841 0.0678314 0.17829113 0.19267389
0.07944262 -0.0682062 -0.023113308 -0.0024899363 0.025006512 0.14929302 0.08407442 0.020831252

lstm2.weight_ih_l0 f4 [200, 50]
00000000: aa8c 68bc 8ffd 693c ee9a 06be 0361 25bc
00000010: 3a55 a83c 43a4 10bd 6d35 473e 5574 57be
00000020: 7d41 51be bc9a e8bd 5789 7a3d 27bf c93d
00000030: f5e5 9c3c de60 19bd 9911 4cbd e04b 3ebd
00000040: 97bd 2abc 7300 5dbd f641 2f3d 509e 04bd
00000050: 36ff d13d 170b 0e3e 552a 59be 79b6 5fbc
00000060: b1d8 ebbd 2e8b 3cbd 5458 c63d 1276 5a3c
00000070: 68fb 253c 893d e3bd 4457 0abd 1277 e93d
00000080: 99b0 dfbc 7933 7b3d dc1d 0e3c a6ea d93d
00000090: 30da 1e3e ad43 14be c569 693d 7924 87bb
000000a0: da2d 313d 90f7 87bd ca24 1f3e 8e89 1d3e
000000b0: ab2e db3d a84a a9bd 129e 50be f153 443e
000000c0: 9b8d 99bc 227e 0c3d 1ecd 713d f62c 4abe
000000d0: b109 ccbd 7c03 a2bd 2cc5 85bd 338f 8cbd
000000e0: 5dfe 0bbd fe97 8fbd 3740 c0bd 46c1 513d
000000f0: 79f7 a6bc 030e 233e 8c7f f1bd 95ad 9fbd
00000100: b256 d0bd 443c cebd a39a 8e3d 87bb 1bbe
00000110: debe e93d 80a0 dbbd a9a6 ef3d d2c3 e8bc
00000120: c5c8 a7bb 8ab2 003d 51e2 c8bd 595a 373e
00000130: 781b 14be d6c1 aebe e6c2 02bd 93e3 4abe
00000140: 58a8 d33d 0727 d1bd 5882 463d 3971 babd
00000150: a7b8 863e e44e 823d 0d0a 453d 82ac 17be
00000160: 2a63 8bbd 601e cebb 33a0 003d f29e 5e3e
00000170: ddb1 2a3e 9ebc fe3d 80f1 cdbc cb96 4dbd
00000180: c74b 363c 3c2e cfbd d5f5 553e 4dd7 023d
00000190: 6efe bf3d ed86 5bbc a226 193d 76e9 28bd
000001a0: f1b4 d13c c509 babd 344f b53c 787a 21b9
000001b0: a988 933d 3b1b 173d 9077 16bd 4e4e a7bc
000001c0: 28c9 7dbd 8e37 b03c 2d31 bfbc 8bc3 083d
000001d0: b5ba c2bc 9855 25be f8ca 213e 619e 4bbd
000001e0: fbec f9bc 0601 5c3c b59c 82bd edb5 593e
000001f0: 77b9 0bbc 2e2e 113e 2f2b 93bd 11d6 59be
00000200: 129c 433d daad 2cbe fb5b 303e c1f9 27bd
00000210: 84de 783d 59ed 463d b384 2a3e 19db 233e
00000220: af78 603c c14b 233c 05f9 9fbb 9855 9cbd
00000230: 3f06 17be e951 ee3d 83ee d73d 4290 ac3d
00000240: 84b1 43bd a4ab 96bd ccb2 a4bd 6dab ab3c
00000250: 0161 f03d 7774 00bd b0a8 81bc 8238 acbd
00000260: be74 c7bd c7b7 59bd 1864 c2bd e9ef 6b3d
00000270: 3c46 113e 807c 973d f489 cbbc a9a0 4b3d
00000280: dd88 0ebd fe4a 103e 7d1a a33d 33e5 e8bd
00000290: 175d e8bd 4834 86bd 1171 9d3c b529 00be
000002a0: c51e 7c3d 6a10 2b3d 553e c8bd fe24 363d
000002b0: 5f3e 92ba ee19 353d d256 d73d 71cc cdbd
000002c0: 19b8 c83c 4940 dabc 58ca d03d 797f b0bd
000002d0: dc74 ee3d d56b ff3c 6be2 d03d bbc0 4dbd
000002e0: d58c 2cbd b84e 8b3d f760 70bd e9ce a83b
000002f0: 04ef c3bd 1f79 ccbd f7ac 43bd 3f85 7f3e
00000300: 917f b43c 15d6 99bd 6129 493d 7bfb 00be
00000310: f1f2 cc3d e4c9 0a3d d2ec 9abc 4756 bcbb
00000320: b0bc 4d3e 3f7f 5cbe 185a 413c 93e7 d93d
00000330: e18e 803d 24af a43d c453 5b3d b1c8 523d
00000340: 462d adbd 9fce 303c ccd7 9a3d 5fa1 c63d
00000350: 325e c1bc f766 ad3d 93ae 39be 5bce 1b3e
00000360: 312c 55bd 9ada afbc 3444 423b bc0e 4ebe
00000370: 1f11 aa3b 2886 fa3d 0c04 ffbd 2064 1b3e
00000380: 848f bebd ef73 56bd 6d9c 48bd 463e e9bd
00000390: eef6 0cbd 72b5 a2bd cea3 b2bd b1a9 f63d
000003a0: c9ea da3d 5392 01be 18ac f03d d36a 043e
000003b0: 9994 b63d f91d 58bd a715 59be 6193 123e
000003c0: 1618 28be 0752 80bd b634 143d a37a c73d
000003d0: 5132 4bbd 5517 313e a6f9 bdbc 1d93 1a3d
000003e0: 5f00 34bd 222d 43be 89b4 f43d 26dd 25be
000003f0: 8e98 25be 540b 413e df08 d3bd adc9 8fbd
-0.014193693 0.0142816445 -0.13145038 -0.01009393 0.020548452 -0.035312902 0.19453974 -0.21040471
-0.20435138 -0.11357638 0.061166134 0.098509125 0.01915262 -0.037445895 -0.04982147 -0.04645908
-0.010421178 -0.053955507 0.042787515 -0.03237754 0.10253756 0.13871418 -0.21207555 -0.013654345
-0.1151594 -0.04603117 0.09684816 0.013333814 0.010130741 -0.11095721 -0.03377463 0.11399664
-0.027305888 0.061328385 0.008674111 0.10640459 0.1551292 -0.14478941 0.056985635 -0.004124221
0.043256618 -0.06639016 0.15541378 0.15384504 0.107022606 -0.08266193 -0.20372799 0.19172646
-0.01874428 0.034299977 0.059033506 -0.19743714 -0.09962786 -0.07910821 -0.06531748 -0.068632506
-0.034178127 -0.07011412 -0.09387248 0.05120971 -0.020381676 0.15923314 -0.11791906 -0.0779678
-0.10172786 -0.100700885 0.06963088 -0.15208255 0.11413358 -0.10723972 0.1170171 -0.028413687
-0.005120369 0.031420268 -0.098087914 0.17905559 -0.14463603 -0.3413226 -0.03192415 -0.19813375
0.103348434 -0.10212522 0.04846415 -0.09103627 0.26312754 0.063627034 0.04810529 -0.148119
-0.068060234 -0.006290242 0.031402778 0.2174032 0.16669412 0.124383196 -0.02513957 -0.050192636
0.011126465 -0.101162404 0.20894559 0.031943608 0.093747005 -0.013398868 0.03739036 -0.04123827
0.025598975 -0.09083895 0.022132494 -0.0001539978 0.072038 0.036891203 -0.036735117 -0.02042308
-0.061959416 0.021510866 -0.023338879 0.03338961 -0.02377067 -0.16145933 0.15800083 -0.04971159
-0.030508509 0.013427978 -0.06377546 0.21260805 -0.008528105 0.14177772 -0.07185971 -0.21273066
0.047756262 -0.16863194 0.17222588 -0.04100967 0.060759082 0.048566196 0.16652183 0.16001548
0.013700648 0.009966792 -0.0048819804 -0.07633513 -0.14748476 0.11636717 0.105435394 0.084259525
-0.047776714 -0.073569566 -0.08041915 0.020955766 0.11737252 -0.03136107 -0.015827507 -0.084092155
-0.09739064 -0.05315378 -0.094917476 0.057601843 0.14186949 0.07396793 -0.024846055 0.049713764
-0.03479849 0.14091107 0.079640366 -0.11371841 -0.113458805 -0.065529406 0.019218953 -0.1251591
0.06155278 0.0417637 -0.09777514 0.044468872 -0.0011157504 0.04421418 0.105146065 -0.1004876
0.024501847 -0.026641982 0.10194844 -0.086180635 0.11643383 0.031179348 0.10199436 -0.05023263
-0.042126495 0.06802124 -0.058686223 0.0051516187 -0.09567073 -0.099840395 -0.047772374 0.24953173
0.022033485 -0.07511536 0.049111728 -0.12595932 0.10007275 0.033883944 -0.018911753 -0.0057475897
0.2009151 -0.21532916 0.011801265 0.106398724 0.06277252 0.08041218 0.053546682 0.051460925
-0.08455901 0.01079145 0.07560691 0.09698748 -0.023604486 0.084669046 -0.18133001 0.15215437
-0.052044097 -0.021466542 0.0029642703 -0.20122808 0.0051900293 0.122326195 -0.12451944 0.15174913
-0.09304717 -0.052356657 -0.048977304 -0.11388831 -0.034415178 -0.07944764 -0.087226495 0.12044085
0.10689313 -0.12653475 0.11751574 0.12931375 0.089150615 -0.05276296 -0.21199666 0.14314033
-0.16415438 -0.062656455 0.03618308 0.09740188 -0.049608532 0.17294057 -0.02319033 0.037737954
-0.043945666 -0.19060186 0.11948497 -0.16197643 -0.16171476 0.18851978 -0.103044264 -0.070208885

lstm2.weight_hh_l0 f4 [200, 50]
00000000: a3ef 063d 7b00 39bd bb58 833d e5e9 2e3d
00000010: 1d4c b23b 1d3c b4bd 8e4d aabb 79f2 8bbd
00000020: 9ca9 9e3d bae9 3c3e af68 f73d cea8 263e
00000030: dc5c f33c 4505 bdbc d8e6 0e3d 65e4 e5bd
00000040: 5da0 b2bd 4495 a2bd 794f 52bd 1f41 0fbe
00000050: ae8b a63d 84c3 a4bd 0015 223c 5500 1dbd
00000060: d42e b7bb 1ba1 b4be 9cce 183e 4bfe 2b3e
00000070: d007 68bd d92c 9cbd ec4d ba3d 2014 04be
00000080: 121e 653c 56b4 273d 8c17 9abd b94b d83b
00000090: dbfc c6bd 7e36 9cbd 5e5d 8abb 54f2 08be
000000a0: 4cf7 82bd fbe0 323c 0f90 f4bd 26b7 a03d
000000b0: af9c 183d 9e5e c3be 7080 d6bc eede a9bc
000000c0: e8ed ca3a 610b c8bd 1374 1abd f4c7 20bc
000000d0: 5ca6 563d 99fc 0e3e e9e0 c3bd 9e73 6bbd
000000e0: d5c8 eebd 36eb 91bd 2913 1f3e cb79 ff3b
000000f0: 0eeb 8e3d 93f0 123e 3b40 1fbe 4079 313d
00000100: 8bef 1dbd 688e 1ebe 6595 24be 6699 2b3c
00000110: 2262 81bd b624 0b3e c5f5 8d3d 05f2 ea3d
00000120: 6517 3e3d 5089 b83d 1f55 1b3d 6173 6a3d
00000130: 6d0e ee3b 25e4 4ebd 5f86 8d3d 44b8 df3b
00000140: edfc 1cbc 054a 9abc 6715 81bd 06bc 9b3d
00000150: 74b7 4fbd c821 d4bd 1901 34bd 3849 a3bb
00000160: ecdb 373e c637 c0bd e1a4 9c3c fc52 c0bd
00000170: 0add bb3c 4d62 8bbd 8e11 523c 995c 85bd
00000180: 5b6d 00be 3c1a f0bb d9cd 97bd 4ba7 06be
00000190: 0933 b8bd 42b1 7a3d a4a0 193d e63a 2b3d
000001a0: 2181 2d3e aa04 dabc ee8e e63c f537 b2bd
000001b0: 8740 9ebd 843e 473d d364 c53d c570 6dbd
000001c0: 1d46 b23d bfd9 e93d b901 cbbd 572b 2ebe
000001d0: c6bb d1bd 6bed 0dbd 492c 113c 193a 35bd
000001e0: b7b9 383e 3461 1ebe 069e c5bd fdcb eebb
000001f0: 3c6f 80bd 5c07 29bd 636b 473d e31e 89bd
00000200: 6335 ee3c 8b7b ccbd 7b3f d43c 9c87 1abe
00000210: 890b 4f3d 290e 15be e024 69bd cb2f 8cbd
00000220: 0159 e4bd b7e8 a3bd c2b0 d2bd 1f8f 47bd
00000230: 5dd1 fdbd 63fc dc3d 4dce 3c3d 1a17 2e3e
00000240: 8fbd 1dbd 959e a73d 4b99 233d 7c18 8bbd
00000250: d335 d63b e4ca f5bd 694d c2bc 6c71 2cbd
00000260: 9643 09be 0b0c 6e3d 1e83 0bbe f4e8 5d3d
00000270: 2ffb efbd dcff 843d 2375 f43c f916 863d
00000280: 4d34 653d 4284 903c 4518 db3d 5604 ecbd
00000290: 48f1 3bbd 3635 b0bc 7cf6 afbc 998c b0bd
000002a0: 48f6 c03d 080d 9bbd 0041 2cbe d25a a0bc
000002b0: c306 c13d 8af2 12bd 1ee8 c4bc 71c3 903c
000002c0: 959f df3d f52c 623d f023 ac3d 0320 c7bd
000002d0: cf25 33bd d684 bbbd 3b71 f0bd b319 07be
000002e0: 4cc5 873d f1d6 fabc b2a2 14bd a78e 89ba
000002f0: 99f0 7cbd 8f9b 223c 6128 d13d 74fa 013e
00000300: 8353 62bd 5167 c63d 0588 523d 4fd6 28be
00000310: af4b 0fbe 8b8d c03d 7443 e6bd aa83 99bd
00000320: 898d bcbd f5b1 86bd ca70 3fbd baee f6bb
00000330: 4f01 b13d 6274 9f3d e27e cebd 3b03 7a3d
00000340: d76f 0b3c 6ce0 ac3d b689 e9bd 3957 cb3d
00000350: a801 8abd 3614 a53d 6a92 3d3c 1033 59bd
00000360: 77b4 64bd 5c69 01be 2445 95bd a4bd a43d
00000370: c2af 4b3e 949a 2a3d 43aa 113d ed69 203e
00000380: 27a6 463d f050 fb3d 4a11 d8bd 4052 13bd
00000390: 962e f93c 7bf5 d0bd 41bd 44bd b0b7 d1bd
000003a0: 1d7a 39bd 171a 893c 0ab9 f33d e0ab 22be
000003b0: d641 81bd c766 aa3d c768 e0bd f0a7 7b3d
000003c0: 70b9 b73d 4a03 25be 79e0 953d 375a 353e
000003d0: 2b9e 3ebc da3f febd 12f3 673d 3fbb d7bd
000003e0: 223a 01bc e72b b3bd d86f d33c 592a ab3d
000003f0: d2e1 cbbd f6dd 75bd 5745 0cbd d683 023d
0.03294338 -0.045166474 0.06413408 0.042703528 0.0054412023 -0.08800528 -0.0051972335 -0.06833357
0.07747194 0.18448535 0.12080514 0.16275331 0.029707365 -0.023073802 0.03488812 -0.112252034
-0.08721993 -0.079386264 -0.051345322 -0.13989685 0.081321105 -0.08045104 0.009892702 -0.038330395
-0.005590299 -0.35279164 0.14922565 0.16796224 -0.056648076 -0.076257415 0.09096894 -0.12898302
0.01398422 0.040943466 -0.075240225 0.0066008237 -0.09716197 -0.07627581 -0.004222556 -0.13373691
-0.063948244 0.010917897 -0.119415395 0.07847433 0.0372588 -0.38158125 -0.02618429 -0.020736184
0.0015482279 -0.09767795 -0.037708353 -0.009813298 0.052404746 0.13963546 -0.095643826 -0.057483308
-0.116593994 -0.07124941 0.15534653 0.0077965013 0.06978427 0.14349584 -0.15551846 0.043328524
-0.038558524 -0.15484011 -0.16072614 0.010473585 -0.063175455 0.13588223 0.069316424 0.11471943
0.04640903 0.09010565 0.037922975 0.05723894 0.0072649033 -0.050510544 0.06910395 0.006827386
-0.009581787 -0.018834123 -0.0630291 0.07604222 -0.050712064 -0.10358006 -0.04394636 -0.0049830936
0.17954987 -0.09385638 0.01912159 -0.09390828 0.022932548 -0.06805859 0.012821568 -0.06511802
-0.12541716 -0.007327346 -0.07412309 -0.13149755 -0.08994109 0.061204202 0.037506714 0.041804217
0.1694379 -0.026613552 0.028144326 -0.08702079 -0.07727151 0.048643604 0.09638371 -0.057968874
0.08704779 0.11418485 -0.09912438 -0.1700872 -0.10240893 -0.034650248 0.008860656 -0.04424486
0.18039595 -0.15466768 -0.09649281 -0.007287501 -0.06271216 -0.041266784 0.048686396 -0.06695344
0.029078191 -0.099845015 0.025909176 -0.15090793 0.05054811 -0.14556183 -0.056919932 -0.06845053
-0.11149789 -0.08003371 -0.1028762 -0.048720475 -0.123934485 0.107903264 0.04609518 0.17001
-0.038510855 0.08184544 0.039941113 -0.067917794 0.006537178 -0.12001589 -0.023718553 -0.042100355
-0.13404688 0.058116954 -0.13624236 0.05417724 -0.11717831 0.06494114 0.029841011 0.065473504
0.05595808 0.01764119 0.106979884 -0.115242645 -0.0458844 -0.021509748 -0.021479838 -0.08620567
0.094219744 -0.07570845 -0.1682167 -0.019574556 0.09425118 -0.035875835 -0.024036463 0.017671319
0.1091911 0.055218656 0.08405292 -0.097229026 -0.04373723 -0.09156196 -0.11740347 -0.13193397
0.06629428 -0.03062007 -0.03628797 -0.0010494784 -0.06175289 0.009924783 0.1021278 0.12693197
-0.055255424 0.09687675 0.05139925 -0.16488002 -0.13993715 0.09401997 -0.112433344 -0.07495816
-0.09206683 -0.06576911 -0.046738423 -0.0075357826 0.08642828 0.0778587 -0.10082795 0.061038237
0.008510551 0.084412426 -0.114032194 0.09928746 -0.06738597 0.080604956 0.011570552 -0.053027213
-0.055836167 -0.12637848 -0.07288578 0.080439836 0.19891265 0.041651323 0.035562765 0.15665407
0.0484983 0.12271297 -0.105501726 -0.03596711 0.030417722 -0.10203072 -0.04803205 -0.10240114
-0.045282472 0.016736073 0.11900528 -0.15885878 -0.06311385 0.083203845 -0.10957485 0.061439455
0.08970916 -0.16114536 0.073182054 0.17710195 -0.01163439 -0.124145225 0.056628294 -0.10533761
-0.007887395 -0.08748608 0.025810167 0.083576865 -0.09955181 -0.06002613 -0.034245815 0.03186401

lstm2.bias_ih_l0 f4 [200]
00000000: f787 063e b533 05be 84e3 093d 144f bdbd
00000010: 76f4 273e 51e6 e9bc c77b 263d 64aa 943d
00000020: 950f e8bd 8218 c53d 1695 cbbd e902 fd3d
00000030: 49a2 5e3e 8451 5d3d 47fa d1bc 293d ecbb
00000040: 4e8d 9bbc 57ce c5bd 2326 fd3d e246 9dbd
00000050: c984 7cbc 7293 2c3e fbd3 123e 1c71 cc3d
00000060: 12af 523e 6267 333b ec58 06bd 3da3 9b3e
00000070: 5d84 b0bb 5a20 43bd 664a 303e 71b4 b7bd
00000080: b02c e83d 27ef 83bd 255f 06be bbb0 433d
00000090: 04e4 85bc 86a2 3dbd 75c2 83bd 87ee 233e
000000a0: 648f 263f 3cba adbd 3251 f6bc 6286 ce3c
000000b0: 44d1 00be b2b7 d6bc 5859 f0bd 57dd 92bd
000000c0: 626b 36bd 253d b4bd f58b 823b 268e efbd
000000d0: 5c64 abbd 6ff9 0abe e0cd 9c3d a835 013e
000000e0: 4249 b1bd fc95 c23d 88b0 b3bc e568 8c3c
000000f0: c544 3fbd fcfc 43be 44de 5b3d ce75 bbbd
00000100: 50bc f63d d9c6 80bd 5393 073e 99e9 06be
00000110: e88f 1fbe 9953 93bd b3ce e03d 27ac 06be
00000120: 8148 cf3d da65 47bd 5604 13be f0a2 cebb
00000130: aa31 a43c d7c0 18be 85ca 32bd 3e72 f0bd
00000140: dc82 c03c f995 973c e4b6 94bd e1ad f7bd
00000150: 779c 59bd adef a93c 5ab8 ed3b ba13 27bd
00000160: 0733 25be b36c 89bb 0f9b 93be dd1f 213d
00000170: 895c 09be 6cf0 02be 8194 d3bc 2a59 06be
00000180: 6d46 443d 4a5b eb3d b812 cd3d 82f7 12be
00000190: 5fab b83c 8239 c53d b360 2dbd f5fa c33c
000001a0: dc23 a93d 7598 86bd d6c3 393d bf32 a2bd
000001b0: 3b9a a9bd b696 ec3c 00e0 6f3d 4c33 dfbd
000001c0: e8d5 f53d 04eb 01bd 5b68 98bd 1090 a73d
000001d0: 0624 043c 6ef5 c1bd 886a a03d 7ef1 06bd
000001e0: 8de3 89bd b37b 4dbd 14de 493c 80d3 8c3d
000001f0: 21d8 9ebd 161d 183d d8a2 fc39 801c 87bd
00000200: a8bc e0bb d1d8 153e 6c5f f43d 8617 fdbd
00000210: 8336 0cbe bba4 debd 67e7 6bbd f5d4 b8bd
00000220: fd9c c7bd d973 373d 2bc8 21bb 0b9b dd3d
00000230: 7546 26bd 88c1 963b d65f be3d c033 2a3d
00000240: 29d2 8bbd 7983 efbd 60c3 cb3d 6e5d c73d
00000250: fbf2 fa3d 9036 8f3d 28f3 753e c113 36bd
00000260: 7378 b73d 108c 02be f0ea 6e3d d6d5 c1bc
00000270: c46d a2bb 839e d53d 25d8 01be d2ee 01be
00000280: faa9 b43b 9a06 273e be3d c03d 1de8 0b3e
00000290: 754b 1f3e b287 ad3d 6b97 9abd a1d4 aa3c
000002a0: 9d24 ed3d 0d64 783d 649a e53d 79af 89bd
000002b0: 4c9d 283e 1039 7ebc e5e1 0c3e ec44 333e
000002c0: 745d 6b3d a725 663e 7c31 fc3d c548 47bc
000002d0: cc3b 72bd 6140 e13d 0a16 463d 1468 8b3b
000002e0: 8128 d4bd 1175 a9bd d80f ee3d 377f c13d
000002f0: ea58 cebd c701 b03d 1d6a 3a3f 613e 113e
00000300: fad5 863d 2185 1fbb 8119 23be 9c3e fa3d
00000310: c94c 2bbe 282c fbbd c4e7 65bd 958d 13be
0.13137804 -0.13008006 0.03366424 -0.092435986 0.16401848 -0.028552206 0.040645387 0.07259062
-0.11331097 0.09623815 -0.09940545 0.12354071 0.21741594 0.054032817 -0.025632037 -0.0072094393
-0.018988278 -0.09658497 0.123607896 -0.076795354 -0.015412518 0.16853121 0.14338677 0.099825114
0.20574597 0.0027374853 -0.032799646 0.30397978 -0.0053868727 -0.047638275 0.17215881 -0.08969963
0.113366485 -0.06442099 -0.13122232 0.047775965 -0.016344078 -0.046297573 -0.06433574 0.1600896
0.65062547 -0.08482787 -0.030068014 0.025210563 -0.12579829 -0.02621064 -0.11735791 -0.071711235
-0.044536002 -0.08800725 0.0039839693 -0.116970345 -0.083687514 -0.13571714 0.07656455 0.12618124
-0.08656551 0.095012635 -0.021934763 0.017139861 -0.046696443 -0.19139475 0.053678766 -0.09153329
0.120476365 -0.06287927 0.13239793 -0.13175048 -0.1558224 -0.07193679 0.10976925 -0.13151608
0.10121251 -0.048681118 -0.14357123 -0.0063060448 0.020043213 -0.14917313 -0.04365017 -0.1174054
0.023499899 0.01850413 -0.07261446 -0.12093712 -0.053127732 0.02074417 0.0072546424 -0.040790297
-0.16132747 -0.004193866 -0.28829238 0.039337028 -0.13414206 -0.12787026 -0.025827648 -0.13119951
0.047918726 0.114920214 0.10013336 -0.14352229 0.022542654 0.09630109 -0.042328548 0.023923377
0.08258793 -0.065720476 0.04535278 -0.07919835 -0.0828137 0.028880458 0.058563232 -0.10898456
0.1200369 -0.03171827 -0.07441779 0.081817746 0.008065229 -0.0947064 0.07832819 -0.03294515
-0.06732855 -0.050166797 0.012321014 0.06876278 -0.07756067 0.037137114 0.00048186514 -0.06597233
-0.006858427 0.1463349 0.11932263 -0.12358002 -0.1369267 -0.108712636 -0.05759373 -0.09024993
-0.0974674 0.044788215 -0.002468596 0.10820588 -0.040594537 0.0046007074 0.09295623 0.04155326
-0.06827194 -0.11694998 0.09949374 0.09734617 0.12253376 0.06992829 0.24018538 -0.044452433
0.08958521 -0.12748742 0.058329523 -0.023661535 -0.0049569327 0.10430624 -0.12680109 -0.12688759
0.005513427 0.16311112 0.093867764 0.13662763 0.15556128 0.084731475 -0.07548412 0.020853342
0.11579249 0.06064229 0.11211088 -0.06722922 0.16466254 -0.015516534 0.13758047 0.1750676
0.05746217 0.224753 0.12314126 -0.012163346 -0.059139058 0.109986074 0.04836086 0.0042543504
-0.10359288 -0.08274282 0.11624116 0.094480924 -0.10075553 0.08594089 0.72818166 0.14183952
0.065837815 -0.0024340826 -0.15927698 0.12218973 -0.1672851 -0.122642815 -0.056129232 -0.14409478

lstm2.bias_hh_l0 f4 [200]
00000000: eab5 173e 2216 22bd 2e0e e1bb 3071 fbbb
00000010: 1247 05bd 1f32 19bd fd36 123d d22f d03d
00000020: 1777 31bd 24bd d13d f442 aebd c9b6 0dbc
00000030: 4c0d a43e e525 143e e1c8 493c 6a81 763e
00000040: 321e 563d e94c 8f3d f9a5 c53d 935c 8ebc
00000050: e77c fa3c babd f43d d928 6c3e e63d 0cbd
00000060: 30c0 643e 9dca d73d 7fbf d43d f9ab 953e
00000070: 74cf 4b3d d4d0 893c 02bb 0e3e d22f 0a3e
00000080: db35 673d d1e7 40bc 0937 b83d 7119 f4bd
00000090: 71d3 a23d ce4e 27be 8be1 d23d 35c7 1ebd
000000a0: a444 2a3f b123 103e cef4 aa3d 0283 383e
000000b0: 2a78 5f3d 71b9 da3b 30d8 01be 1b30 b8bb
000000c0: e211 3b3d 0f79 a6bb 02a0 743b dbf3 f93d
000000d0: 74e0 d03d da73 b23b 01e0 03bd c12f b83c
000000e0: 703b dcbd 1c3c 19be 4ffd d73d 4e6f 83bc
000000f0: bf64 d8bd 6245 57bd 2614 2ebe 0c74 67bd
00000100: 8cb5 a63d 458e 78bd 5bfc 61bd 4998 01be
00000110: bd0f 36bd bc63 82bd d3ac b7bd 3cda b7bd
00000120: 91a6 c43b 3f05 2d3c 3372 96bd 1b83 a0bd
00000130: b5fe e63d d1e7 8abe bf97 9fbd e788 923c
00000140: 2ad4 79be c1ee c2bc 6ac8 eb3d 29f4 edbd
00000150: 5e4a 85bd 3053 3f3d 6405 ed3d d096 14bd
00000160: b93d eabd 5d09 a9bc c02f 13be b99e 7c3d
00000170: 55b6 623d bc0b cabd ac79 a43d 5ac8 15be
00000180: d3db 2cbe a8e1 813d c2a4 863d 2583 b8bd
00000190: 6ff0 9ebc 0048 c63d 1904 79bd 76e0 093c
000001a0: d231 6bbd ff90 313d 2365 983a 5faa 61bb
000001b0: 283a 313d d924 ef3d ce6d afbd 0158 15bc
000001c0: 05c4 1abe 696b 6b3b 204d 123d 57d8 0abe
000001d0: fb5e 06be d037 b5bd f414 d6bd ed09 a13d
000001e0: d3c6 d13d cab4 c9bd b6b9 d93c deb8 a53d
000001f0: ee23 4d3d b263 39be 5de5 0f3e e9db 2d3d
00000200: 9c54 193d f1c3 be3c 0848 3fbd c616 61bd
00000210: a1be d93d 4757 793d bcb9 033e 6d9d 583d
00000220: 4a7d f0bc 7d90 9d3c 6000 6b3c f998 1abe
00000230: ff46 7abb 9cde ce3d 181c d9bd 5024 443d
00000240: 2cde 36bd a913 d7bd 4128 1f3d 802f 193d
00000250: 41ce d8bc a05c 3a3d b2cb 3b3e ea0a e03b
00000260: 415b 213e 62ae 9cbd a6ab 353d 2c3d 1d3e
00000270: 3785 9f3d 941b 0f3d ee4e 003e 6dd6 763d
00000280: a798 e8bd d0d8 d33d 2ff6 ae3e 10a8 bcbb
00000290: f129 ec3d 078b 5d3e 6b14 fe3d a1c5 103e
000002a0: ad78 313d 98ce 1fbe 9039 5cbd 4565 b53d
000002b0: 73c8 293e bbcc 8a3d 610a 463e 7245 5b3e
000002c0: 38f3 f53d e7ff ba3e a2f3 47bd dae7 4cbd
000002d0: c138 8d3d 37a8 f43d 1e71 0b3e eab9 523d
000002e0: aa95 9c3c 85a7 c03d 0a14 f73c cf95 b4bd
000002f0: 94bd a3bd abd3 843d 9f4c f93e 9729 c23d
00000300: 9c4f d5bd 3dd3 543d c58d 42be baa0 123d
00000310: 8a51 9c3d e020 f4bd cc5c b9bc 8001 a3bd
0.14815488 -0.03957189 -0.0068681454 -0.007673405 -0.03253848 -0.037401315 0.035696972 0.10165371
-0.043326464 0.10241154 -0.08508864 -0.008649536 0.32041395 0.1446758 0.01231596 0.24072805
0.05227489 0.06997091 0.096507974 -0.017378127 0.030577136 0.1195025 0.23062457 -0.03423872
0.22338939 0.10536692 0.103880875 0.29232767 0.04975839 0.01682321 0.13938525 0.13494805
0.056447845 -0.011774019 0.08994872 -0.11918915 0.079504855 -0.16338655 0.10296925 -0.038764197
0.6651099 0.14076115 0.08347474 0.18018726 0.054557957 0.0066749384 -0.12680125 -0.005620969
0.04567135 -0.0050803493 0.0037326817 0.12204715 0.10199061 0.0054459395 -0.03219605 0.022483708
-0.10753524 -0.14964336 0.10546362 -0.016044285 -0.10566091 -0.052556403 -0.16999874 -0.056507155
0.08140096 -0.060682554 -0.055172306 -0.12655748 -0.044448603 -0.06366679 -0.089685105 -0.08977172
0.0060013016 0.010560333 -0.073460005 -0.078375064 0.1127905 -0.27129987 -0.07792615 0.017887546
-0.2439734 -0.023795487 0.11512835 -0.116188355 -0.06508325 0.046710193 0.11573294 -0.03627664
-0.11437554 -0.020634348 -0.14373684 0.061674807 0.055349667 -0.098655194 0.080310196 -0.1462721
-0.16880731 0.06341869 0.06574394 -0.09009389 -0.019401757 0.09681702 -0.060794923 0.008415332
-0.05742056 0.04335117 0.0011626821 -0.0034433824 0.043268353 0.1167695 -0.085658655 -0.00911522
-0.15113838 0.0035922176 0.035718083 -0.1355909 -0.1312217 -0.08848536 -0.10453215 0.07863221
0.10243001 -0.09848936 0.026577812 0.08091901 0.050083093 -0.18104437 0.14052339 0.04244605
0.037434205 0.023286792 -0.046699554 -0.05495336 0.10632063 0.06087425 0.12863821 0.052884508
-0.029356617 0.019233936 0.014343351 -0.15097417 -0.003818929 0.10101053 -0.106010616 0.047886193
-0.044645473 -0.10501797 0.03885675 0.037398815 -0.026465537 0.04549849 0.18339422 0.0068372386
0.15757467 -0.076504484 0.04435315 0.15355366 0.077890806 0.03493841 0.1253011 0.060263086
-0.11357241 0.10344088 0.34172198 -0.0057573393 0.11531437 0.21635066 0.12406238 0.1413789
0.043327976 -0.15606153 -0.053765833 0.08857206 0.16580372 0.067773305 0.19339897 0.2141321
0.12009281 0.36523363 -0.04881633 -0.0500258 0.068955906 0.11946147 0.1361737 0.051446833
0.019114334 0.09406952 0.030160923 -0.08817636 -0.079951435 0.06485685 0.4869127 0.09480589
-0.10415575 0.051959265 -0.18999393 0.035797812 0.0763274 -0.11920333 -0.022627257 -0.079592705

fc1.weight f4 [25, 50]
00000000: b4ab 03be d0fd e5bd ebcf 6abd cba9 ddbd
00000010: 635d 21be 6a43 86bc 454f cf3d 2d5e 803d
00000020: f97a cebd 54cb b73d 0709 1e3d 7325 83bd
00000030: e718 eb3d d391 523d 5f43 1c3e 5b94 013d
00000040: 0a05 d83d d53f 05bc 928a d53d 8073 86bd
00000050: 3865 223e d882 f83d 063a e3bd 13ec 92bc
00000060: c8c8 6dbe 52e0 9dbd 137d 89bc dd3b 96bd
00000070: ed4a 9abd d04f 65bd dc94 a53d 52e0 6ebd
00000080: e7af 263e 1159 943d 4a88 033e 7b33 9cbd
00000090: 46f8 223e 31fe f13d 7190 a63d 28f3 f63d
000000a0: 3ef3 dd3e 9d2f 04bd b4bd 353e 4966 9c3d
000000b0: 8902 bd3d 60f5 f6bd e52e c83d 9e94 e33b
000000c0: e5b4 12be d011 d43d 5541 893e 9169 adbd
000000d0: e9bd 15bd 18f5 a13c 30e1 bcbd 28ed 0b3e
000000e0: 1254 513d 2769 4abd 81a5 203d 6110 853d
000000f0: c38a 833d ec1c 4a3e c582 abbd 1f20 66bd
00000100: 3f82 23be 9f92 793d a050 cd3d 9e8b 19be
00000110: c0a3 473d e306 5abd d803 103c 0265 47bd
00000120: 1198 9f3d 4b9b 09bc f837 3d3e 1103 a23d
00000130: 5ef6 303e 02ef 633d ea3c f03d 895c 263a
00000140: e096 f5bd 6242 29be 5a8b aabb 1799 593d
00000150: ae07 573c bd50 f0bd 52bb d2bd 1431 f0bc
00000160: a36b 49bd d6b1 83bd f42a b3be a160 393e
00000170: e5df e2bd a972 b63d 81ec e33c 840b a93c
00000180: de5a 613d bf19 9abd c828 4cbd 6d0a 29be
00000190: 2c1e 80be 062f 0c3e c04e b2bd a06c 8abd
000001a0: bfea 033e a39e fcbd 34e6 03be e211 f53d
000001b0: 7e33 053e 7fd4 b2bd 148b 973d fe8c bcbd
000001c0: 7155 e53d d7d8 cebd afec ecbd 551a 323e
000001d0: 6a61 d43d 6254 6b3d bd72 b2bb 5431 da3d
000001e0: bfb0 1d3e f3ba 4c3e c812 bcbd 7fb9 00be
000001f0: 6905 66bd 1277 89be e11b 0bbe 59fa 37be
00000200: 030e 0abe 06c2 4f3c 943d a4bc bc81 7cbc
00000210: f77c febd ea53 6b3d 6b76 923c 3d05 653c
00000220: 5aed e8bd 3657 0dbd 102c d1bd 7e75 10bc
00000230: 190a 163f 096b 4bbe 94eb adbd 7ca8 10be
00000240: 8d8c 1f3e fcef f33d 7173 43bc 2e4a 033e
00000250: 6eaa eb3d fcf6 233d d70d 413e c15b 88bd
00000260: 7721 333d d6b2 e73c dedb 283e e5b6 2d3e
00000270: f5c7 21bc 86d2 5d3d 7b18 093e 59cc de3d
00000280: e3bb cf3d d05d 93bc e781 2ebe 9adc 33be
00000290: 546b bf3d c79a 82bd b3b9 333c 9984 19be
000002a0: 533c 9abd 455a c2bd bc28 033e 8d6b d5bb
000002b0: 7b5c 433e 59d1 323e ff95 483e f1cc bc3c
000002c0: ef1e dc3d 0abd 313e b6e6 46bd 57d7 223e
000002d0: 62b2 7bbd 63f5 8fbd 9f28 ddbd 0388 dfbd
000002e0: 7c59 dabd b92d b9bd c949 12be 6a1f 5ebc
000002f0: 1950 8b3d f695 15be fe39 c7be 4a52 543d
00000300: 27af a13d b238 16bd ffd2 9abd 1a42 cdbd
00000310: 9804 8a3c 611b 303d 0964 ad3c 6cb2 ed3d
00000320: 9c5f 26be 5554 d9bd 65bd 113e 8c43 003d
00000330: 3de2 ffbd f528 1fbe bbcd 0f3d c4c7 eebd
00000340: 10bb c0bd 3df3 00be 00b1 c0bd bcf4 f7bd
00000350: 4e90 3f3c 96ab f73d 42e3 ebbc 4e9c 25bd
00000360: dcbc 2b3d e6f5 c4bd 2978 c9bd 826a c03d
00000370: c548 c0bd f7c6 423d ca45 943d 094e febd
00000380: 5acb e23d 0b44 903d d68e 32bd 07fd e5bd
00000390: 9a5c 9c3d 2f99 5bbd 00b7 9cbd a115 2dbd
000003a0: 925d ecbd 3f4e 71bd 1bf9 8bbd a24f ea3d
000003b0: b256 97bd f028 e3bd 13de b63b d342 b63d
000003c0: dd79 913d 2635 8a3d d00c f2bc c21c 92bd
000003d0: b839 8b3d cbf3 e93d 4a31 ee3c 404a bb3d
000003e0: 2ac5 ffbd a0b3 b63d 5449 b63c 1904 433d
000003f0: 27e0 48bc 9d46 05bd fbbb 60bc e507 1abe
-0.12858468 -0.112300515 -0.057327192 -0.10823401 -0.1575828 -0.016389567 0.10122541 0.062679626
-0.10082049 0.08974329 0.038582828 -0.06403627 0.11479359 0.0514086 0.15260075 0.031635623
0.10547836 -0.0081328945 0.10426821 -0.065649986 0.15858924 0.121343315 -0.110950515 -0.017934835
-0.23221123 -0.07708801 -0.016783273 -0.07335637 -0.07533822 -0.05598432 0.08085033 -0.058319397
0.16278039 0.072435506 0.12844959 -0.076270066 0.15915021 0.11816061 0.08133019 0.12058097
0.43349642 -0.03227197 0.17748147 0.07636697 0.09228999 -0.1205852 0.097745694 0.006945207
-0.14326818 0.1035496 0.26807657 -0.08467401 -0.036558066 0.01977019 -0.092226386 0.13664687
0.051105566 -0.049416687 0.039220337 0.06497265 0.06422951 0.19737595 -0.08374552 -0.056182977
-0.15967654 0.060930844 0.100251436 -0.14994666 0.04874015 -0.053229224 0.008789979 -0.048680313
0.07792676 -0.008398841 0.18478382 0.07910741 0.17281482 0.055647857 0.117303684 0.0006346186
-0.11991668 -0.1652923 -0.0052046003 0.053124513 0.01312439 -0.117341496 -0.10289635 -0.029320277
-0.049174916 -0.06430404 -0.34993708 0.18103267 -0.11077861 0.089085884 0.027822735 0.020635374
0.0550183 -0.07524442 -0.04984358 -0.16507883 -0.2502302 0.13689813 -0.087064266 -0.06759
0.12882517 -0.12334945 -0.12880784 0.119663015 0.13007924 -0.08731937 0.07399574 -0.092065796
0.11197937 -0.10099953 -0.11568581 0.17392857 0.10370143 0.05745352 -0.005445807 0.1065394
0.15399455 0.1999319 -0.0918327 -0.12570761 -0.056157503 -0.26848656 -0.13584854 -0.17966594
-0.13481908 0.012680536 -0.020048894 -0.01541179 -0.12426179 0.057453074 0.017878732 0.0139783
-0.11373396 -0.034507 -0.102134824 -0.008817075 0.5860916 -0.1986505 -0.084921986 -0.14126772
0.1558096 0.11911008 -0.011929379 0.12821266 0.11507116 0.040030465 0.18852936 -0.06658126
0.043733086 0.028283518 0.16490123 0.169643 -0.009874334 0.05415585 0.13388245 0.1087882
0.101432584 -0.01798907 -0.17041741 -0.17564622 0.09346643 -0.06377178 0.010969567 -0.14991988
-0.07531037 -0.09489874 0.12808508 -0.006513065 0.19078247 0.17462672 0.19588469 0.023046942
0.107480876 0.17357269 -0.048559867 0.15902458 -0.061449416 -0.07029226 -0.107987635 -0.10914614
-0.10661599 -0.09041924 -0.1428596 -0.013557294 0.06802387 -0.14607987 -0.38911432 0.05183629
0.07894736 -0.036675163 -0.075597756 -0.100223735 0.016847894 0.04299486 0.021165865 0.11606297
-0.1624741 -0.10611788 0.14232405 0.031314418 -0.124943234 -0.15542968 0.03510831 -0.11659196
-0.09410679 -0.12592788 -0.0940876 -0.12107226 0.01169212 0.12093274 -0.028794888 -0.040432267
0.041928157 -0.09617214 -0.09837372 0.09395315 -0.0938888 0.04755303 0.07239874 -0.12417228
0.110739425 0.07044228 -0.04359325 -0.11229902 0.0763485 -0.053612884 -0.07652092 -0.042256955
-0.115412846 -0.058912512 -0.068346225 0.1144097 -0.07389583 -0.110917926 0.0055806725 0.088994645
0.07103322 0.067484185 -0.029547125 -0.07134391 0.06798118 0.11423453 0.029076237 0.091450214
-0.12488778 0.089209795 0.022251762 0.04761133 -0.012260473 -0.032538045 -0.013716693 -0.15042074

fc1.bias f4 [25]
00000000: 7678 ac3d ad74 b7bb af39 503d 9df1 273e
00000010: d47f 0a3d be6b 10be 567b 39bd 8009 57bd
00000020: 05ce b4bd 1aab 39bd 11ad b5bd 9c6a 30bd
00000030: 1cd7 cf3d 6268 013e c574 1b3e 90fb bc3c
00000040: 8635 cb3d 6633 9e3c 9366 17bd e740 3e3d
00000050: 1283 a2bd 2ecc bcbc 51b3 8ebd 9854 a73d
00000060: 2895 aebd
0.084214136 -0.0055986256 0.05083626 0.16400762 0.033813313 -0.141036 -0.045283638 -0.052499294
-0.088283576 -0.04532919 -0.088709004 -0.04307042 0.10148451 0.12637475 0.15181263 0.023069173
0.09922318 0.019311618 -0.036963057 0.046448614 -0.07935156 -0.02304658 -0.06967796 0.08170432
-0.08524543
