Models/model_GOOG.pth (torch, 132779 bytes, 11 tensors)

lstm1.weight_ih_l0 f4 [200, 1]
0	0x3d3cdfe2	0.04611195
1	0x3e37bb58	0.1794256
2	0x3e4166d0	0.18886876
3	0x3d96afcd	0.0735775
4	0x3e0a8d8c	0.13530558
5	0x3d4846f6	0.0488958
6	0x3e2ce3b3	0.16883735
7	0xbc03eb33	-0.008051681
8	0x3e266387	0.16248904
9	0x3e5997bf	0.21249293
10	0x3d44518b	0.047929328
11	0xbc6b2762	-0.014352651
12	0x3db83ae9	0.08995611
13	0xbd66edf7	-0.056379285
14	0xbc69f785	-0.014280205
15	0x3c0c8460	0.008576483
16	0x3ca066ce	0.019580271
17	0x3df6e179	0.12054724
18	0x3e431d2c	0.19054097
19	0x3d7d1f60	0.0617975
20	0x3e9bbd21	0.3041773
21	0x3e311b3c	0.17295545
22	0x3e76abd2	0.24088982
23	0xbc67251a	-0.014107967
24	0x3e413d8f	0.18871139
25	0x3d1bc3b7	0.038028445
26	0x3e8098b2	0.25116497
27	0x3d6f7e43	0.058470022
28	0x3e4dcdb9	0.20098008
29	0xbd93a6d6	-0.07209556
30	0x3e422deb	0.18962829
31	0x3d3bbaf5	0.045832593
32	0x3e0dddc1	0.13854124
33	0x3dcb4f0d	0.09927187
34	0xbe3fedd6	-0.18743071
35	0x3db7613e	0.08954094
36	0x3ddfe0cc	0.109315485
37	0x3e1dc02e	0.15405342
38	0x3e86c5f5	0.26322904
39	0x3c5c66b6	0.013452223
40	0xbd706f07	-0.058699634
41	0x3de509c2	0.11183502
42	0x3e39a89c	0.18130726
43	0x3e13cf14	0.14434463
44	0xbe339454	-0.17537051
45	0x3d895abc	0.06706759
46	0x3f141f61	0.5786038
47	0x3d2487ac	0.04016845
48	0x3d54241d	0.051792253
49	0x3e11d18d	0.14240094
50	0xbd73a56f	-0.05948394
51	0x3d2b6dba	0.04185269
52	0x3deb1687	0.11478906
53	0xbd618c0e	-0.055065207
54	0x3e7d9f28	0.24767745
55	0xbc09c6a7	-0.008409179
56	0x3c238938	0.009981446
57	0xbd8f312d	-0.069918014
58	0x3e25850f	0.16164039
59	0x3dba989d	0.0911114
60	0x3d828389	0.063727446
61	0x3d295936	0.041344844
62	0xbe02cf7d	-0.12774463
63	0x3adeed21	0.0017007926
64	0x3c8ffcc9	0.017576592
65	0xbd16e8b9	-0.036843035
66	0x3b0eaf2c	0.002177189
67	0x3d75d0b4	0.060013488
68	0xbd1581e0	-0.03650081
69	0xbdc05977	-0.09392064
70	0xbceb9e97	-0.028762145
71	0x3e26c3ce	0.16285631
72	0x3cdcb06d	0.026939595
73	0x3e0dc1f2	0.13843516
74	0x3e3483f5	0.17628463
75	0x3e1d45e6	0.15358695
76	0xbc26be17	-0.010177157
77	0x3dd13f86	0.10217194
78	0x3e59700e	0.21234152
79	0x3e25bd82	0.16185573
80	0x3e4ede69	0.2020203
81	0x3bb212b8	0.0054343604
82	0x3e5d8b24	0.21635109
83	0xbd5828f8	-0.052773446
84	0xbf173975	-0.5907205
85	0xbbe12101	-0.0068703895
86	0x3e0e2de0	0.13884687
87	0x3e6771d7	0.2260202
88	0x3c576f7c	0.013149139
89	0xbdb7538c	-0.08951482
90	0xbd173568	-0.036916167
91	0x3d91d535	0.07120744
92	0x3e29983f	0.16561984
93	0x3d9022fa	0.07037921
94	0xbeb3bb33	-0.3510376
95	0x3da8c3cf	0.082404725
96	0xbc9c7a96	-0.019101422
97	0x3df233bd	0.118262745
98	0xbcabdfee	-0.020980801
99	0x3e1742bb	0.1477155
100	0xbe0b8881	-0.13626291
101	0xbe70d258	-0.2351774
102	0x3d7b3b1d	0.06133567
103	0xbd5d7348	-0.05406502
104	0x3e05fa28	0.13083708
105	0xbe815b8e	-0.25265163
106	0x3e8208c2	0.25397307
107	0x3dcb36dc	0.09922573
108	0x3e8eaecb	0.2786773
109	0xbe93a57f	-0.288372
110	0x3e8a7010	0.27038622
111	0x3d3f9921	0.046776894
112	0xbd200a8e	-0.039072566
113	0x3e21327f	0.15741919
114	0x3dd6469d	0.10462687
115	0xbc52286b	-0.012827019
116	0x3d2b5a94	0.04183443
117	0xbe2d1154	-0.16901141
118	0xbcf0600c	-0.029342674
119	0x3e45a53e	0.19301316
120	0x3e80e162	0.25171953
121	0x3bc12369	0.005894114
122	0xbe2d727f	-0.16938208
123	0xbce541a9	-0.02798541
124	0xbe7cefde	-0.24700877
125	0xbe2846d4	-0.16433269
126	0x3e28e437	0.16493307
127	0xbd0cf4ba	-0.034413077
128	0x3e2a0e28	0.16606963
129	0x3c57b67e	0.013166068
130	0xbda6a5e7	-0.08137112
131	0xbe99322a	-0.29921085
132	0xbe38908d	-0.18023892
133	0xbe5702cb	-0.20997159
134	0xbea4b1af	-0.32166812
135	0x3e639cd8	0.222278
136	0x3e54edb4	0.20793802
137	0x3e0edbe0	0.13951063
138	0xbe980874	-0.2969395
139	0xbd336782	-0.043799885
140	0xbd8015cf	-0.0625416
141	0x3e503799	0.20333709
142	0xbdb42183	-0.08795454
143	0xbe43dac7	-0.19126426
144	0x3e9b7b48	0.30367494
145	0x3e496dda	0.19670811
146	0x3f344433	0.70416564
147	0x3e74cabb	0.2390546
148	0xbe77c265	-0.2419525
149	0xbd5515d4	-0.05202277
150	0xbe2f8925	-0.1714216
151	0x3e128cdd	0.14311548
152	0xbcc231ca	-0.023705382
153	0xbcbe23ac	-0.023210369
154	0x3e1eed16	0.15520129
155	0xbb3718f7	-0.0027938464
156	0x3e0913a7	0.13386403
157	0x3d7f4907	0.062325504
158	0x3e9c6e12	0.30552727
159	0x3c19bcd8	0.009383403
160	0x3e1e139e	0.15437171
161	0x3e3e20a9	0.18567146
162	0x3dafaaf8	0.085775316
163	0x3d60b05b	0.054855686
164	0x3de08bb0	0.10964143
165	0x3c2bb0ce	0.010479165
166	0xbd85183d	-0.06498764
167	0x3d3eaa95	0.0465494
168	0x3e231663	0.15926509
169	0x3dc7e8bc	0.097611874
170	0x3e6d7592	0.23189381
171	0x3cfe3afc	0.031033985
172	0x3e54d82f	0.20785592
173	0x3d886d1b	0.06661435
174	0x3da311b2	0.079623595
175	0x3da2233a	0.07916875
176	0x3dfbb6eb	0.12290748
177	0xbda405fe	-0.080089554
178	0x3dcfcf55	0.10146967
179	0x3d466874	0.048439458
180	0x3bc1c453	0.0059132962
181	0x3c0bdb1e	0.008536128
182	0x3d833f03	0.06408503
183	0x3dd7744c	0.10520229
184	0xbd9d09bd	-0.07667873
185	0x3e6a5677	0.22884546
186	0x3d8bcda3	0.068263315
187	0x3e281750	0.16415143
188	0x3e70434a	0.23463169
189	0xbd372573	-0.04471345
190	0xbe1c0554	-0.15236408
191	0x3b6c4c98	0.0036056396
192	0x3e806d90	0.2508359
193	0x3e60d9cb	0.21958081
194	0xbdabb899	-0.083848186
195	0x3e2402db	0.16016714
196	0x3f14f9cc	0.5819366
197	0x3e6fd5a4	0.23421341
198	0x3e17bfcc	0.14819258
199	0x3b440b6b	0.0029914032

lstm1.weight_hh_l0 f4 [200, 50]
0	0x3d5aad39	0.053387854
1	0x3dd3a98a	0.103350714
2	0x3df3f4bc	0.11911914
3	0xbccdf382	-0.025140528
4	0x3d4b7c4f	0.049679097
5	0xbafd56a4	-0.0019328189
6	0x3d9e6dbc	0.07735774
7	0xbd9d588a	-0.07682903
8	0xbcbbd12b	-0.022926887
9	0xbd9f556a	-0.07779963
10	0x3c1a8840	0.009431899
11	0xbcf984d7	-0.03045885
12	0x3d1d6ba3	0.03843273
13	0x3dbdaa6c	0.09261021
14	0xbdac799a	-0.08421631
15	0xbdfd3895	-0.12364308
16	0x3de778f9	0.113023706
17	0x3ddaab65	0.10677222
18	0xbc18e22d	-0.009331268
19	0x3df4b35f	0.11948275
20	0x3c591b44	0.01325113
21	0xbd470835	-0.04859181
22	0xbc37b46e	-0.011212451
23	0xbd0cd9b7	-0.034387317
24	0x3d6eb3aa	0.05827681
25	0xbe1c7c2a	-0.1528174
26	0x3d8bbe9c	0.06823465
27	0xbd2b3fe0	-0.041808963
28	0xbdec836a	-0.11548503
29	0x3cd6620e	0.026169803
30	0xbd7e27d3	-0.062049698
31	0x3d58fd51	0.052975956
32	0xbddce81d	-0.107864596
33	0xbe0fec1b	-0.14054911
34	0xbd9095da	-0.07059832
35	0x3d9557d7	0.07292145
36	0xbe03dd0a	-0.12877288
37	0xbc52d728	-0.01286868
38	0xbdeb7406	-0.11496739
39	0xbc0b803d	-0.008514461
40	0x3db213ff	0.0869522
41	0xbdec2f3c	-0.11532447
42	0x3c5dbf0f	0.013534321
43	0xbdc0f189	-0.09421069
44	0x3c069eca	0.008216569
45	0x3dd8de56	0.10589282
46	0x3e157592	0.14595631
47	0xbdf57a93	-0.1198627
48	0xbddeadfd	-0.108730294
49	0xbdbed880	-0.09318638
50	0x3dd0e1f4	0.10199347
51	0x3d022f89	0.031783614
52	0xbe025b19	-0.12730063
53	0x3d8bd462	0.06827618
54	0xbd6f9eae	-0.058500938
55	0x3d58dfab	0.05294768
56	0x3d876ccf	0.066125505
57	0x3d564af4	0.052317575
58	0xbd9a5cb1	-0.07537211
59	0x3cbb8602	0.022891048
60	0xbd479d30	-0.04873389
61	0xbd3a0909	-0.045418773
62	0x3d20d6b9	0.039267275
63	0x3da3a058	0.079895675
64	0x3da5186f	0.08061301
65	0xbd8d792a	-0.06907876
66	0xbdf8da3f	-0.12151002
67	0xbe17b672	-0.14815691
68	0xbc9204d4	-0.017824568
69	0xbd9d1427	-0.076698594
70	0x3de0779a	0.10960312
71	0xbdfe485b	-0.124161445
72	0xbdb23829	-0.08702118
73	0xbd31c383	-0.043399345
74	0xbd876124	-0.06610325
75	0xbe1da0fb	-0.1539344
76	0xbdbd25ec	-0.09235749
77	0xbda82942	-0.08210994
78	0x3d795d82	0.06088019
79	0x3db66ce9	0.08907492
80	0x3dd073dc	0.101783484
81	0x3d7ae445	0.06125285
82	0xbdb288b1	-0.08717478
83	0xbcb270a5	-0.021782229
84	0x3e2ea63b	0.170556
85	0xbdb56690	-0.08857453
86	0x3d846945	0.06465391
87	0x3dbda79c	0.092604846
88	0xbdaa9937	-0.08330005
89	0xbe0d4733	-0.13796692
90	0xbdd68f8b	-0.104765974
91	0xbddd7cac	-0.10814795
92	0xbd19d52a	-0.037556805
93	0x3cb652d3	0.02225629
94	0x3e101af1	0.14072777
95	0x3d316ed9	0.043318603
96	0x3d93a65c	0.07209465
97	0xbd9b4c73	-0.07582941
98	0x3dd5798f	0.10423576
99	0xbd1654ea	-0.036702074
100	0x3cfa25d3	0.030535614
101	0x3dd82b3c	0.10555121
102	0x3dc81b65	0.0977085
103	0xbda559f3	-0.08073797
104	0xbd409d77	-0.04702517
105	0x3d37fe80	0.044920444
106	0xbdc21cea	-0.09478171
107	0xbdf614c7	-0.12015682
108	0x3dcf42ea	0.10120185
109	0x3d0848f5	0.033272702
110	0x3e1db2f3	0.15400295
111	0x3e0e9701	0.13924791
112	0xbdf98690	-0.12183869
113	0x3dd76c9c	0.105187625
114	0x3d1ea0b6	0.038727485
115	0x3df0ae4b	0.11751994
116	0xbc54d25c	-0.012989607
117	0x3e0506c7	0.12990867
118	0xbca726a2	-0.020404164
119	0x3e0d0f50	0.13775373
120	0x3d927eef	0.07153117
121	0xbd01972b	-0.031638306
122	0x3da5b0d3	0.08090367
123	0xbb20ab7c	-0.0024516275
124	0xbdc9c848	-0.09852654
125	0x3d9d8fdb	0.07693454
126	0xbd9e8054	-0.077393204
127	0xbc16030b	-0.009155999
128	0xbdfe9ebd	-0.12432621
129	0xbd2c4498	-0.042057604
130	0xbda83011	-0.08212293
131	0xbd787918	-0.06066236
132	0xbdddfa20	-0.10838723
133	0xbcbd9d4a	-0.02314629
134	0xbd9eb8fc	-0.07750127
135	0x3d8cb06f	0.068695895
136	0xbd3c90f8	-0.04603669
137	0x3d53a960	0.0516752
138	0x3dc86d35	0.097864546
139	0xbbd112f8	-0.006380435
140	0xbde300e2	-0.11084153
141	0x3e039082	0.12848094
142	0xbd34911c	-0.0440837
143	0x3df5612f	0.11981427
144	0xbb5685ca	-0.0032733553
145	0x3e0e1f26	0.1387907
146	0x3da5e278	0.08099836
147	0x3d27f26e	0.041002683
148	0xbe119818	-0.14218175
149	0x3e0bcdf6	0.13652787
150	0x3ce021cf	0.027359871
151	0xbda24abf	-0.07924413
152	0xbd892e7e	-0.06698321
153	0xbde1a0dd	-0.1101701
154	0x3df3b92f	0.11900555
155	0xbd5aec39	-0.053447936
156	0x3dc4a321	0.09601427
157	0x3d2b3bce	0.04180508
158	0x3cc6a84b	0.02425017
159	0x3dde832a	0.10864861
160	0x3dd8a2e3	0.10577943
161	0xbdffd1b4	-0.124911696
162	0x3db955c3	0.09049561
163	0x3daa6e67	0.08321839
164	0xbdc79ba1	-0.09746481
165	0xbe029979	-0.12753858
166	0xbd91656f	-0.07099425
167	0x3e056e88	0.13030446
168	0xbddf1097	-0.10891836
169	0xbd0f8293	-0.035036635
170	0x3c46e627	0.0121398335
171	0xbdd11f00	-0.10210991
172	0xbd9e903a	-0.07742353
173	0x3d6e5672	0.05818791
174	0x3d9881aa	0.074466065
175	0xbe0e098f	-0.13870834
176	0x3b42bc65	0.0029714343
177	0xbdda4a36	-0.10658686
178	0xbcb604ab	-0.022219023
179	0x3cb534b2	0.022119854
180	0x3d91a543	0.07111599
181	0x3df28648	0.11842018
182	0x3d4079be	0.046991102
183	0xbda6209b	-0.08111688
184	0x3de060ec	0.109559864
185	0x3d267012	0.040634222
186	0x3e1048a7	0.14090215
187	0x3df38f12	0.11892523
188	0xbd9cf88c	-0.07664594
189	0x3d86af69	0.065764256
190	0xbcb0880a	-0.021549243
191	0x3da9ae7b	0.08285233
192	0x3cf981c2	0.030457381
193	0x3dc373d0	0.09543574
194	0x3df23c09	0.11827857
195	0x3e474435	0.19459613
196	0x3d962d8b	0.073329054
197	0xbd61ff3d	-0.055175055
198	0x3cf25d18	0.029585406
199	0xbd2382b9	-0.03991959
200	0x3d8d7d88	0.06908709
201	0xbd3b0388	-0.045657665
202	0xbcf8141f	-0.030283032
203	0xbdc77999	-0.0973999
204	0x3dff73a6	0.1247323
205	0xbc8e42c8	-0.017365828
206	0xbd82c85c	-0.06385872
207	0x3d32f774	0.04369302
208	0x3dbf0ab5	0.09328214
209	0x3da64244	0.08118108
210	0xbddecf43	-0.10879376
211	0x3d8af778	0.06785482
212	0xbd57856a	-0.052617468
213	0x3d879b90	0.06621468
214	0xbdbab32b	-0.09116205
215	0xbdce438f	-0.100714795
216	0xbe09f71a	-0.13473168
217	0x3db7025f	0.08935999
218	0x3da0cff2	0.078521624
219	0xbca1576c	-0.019695006
220	0x3ddcd243	0.10782292
221	0xbd601095	-0.054703314
222	0xbe02bd3e	-0.12767503
223	0x3d40c418	0.04706201
224	0xbda601f6	-0.08105843
225	0x3db1fc0e	0.08690654
226	0xbcfcbd68	-0.030852035
227	0x3d9555b2	0.07291736
228	0x3e151c3c	0.14561552
229	0x3dab7e92	0.08373751
230	0xbd142a6b	-0.036173265
231	0xbd94a19d	-0.07257388
232	0xbe167a21	-0.14695026
233	0x3def6400	0.11688995
234	0xbbfe791e	-0.007765903
235	0x3d61c269	0.055117045
236	0x3d98645b	0.07441016
237	0xbd23ca44	-0.039987817
238	0x3da45d96	0.080256626
239	0x3d88cc0f	0.06679546
240	0x3dc9f6db	0.09861537
241	0xbcbea506	-0.023272049
242	0xbe0b8712	-0.13625744
243	0xbd463e46	-0.048399232
244	0xbd159a6e	-0.03652423
245	0x3dad7b93	0.084708355
246	0x3d333216	0.043748938
247	0xbd61817e	-0.055055134
248	0x3d9cc502	0.07654764
249	0x3d4808a8	0.04883638
250	0x3e52fd37	0.20604406
251	0xbdac1ea6	-0.08404283
252	0x3d6d48a5	0.057930607
253	0x3d3f6fe7	0.046737578
254	0xbd4e26bf	-0.05032992
255	0x3dcb372c	0.099226326

lstm1.bias_ih_l0 f4 [200]
0	0xbd50709b	-0.05088864
1	0x3d014b91	0.031566206
2	0xbe1a40cb	-0.15063779
3	0xbe06a269	-0.13147892
4	0x3e1a4a06	0.150673
5	0x3e7f8f11	0.24956919
6	0x3ca3611e	0.01994377
7	0x3b864d6a	0.004098584
8	0x3de85f70	0.11346328
9	0x3ce3b746	0.027797353
10	0x3e49d83d	0.19711395
11	0x3ced1bbc	0.028943889
12	0xbe3ce8e6	-0.18448219
13	0xbc03141e	-0.008000402
14	0xbb34f9ed	-0.0027614788
15	0xbe02c37c	-0.12769884
16	0xbd2c3039	-0.042038176
17	0x3c9b165c	0.01893156
18	0x3dce9048	0.10086113
19	0x3e1d8f69	0.15386738
20	0x3eaa7495	0.3329207
21	0x3dc687a9	0.09693844
22	0x3e02680c	0.12735003
23	0xbdf43f45	-0.1192613
24	0x3e023be4	0.12718159
25	0x3b60a38a	0.0034277164
26	0x3dc4d891	0.09611619
27	0x3b9d143c	0.004793672
28	0x3d2571a7	0.04039159
29	0x3db44cfe	0.088037476
30	0x3d74c307	0.059756305
31	0x3d11d320	0.035601735
32	0x3e0d908d	0.13824673
33	0x3cee4c9d	0.029089266
34	0x3dfa40aa	0.12219365
35	0xbd72fcb2	-0.05932302
36	0x3dc726f0	0.097242236
37	0x3d47f8d9	0.048821304
38	0x3e44d94a	0.19223514
39	0x3dc2e13a	0.09515615
40	0xbdac55bf	-0.08414792
41	0x3d8b812c	0.06811747
42	0x3d02e327	0.03195491
43	0x3e08ce09	0.13359846
44	0x3e696148	0.22791016
45	0x3e27aebb	0.16375248
46	0x3f4c6f12	0.7985698
47	0x3de205e4	0.1103628
48	0xbdbe4f69	-0.0929249
49	0xbd9d29a5	-0.07673959
50	0xbe0908ed	-0.13382311
51	0x3d7a37c8	0.061088353
52	0xbe0d7b4b	-0.13816564
53	0x3dad679a	0.08467026
54	0x3e012f36	0.12615666
55	0x3d49c626	0.049261235
56	0xbdd1becb	-0.10241469
57	0x3cff200d	0.031143213
58	0xbb0b788c	-0.0021281568
59	0x3e1b9278	0.15192592
60	0xbc0a0506	-0.008424049
61	0x3db30202	0.08740617
62	0x3d5d9d19	0.054104898
63	0xbe2df06a	-0.16986242
64	0xbb8ba3d7	-0.0042614746
65	0xbdd08cba	-0.101830915
66	0xbd30e71b	-0.04318915
67	0xbcb2dcf4	-0.021833874
68	0xbc1c08f5	-0.00952362
69	0xbe0f8249	-0.14014544
70	0xbc5204d6	-0.012818536
71	0x3df5726f	0.11984717
72	0x3dbafa14	0.0912973
73	0x3d89185e	0.06694101
74	0x3e0b4072	0.13598803
75	0xbd2e88a2	-0.042610772
76	0xbdb04684	-0.086072
77	0xbdb44793	-0.08802714
78	0x3d680934	0.0566494
79	0x3dd7d16f	0.10537993
80	0x3c43d503	0.011952641
81	0xbded6ad2	-0.1159264
82	0xbd0ecdf4	-0.03486438
83	0x3d0c3633	0.034231376
84	0x3d81fae5	0.063466825
85	0xbd2b4c81	-0.041821007
86	0xbdb37294	-0.087620884
87	0x3dce6fac	0.100798935
88	0x3d065b10	0.032801688
89	0xbe0e4c8c	-0.13896388
90	0x3da1f4b9	0.07908005
91	0xbda5e17c	-0.08099648
92	0xbda5d367	-0.080969624
93	0xbe120e50	-0.14263272
94	0x3c1c4287	0.009537346
95	0x3e1c51f3	0.15265636
96	0xbd298139	-0.041383002
97	0xbc432ed4	-0.01191302
98	0xbc9ae1fc	-0.018906586
99	0xbd60b01a	-0.054855444
100	0x3d570bf3	0.05250163
101	0x3b69859d	0.0035632618
102	0xbde9f3f7	-0.11423486
103	0x3d3ef651	0.046621624
104	0xbd99931a	-0.074987605
105	0xbda9b94a	-0.08287294
106	0x3d9cdcd6	0.076593086
107	0xbd7be459	-0.061497066
108	0xbb81cd7f	-0.0039612646
109	0x3ced9a86	0.029004347
110	0xbddda6aa	-0.10822804
111	0xbdd0dd29	-0.10198433
112	0xbdcfb9a9	-0.10142834
113	0x3d950fef	0.0727843
114	0xbcc44536	-0.023958784
115	0x3cb9a43e	0.022661325
116	0xbd54fc11	-0.0519982
117	0xbd958e0e	-0.073024854
118	0xbd9b333b	-0.07578131
119	0xbce58c59	-0.028021025
120	0xbda3346b	-0.07968982
121	0x3bf33984	0.007422628
122	0x3c7911ca	0.015201995
123	0x3de53681	0.111920364
124	0xbc742259	-0.014900767
125	0xbdcb4f63	-0.09927251
126	0x3cbc2c4f	0.022970347
127	0x3d77401a	0.060363866
128	0x3c011c2e	0.007880254
129	0x3c3210ad	0.010868234
130	0xbd9c5c27	-0.07634764
131	0x3c9635c7	0.01833619
132	0xbca7f320	-0.020501673
133	0x3e008028	0.12548888
134	0xbd4e02df	-0.050295707
135	0xbd595142	-0.05305601
136	0x3d759fa4	0.0599667
137	0x3dcfa770	0.10139358
138	0x3c839e09	0.016066568
139	0xbc639a9a	-0.01389184
140	0xbcd06f02	-0.025443558
141	0xbd3a4ae1	-0.045481566
142	0xbc7320cc	-0.014839362
143	0x3d7a3631	0.061086837
144	0xbd5587d4	-0.05213149
145	0x3d0fb4b0	0.035084426
146	0x3d25e306	0.04049971
147	0xbdd60dde	-0.10451864
148	0xbd6636ae	-0.05620449
149	0xb98e89bf	-0.0002718698
150	0x3df3ff8f	0.11913978
151	0xbc929af1	-0.017896147
152	0x3c043e38	0.008071475
153	0x3d63e281	0.055635933
154	0xbbd63911	-0.0065375646
155	0x3e2b1a55	0.16709264
156	0x3dde4854	0.10853639
157	0xbc92f65a	-0.017939735
158	0xbce4a96a	-0.027912814
159	0x3e3920b9	0.18078889
160	0x3e3093ac	0.17243832
161	0xbdc76e65	-0.09737853
162	0xbe09f91c	-0.13473934
163	0x3d6b6ba0	0.057475686
164	0xbd74c961	-0.059762362
165	0x3bccdf82	0.00625223
166	0x3d191ce2	0.03738106
167	0x3dcb8c6a	0.09938891
168	0x3db52b7b	0.08846184
169	0x3c9e027c	0.019288294
170	0x3e3b9bb5	0.18321116
171	0xbd57e740	-0.05271077
172	0xbd8d78f6	-0.06907837
173	0xbc7e363e	-0.015515862
174	0x3ca8c2aa	0.020600636
175	0x3d87eb35	0.06636659
176	0x3c5f50d6	0.013630113
177	0x3db035f6	0.08604042
178	0xbdc053ba	-0.093909696
179	0xbd28c06c	-0.041199133
180	0xbe10c54a	-0.1413776
181	0x3dc9dc96	0.098565266
182	0x3db5ee91	0.088833936
183	0x3dd77312	0.10519995
184	0x3e5641cb	0.20923536
185	0xbc81354a	-0.01577248
186	0x3d56a5f0	0.052404344
187	0xbd611287	-0.05494931
188	0x3dce4476	0.10071652
189	0xbdc9f011	-0.09860242
190	0x3dd617b1	0.104537375
191	0xbdf837e2	-0.12120034
192	0x3ca9b857	0.020717783
193	0xbd5303b7	-0.051517215
194	0x3c4f36a0	0.012647301
195	0x3e5a1c73	0.21299915
196	0x3f3e664c	0.7437484
197	0x3d2fc78a	0.042914905
198	0xbd3e461a	-0.046453573
199	0xbdd0f3a7	-0.10202723

lstm1.bias_hh_l0 f4 [200]
0	0x3dcd216d	0.10016141
1	0x3d863d0a	0.06554611
2	0x3dea1998	0.11430663
3	0x3c4544c3	0.01204032
4	0xbd0e3aa6	-0.0347239
5	0x3d85f24a	0.065403536
6	0xbb09dcb4	-0.002103609
7	0xbdcd83da	-0.10034914
8	0x3d8b1bc8	0.06792408
9	0xbbbd8b31	-0.005784415
10	0x3e2f800f	0.17138694
11	0x3d80c07f	0.06286716
12	0xbde48e94	-0.11160007
13	0x3dd3c1b5	0.10339681
14	0xbe063e20	-0.13109636
15	0xbe0f7fcb	-0.14013593
16	0xbe184fa1	-0.14874126
17	0xbc98843e	-0.018617745
18	0x3d05e339	0.0326874
19	0x3db65398	0.08902663
20	0x3e7bf8c2	0.24606612
21	0xbdd8b10d	-0.10580645
22	0x3e041368	0.12898028
23	0xbd619872	-0.055077024
24	0xbc23c5f5	-0.009995927
25	0xbdbd03de	-0.09229253
26	0x3dfdd9bf	0.123950474
27	0xbd757f11	-0.059935633
28	0x3dd78b73	0.10524645
29	0xbc34854e	-0.01101811
30	0xbdceea57	-0.101032905
31	0xbd10bb32	-0.035334773
32	0x3d92bfd6	0.07165496
33	0x3da78c39	0.08181042
34	0x3e3df7fd	0.18551631
35	0x3e436d3e	0.19084641
36	0xbda83746	-0.082136676
37	0xbd2c17c3	-0.04201485
38	0x3c7ac0a3	0.015304717
39	0xbd9fb3be	-0.07797955
40	0xbd015f00	-0.03158474
41	0x3ca45696	0.020060819
42	0x3d889356	0.06668727
43	0xbd9ae493	-0.07563128
44	0x3d1c5cbd	0.03817438
45	0x3e0dc6f1	0.13845421
46	0x3f10174a	0.56285536
47	0x3e204bb2	0.15653875
48	0x3df6f187	0.120577864
49	0xbced8d34	-0.028997995
50	0xbcc2e6ad	-0.023791635
51	0x3df8a8ca	0.12141569
52	0x3d4c47ad	0.049873043
53	0xbdab1dad	-0.083552696
54	0xbb4d99bb	-0.0031372148
55	0xbcc34372	-0.023835871
56	0x3d86ef97	0.06588667
57	0xbca1b7fd	-0.019741053
58	0x3db6293e	0.08894585
59	0xbdc953d7	-0.09830444
60	0xbdbf4bf2	-0.09340657
61	0xbcaeaf70	-0.02132389
62	0x3da05b72	0.07829942
63	0x3d56ad90	0.052411616
64	0xbdaa6f17	-0.0832197
65	0xbc4188e7	-0.011812425
66	0xbe1cc7c4	-0.1531058
67	0x3da6ecba	0.08150621
68	0x3d849727	0.064741425
69	0xbd1522ab	-0.036410015
70	0xbdcf453c	-0.10120627
71	0x3dd1d070	0.102448344
72	0xbc57df00	-0.013175726
73	0xbdfe30cc	-0.12411651
74	0x3da3e8bf	0.08003377
75	0x3d5622da	0.05227933
76	0xbd9c4ffe	-0.07632445
77	0xbdc7892f	-0.097429626
78	0x3de8c39e	0.11365436
79	0x3d9b719b	0.07590028
80	0x3d12a6cc	0.0358036
81	0xbd28981c	-0.041160688
82	0xbdbbaeeb	-0.09164222
83	0xbdb085b1	-0.086192496
84	0x3e46d3dc	0.19416755
85	0x3d70517d	0.058671463
86	0x3d3225b4	0.043492988
87	0xbe0c31cb	-0.1369087
88	0xbc241d2b	-0.01001672
89	0xbd24ca03	-0.040231716
90	0xbded3699	-0.11582679
91	0xbdb11368	-0.086462796
92	0xbd52a7b5	-0.05142947
93	0xbd41cef8	-0.04731652
94	0x3c2a189b	0.010381843
95	0xbcf35eb8	-0.029708251
96	0xbe22ceef	-0.15899251
97	0xbd934ef9	-0.07192797
98	0xbd9526d0	-0.072827935
99	0x3dec9405	0.1155167
100	0x3cbee756	0.023303669
101	0xbd845925	-0.064623155
102	0x3dc2d707	0.095136695
103	0x3cc2e895	0.023792544
104	0x3df46234	0.11932793
105	0x3e2c873e	0.16848466
106	0xbd258800	-0.040412903
107	0xbdd2f7d6	-0.10301177
108	0x3dc628b3	0.096757315
109	0x3dcb4894	0.099259526
110	0x3d97f746	0.074202105
111	0xbdd058ad	-0.101731636
112	0x3dafdf09	0.085874625
113	0xbccd88e3	-0.025089687
114	0x3d97344b	0.07383021
115	0xbdc6b4ba	-0.097024396
116	0xbdaa485b	-0.08314582
117	0xbd778209	-0.060426746
118	0x3df25b99	0.11833877
119	0x3db6ee50	0.08932173
120	0x3d4cda34	0.050012782
121	0xbd7335f7	-0.059377637
122	0xbd9ecf83	-0.077544235
123	0xbdf2555f	-0.118326895
124	0xbd8e92c5	-0.06961588
125	0x3e0a0ad4	0.13480693
126	0x3d6103f3	0.054935407
127	0x3d586b8c	0.05283694
128	0xbbad30bf	-0.005285352
129	0x3d8bd17e	0.06827067
130	0x3c0d52e8	0.008625723
131	0x3c646a41	0.0139413485
132	0xbb82c93b	-0.0039912737
133	0xbdddb1e8	-0.108249485
134	0x3dcaa31b	0.09894391
135	0x3dcf70bb	0.101289235
136	0x3d7ce905	0.061745662
137	0x3d16218c	0.036653087
138	0x3d39ace0	0.045330882
139	0xbd95321d	-0.07284949
140	0x3c45679c	0.012048628
141	0xbccd2b07	-0.025044931
142	0xbd6ed345	-0.05830695
143	0xbd87927b	-0.06619736
144	0xbd0cf34c	-0.034411713
145	0x3c7a90b8	0.015293293
146	0xbc82f423	-0.015985554
147	0x3ddecf24	0.10879353
148	0x3bd80e7c	0.0065935235
149	0x3d6f960c	0.058492705
150	0xbdbc2ab7	-0.09187835
151	0x3e026314	0.12733108
152	0xbd2d2641	-0.04227281
153	0x3dee6c87	0.11641794
154	0xbceeebb1	-0.02916512
155	0x3dfaa874	0.12239161
156	0xbcaba24a	-0.020951409
157	0x3dbcdfdc	0.09222385
158	0xbd6a3edf	-0.057188865
159	0x3e0a5527	0.13509046
160	0xbd097bab	-0.033565205
161	0x3d53c897	0.05170497
162	0xbd4ae985	-0.049539108
163	0x3e22c67d	0.1589603
164	0xbdf0882a	-0.11744721
165	0xbddca6ba	-0.10773988
166	0xbd8dcfe2	-0.06924416
167	0x3d89eeb2	0.06734981
168	0xbe014394	-0.12623435
169	0x3de3be20	0.11120248
170	0x3dfbe352	0.12299217
171	0xbc32df06	-0.010917431
172	0x3d8dafdb	0.069183074
173	0x3c839df8	0.016066536
174	0xbc9a29bc	-0.018818729
175	0xbdf78547	-0.120859675
176	0xbd7a3b81	-0.061091904
177	0xbd9e69d2	-0.077350274
178	0xbc8d88c7	-0.017277135
179	0xbdb63e58	-0.0889861
180	0xbd9c9864	-0.07646254
181	0x3e519ce4	0.20470005
182	0xbd70f1fa	-0.058824517
183	0x3e0582ac	0.13038129
184	0x3e1f5d87	0.15563022
185	0xbd83d9ba	-0.064380124
186	0x3deb3ab2	0.114858046
187	0xbe0ab2e4	-0.13544804
188	0xbd9f8d5c	-0.07790634
189	0xbe0064ca	-0.12538448
190	0xbde13f5b	-0.10998412
191	0x3d01d1ef	0.03169435
192	0xbd320e69	-0.043470774
193	0x3e06a46d	0.13148661
194	0xbc46f72c	-0.012143891
195	0x3e1d943f	0.15388583
196	0x3f44cbca	0.7687346
197	0xbd7acd40	-0.061230898
198	0x3c99305e	0.018699821
199	0xbb9cc8c1	-0.004784674

lstm2.weight_ih_l0 f4 [200, 50]
0	0xbcbb86d9	-0.022891449
1	0xbd2794a1	-0.040913228
2	0xbcab09da	-0.020878721
3	0x3dfc628b	0.12323483
4	0x3db9e41a	0.0907671
5	0xbdda8f48	-0.1067186
6	0xbabfbf4e	-0.0014629157
7	0xbe0413d4	-0.12898189
8	0x3e468272	0.19385698
9	0xbd9df481	-0.07712651
10	0x3d93d00a	0.07217415
11	0xbd1202dc	-0.03564726
12	0xbdfe812d	-0.12426982
13	0x3d9c98f7	0.07646363
14	0x3dbd82b0	0.09253442
15	0x3da60c4d	0.08107815
16	0xbd8a41bf	-0.06750821
17	0xbdf223f9	-0.118232675
18	0x3e31cd85	0.17363556
19	0xbda8475d	-0.082167365
20	0xbd05b868	-0.032646567
21	0xbdd27502	-0.10276224
22	0x3d90aeaa	0.070645645
23	0xbd415e31	-0.04720897
24	0xbda5c5e3	-0.080943845
25	0x3c49967b	0.012303944
26	0xbd830b6a	-0.063986614
27	0x3c97b2d6	0.018517893
28	0xbcd4e00b	-0.025985738
29	0x3dfb746b	0.12278064
30	0xbdcfcb76	-0.10146229
31	0xbda4d524	-0.08048466
32	0x3d82ae24	0.06380871
33	0xbdd89074	-0.10574427
34	0x3d96c683	0.07362082
35	0x3e1972e1	0.14985229
36	0xbd335b2c	-0.04378812
37	0xbd2a7510	-0.041615546
38	0xbde917b9	-0.11381478
39	0x3c3fa483	0.0116969375
40	0x3e1dbd65	0.1540428
41	0xbd61a4b1	-0.055088703
42	0xbd88009d	-0.06640742
43	0x3cfeaba5	0.031087706
44	0xbc900f44	-0.017585404
45	0xba4992a1	-0.0007689391
46	0x3b29541d	0.002583749
47	0xbc98074b	-0.018558165
48	0x3d815a50	0.06316054
49	0x3e3e0fb2	0.18560675
50	0x3d9affcc	0.07568321
51	0x3d70c673	0.058783006
52	0xbd5c3c64	-0.05376853
53	0x3e003c73	0.1252306
54	0xbc8b22e8	-0.016984418
55	0xbe5c5720	-0.2151761
56	0x3e57b8a3	0.21066527
57	0xbc47b32b	-0.012188713
58	0x3e47d40b	0.19514482
59	0xbe4458bf	-0.19174479
60	0x3c279357	0.010228
61	0x3c0da604	0.008645538
62	0xbe16359a	-0.14668885
63	0x3e1c75d7	0.15279327
64	0xbcbb1127	-0.022835327
65	0xbe1701a0	-0.14746714
66	0xbde0fb63	-0.10985448
67	0xbde370ec	-0.111055225
68	0xbd9498f4	-0.07255736
69	0x3d456a74	0.048197225
70	0x3e7857f9	0.24252309
71	0x3dbc7c12	0.09203352
72	0xbddc81ba	-0.10766931
73	0x3c8cf662	0.017207328
74	0x3c53741b	0.0129061
75	0xbde8c79f	-0.113662
76	0x3d59ade7	0.05314436
77	0xbd36e5e6	-0.044652842
78	0xbd24e9db	-0.040262084
79	0xbc86670e	-0.016406562
80	0xbd181cbe	-0.037136786
81	0xbddf1c17	-0.108940296
82	0x3d09a14f	0.0336011
83	0xbe2a53e0	-0.16633558
84	0xbda372e1	-0.07980896
85	0x3df9a373	0.121893786
86	0x3d9ef6c2	0.07761909
87	0xbdcc2d16	-0.09969537
88	0xbd8d8f21	-0.06912065
89	0x3d095680	0.03352976
90	0xbda63d56	-0.08117168
91	0xbda353dd	-0.0797498
92	0x3dae7c6b	0.085198246
93	0xbe19324c	-0.14960593
94	0xbba9c4cb	-0.0051809303
95	0x3caf1dbb	0.021376481
96	0x3e99f296	0.3006789
97	0x3e2646af	0.16237901
98	0xbe104618	-0.14089239
99	0x3d2ec345	0.042666692
100	0xbe13d235	-0.14435656
101	0xbd337a61	-0.04381788
102	0x3cdac30e	0.026704337
103	0x3e14527f	0.14484595
104	0x3dbd6b09	0.09248931
105	0xbe35f7f0	-0.17770362
106	0x3d020ec8	0.031752378
107	0xbb887274	-0.0041640345
108	0x3c0b54cb	0.008504103
109	0xbe025dc3	-0.1273108
110	0x3e3baca1	0.18327571
111	0xbe080fae	-0.13287231
112	0x3cc65ea6	0.024215054
113	0x3e40279b	0.18765108
114	0x3e1a47e9	0.15066494
115	0xbc18ee14	-0.009334106
116	0x3cf085ce	0.029360678
117	0x3ccbcba8	0.024877384
118	0xbdf3811f	-0.11889862
119	0x3c436076	0.011924854
120	0xbbcee4e5	-0.0063139074
121	0xbe0145e3	-0.12624316
122	0xbd4ab00c	-0.049484298
123	0x3df7840c	0.12085733
124	0xbd7ea38c	-0.06216769
125	0x3d8c811f	0.068605654
126	0xbbcdd451	-0.0062814136
127	0x3dd3215d	0.10309098
128	0xbde2bcb1	-0.11071146
129	0x3d5d67d7	0.054054108
130	0xbdcd4e6f	-0.10024726
131	0x3d6ee9af	0.058328327
132	0x3dbd1915	0.092333
133	0xbd591687	-0.053
134	0x3bc151d8	0.005899649
135	0x3d40df1a	0.047087766
136	0x3dd19f66	0.10235481
137	0x3e0f3cd7	0.13988052
138	0xbc100c9a	-0.008792067
139	0xbde7ed1a	-0.113245204
140	0xbe0cc4c5	-0.13746937
141	0x3dc0e1a1	0.09418035
142	0x3d8bd179	0.06827063
143	0xbd92327d	-0.07138536
144	0xbd3eb65f	-0.04656064
145	0xbd71cadd	-0.059031356
146	0x3e30d833	0.17269973
147	0xbd2b255d	-0.04178368
148	0xbd95559a	-0.07291718
149	0xbdb40ca9	-0.08791477
150	0x3e637cff	0.22215651
151	0xbe1582a6	-0.1460062
152	0xbda3f4cf	-0.08005678
153	0x3e54ec17	0.20793186
154	0x3da2b852	0.079453126
155	0x3cd57a1c	0.026059203
156	0x3e73d505	0.23811729
157	0xbbad26bb	-0.005284158
158	0x3e327e36	0.17430958
159	0xbde5d5b3	-0.112224005
160	0xbd3c554c	-0.045979783
161	0xbe8dd758	-0.27703357
162	0xbdd89b95	-0.1057655
163	0xbe484809	-0.19558729
164	0x3e78d0d5	0.24298413
165	0xbe53f38b	-0.20698373
166	0xbd8e411b	-0.06946012
167	0xbe86cd3c	-0.26328456
168	0x3dde82fd	0.10864828
169	0xbe4e96f2	-0.20174769
170	0xbdecf69f	-0.11570477
171	0xbe392d58	-0.18083704
172	0xbdda7502	-0.10666849
173	0xbe142c11	-0.14469935
174	0xbe08b07f	-0.13348578
175	0xbe4d72e0	-0.20063353
176	0x3e2fdad3	0.17173319
177	0x3e472eb3	0.19451408
178	0x3d485ffa	0.048919655
179	0x3db4cc7c	0.08828065
180	0xbc3ae47d	-0.011407015
181	0x3dba1bb2	0.09087314
182	0xbac5b7b5	-0.0015084656
183	0xbd8beecb	-0.068326555
184	0x3e31b3bf	0.17353724
185	0x3df20413	0.11817183
186	0x3d1da935	0.038491447
187	0x3e93b611	0.28849843
188	0xbe81ea72	-0.2537418
189	0xbe4998ab	-0.19687144
190	0x3e983a9e	0.2973222
191	0x3dab0fa0	0.083525896
192	0xbe8b99cc	-0.27265775
193	0xbd64eee2	-0.05589188
194	0xbe59b3fb	-0.21260063
195	0x3d5b3ee4	0.053526774
196	0x3d864217	0.065555744
197	0x3cf691b6	0.030098777
198	0xbd489167	-0.04896679
199	0x3e172de5	0.14763601
200	0x3cf5dc0c	0.030012153
201	0x3d9c2967	0.07625084
202	0xbd9596af	-0.07304131
203	0x3d8bc741	0.06825114
204	0x3e0dff16	0.13866839
205	0xbc70d1c2	-0.014698448
206	0x3e387657	0.18013893
207	0x3d500a95	0.05079134
208	0xbd0b0e29	-0.03394905
209	0x3cf8b99d	0.030361945
210	0x3d7247d0	0.059150517
211	0xbded7f05	-0.11596493
212	0xbe0cba80	-0.13743019
213	0x3de74929	0.11293251
214	0x3e078626	0.13234767
215	0xbb7d622a	-0.0038663247
216	0x3da11ace	0.07866441
217	0x3df7454c	0.12073764
218	0x3dccd562	0.10001637
219	0x3e1de06f	0.15417646
220	0xbd55b89b	-0.052178007
221	0xbde17d8b	-0.110102735
222	0x3db57863	0.088608526
223	0xbe15e798	-0.14639127
224	0x3c9a1acf	0.018811611
225	0x3d7aff8f	0.061278876
226	0x3d68be78	0.05682227
227	0x3dc0d63b	0.09415861
228	0x3db1eb31	0.08687437
229	0xbe01ea8b	-0.12687127
230	0xbe025973	-0.12729435
231	0xbdf21765	-0.118208684
232	0xbd66754a	-0.0562642
233	0xbe1422d7	-0.14466415
234	0x3dfce35e	0.12348054
235	0x3d1acf6f	0.03779548
236	0x3d89ff38	0.06738132
237	0xbd27d53b	-0.040974837
238	0x3d5dd183	0.054154884
239	0xbd3aaca0	-0.045574784
240	0x3d81b5ce	0.063335046
241	0xbc3eda85	-0.011648779
242	0xbda7ad04	-0.08187297
243	0xbb623cbd	-0.0034521066
244	0x3b957495	0.004561017
245	0xbd123344	-0.035693422
246	0x3e2bc3b9	0.16773881
247	0xbdad85c2	-0.08472778
248	0x3dd5d372	0.104407206
249	0x3dce3ed0	0.10070574
250	0xbd85d493	-0.06534686
251	0xbd524606	-0.05133631
252	0x3db26bc4	0.08711961
253	0x3ddfd506	0.10929303
254	0xbde13a87	-0.10997491
255	0xbe284508	-0.16432583

lstm2.weight_hh_l0 f4 [200, 50]
0	0xbe299497	-0.16560589
1	0x3da79439	0.08182568
2	0xbd29743a	-0.041370608
3	0xbdf88090	-0.12133896
4	0x3dca7e0e	0.09887324
5	0x3dc34ad2	0.09535755
6	0xbdc2d238	-0.09512752
7	0x3d9bbfb9	0.076049276
8	0x3d930772	0.071791545
9	0x3d4d1210	0.050066054
10	0x3e19d92b	0.1502425
11	0xbc8a9a4f	-0.016919283
12	0xbe2dd4fc	-0.16975778
13	0xbdc0b4fe	-0.094095215
14	0xbbb01bfe	-0.0053744307
15	0x3dfcb3f7	0.12339013
16	0x3dc6d61b	0.09708806
17	0xbd926982	-0.0714903
18	0x3db23123	0.08700778
19	0xbe355f2d	-0.17712088
20	0x3c2e0839	0.010622078
21	0x3d0aede6	0.033918284
22	0x3e040a95	0.12894662
23	0x3c1081ee	0.00882004
24	0xbde6e9ac	-0.11275038
25	0xbe2ccbca	-0.16874614
26	0x3e1e6f57	0.1547216
27	0xbe2eebec	-0.17082185
28	0xbdb22b32	-0.08699645
29	0xbd1b7e41	-0.037962202
30	0xbd912a36	-0.07088129
31	0xbd1f2b10	-0.038859427
32	0x3dcb8e54	0.09939256
33	0xbd879059	-0.06619329
34	0x3ce23967	0.027615262
35	0xbde231c0	-0.11044645
36	0x3d54a551	0.05191547
37	0xbc5d8fe7	-0.0135230785
38	0x3df1d1b8	0.11807579
39	0xbe093722	-0.13399938
40	0x3de83cf9	0.113397546
41	0x3e2c2ffe	0.16815183
42	0x3d396b67	0.045268442
43	0xbddb3383	-0.107031845
44	0x3e1617cb	0.14657514
45	0xbe07925d	-0.13239427
46	0xbcb11930	-0.021618456
47	0xbbbc0827	-0.0057382765
48	0xbd8f27d8	-0.069900215
49	0x3c8b2b0b	0.016988298
50	0x3d893215	0.066990055
51	0xbddb8aff	-0.10719871
52	0xbcfab80f	-0.030605344
53	0xbcd49900	-0.025951862
54	0x3deea622	0.11652781
55	0x3daab6e6	0.08335666
56	0xbd597ce2	-0.053097613
57	0x3dfb04c0	0.12256765
58	0x3dc0b12d	0.094087936
59	0x3d86ee13	0.06588378
60	0xbdb0978a	-0.08622654
61	0xbc023df6	-0.007949343
62	0xbdaa94d0	-0.08329165
63	0xbdc4b294	-0.096043736
64	0x3d235acd	0.039881516
65	0x3c6cece7	0.014460779
66	0x3d70955b	0.058736186
67	0x3e0797fa	0.13241568
68	0x3db80051	0.08984435
69	0x3dc01bc4	0.09380296
70	0xbd4fb8c9	-0.050713334
71	0x3e248a7f	0.16068457
72	0xbda0f985	-0.07860092
73	0x3bec9a63	0.007220553
74	0xbc08b6bd	-0.008344349
75	0x3dfaf533	0.12253799
76	0xbe45b19b	-0.19306032
77	0xbda9237e	-0.08258723
78	0xbd8cb85c	-0.06871101
79	0x3c8b6348	0.017015114
80	0x3c830258	0.015992329
81	0xbcecc160	-0.028900802
82	0x3cf046de	0.029330667
83	0x3de0eefb	0.10983082
84	0x3dbf95a9	0.09354717
85	0x3db3cc76	0.08779232
86	0xbd5599c9	-0.052148614
87	0xbdf7df5f	-0.121031515
88	0x3d419604	0.047262207
89	0xbd5f511f	-0.054520722
90	0x3dd548aa	0.1041425
91	0xbd4f6c67	-0.05064049
92	0x3db7ecaf	0.08980691
93	0x3d3831f9	0.044969533
94	0x3dd0eac9	0.10201032
95	0xbd04c3f2	-0.03241343
96	0xbe098075	-0.13427909
97	0xbc096d94	-0.008387942
98	0x3e03108e	0.12799284
99	0x3b898468	0.0041966923
100	0x3e05d484	0.1306935
101	0x3d92686b	0.071488224
102	0x3c1e41bc	0.009659227
103	0xbd3a0552	-0.04541523
104	0x3d583ab9	0.052790377
105	0xbe228d59	-0.15874232
106	0x3ddbf737	0.10740512
107	0xbd3c339e	-0.045947663
108	0x3dbcb2a7	0.09213763
109	0x3dc9e1f3	0.098575495
110	0xbd9b2480	-0.07575321
111	0x3d700381	0.05859709
112	0x3e03cb48	0.12870514
113	0xbd146e09	-0.03623775
114	0x3daa2678	0.083081186
115	0x3ce345f4	0.027743317
116	0xbb173c76	-0.002307681
117	0xbd979199	-0.074008174
118	0x3d8b8347	0.068121485
119	0x3da6aa6e	0.08137976
120	0xbd81e531	-0.06342543
121	0x3e1d51d1	0.15363242
122	0xbde03a31	-0.10948599
123	0x3b900387	0.0043949517
124	0xbdcea420	-0.10089898
125	0xbd31d248	-0.04341343
126	0xbe0ced23	-0.13762335
127	0x3dcbfa60	0.099598646
128	0x3e095a13	0.13413267
129	0xbdedb0e3	-0.11606004
130	0x3d18b4ee	0.037281923
131	0xbcdf5faf	-0.027267305
132	0x3cf4514b	0.02982392
133	0xbdd8084a	-0.10548456
134	0x3d905239	0.07046933
135	0xbdb239a6	-0.08702402
136	0x3e0c759d	0.13716741
137	0xbd4fa446	-0.050693773
138	0x3dad6307	0.084661536
139	0x3d08ce5f	0.033399936
140	0x3d9c5e1f	0.0763514
141	0xbc4702c9	-0.01214666
142	0xbd51bcdf	-0.051205512
143	0x3daf10ed	0.0854815
144	0xbd07b966	-0.033135794
145	0x3dc60d3a	0.096704915
146	0xbe171879	-0.1475543
147	0xbcca4ca9	-0.024694758
148	0x3de995f6	0.11405556
149	0x3c9c8a00	0.019108772
150	0xbe3452e2	-0.17609742
151	0x3d721a2f	0.059107002
152	0xbe208bb3	-0.15678291
153	0xbc2b26c6	-0.010446256
154	0xbc86427e	-0.016389128
155	0x3df00f78	0.117217004
156	0xbdf4436e	-0.11926924
157	0x3e51e8ad	0.20498915
158	0xbd0e0d7d	-0.034680832
159	0xbdfb8983	-0.12282088
160	0xbcd11767	-0.025523854
161	0xbe01fc6d	-0.12693949
162	0xbe64eded	-0.22356386
163	0x3acf43b6	0.0015813026
164	0xbccc1d14	-0.02491621
165	0xbd1258ae	-0.035729103
166	0xbe1dce08	-0.15410626
167	0xbbd97ea9	-0.0066374135
168	0x3ec31534	0.38102114
169	0xbde3042d	-0.11084781
170	0xbd177783	-0.03697921
171	0xbeafa44a	-0.3430503
172	0x3e38f773	0.18063144
173	0xbd9e6397	-0.07733839
174	0xbe223fba	-0.15844622
175	0xbdfb718b	-0.12277516
176	0x3dd5d593	0.10441127
177	0xbe5fe6d7	-0.21865402
178	0xbd0816ee	-0.033224992
179	0xbe4fa712	-0.20278576
180	0xbd25d0f9	-0.040482495
181	0x3e4bdcce	0.19908449
182	0x3d727737	0.059195723
183	0x3ddabdd3	0.10680737
184	0xbddb1d0b	-0.10698899
185	0x3dce7ae9	0.10082037
186	0xbe3d788c	-0.18503016
187	0x3db7af7e	0.08969019
188	0x3d68714c	0.056748673
189	0xbdd3eeaa	-0.10348256
190	0x3d73a385	0.059482116
191	0x3e4a74df	0.19771145
192	0xbcd52a40	-0.026021123
193	0xbd7c38f4	-0.061577752
194	0x3ec462b9	0.3835657
195	0xbe08e439	-0.1336831
196	0x3b5e6bd6	0.0033938787
197	0x3e436ff4	0.19085675
198	0xbd8b81e6	-0.068118855
199	0x3c11bd08	0.008895166
200	0x3e1d105e	0.15338275
201	0xbe052a52	-0.13004425
202	0xbd93d05c	-0.07217476
203	0x3dcabfe3	0.09899881
204	0x3c5e40df	0.013565271
205	0x3d784b4e	0.06061869
206	0xbe0abe73	-0.13549213
207	0x3e0a03ba	0.13477984
208	0xbb38afb5	-0.0028180901
209	0x3c1d20be	0.009590326
210	0x3df58854	0.11988893
211	0x3df9f131	0.12204207
212	0xbd0fd120	-0.035111547
213	0xbe16087d	-0.14651676
214	0xbd67c0ad	-0.056580234
215	0xbe04e976	-0.12979683
216	0xbd75ee0b	-0.06004147
217	0xbd9e459b	-0.0772812
218	0x3e03a29e	0.12855002
219	0xbd7b99c2	-0.06142593
220	0xbd9ccbc5	-0.076560535
221	0x3dcb6808	0.09931952
222	0x3d0088e5	0.031380553
223	0x3b5a190b	0.0033279087
224	0x3d9eb25d	0.07748864
225	0x3e01fc67	0.1269394
226	0x3de68de9	0.11257536
227	0xbc2a7933	-0.010404873
228	0x3e155e50	0.14586759
229	0x3d00252c	0.03128545
230	0x3dc76fc0	0.097381115
231	0xbc1ca546	-0.009560889
232	0xbdaecf89	-0.08535678
233	0xbdd00b8c	-0.101584524
234	0xbd24eeb2	-0.0402667
235	0x3d1d074e	0.038337044
236	0x3db83b81	0.089957245
237	0xbdba537c	-0.09097955
238	0x3db31e6c	0.08746037
239	0xbb4e86ba	-0.0031513409
240	0xbd5dfc07	-0.05419543
241	0xbd0ef4aa	-0.0349013
242	0x3d121613	0.035665583
243	0xbcf2aa9d	-0.02962237
244	0x3e0d1f2b	0.13781421
245	0x3e18827a	0.14893523
246	0x3d78c88c	0.06073813
247	0xbdf018a0	-0.11723447
248	0x3e03ebf8	0.12882984
249	0xbd5e7166	-0.054307364
250	0xbc48e219	-0.012260937
251	0xbd82d2d1	-0.06387866
252	0x3d29888b	0.041389983
253	0x3d27c3c4	0.04095818
254	0x3d9b70e6	0.07589893
255	0xbb9e0717	-0.0048226225

lstm2.bias_ih_l0 f4 [200]
0	0x3d22681f	0.03965008
1	0x3d08291f	0.03324234
2	0x3dae5e11	0.085140355
3	0x3eb24fbe	0.34826463
4	0x3b2cb7d2	0.0026354683
5	0xbd2a4891	-0.04157311
6	0x3b44c7be	0.0030026282
7	0x3c9f4d89	0.019446151
8	0x3d360da9	0.04444662
9	0x3d906928	0.07051307
10	0x3b84642f	0.004040263
11	0x3e0b5935	0.13608249
12	0xbd99ed8c	-0.075160116
13	0x3e0dc6f5	0.13845427
14	0x3de3f690	0.111310124
15	0x3da712d0	0.08157885
16	0xbdac6495	-0.08417622
17	0x3e3ef3c4	0.18647677
18	0xbe011ab0	-0.12607837
19	0xbd877671	-0.06614388
20	0xbda66717	-0.081251316
21	0x3e32cbda	0.17460576
22	0x3d3ad00a	0.045608558
23	0xbdb386bf	-0.08765935
24	0xbd260e03	-0.040540706
25	0xbdef54d4	-0.116861016
26	0x3e8dc65c	0.276904
27	0xbd323731	-0.043509666
28	0x3e0b4277	0.13599573
29	0xbdcf4d4c	-0.10122165
30	0xbdb6040e	-0.08887492
31	0xbcf1c97e	-0.029515024
32	0x3d1c00f7	0.038086858
33	0xbd128ffa	-0.035781838
34	0x3db3274f	0.08747732
35	0x3d7835e4	0.06059827
36	0x3e0e64cd	0.1390564
37	0xbc0efcc2	-0.008727254
38	0xbda6da8a	-0.08147152
39	0xbd27644d	-0.04086714
40	0x3d5ab3be	0.05339407
41	0xbbdddf5a	-0.0067710103
42	0xbe20e0e8	-0.15710795
43	0x3dd5b672	0.10435189
44	0x3d40f9e8	0.04711333
45	0xbd73e3f2	-0.059543557
46	0xbe057fe2	-0.13037065
47	0xbe0dc0fe	-0.13843152
48	0x3d872736	0.06599276
49	0xbc25bb38	-0.010115437
50	0xbd6d6c34	-0.05796452
51	0x3d5ad9eb	0.05343048
52	0xbd40f655	-0.04710992
53	0xbd8bb85e	-0.068222746
54	0x3dacf89d	0.08445857
55	0x3c336a93	0.010950702
56	0xbda47e40	-0.08031893
57	0x3d30a812	0.043129034
58	0x3cecd67e	0.028910872
59	0xbdddcb40	-0.108297825
60	0xbda58dc6	-0.08083682
61	0x3ce32827	0.027729107
62	0x3c0b2bff	0.008494376
63	0xbde082b2	-0.10962428
64	0xbd1af863	-0.037834536
65	0xbac0b4cf	-0.0014702323
66	0xbe00e8f4	-0.12588865
67	0xbcf69aa8	-0.030103043
68	0x3cd8d50e	0.02646878
69	0x3c3b4cf4	0.011431921
70	0x3e051855	0.12997563
71	0x3dc43a26	0.095814034
72	0x3b7cc8d2	0.0038571847
73	0x3d5c8801	0.05384064
74	0xbd6bad12	-0.0575381
75	0x3d446db6	0.04795619
76	0xbcedfcea	-0.029051263
77	0x3e303296	0.17206797
78	0x3dd39199	0.10330505
79	0x3e0aba43	0.13547616
80	0xbbba6163	-0.005687879
81	0xbc0d3b31	-0.008620069
82	0xbd55554f	-0.05208331
83	0xbd044b8d	-0.032298613
84	0xbd9879f4	-0.07445136
85	0xbde78fd4	-0.1130673
86	0xbdd29188	-0.10281664
87	0xbb86eef7	-0.0041178423
88	0xbe19e47b	-0.15028565
89	0x3d07f7be	0.03319525
90	0x3bab32a6	0.0052245436
91	0xbd28ac69	-0.04118005
92	0xbcccdaf6	-0.025006752
93	0xbdf7549e	-0.12076686
94	0x3e3a40f3	0.18188839
95	0xbe49b3d2	-0.19697502
96	0xbd309cdc	-0.043118343
97	0xbd1309fa	-0.035898186
98	0xbbe27448	-0.0069108345
99	0x3ddc7d4a	0.107660845
100	0x3d778059	0.060425136
101	0x3df95e45	0.121761836
102	0xbdf0bebb	-0.11755129
103	0x3a6686e7	0.0008793906
104	0x3ce2ff2c	0.027709566
105	0xbdc433d2	-0.095801964
106	0xbdfd3c76	-0.12365048
107	0x3da19361	0.078894384
108	0xbd8a4aa4	-0.06752518
109	0xbd928e20	-0.071560144
110	0x3b9a677a	0.0047120424
111	0xbdc83c0e	-0.097770795
112	0xbe120288	-0.14258778
113	0x3deddba0	0.11614156
114	0xbdcae7b7	-0.09907477
115	0x3d27c997	0.040963735
116	0x3d4d621d	0.050142396
117	0xbc5fbb63	-0.013655516
118	0x3d83c11e	0.064333186
119	0xbd895a09	-0.06706626
120	0xbdf02023	-0.117248796
121	0x3d4086ea	0.047003664
122	0x3da5db98	0.08098525
123	0x3acf7380	0.0015827268
124	0xbda9a5d4	-0.08283582
125	0xbdc4a079	-0.0960092
126	0xbd1e8461	-0.038700465
127	0xbd81fe0f	-0.06347286
128	0xbc95ed40	-0.018301606
129	0x3c88b8af	0.016689627
130	0xbd5406ee	-0.05176442
131	0x3d820bb9	0.06349892
132	0x3c899614	0.016795196
133	0x3dbccfb7	0.09219306
134	0xbda2ceaa	-0.07949574
135	0x3d6ff83d	0.058586348
136	0xbd83807e	-0.06420992
137	0xbdcd70dc	-0.10031292
138	0xbd9b5ab9	-0.07585663
139	0xbd411e62	-0.047148116
140	0x3cbb96c9	0.022899048
141	0x3d819b5c	0.063284606
142	0xbdaa6186	-0.08319382
143	0xbdd41604	-0.10355762
144	0xbdbe58f2	-0.09294309
145	0x3cd26a64	0.025685497
146	0xbdd61420	-0.10453057
147	0xbc07f7b5	-0.008298804
148	0xbde4f9e7	-0.111804776
149	0xbd6f5eb9	-0.058439944
150	0x3e1fdf10	0.15612435
151	0xbcc7c400	-0.024385452
152	0x3d1034bb	0.035206538
153	0x3e63db79	0.22251691
154	0x3dc223b2	0.094794646
155	0xbd6f18ac	-0.05837314
156	0xbb2426ed	-0.0025047616
157	0x3df346c8	0.11878735
158	0x3d674dae	0.056470565
159	0xbdd4b1c3	-0.10385468
160	0xbe066333	-0.13123779
161	0x3dc3c6fa	0.09559436
162	0x3d738552	0.059453316
163	0x3dc0aa07	0.0940743
164	0xbd7efe26	-0.062254094
165	0x3d9a230d	0.07526217
166	0x3dc2f83b	0.095200025
167	0x3d038b56	0.032115303
168	0xbda09678	-0.078412
169	0xbdf92668	-0.121655285
170	0x3db8e414	0.090278774
171	0xbd7faacb	-0.06241874
172	0xbba55707	-0.005045775
173	0xbd7cc5e8	-0.061712176
174	0x3e203129	0.15643753
175	0xbbf2179c	-0.0073880684
176	0x3ebe1789	0.3712733
177	0x3b7c2276	0.0038472689
178	0x3dc108f6	0.09425537
179	0x3dfa1b0d	0.12212191
180	0xbcece291	-0.028916629
181	0x3e20cec1	0.1570387
182	0xbd61a149	-0.055085454
183	0xbcbffa8f	-0.023434905
184	0xbc9e8db1	-0.019354673
185	0x3dfed4ce	0.12442933
186	0xbb2bd5a8	-0.0026219878
187	0x3cb6e02a	0.022323687
188	0x3cebff91	0.028808387
189	0x3e09009d	0.1337914
190	0x3c2eaabe	0.010660825
191	0xbdc8352d	-0.097757675
192	0xbd60a3b8	-0.054843634
193	0x3d9cd88d	0.07658491
194	0xbda41f75	-0.080138125
195	0xbc178752	-0.0092485715
196	0xbdb491c1	-0.08816863
197	0xbe24b5d3	-0.16084985
198	0xbd971c3f	-0.073784344
199	0xbd2c9727	-0.042136338

lstm2.bias_hh_l0 f4 [200]
0	0x3e131b9a	0.14365998
1	0x3c336bc8	0.01095099
2	0x3d230900	0.039803505
3	0x3e79128b	0.2432348
4	0xbde15e11	-0.1100427
5	0xbdb818ff	-0.089891426
6	0x3dd25610	0.10270321
7	0x3d4c9758	0.04994902
8	0xbcc3b7fe	-0.023891445
9	0x3e2338c4	0.15939623
10	0x3cd6f3bc	0.026239268
11	0xbd141123	-0.036149155
12	0xbd626953	-0.055276226
13	0x3e415505	0.18880089
14	0xbcffa0b5	-0.03120456
15	0x3da14934	0.078752905
16	0xbbb6e41b	-0.0055813915
17	0x3df1cdaf	0.11806809
18	0xbd764dc3	-0.060132753
19	0x3ccc5108	0.024940982
20	0x3e1af506	0.15132532
21	0xbd765cf2	-0.060147233
22	0xbc2901b7	-0.01031535
23	0x3de66cc1	0.11251212
24	0x3d819525	0.06327275
25	0x3dfe1a94	0.12407413
26	0x3eb759f8	0.35810828
27	0x3e50ac75	0.20378287
28	0x3d7a8822	0.061164983
29	0x3e0f1128	0.13971388
30	0x3cc8069e	0.024417218
31	0x3e157bb7	0.14597975
32	0xbd8db22d	-0.0691875
33	0x3bc72097	0.006076883
34	0xbdc3d407	-0.095619254
35	0x3dff035c	0.124518126
36	0xbd38984e	-0.045067124
37	0x3dd8b775	0.10581867
38	0x3dc8c1fa	0.09802623
39	0x3d8fa085	0.070130385
40	0x3e44c978	0.19217479
41	0xbd06b4d3	-0.03288729
42	0x3da5495e	0.08070634
43	0xbc33d9aa	-0.010977188
44	0x3d435da0	0.04769671
45	0x3e091f42	0.1339083
46	0x3d976204	0.07391742
47	0xbd79debb	-0.061003428
48	0x3d36f2b1	0.044665042
49	0xbd1df65f	-0.038565036
50	0xbd84dec9	-0.064878054
51	0xbdb4dd74	-0.08831301
52	0x3d68a265	0.056795496
53	0xbe36fafe	-0.17869183
54	0x3dc47589	0.095927306
55	0xbd698fe6	-0.057021998
56	0xbd83d22e	-0.06436573
57	0xbdad685d	-0.08467171
58	0x3c8d66ac	0.017260872
59	0x3dc54aa2	0.09633376
60	0xbd0879bd	-0.033319224
61	0xbc887265	-0.01665611
62	0xbdeacab6	-0.11464445
63	0xbd490d95	-0.04908522
64	0x3d35cc03	0.044384014
65	0x3dddaed7	0.10824364
66	0xbdcacf1e	-0.09902786
67	0xbd98c00c	-0.07458505
68	0xbdb94c87	-0.090477996
69	0xbe04261a	-0.1290516
70	0x3d89e954	0.06733957
71	0x3d6ee472	0.05832333
72	0xbd894ec7	-0.06704479
73	0x3ddae83b	0.10688826
74	0x3e0afb10	0.13572335
75	0x3dda62c0	0.10663366
76	0xbcd6082c	-0.026126944
77	0x3df42dab	0.11922773
78	0xbdcf3b43	-0.10118725
79	0xbda59a0b	-0.08086022
80	0xbdad6e79	-0.084683366
81	0xbbb1e2f1	-0.005428665
82	0xbc84a1fb	-0.01619052
83	0xbce21483	-0.027597671
84	0x3da0e85e	0.078568205
85	0xbe015fb2	-0.12634161
86	0xba791c6a	-0.000950283
87	0xbdb8befe	-0.09020804
88	0xbd92ed25	-0.07174138
89	0xbd98beb6	-0.0745825
90	0x3cbc3c37	0.022977931
91	0xbe0b49eb	-0.13602416
92	0x3ac1889c	0.0014765444
93	0xbd99b2c6	-0.075048015
94	0x3e46ca37	0.19413076
95	0xbd88c36d	-0.066778995
96	0x3d8e7e08	0.06957632
97	0x3d980234	0.07422295
98	0xbd85cac0	-0.06532812
99	0x3df9a550	0.12189734
100	0xbd89db41	-0.067312725
101	0x3cb72bdd	0.022359783
102	0xbdfaecd9	-0.12252206
103	0xbd189f3c	-0.037261233
104	0xbd1da3d5	-0.03848632
105	0xb9916b46	-0.0002773648
106	0x3dad671a	0.08466931
107	0x3e03cfea	0.12872282
108	0xbbd0cf69	-0.0063723815
109	0x3d1f78d6	0.038933598
110	0xbc957b58	-0.018247291
111	0xbd130730	-0.035895526
112	0xbe08b1b0	-0.13349032
113	0x3ba7f2c6	0.0051253764
114	0xbda7f273	-0.082005404
115	0xbc52007d	-0.012817499
116	0xbde7f2fb	-0.11325642
117	0x3d6cc685	0.05780651
118	0x3ddad848	0.106857836
119	0xbd65db4f	-0.056117352
120	0xbe009a06	-0.12558755
121	0xbc88defb	-0.016707888
122	0x3c54361f	0.012952357
123	0xbbdc3782	-0.0067204842
124	0x3dc73e50	0.09728682
125	0xbe1f9461	-0.15583946
126	0x3bd3ac70	0.006459765
127	0x3d041078	0.03224227
128	0x3bdd05c8	0.006745074
129	0xbe039d2b	-0.12852924
130	0xbbda79dd	-0.0066673593
131	0x3c51c02b	0.012802164
132	0xbd8d4a58	-0.068989456
133	0x3d6fbdf1	0.05853075
134	0x3c060265	0.008179282
135	0x3dd45d5b	0.10369369
136	0x3dd73ffa	0.105102494
137	0x3e1377b8	0.14401138
138	0x3d8bcf6f	0.06826674
139	0x3da463c6	0.08026843
140	0x3cd3516d	0.025795663
141	0xbd692488	-0.056919605
142	0x3d718214	0.058961943
143	0xbd38ce45	-0.04511859
144	0x3db453c4	0.088050395
145	0x3df199a6	0.11796884
146	0x3d9414b4	0.07230511
147	0xbcbad7ca	-0.022807974
148	0xbda00b45	-0.078146495
149	0x3e0960d6	0.13415846
150	0x3c539a1a	0.012915159
151	0xbd5b6ea0	-0.053572297
152	0x3c6e6923	0.014551434
153	0x3e539eb1	0.20666005
154	0xbda58e3e	-0.08083771
155	0xbd9bb8a0	-0.07603574
156	0x3deefa2e	0.11668812
157	0xbd9280a4	-0.071534425
158	0x3dfc625e	0.123234496
159	0x3ddd2e05	0.10799793
160	0xbda2d10d	-0.079500295
161	0x3e0f69d8	0.1400522
162	0xbca8fbec	-0.020627938
163	0x3e253504	0.16133505
164	0xbc5d0d4c	-0.01349194
165	0x3dfb7e6f	0.12279975
166	0x3e0b0715	0.1357692
167	0x3d406288	0.046968967
168	0xbd5891b0	-0.052873313
169	0xbdfa9d8a	-0.122370794
170	0x3df11e90	0.117734075
171	0x3b2fe524	0.002683946
172	0xbd99ea94	-0.07515445
173	0x3d674596	0.056462847
174	0x3e0e01bc	0.13867849
175	0x3dc30c9c	0.095238894
176	0x3e744080	0.2385273
177	0xbd728196	-0.059205614
178	0x3d8347ae	0.06410156
179	0xbdc68175	-0.09692661
180	0xbd02b52a	-0.031911053
181	0x3dc7e433	0.097603224
182	0x3da7e8c3	0.08198693
183	0x3b8b1fa0	0.0042457134
184	0x3dcc4889	0.099747725
185	0xbbd829cf	-0.006596781
186	0x3d2762ba	0.040865637
187	0xbc213776	-0.009839883
188	0x3d81b373	0.06333055
189	0x3cb7587a	0.022381056
190	0x3e0af91b	0.13571589
191	0x3d4ca9eb	0.049966734
192	0xbdf59197	-0.1199066
193	0x3dffa44c	0.12482509
194	0xbb0cea6c	-0.002150203
195	0x3db439b6	0.0880007
196	0x3db064ed	0.08613
197	0x3dd5f42c	0.10446963
198	0xbda8aa23	-0.08235576
199	0x3df5dc88	0.120049536
