Models/model_AAPL.pth (torch, 132779 bytes, 11 tensors)

lstm1.weight_ih_l0 f4 [200, 1]
000000 05 64 6c 3d cd b2 81 3e 0a 60 42 3e 95 78 cb 3d
       0.057712574 0.25331727 0.18981948 0.099351086
000010 9f 62 46 3e 40 88 f8 3d 21 4f 2c 3e b1 5c 0e 3e
       0.19373558 0.121353626 0.1682706 0.13902546
000020 fe 8d 14 be f1 6d 89 3d 00 9d a4 3d 58 dc 50 3e
       -0.1450729 0.06710423 0.08037758 0.20396554
000030 ec 75 f8 3d e0 e3 8a 3b 2e ff a4 3d 6f 63 21 3b
       0.12131867 0.0042385906 0.08056484 0.0024625917
000040 51 1f b5 3d d4 54 21 3e 24 13 57 be c4 cb ce 3b
       0.08843864 0.15755016 -0.21003395 0.006310912
000050 96 e0 9f 3c 0a 95 91 3d d4 95 fe 3d 54 37 b4 bd
       0.01951627 0.07108505 0.12430921 -0.087996155
000060 e8 c0 2b 3e 03 50 8c 3d 1c 9e 7e b9 4a 8e ff 3c
       0.16772807 0.068511985 -0.00024282228 0.031195778
000070 d1 fa 28 3e ca bd 30 3e 69 35 d6 3d d6 bf 28 3d
       0.16501929 0.17259899 0.10459406 0.041198574
000080 19 26 b6 bd a8 fc 38 3e 90 ef 5f 3d 3f 84 14 3f
       -0.08893985 0.1806513 0.054671824 0.5801429
000090 bf 9b b8 3d 23 f7 f8 3d 25 ce 5b bc 76 39 20 bd
       0.09014081 0.121565126 -0.013415848 -0.0391173
0000a0 2a 6e 9e 3d 5b 47 2c 3e 10 82 89 3d cc 04 81 3e
       0.07735856 0.16824095 0.067142606 0.25198972
0000b0 4c c7 d4 3d 31 ba cc 3d e9 c8 9f 3d 01 52 79 3d
       0.10389575 0.09996451 0.078019924 0.06086922
0000c0 65 63 4b bd 06 d5 84 3e 12 f5 25 3d 6f 76 db 3c
       -0.049655337 0.25943774 0.04051692 0.026789872
0000d0 f0 9b 58 3e 4a f1 7e 3d a7 b0 5b 3e 6f bf 28 be
       0.21153235 0.06224183 0.21454106 -0.16479276
0000e0 58 ca 04 3e 5e 35 77 bd 44 8b 50 bd 72 e5 84 3d
       0.12967813 -0.06035363 -0.050914064 0.06489076
0000f0 0e af f4 bb b3 80 05 3e 96 2b 5e 3e 52 96 7c 3c
       -0.007467157 0.13037376 0.21696314 0.0154166985
000100 14 25 db 3c e0 82 af bc 26 91 b5 3d 1d 6a e6 bc
       0.026751079 -0.02142471 0.088655755 -0.02812677
000110 1b cb 0d be ec 7d 0f bd b1 53 76 be be df e2 3d
       -0.1384701 -0.035032198 -0.24055363 0.11077832
000120 12 e5 6f 3d 58 9a 22 bd 29 30 39 3c 3f 4f de bc
       0.058568068 -0.039697975 0.011302986 -0.027137397
000130 20 e3 df 3d de ab df bc 3a 73 d4 bc 3f e0 c9 3d
       0.109319925 -0.027303632 -0.02593385 0.09857225
000140 f7 92 6e 3d b2 52 09 bd 5d cc 8b 3c 84 b8 18 3e
       0.058245625 -0.03352613 0.017065221 0.14914137
000150 db c1 93 bd d1 16 85 bc 0f 6c 2e 3e fa d0 7d 3d
       -0.07214709 -0.016246231 0.17033409 0.061966874
000160 e6 c0 a0 bd b3 ae 51 3e be 60 c5 3b 6e 74 bc 3d
       -0.078492925 0.20476799 0.0060234955 0.09201895
000170 2f a3 81 3d 2b e4 d7 3d c3 ed 5b bd 2d 33 d1 3d
       0.06329953 0.105415665 -0.053693544 0.10214839
000180 00 34 01 3e 07 7c b4 bc d2 56 a6 bd 94 b7 1a 3e
       0.12617493 -0.022031797 -0.081220284 0.15109092
000190 19 5c 4a 3e e2 12 85 be 38 ed 8b be 9e 78 7e be
       0.19761695 -0.2599097 -0.2732942 -0.248507
0001a0 72 d8 7d 3e 19 b4 52 3e db a0 0f bd 7e ba aa bd
       0.24789599 0.20576514 -0.035065513 -0.08336352
0001b0 26 6c ed bc 9c 60 26 be 26 3c 63 bc 73 e2 46 be
       -0.028982233 -0.16247791 -0.013869321 -0.19422321
0001c0 8a 23 27 be 10 65 40 be f0 20 31 be 44 ab 2a 3e
       -0.16322151 -0.18788552 -0.17297721 0.16666895
0001d0 6d fd 85 bd fb 9c 75 be 18 da 13 3e da 52 76 3e
       -0.06542478 -0.23985665 0.14438665 0.24055043
0001e0 1f 68 32 be 73 04 00 be 4e 70 80 3e 16 8d 17 bd
       -0.17422532 -0.12501697 0.25085682 -0.036999784
0001f0 62 aa 14 be d8 9a 71 be 58 c2 5d be 23 dc a7 3c
       -0.14518121 -0.23594224 -0.21656168 0.020490712
000200 1d e6 7c be 3e 1b 81 be c9 1e 05 3e 1f 50 de 3d
       -0.24697156 -0.25216097 0.13000025 0.10855126
000210 c9 b9 09 3e ad 73 50 3e 44 e9 0a be 9e 47 d1 3e
       0.13449778 0.20356627 -0.13565546 0.40874952
000220 a6 bc 4c be 0c 9c 36 bc 34 83 8f bd 62 a2 ca bd
       -0.19993839 -0.011145603 -0.07007447 -0.09894253
000230 16 f5 f4 3d 58 94 89 be c8 bc 48 3e e8 b9 5e be
       0.11960809 -0.2687099 0.19603264 -0.21750605
000240 bb cd 32 bd f6 c8 84 be 4c 3b ae bc dc a2 7a be
       -0.04365323 -0.2593457 -0.02126851 -0.24476188
000250 61 b3 ea bd ce 37 59 be 9b 56 13 be 9c f9 b6 3d
       -0.11459995 -0.21212694 -0.14388506 0.08934328
000260 f7 61 64 3e 54 e2 76 3e 55 f1 87 3e ff 04 83 bb
       0.22302996 0.24109775 0.2655131 -0.0039983983
000270 e4 d6 e9 bc 44 40 d1 bd 05 3a 91 bd c0 0d 15 3e
       -0.02854485 -0.10217336 -0.070911445 0.14556026
000280 95 41 64 3d 7c d1 72 3d b8 3b d1 3c d8 ed 13 3d
       0.055726606 0.05928181 0.025541171 0.036115497
000290 fa 7f a0 bc 0c 39 0d bd 78 d2 3e 3e 0a e5 9b 3b
       -0.019592274 -0.034478232 0.18634975 0.004757528
0002a0 ed eb f5 bd 80 12 d9 3d 9e b0 a8 bd f3 f1 9d 3d
       -0.1200789 0.10599232 -0.08236812 0.07712164
0002b0 4e 58 24 3d bb fe c3 3d 64 12 82 3e 4c 92 a2 3e
       0.040123276 0.0957007 0.25404656 0.3175224
0002c0 64 9b 36 3d db 2a 21 bc 0e 1e 1b bd b4 47 aa 3d
       0.044581786 -0.009836878 -0.03787046 0.083144575
0002d0 9f bf 8c 3e f9 74 7f 3e 30 b9 1e 3e d4 e0 01 3e
       0.27489945 0.24946965 0.15500331 0.12683421
0002e0 74 63 58 bd 0c 9b 4a 3f 02 13 61 3e 83 cf 71 bd
       -0.05282922 0.7914283 0.21979907 -0.05903579
0002f0 f9 a2 86 3d dd 68 33 3e 94 c4 db bd 8f 3f 90 3c
       0.06574053 0.17520471 -0.10730854 0.017608432
000300 af 02 63 3e 45 b8 ce 3d 54 cb c6 3c 27 e3 d2 3d
       0.22168992 0.100937404 0.024266876 0.10297232
000310 dd 73 36 3e 1c 1f cf 3d 38 60 51 ba a2 42 c3 3e
       0.17817636 0.101133555 -0.0007987055 0.38136774

lstm1.weight_hh_l0 f4 [200, 50]
000000 47 5b 92 bd 11 c9 0c be 3f e2 39 3d 4f e7 80 bd
       -0.07146316 -0.13748576 0.04538178 -0.062941186
000010 c6 41 97 3d b4 2b 04 be e5 62 c9 bc 9c 77 29 3d
       0.07385592 -0.12907296 -0.02458329 0.041373834
000020 90 b1 34 3e 7b 7f 23 bd cb 69 dd bd 94 1d 13 be
       0.1764586 -0.039916497 -0.10811194 -0.14366752
000030 4d fa 8e bd 96 d6 50 be 48 70 1e be fd 98 a5 3d
       -0.06981335 -0.20394358 -0.1547252 0.08085821
000040 d4 c0 3d 3e 24 33 3c be 1e 24 31 be 7b 1a 3d 3e
       0.1853059 -0.18378884 -0.17298934 0.18467133
000050 fd 18 90 3e 2e 74 18 bd 72 cc f5 3d de b6 43 3e
       0.28144065 -0.037220173 0.120018855 0.19112727
000060 2e 4b c1 bd b9 2e 01 3d 54 47 9c bd b2 cf 6e 3e
       -0.094381675 0.0315387 -0.07630792 0.23321417
000070 24 99 f2 bc b7 54 45 be 10 17 83 3c 6b b9 78 3d
       -0.029614039 -0.19270597 0.016002208 0.060723703
000080 9b 34 4c be 18 ce 3f 3d 82 97 2d bd fc 6a e8 3b
       -0.19941942 0.046827406 -0.042380817 0.0070928317
000090 1d 7a 32 be 1b f2 48 be 46 c6 49 3e 2a 4d 5c be
       -0.17429395 -0.19623606 0.19704542 -0.21513811
0000a0 20 12 64 bd 3d c4 8f 3d e1 9f 92 bd 62 23 8e bc
       -0.055681348 0.07019851 -0.07159401 -0.017350856
0000b0 58 f7 20 3e 79 9f 41 bd e0 b6 52 3e 9f 00 2e 3d
       0.15719354 -0.047271226 0.20577574 0.04248106
0000c0 ba 36 28 3e 5d 32 2a be d9 ed c0 3d ed 85 21 be
       0.16427127 -0.16620775 0.09420366 -0.15773745
0000d0 61 c9 59 3d 57 64 b9 3d ca 80 2b bd ab 00 87 3d
       0.053170566 0.090523414 -0.04187087 0.06591924
0000e0 56 b2 5f 3d 70 56 3a bd 29 69 05 bc 0e f7 d6 bd
       0.054613434 -0.04549259 -0.008142748 -0.10496341
0000f0 9c 76 95 bd 2e c9 a7 bd 2c 83 6e bd c3 33 fe bd
       -0.072980136 -0.08192669 -0.058230564 -0.124122165
000100 1c 26 17 be 7a c4 00 3e 02 a8 9b 3d bf 4a da bd
       -0.14760631 0.1257495 0.07600404 -0.10658788
000110 19 8f 9b bd fd 28 cd 3d e4 8b e1 bc 64 5c a4 3d
       -0.07595653 0.100175835 -0.027532525 0.080254346
000120 71 3b f0 3d ef d6 a7 3d 94 09 ba bd 67 23 a0 bc
       0.117300875 0.08195292 -0.09083858 -0.019548131
000130 8d 4f 51 3d 55 3d b2 bd c7 81 60 3d cb 14 75 bd
       0.051101256 -0.087031044 0.054811265 -0.059834283
000140 48 76 14 3e b6 78 a4 bd 9c 1a 10 be 97 36 69 3c
       0.14498246 -0.08030836 -0.1407265 0.014234207
000150 76 7d c9 3d 12 d2 df bd 8f 63 d6 bc 68 d8 9d 3d
       0.09838383 -0.109287396 -0.02617052 0.07707292
000160 af 9c 2c 3c 59 76 9a 3d be 96 05 be 76 ef bf 3c
       0.010535403 0.07542104 -0.13045785 0.023429614
000170 a1 43 01 bd ed ea 10 be c7 99 40 3b cc 8f 4e bd
       -0.031558637 -0.14152117 0.0029388533 -0.050430104
000180 3d 8e 0f 3e 63 72 c2 3d 25 bc 90 bc d4 33 a7 bd
       0.14019103 0.09494474 -0.01766784 -0.08164182
000190 5b 01 33 be 13 73 13 be ca f2 a6 bd c9 fa 80 3d
       -0.17480986 -0.14399366 -0.08151777 0.062978335
0001a0 47 ed 0f 3e f9 f5 b3 bd 6a 88 98 3d a1 3c e0 3c
       0.14055358 -0.0878715 0.07447894 0.02737266
0001b0 83 12 16 3d 7a 34 bc bd 29 79 59 bc 87 18 ca 3c
       0.036638748 -0.091896966 -0.013273516 0.024669899
0001c0 4e 07 a8 bd 38 99 a1 3d 74 11 e0 3b 74 9e 1f be
       -0.08204518 0.07890552 0.006838018 -0.15587789
0001d0 61 e7 f0 3d a2 c4 38 3c 51 10 20 be 1f 06 bb 3d
       0.11762882 0.01127735 -0.15631224 0.09132027
0001e0 1e 06 80 3e dc 7a 9f bd c3 26 15 3c 11 00 24 bd
       0.25004667 -0.077871054 0.00910348 -0.040039126
0001f0 3a eb 1b be f5 9e 14 be 31 16 8d 3d a6 20 a1 bd
       -0.1522645 -0.14513762 0.06888998 -0.07867555
000200 79 3c 35 3e 2d ea 39 3b 3b 18 93 3d 82 26 ca bd
       0.1769885 0.002836834 0.07182356 -0.09870626
000210 5c 59 98 3a dd 65 28 3e 72 1e 17 3e e5 d6 8a 3d
       0.0011623311 0.16445108 0.14757708 0.06779269
000220 6e 1c 5d b9 e1 cc 44 3d b8 cd 16 bd 6b 0d 8b 3d
       -0.00021086793 0.04804695 -0.036817282 0.06789669
000230 2d fd 77 bd be 8a a4 3d 38 ba 0b 3e 8f 07 08 be
       -0.06054418 0.080342755 0.13645256 -0.13284133
000240 4b a3 9a bd 66 51 f5 bd 05 28 8f bb e2 4f 33 bd
       -0.07550677 -0.11978416 -0.0043687844 -0.043777354
000250 0b 97 04 3e 00 3e 32 3d 18 d0 03 b7 dc 57 26 be
       0.12948243 0.04351616 -7.856659e-06 -0.16244453
000260 fd f0 1f be 3e cc d9 3c b1 f8 ac bd a0 2a bf 3d
       -0.15619273 0.026586648 -0.084458716 0.09334302
000270 0c 4b 6a 3d 05 6d 69 bd e4 77 82 bd 27 d4 02 be
       0.057200477 -0.056988735 -0.063705236 -0.12776242
000280 41 6b 2b be e1 db a8 bd a3 c8 6d bb 81 1a 9e bc
       -0.16740133 -0.082450636 -0.003628292 -0.019299747
000290 95 d4 23 be b5 71 78 bd 80 09 3f 3d 0b 78 88 bc
       -0.15999062 -0.060655314 0.04663992 -0.016658803
0002a0 9f dd d5 3d e0 76 b7 3b dd b2 b7 3c 55 26 17 be
       0.104426615 0.005598888 0.022424156 -0.14760716
0002b0 80 7f 27 3e 17 d1 a0 3d 13 64 90 bd a5 93 ec 3b
       0.16357231 0.07852381 -0.07050338 0.007219749
0002c0 55 cf 56 3d e3 dc 52 bd 0c fe 55 bd 4c 32 15 be
       0.05244382 -0.051480185 -0.05224423 -0.14569968
0002d0 4d b0 1e 3e e0 57 7e bd fb ad 58 bd a6 99 06 3b
       0.15496941 -0.062095523 -0.052900296 0.002053836
0002e0 ea 4e b7 bd 07 64 a6 bd 7e a0 ac bd 39 5b 8b 3d
       -0.089505985 -0.081245475 -0.08429049 0.06804509
0002f0 93 bd 01 3e 76 1f 4b 3c a6 e1 fb bd 8b e6 8e bc
       0.12669973 0.012397638 -0.122988984 -0.017443916
000300 5a 06 32 3e 8c 6f 48 bd 3d 60 17 3e ad 4e e9 bd
       0.17385235 -0.048934504 0.14782806 -0.11391959
000310 2f c9 16 3e e4 e6 56 bd ba 2b 16 3d 6f 42 1e be
       0.14725183 -0.05246629 0.036662795 -0.1545503
000320 6a 38 13 be 80 c5 b1 3d af 60 32 3d 76 06 36 be
       -0.14376989 0.08680248 0.043549236 -0.17775902
000330 93 dc 7b 3d fe 43 fe 3d 53 ac 38 3d f4 58 de 3d
       0.061489653 0.12415312 0.045086216 0.1085681
000340 4c a0 27 3e 05 9f 20 be 4d 45 57 3d bb dd e0 bd
       0.16369742 -0.15685661 0.052556325 -0.10979792
000350 00 92 10 be c4 76 1a be 4d a7 3c be 33 a1 24 3d
       -0.14118195 -0.15084368 -0.18423195 0.040192794
000360 41 29 2a 3e 73 f9 14 bd 3c 84 6b 3d 35 d2 3f 3d
       0.166173 -0.036370706 0.057499155 0.04683133
000370 79 73 94 3d 00 0b a2 3c cc 3e 31 3e 71 7b 14 3e
       0.07248587 0.019780636 0.17309111 0.14500214
000380 1d e8 11 bb 54 3a e1 3c 9e 0d c6 bd 2e 44 42 bd
       -0.0022263594 0.027493633 -0.09670566 -0.047428302
000390 ab 2d 8e bd 43 02 2e bc b5 59 22 3e 02 46 92 bd
       -0.06942304 -0.010620656 0.15854533 -0.07142259
0003a0 e4 2a 86 bd 85 65 35 bd c6 ff b0 bc b1 88 de 3d
       -0.065511495 -0.04428627 -0.021606337 0.108659156
0003b0 dd cd 4d be e0 9a 20 bd 97 5e 01 bd 60 a9 0f 3c
       -0.20098062 -0.0392102 -0.03158435 0.0087684095
0003c0 8c 10 0f be 5b 0c 12 be 1f b7 00 3e 5c ac ad bd
       -0.13971156 -0.14262526 0.12569855 -0.084801406
0003d0 6a d4 10 3e 58 c7 20 be df a9 16 bd d4 f6 ae 3b
       0.1414353 -0.15701044 -0.036783095 0.005339483
0003e0 0b 6e 5d 3d 96 8c 12 be 7e 4d 82 bd 10 5c 26 be
       0.054060023 -0.14311442 -0.06362437 -0.16246057
0003f0 2b 37 66 bd 8c 81 11 be 2f c7 94 bd 92 98 aa 3d
       -0.056204956 -0.14209574 -0.07264554 0.08329882

lstm1.bias_ih_l0 f4 [200]
000000 4c 5f 80 3e 53 40 2d 3e c9 ba 83 bd b3 c6 f4 3c
       0.25072706 0.16919069 -0.06432111 0.029879903
000010 55 50 9d 3d 62 66 af 3c 69 07 65 3c 37 58 83 bc
       0.07681338 0.021411125 0.0139788175 -0.016033275
000020 fe e9 6c bd 24 35 03 3e a9 0e 2e bc 92 e3 24 3e
       -0.05784034 0.1281324 -0.010623612 0.16102436
000030 e4 30 e0 bd 12 53 9f 3c 9b d9 20 be 5d 77 0c 3e
       -0.10946825 0.01944879 -0.1570801 0.13717408
000040 99 b7 77 bd e5 a0 53 ba 68 ce 3f bd f1 c4 1a 3d
       -0.060477827 -0.00080729864 -0.046827704 0.037785474
000050 d9 b0 0b 3d 1c fc d2 3d 96 fa 81 3d e3 71 d2 3c
       0.034104202 0.10301992 0.063466236 0.025689071
000060 53 1b 0f bd 92 39 11 3e 73 c0 ca bd 48 88 5f bc
       -0.034938168 0.14182118 -0.09899988 -0.013643332
000070 3c 74 55 3e 56 eb 69 3d c0 84 13 3e d7 db 7d bd
       0.20845121 0.0571092 0.14406109 -0.061977234
000080 38 ed 3e 3d 11 2e 3a 3c 51 93 3c 3b 98 59 02 3f
       0.04661295 0.011363522 0.002877433 0.5091796
000090 30 c0 e2 bd ec e1 0a be 78 2d 03 3e d3 d0 bd 3d
       -0.11071813 -0.13562745 0.12810314 0.09268346
0000a0 89 8d ed bd 8f a7 1c 3e 7b f3 48 3e 70 96 f5 bc
       -0.11599261 0.15298294 0.1962413 -0.02997896
0000b0 52 0b 02 3e 53 13 4f 3e 51 dd fb bd fc 47 dc 3d
       0.12699631 0.20222215 -0.12298072 0.107559174
0000c0 bb a2 04 3e 65 22 c2 3d 0d 6e ee 3d c1 88 dd 3d
       0.12952702 0.094792165 0.11642084 0.10817099
0000d0 9c d8 8d 3d 71 d7 bd 3c 2d 6c 62 bd 5e 0d d4 bd
       0.069260806 0.02317402 -0.055278946 -0.10354112
0000e0 bc e4 9e bd 97 1c b9 bc a1 d1 91 bd 8b bb 63 3d
       -0.07758471 -0.02259664 -0.07120062 0.055598777
0000f0 29 3e 15 3d 08 59 b0 bd 9f aa 11 be 6c d7 e8 3d
       0.036436234 -0.08610731 -0.14225243 0.113692135
000100 c2 e4 a6 bd a8 88 26 be 04 8f 69 bd 28 1a 03 3d
       -0.08149101 -0.16263068 -0.057021156 0.032007366
000110 cb b2 aa bd f6 71 14 3e 39 9e e6 3d 34 59 85 3d
       -0.08334883 0.14496598 0.11260647 0.06511155
000120 c7 46 34 bd 5d 35 51 3d 65 68 f8 bd c5 28 39 3d
       -0.04401281 0.05107628 -0.12129287 0.045204896
000130 cc 5a e0 bc 91 56 0c 3d 3f 23 35 bd 99 ee 32 bd
       -0.027387045 0.034262244 -0.044223066 -0.043684576
000140 4a fb 4f bd 51 a7 aa bd 97 7d 05 be 58 94 00 be
       -0.050776757 -0.08332694 -0.1303619 -0.12556589
000150 29 39 a9 3d 62 e4 85 be 7e 86 e0 3d f5 be eb bb
       0.082628556 -0.26150805 0.10963152 -0.0071943947
000160 55 34 bb 3d 23 d7 7e 3d ed 2d 7e 3d c2 14 ee bd
       0.09140841 0.06221689 0.062055517 -0.11625053
000170 b3 83 97 3c 56 c0 e3 bc 0f 58 03 bd dc 23 f7 3d
       0.018495416 -0.027801674 -0.0320664 0.120673865
000180 ee 6b ee bd b3 28 c6 3d ee d4 a4 bd 53 d9 9e 3d
       -0.1164168 0.096757315 -0.080484256 0.07756295
000190 a6 0e a2 bd 8f 4b e9 bd c1 a1 29 bd 46 93 73 bc
       -0.0791295 -0.11391365 -0.041414026 -0.014866656
0001a0 9a da 82 bd 10 81 99 bd 54 d4 17 be b7 58 08 be
       -0.06389351 -0.0749532 -0.1482709 -0.13315092
0001b0 7e 39 ae 3d ce b6 19 3d 10 7a 97 bd 55 c5 32 bc
       0.085070595 0.03752785 -0.073963284 -0.010911305
0001c0 dd c2 da bd 6b b4 d0 bd 2c 43 77 bd 48 97 af bc
       -0.106816985 -0.10190662 -0.060366794 -0.021434441
0001d0 31 49 28 bc 42 85 0b bd ff 19 5f 3c b4 03 16 be
       -0.010271356 -0.03406263 0.013617038 -0.1464985
0001e0 4c c0 03 3e e0 36 c4 3d a3 30 af bc 03 f5 f7 bd
       0.12866324 0.09580779 -0.021385496 -0.12107279
0001f0 d2 a9 02 be 4b ef cc bc 3f 15 a0 bd f0 bf 51 3c
       -0.12760094 -0.025016448 -0.07816552 0.012802109
000200 2f 92 d7 bd 0e b5 02 be 95 28 c4 bd ba c2 10 3d
       -0.10525929 -0.1276438 -0.09578053 0.035341956
000210 0b fa 42 bd 50 55 c6 3d f6 c4 16 3d 00 03 ac 3c
       -0.04760174 0.09684241 0.03680893 0.020997524
000220 2d 42 95 bd f7 7d 23 3d 96 ca a1 3d 06 c4 06 3c
       -0.07288013 0.03991505 0.07899968 0.008225447
000230 33 07 10 be 4a 70 06 3d c8 66 ba 3c 23 a5 bd bc
       -0.14065246 0.03282193 0.022754088 -0.023150032
000240 19 01 78 3d 38 ce 46 3d dd bf cc 3d c2 ad 2b 3c
       0.06054792 0.04853651 0.099975325 0.010478439
000250 6e 5c b8 3c c4 9e 9f bd cc 53 9a 3d ff 3e 9c 3d
       0.022505011 -0.07793954 0.07535514 0.07629203
000260 ab 65 06 3e 72 40 25 3e d3 7e 45 3e c4 2f 9b 3c
       0.13124721 0.16137865 0.19286661 0.018943675
000270 83 db b4 bd 7f 8d 10 be 04 c6 a5 bc 59 03 a0 3b
       -0.08830931 -0.14116476 -0.020236023 0.0048832116
000280 d6 3d ff bd fc 46 d8 3d 90 e8 11 bc 72 1b 4e bd
       -0.12462966 0.10560414 -0.008905545 -0.050319143
000290 3b 7f d8 3c ec 01 7e bd dc 93 98 3d 64 6a 0d 3e
       0.026427856 -0.06201355 0.07450077 0.13810116
0002a0 38 cf 19 bd 33 97 b0 bd 1d 6d 3d 3e 10 b8 35 3d
       -0.037551135 -0.08622589 0.18498655 0.04436499
0002b0 8a cf ef 3d d9 47 ff 3d d3 43 c6 3d 02 aa 0c 3e
       0.11709507 0.12464876 0.09680905 0.13736728
0002c0 3e 50 ec 3d 2d 6d ac 3d 0a 77 34 3e d7 42 73 3c
       0.115387425 0.08419261 0.17623535 0.014847479
0002d0 89 37 23 bd 11 56 0f be 52 8d 1c 3c 6c cd c7 3c
       -0.039847884 -0.13997675 0.009555178 0.024389945
0002e0 8e b7 2a bd e7 76 1a 3f 85 ec 72 3d 9c 51 c2 3d
       -0.041678958 0.6033768 0.059307594 0.09488222
0002f0 ae 60 ee bd 51 07 5c 3b 47 80 38 bd 18 54 23 3d
       -0.11639534 0.0033573697 -0.04504421 0.03987512
000300 e2 34 df 3d 32 79 cb 3c 68 35 d6 bd a8 bd 99 bb
       0.108987585 0.024838064 -0.10459405 -0.0046917982
000310 42 8f 47 bd 16 0a 5c 3e 9a b0 f9 3d 30 fc 42 3b
       -0.048720606 0.21488222 0.12191887 0.0029752366

lstm1.bias_hh_l0 f4 [200]
000000 9a a2 19 3b 80 1d ad bd ed 17 41 bc f6 c1 ac bd
       0.0023442865 -0.08452892 -0.0117854895 -0.084354326
000010 1c 88 07 3e 94 da 38 3d 49 7a 07 be b6 99 81 bd
       0.13235515 0.045130327 -0.13230242 -0.06328146
000020 a9 14 92 3d a8 9a 0c 3d 10 9a e3 3d 28 b5 dd 3c
       0.07132847 0.03432718 0.111133695 0.027063921
000030 88 22 8e 3d 50 37 08 3e 25 58 a7 3d 5d 2f 50 3c
       0.0694018 0.1330235 0.08171109 0.012706605
000040 c5 5d b4 3d 6d a4 20 bc 7a 93 48 3d 68 7b 45 bc
       0.088069476 -0.009804827 0.04896877 -0.012053348
000050 0f 58 3e bc c0 f0 00 be 8a fb 30 3d 55 58 fd 3b
       -0.0116176745 -0.12591839 0.043208636 0.0077314773
000060 cd c4 67 3d cf 6f 50 3d 4b 86 ac bd c6 22 d6 3d
       0.05658417 0.05088788 -0.08424052 0.10455851
000070 a3 c2 a5 3e 63 39 9b bd 34 f0 8e 3d fe 67 0f 3e
       0.3237506 -0.07579305 0.06979409 0.14004514
000080 9a 0f 19 3d 9d c2 63 3c 50 50 30 3d 3f 83 08 3f
       0.037368394 0.01390138 0.043045342 0.53325266
000090 64 e0 c7 3d 6e 7e 0a be 64 c1 fd 3d f5 df 5b 3c
       0.09759596 -0.13524792 0.12390402 0.013420095
0000a0 5d 98 95 bd a1 34 95 3d b7 6d 9d 3d 89 b0 1d 3e
       -0.073044516 0.07285429 0.07686942 0.15399374
0000b0 d6 ec f0 bd 93 f2 75 3e 13 8a d2 bd 16 6a c3 3d
       -0.11763923 0.24018316 -0.10280242 0.09541719
0000c0 2e 4c f3 bd 96 4b 0e 3e aa ef 20 3e f3 32 37 bd
       -0.118797645 0.13896021 0.15716425 -0.044726323
0000d0 7c e3 51 bd 35 20 cf bd 29 ed c4 3d 49 50 04 be
       -0.051242337 -0.10113565 0.09615547 -0.12921251
0000e0 fe 84 09 3c 9e ad e0 bb 5a 1f ad bc da cc 15 bd
       0.008393524 -0.0068566343 -0.021133114 -0.036572315
0000f0 32 2d 04 be 60 5e 07 be ab 1b c5 3d 5a ab 1a be
       -0.12907866 -0.13219595 0.09624418 -0.15104428
000100 40 6f d1 bd 36 bd 6e be 2f ef 7c 3d 2d 75 d5 3d
       -0.102262974 -0.23314366 0.06175154 0.1042274
000110 d5 fa ce 3d 72 2e e3 3d e5 b2 06 be 58 2b d1 3d
       0.10106436 0.11092843 -0.1315418 0.10213345
000120 8e 02 6b 3d 24 52 94 bc 1e 08 0b be 7e 36 dc bd
       0.057375483 -0.018105574 -0.13577315 -0.10752581
000130 c0 46 73 bd 2e 03 ed 3d f0 18 ef 3d f6 4f 1b bc
       -0.059393644 0.11572872 0.11674678 -0.009479513
000140 08 b8 1f be f8 ca 3c 3d c7 1f 7f bd 5b 16 d2 3d
       -0.15597546 0.046092004 -0.062286165 0.1025817
000150 da 8c 7d 3d 85 de c9 bc 74 c2 08 bd 65 4f 04 be
       0.061901905 -0.024642238 -0.03338857 -0.12920912
000160 95 a4 a4 3d 27 94 22 3d 98 91 9f bd 4d fd 0d be
       0.08039204 0.03969207 -0.07791442 -0.13866158
000170 c0 9a 71 bd 12 a9 ce bc f2 f2 0b bd 44 af b7 3d
       -0.05898547 -0.025227103 -0.034167238 0.08968976
000180 6e 78 d1 3d 31 a6 a8 bd ea cf d0 bd b7 b7 0a bd
       0.10228048 -0.082348235 -0.101959065 -0.03386661
000190 90 cf b2 3d 81 0e 06 3e 70 43 f5 bc e2 a7 c1 bc
       0.08730996 0.1309147 -0.029939383 -0.023639623
0001a0 a1 8e 76 3d 02 50 48 3d a0 49 0f be a7 30 0b 3e
       0.060194615 0.048904426 -0.1399293 0.13592778
0001b0 a0 da e7 3d 17 45 87 bc 3a bd 52 3c b6 dc ef 3c
       0.11320996 -0.016512437 0.012862498 0.029280048
0001c0 fb 51 94 3d 3e cb 11 3e 41 c6 83 bd bd ee 80 3d
       0.07242199 0.14237687 -0.06434298 0.06295536
0001d0 6c 2a 23 3d 39 a1 99 3c 62 d2 94 3c 8f 61 e8 3d
       0.03983538 0.018753635 0.018166725 0.11346733
0001e0 f2 85 1c 3d bc 8c a7 bd 73 df 9f 3c 5b 7f df 3d
       0.038213678 -0.0818114 0.019515729 0.10912963
0001f0 74 89 d5 3d 8d ed 34 bc 85 ca 96 bd 80 49 78 3c
       0.10426608 -0.011042965 -0.07362846 0.0151542425
000200 d4 9d 32 3e 1a eb 11 3e 02 ad 2f 3d c1 17 99 bd
       0.17443019 0.1424984 0.042889602 -0.07475234
000210 c1 93 ea bd 38 31 c6 bd 0f 05 f0 3c 93 de a2 bd
       -0.11453963 -0.096773565 0.029299287 -0.07952609
000220 f1 af 80 bd 3b 43 43 bd e1 74 48 bd 1b d7 f7 3b
       -0.06283558 -0.047671538 -0.04893959 0.0075634844
000230 c0 9b f0 bd 56 44 c0 3d 39 46 f1 bd cd 75 c6 3c
       -0.11748457 0.09388034 -0.11780972 0.024226094
000240 47 a4 aa bc a2 70 e1 3d de d0 bc bc 69 d6 2c 3d
       -0.020830287 0.11007811 -0.023048814 0.042196665
000250 69 9b da 3d be 8a cf 3d 54 68 7c 3e b7 e3 9a 3d
       0.106741734 0.10133885 0.24649173 0.075629644
000260 1c 78 ea 3d 06 cc 74 bd 37 5f 46 3e 28 34 2c 3e
       0.1144869 -0.059764884 0.19372259 0.16816771
000270 a2 04 91 bc b4 c8 d2 3d 7f 24 be bd e1 33 02 3d
       -0.017702404 0.10292187 -0.09284305 0.031787757
000280 c6 bc 4e 3d e3 6b 07 bd 34 3c 72 3c d0 7b bf 3c
       0.050472997 -0.033061873 0.014784861 0.023374468
000290 ef 9c 81 3d f5 45 0f 3e 0e 67 dd bc 9b a9 1b bd
       0.06328761 0.1399153 -0.02702668 -0.038003545
0002a0 e6 9b 78 bd e6 12 e9 3c 99 6e 83 3d b4 32 10 3e
       -0.06069555 0.028451394 0.06417579 0.14081842
0002b0 af 5a ac bd e7 f6 42 3d 6f 01 25 bc 3c fe f7 3d
       -0.08415734 0.047598746 -0.010071143 0.12109038
0002c0 89 72 a8 3d 95 87 18 be 10 f5 0c 3e a8 74 af 3d
       0.08224971 -0.1489547 0.13765359 0.08567172
0002d0 f5 70 8c 3c 09 41 e9 bd 6d 6c d4 3d 4f 6a fc 3d
       0.017143706 -0.113893576 0.10372243 0.12324964
0002e0 2f 6b 09 3e 30 b9 e1 3e ae e3 02 3c 50 8e 45 bd
       0.13419794 0.440866 0.007988853 -0.048231423
0002f0 ec 73 9c 3d b7 fa 8c 39 b1 7b c7 3d d4 fc b6 3d
       0.07639298 0.00026889678 0.09740389 0.08934942
000300 f1 cb 0f 3e 75 60 88 bd 2e 04 c7 bd 87 20 9a 3d
       0.14042641 -0.06659023 -0.09717594 0.07525735
000310 f0 98 c5 bd df e8 82 3d 72 db 04 bd 7c 68 63 3d
       -0.09648311 0.06392073 -0.03243584 0.055519566

lstm2.weight_ih_l0 f4 [200, 50]
000000 94 47 78 3e cc 44 59 be 74 48 a5 3c 5c a8 81 bd
       0.24246055 -0.2121765 0.02017615 -0.0633094
000010 6b 7c dc 3d bf e1 42 3d 58 ed 76 3d fb 57 ee 3d
       0.10765918 0.04757857 0.060284942 0.11637875
000020 00 55 13 bd 68 52 08 bd 66 a7 3b be 18 87 a2 3d
       -0.035969734 -0.033281714 -0.18325576 0.07935923
000030 68 18 5a bd e3 b7 32 bd 79 c9 0e be 1c f9 09 3e
       -0.053245932 -0.0436324 -0.13944043 0.13473934
000040 1d b3 55 bc 1d 9d 04 be 76 a9 6f 3c ac 1c 05 bd
       -0.013043192 -0.12950559 0.014627805 -0.032498047
000050 a6 e9 32 bd be 33 8e bd 68 0e 49 3e ed 41 9e bb
       -0.043679856 -0.06943463 0.19634402 -0.0048296363
000060 7c 1c 75 3d e0 30 66 3c 2e aa 63 bd 2f fe 46 bd
       0.059841618 0.014049739 -0.055582218 -0.048582252
000070 48 dc d3 bd 4b 47 ca 3c 38 b8 1b bd 3a 40 22 3e
       -0.1034475 0.024692198 -0.03801748 0.15844813
000080 20 de d0 3c 07 24 d7 3c f5 f8 c8 bc 7c 8b 16 3d
       0.025496542 0.026262296 -0.024532774 0.036754116
000090 0a 7f 35 be c9 27 2f be 58 fc 28 3d 14 ed e8 3c
       -0.17724243 -0.1710502 0.04125628 0.02843336
0000a0 08 e2 cb 3c 40 da ed bd 57 c1 3e 3e 01 86 3c 3d
       0.024888054 -0.116138935 0.18628441 0.046026234
0000b0 9a f0 d6 3d b8 70 2d 3d da 99 81 bd ff fe 63 bd
       0.1049511 0.042343825 -0.06328173 -0.055663105
0000c0 01 b7 fb bc a0 92 48 be ab f4 01 3c d3 d0 ab 3d
       -0.030726912 -0.19587183 0.007931869 0.083894394
0000d0 6d 1f 1c bd 45 65 9f bc 2b b0 1c 3e 71 1a c0 bc
       -0.038115907 -0.019457469 0.15301578 -0.023450108
0000e0 09 53 6f bd f1 06 a5 3c 94 bc 17 bd 3d c4 42 bd
       -0.058428798 0.020144911 -0.037045076 -0.04755043
0000f0 30 19 a3 3d c6 dc 51 3d 7a 7e 20 bd 97 b1 04 be
       0.079637885 0.051235937 -0.039183117 -0.1295837
000100 f4 c0 a5 3d 56 24 eb 3d 67 18 00 bc 95 74 68 3d
       0.080934435 0.1148154 -0.007818318 0.056751806
000110 bd ec b1 b9 c7 cd 25 3d ae 81 08 3e b3 ad a5 bd
       -0.00033936455 0.040479448 0.13330719 -0.08089771
000120 be 1b 9e 3d cd 06 f7 bd fd 49 12 3d 12 3c 59 3a
       0.07720135 -0.12061844 0.035715092 0.0008286844
000130 07 f2 f3 3d 2d 06 06 bd 9c 9e 15 be 24 54 d3 bd
       0.119113974 -0.032720733 -0.14611286 -0.10318783
000140 22 35 b8 bd 4f 01 b6 3d bc b8 12 be 6d 16 ce bd
       -0.08994509 0.08886968 -0.14328283 -0.10062871
000150 09 1b 87 bc b1 5c 17 3d cd cb 7f 3d 28 e0 ab bb
       -0.016492384 0.03695363 0.06245022 -0.0052452274
000160 bd 9e b2 bd a3 5d 0a be 50 ac 66 bd 26 cc d6 bd
       -0.08721683 -0.13512282 -0.056316674 -0.10488157
000170 e1 c8 a3 bd d6 91 d6 bd 78 46 fe bd 59 30 93 bd
       -0.07997299 -0.10477035 -0.124157846 -0.07186956
000180 d5 a9 1e 3e 5b 0c db bd 07 c5 ce 3d 25 8b b0 3d
       0.15494473 -0.10695716 0.10096174 0.0862029
000190 8a 67 4f bd b6 67 67 be 0d 2e 0d be ea 6c 0b be
       -0.050635852 -0.22598156 -0.13787098 -0.13615766
0001a0 74 31 9b 3e 8c 0a 26 3e f8 6f 60 be 0d 57 03 3e
       0.30311167 0.16214961 -0.21917713 0.12826176
0001b0 91 60 0b 3c 9c 66 0c be 79 f9 65 be 13 18 01 bd
       0.00850691 -0.13711017 -0.22458448 -0.0315171
0001c0 1b d3 5a be 60 ba 3f be 26 c4 42 be dd a2 12 3e
       -0.21369593 -0.1872344 -0.19020137 0.1431994
0001d0 53 30 33 3e 11 bd 4a be 43 50 10 be bf 9c 76 3d
       0.17498903 -0.19798686 -0.14093117 0.06020808
0001e0 0b 9f 01 3d 11 e3 f5 bc 28 1a 98 3d 6f 41 0c bc
       0.031645816 -0.0300155 0.07426864 -0.008560522
0001f0 a3 be 96 be a3 39 d9 bd d0 28 29 be 31 9b 63 bd
       -0.2944232 -0.106066965 -0.16519475 -0.055567924
000200 d7 49 61 bd 0a 2b 55 be 73 80 39 3e 55 b1 39 3e
       -0.05500206 -0.208172 0.18115406 0.18134053
000210 03 ad fb bd 74 93 3a 3e 3d 3f ea 3d 87 5a 45 3e
       -0.12288859 0.18220311 0.11437843 0.19272815
000220 3a d0 9e bd 32 08 9d 3b 3d b7 27 3d 26 ff ff bd
       -0.0775456 0.0047922367 0.040946234 -0.124998376
000230 b7 a7 48 be 16 5a 44 3d b8 88 3f 3e ba fb 91 be
       -0.19595228 0.047937475 0.18704498 -0.28512365
000240 e9 69 63 3e 8a ff 9a bd 70 c2 0b 3e cf a3 e8 bd
       0.2220837 -0.075682715 0.13648391 -0.11359369
000250 19 51 5e bc 68 77 9d bd 7e 17 91 3e b3 d5 7b be
       -0.01356914 -0.076887906 0.28338236 -0.24593239
000260 8e 5a b5 bd d5 aa 9e bd 0c f5 59 3d 64 3a 10 3e
       -0.088551626 -0.077474274 0.05321221 0.14084774
000270 5d 83 82 bd e8 5b a1 3d 11 4d 33 3e 51 eb 11 bd
       -0.06372712 0.07878858 0.17509867 -0.035624806
000280 8c 2d 78 3d 72 09 9b bd 59 f4 46 3d bb f8 8b bd
       0.060590312 -0.07570161 0.04857287 -0.06834551
000290 94 8b 34 bd 71 e0 8d 3d 52 09 f7 3d c7 7a ee bd
       -0.044078425 0.069275744 0.120623246 -0.11644512
0002a0 05 b3 2d bd 3d 81 19 3e 79 f6 07 be c7 b3 de bc
       -0.042407054 0.14990707 -0.13277616 -0.027185334
0002b0 aa d1 b6 3d a9 71 59 3d c3 d0 58 bc ec af e0 bd
       0.08926709 0.05308691 -0.013233366 -0.109710544
0002c0 13 a0 5d 3d e3 0d a2 bd 19 36 15 bd 9e 71 05 be
       0.054107737 -0.07912805 -0.036428545 -0.13031623
0002d0 ab 6d 4a 3e f2 ec 57 bd 5a 10 a3 3d ed 25 fc bc
       0.19768398 -0.052716203 0.07962103 -0.030779803
0002e0 69 48 b2 bd 96 12 4b 3e 9c b3 c5 bc 5b fc 8c 3d
       -0.087052174 0.19831309 -0.024133496 0.068840705
0002f0 e8 3d 5c 3d 14 97 8b bd e5 d4 6d bd 9e 74 af bd
       0.053769976 -0.06815925 -0.05806436 -0.08567165
000300 f3 4a 82 3d ee 3d eb 3c 2e 01 dc 3d 9e 97 63 bd
       0.06361952 0.028716054 0.107424125 -0.055564515
000310 b4 0c 44 3e dc 0a 7a bc ef 92 2b bb d0 8d 22 be
       0.19145471 -0.015261378 -0.0026180109 -0.1587441
000320 45 f5 01 be b1 bd c5 bd 27 8b 2f 3e 43 32 48 3d
       -0.12691219 -0.096553214 0.17142926 0.04887606
000330 a9 d7 17 be a5 28 d6 bd 3d fc bf 3d a5 dd 2b 3d
       -0.14828362 -0.10456971 0.093742825 0.041959424
000340 7a 5c e2 bc 59 ae 18 3d 8a ac 95 3d 78 83 68 3d
       -0.027631987 0.037275646 0.073083 0.056766003
000350 48 55 ea bd 5a 84 3b 3e 8c 7b 9c bd a0 c5 02 3e
       -0.11442047 0.18312207 -0.07640752 0.127707
000360 a9 9a 56 3d 02 ae e5 3d e8 9d 70 bd cb 67 62 bd
       0.05239359 0.1121483 -0.05874434 -0.055274766
000370 a6 f2 00 3e da 01 16 3d dd 12 01 be 4e b7 c1 3d
       0.12592563 0.03662286 -0.12604852 0.09458791
000380 18 33 ef bd f3 f4 15 3e 36 c7 fc bc b0 7d 96 bd
       -0.11679667 0.14644222 -0.03085671 -0.07348192
000390 7c 17 20 3e 10 fa 35 3d 0a 8e 5a bd 40 ae 0b be
       0.15633959 0.04442793 -0.053358115 -0.1364069
0003a0 c9 9e 2f 3d d7 3e e3 bd fc 49 3c 3e 9b 2c 66 bd
       0.04287604 -0.1109597 0.18387598 -0.056194883
0003b0 3d 8b b4 bd ca b8 aa bc 1a 7c a4 3d 72 4b 07 3c
       -0.0881562 -0.020840067 0.08031483 0.008257734
0003c0 44 97 3a be 4f 0d 82 3d 37 e7 93 bd 6c 8c b0 bd
       -0.18221766 0.06350195 -0.07221835 -0.08620533
0003d0 dd e6 28 bd 80 d7 17 3c 74 de d4 3d ee 40 a9 3b
       -0.041235793 0.009267688 0.10393992 0.005165211
0003e0 65 bb 1a 3c 92 31 8b 3d ec f5 ea bc 26 07 d7 bd
       0.009444092 0.06796564 -0.028681718 -0.1049941
0003f0 45 2a 62 3d dd 9f 7e bd 0a 22 34 bd 80 23 96 3d
       0.055216093 -0.062164176 -0.043977775 0.0733099

lstm2.weight_hh_l0 f4 [200, 50]
000000 bd 8a ae bd 37 5c 8d bc 7b 2b ec 3d 8d d1 af bd
       -0.08522556 -0.017255886 0.11531731 -0.085848905
000010 04 a4 df 3c 71 32 25 bc 44 52 79 3d 8f 2d 11 3e
       0.027299888 -0.010082827 0.06086947 0.14177535
000020 bd 94 3d 3c 4f 52 6a bc 45 95 b4 bd 03 46 09 3d
       0.0115711065 -0.01430185 -0.088175334 0.033514034
000030 cd 9b 0d 3e ed 1b 2f 3c dc d0 e4 3c 6d 36 e6 3d
       0.13828965 0.01068781 0.027931623 0.1124085
000040 80 96 ca 3d ff 6f 2a 3d 95 0c 90 3d 52 1f d5 3d
       0.09891987 0.041610714 0.0703365 0.104063645
000050 e3 16 e7 3d 4b cb 2d bd a1 18 36 3d 59 2f 58 bd
       0.11283662 -0.042430203 0.04445708 -0.05277953
000060 88 a5 10 bd f9 5c b5 bd e3 aa 18 3d 36 82 d9 bd
       -0.035314113 -0.08855624 0.037272345 -0.10620539
000070 61 ba 0a bd e0 9c 8e 3d bf 6e 6c 3d d7 0f b3 3d
       -0.03386915 0.06963515 0.057722803 0.087432556
000080 f9 58 9d 3d bc 7a 05 3e c1 73 6f bd 5d 93 ef 3d
       0.07682986 0.130351 -0.05846 0.11698029
000090 43 1a f6 3c ea a2 bc bd 55 1c c8 3c b0 71 cf bd
       0.03004182 -0.09210761 0.024427572 -0.10129106
0000a0 fb 99 1e 3e 3d e8 df 3d 56 f7 03 be 9f ca c8 bd
       0.15488426 0.10932968 -0.1288732 -0.09804272
0000b0 47 28 ec bd cc aa 91 3d 1b 8c f0 bd e5 8d 02 be
       -0.1153112 0.07112655 -0.11745473 -0.12749441
0000c0 71 4e ef bd 77 c4 3c 3c 08 35 aa bc 91 26 b0 bd
       -0.116848834 0.01152145 -0.02077724 -0.08601106
0000d0 7b 90 dc 3c e9 6e 03 3e 12 29 d4 bd 67 2d fd 3d
       0.026924362 0.12835278 -0.10359396 0.123621754
0000e0 34 a2 0c be c1 57 61 be 5a 58 e9 bc 0f 7e 52 bd
       -0.1373375 -0.22006132 -0.028484512 -0.05138975
0000f0 51 18 0e bc 4e 12 11 3e ad fc 9e 3d d8 50 07 be
       -0.00867279 0.14167139 0.07763038 -0.13214433
000100 b9 c8 a6 bd 06 0b e3 bd e4 36 91 3c 40 4b d7 bd
       -0.081437536 -0.11086087 0.01772637 -0.105124
000110 3a a5 ca 3d 67 19 17 be a8 0e 12 3e 81 2f 42 3e
       0.09894796 -0.14755784 0.14263403 0.18963434
000120 51 e3 a5 bd 1e 60 be 3d 32 25 18 3e aa e0 cb 3d
       -0.08099998 0.09295677 0.14857939 0.09954961
000130 5c ba 9e 3c 38 b0 37 bd 1a e0 12 3e 7d 1d 17 be
       0.019375972 -0.04484579 0.143433 -0.14757343
000140 ac 7b d5 3d ee 25 35 bb 06 d2 76 bd 4f 86 7f 3d
       0.10423979 -0.0027641016 -0.060258888 0.062383946
000150 40 cd ac bc da 9b 1a be b5 68 21 bd a2 e8 d7 3d
       -0.021093965 -0.15098515 -0.039406497 0.10542418
000160 4a 0b 83 3b 2d 4d 0b 3d 6c f3 cb 3c 21 d6 5d 3d
       0.0039991485 0.034009147 0.024896346 0.054159287
000170 7d 58 3d bd 48 c1 f2 bc 2c f1 dc 3c c6 12 0e 3e
       -0.046226967 -0.02963318 0.026970468 0.13874349
000180 51 52 dd 3d d0 0e ef 3d 62 64 6b bd 9e 5d f1 bc
       0.10806716 0.11672747 -0.05746878 -0.029463585
000190 4c 64 24 3d 79 0b 7f bc 8d fc e0 3d d8 21 96 3d
       0.040134713 -0.0155667 0.1098567 0.07330674
0001a0 16 bd 20 bd d3 80 2d 3e 03 c6 56 3d 15 ed 96 3d
       -0.039242826 0.16943674 0.052434932 0.073694386
0001b0 90 fb 9f bd 8a 7a b3 be f2 83 6e bd 24 fe 22 3e
       -0.078116536 -0.35054427 -0.0582313 0.1591726
0001c0 53 52 de 3d 62 17 eb bc 69 cc 81 3d 26 94 03 be
       0.10855546 -0.028697673 0.06337816 -0.12849483
0001d0 1c 1d 00 3e a9 ba 4e bd c6 17 8d bd 37 88 17 bd
       0.12511104 -0.05047098 -0.068893 -0.03699514
0001e0 e9 18 00 3d 83 51 01 bd 02 75 fd bd dc e6 72 bc
       0.031273756 -0.031571876 -0.12375833 -0.014825549
0001f0 ea b2 26 3e 24 d5 b4 3d 24 65 d8 bd 68 79 ae 3e
       0.16279188 0.08829716 -0.10566166 0.34077
000200 44 fe 8d 3d fb f0 93 bd a2 23 60 bd 8b 02 dc 3d
       0.06933263 -0.07223698 -0.054721482 0.107426725
000210 fd 2a 3e bd c5 6b 1a bd c7 85 1c 3e 81 45 1b be
       -0.046427716 -0.037700433 0.15285407 -0.15163232
000220 78 52 84 bc e1 e4 22 3d 91 46 3c bd 43 89 01 be
       -0.016152605 0.039769057 -0.045965735 -0.12650017
000230 03 18 f1 3c 4d 37 4e bd 4d 74 0f 3e 1e 8e d9 bd
       0.029430395 -0.050345708 0.14009209 -0.1062281
000240 f4 53 be bc e2 a8 4f 3e 5c 40 c2 3d e2 f6 f1 3d
       -0.023233391 0.20279267 0.09484932 0.11814667
000250 b7 20 46 bc 19 2b 38 be a9 c1 cb bd de f3 48 3d
       -0.012092761 -0.1798519 -0.09949047 0.049060695
000260 95 a3 94 3c 4c 04 13 3c b7 22 63 3d 63 d0 8d bd
       0.018144408 0.008973192 0.05545303 -0.06924512
000270 36 f9 c5 3d df f0 13 bb 20 86 bf bd f4 70 b4 3c
       0.09666674 -0.002257399 -0.09351754 0.022026516
000280 71 f6 2a bc 0b 90 19 3c 9e 49 c3 3d fc 8f 19 be
       -0.010434733 0.009372721 0.09535526 -0.14996332
000290 6e e4 1e be ad 3c 9e bd 5d 48 46 3d 76 a8 c0 bd
       -0.15516827 -0.07726417 0.048408855 -0.094071314
0002a0 de ea b2 bd f4 2d 20 bb cf ab b8 bd a5 34 cb bd
       -0.087362036 -0.0024441453 -0.09017145 -0.099221505
0002b0 c3 5c b2 3c 50 48 27 3b cd 67 84 3d 27 e4 f5 3d
       0.021772748 0.002552528 0.06465111 0.12006407
0002c0 14 98 24 ba 5a 69 32 bc 2a cd 35 bd 76 b9 a5 3c
       -0.0006278765 -0.010889376 -0.044385113 0.020230036
0002d0 e9 3a a0 bd 6a 81 40 3d 05 df c0 3d e8 6f bc 3c
       -0.07823736 0.04699842 0.094175376 0.02300258
0002e0 e2 9d c5 3d 11 63 17 be ab e2 09 bd f1 8b 78 3d
       0.096492544 -0.14783885 -0.033663433 0.060680334
0002f0 2e 68 10 bd 96 dd e1 3c 4a 99 74 bc a6 df 64 bc
       -0.035255603 0.02757148 -0.014929125 -0.013969338
000300 91 9f 06 bd aa bb 87 bd b3 bd e5 bc 1c 00 a9 bd
       -0.032867018 -0.06627591 -0.028044557 -0.08251974
000310 eb 2b eb 3d ca 48 cf bc ea 44 88 bb 91 7e 8d bc
       0.11482986 -0.025303263 -0.004158606 -0.017272266
000320 38 53 bc 3c 26 02 91 3c a7 dd 05 3d e2 39 bb 3d
       0.0229889 0.01770122 0.032682087 0.091419
000330 85 a0 14 3d a9 e0 15 3e dc e7 a5 bc 2b ac a0 3a
       0.036285896 0.14636482 -0.02025216 0.0012258341
000340 19 ce ca 3a 61 1b 6a be 0b 04 32 3e b9 21 05 3d
       0.0015472799 -0.22862007 0.17384355 0.032502864
000350 9b 57 b4 3d 75 ce a4 bd ed 03 61 3d 1c 6e d3 3a
       0.08805772 -0.08047191 0.054935385 0.0016130838
000360 2d be dc 3d 4d 69 32 bd ad 3b 59 bc 4a 79 2d be
       0.10778461 -0.043557454 -0.013258857 -0.169408
000370 d1 0e a2 3d 8b 4f 4d 3e b5 3d 2b be 3a 5c c4 bc
       0.07912982 0.20049874 -0.16722758 -0.023969758
000380 1c a7 33 3d 40 88 fe 3d 10 e5 e8 bc 54 56 67 3e
       0.04386054 0.124283314 -0.028429538 0.22591525
000390 e5 5a dd 3d 0a 79 d2 bc 3d c0 19 3e fe f8 07 3e
       0.108083524 -0.025692482 0.1501474 0.13278577
0003a0 d0 b0 52 bd 5a 54 86 bd 59 5a 3f 3e e3 9d 0b be
       -0.051438153 -0.065590575 0.18686809 -0.13634448
0003b0 dc 68 38 3e b5 26 dc bc 12 6b c4 bd 24 cc 03 bd
       0.1800875 -0.026873926 -0.095907345 -0.032177106
0003c0 a2 16 30 3e 00 79 96 bb 74 f5 47 bc a4 07 62 bd
       0.17196134 -0.004592061 -0.012204517 -0.055183068
0003d0 06 44 3b be 0f 14 36 3a 07 c2 9c 3c ed 5f 26 bc
       -0.18287668 0.0006945738 0.019135488 -0.010154706
0003e0 bc a9 42 be da bb c6 bd 71 6d 02 3e 27 e3 15 bd
       -0.19010061 -0.097037986 0.12737061 -0.036593582
0003f0 88 7e f1 bd f6 40 f7 3d fb 3a 3b bc f2 80 b9 bd
       -0.11791712 0.12072937 -0.011427636 -0.090577975

lstm2.bias_ih_l0 f4 [200]
000000 f5 2e 0c 3e 33 57 14 3e 72 9f 84 3c d5 d2 4a 3d
       0.13689788 0.14486389 0.01618931 0.04951747
000010 28 46 c5 3d c9 de 12 3e d8 78 76 bd 48 6e d7 3e
       0.09632522 0.14342798 -0.06017384 0.42076325
000020 48 81 da 3c 75 66 84 3d 78 ed 05 3e 44 82 bd bd
       0.026672974 0.06464855 0.13078868 -0.09253362
000030 9e cd f0 bd 34 11 3a 3d 60 ec 1b 3e ed 61 09 be
       -0.11757968 0.045426562 0.15226889 -0.13416262
000040 8f fe 9e bc da 59 1e bd 12 0f d9 bc 6d 17 fb bc
       -0.019408492 -0.038659908 -0.026496444 -0.030650819
000050 4d b7 3e bd ac 91 be 3e bc 8c 17 bc 00 89 70 bd
       -0.046561528 0.37220514 -0.009249862 -0.058724403
000060 d0 da 06 3e cb c5 e5 3c 70 5d c9 3d e1 4c 64 bc
       0.13169408 0.028048417 0.09832275 -0.013934345
000070 9e 3d b5 bd 06 58 7a 3b de 6e 4b 3b bb 44 dd bd
       -0.08849643 0.0038199439 0.0031041424 -0.10804125
000080 93 8f 8c 3d c0 18 59 bd 0b c9 11 bc eb 7e f5 3b
       0.06863322 -0.05300212 -0.00889803 0.0074919364
000090 03 e2 41 bd 49 63 01 be c5 da a5 3d 57 2f 9e 3e
       -0.047334682 -0.1263553 0.080983676 0.30895492
0000a0 3a fe 25 3d f4 7d 0d bd a9 14 35 3d 5a 73 96 3d
       0.040525652 -0.034543946 0.044209156 0.0734622
0000b0 59 19 33 bc 72 06 ba bd ec 01 d0 3d bf 16 a9 3e
       -0.010931336 -0.090832606 0.101566166 0.33025166
0000c0 24 c9 37 3e 37 d6 5a 3e 69 11 62 3d 86 96 3d 3d
       0.17947823 0.21370779 0.055192385 0.04628613
0000d0 77 17 d9 bc b6 ae 9d bd 55 b7 d0 3d a5 68 a1 3d
       -0.026500447 -0.07699339 0.10191218 0.078812875
0000e0 5d b3 cb bd 6c a4 cf bd 60 ac d9 bd 37 02 18 be
       -0.0994632 -0.10138783 -0.10628581 -0.14844595
0000f0 cd f5 8f bc 5b cd e0 bd ad 24 06 3e be 25 07 3d
       -0.017573262 -0.109766684 0.13099928 0.032994978
000100 d3 52 1e bd d3 56 6c 3d 6c a9 99 bd 09 09 04 bd
       -0.038653206 0.05769999 -0.07503018 -0.03223518
000110 19 db b9 3d 10 30 06 be d3 3e 26 bd a3 a2 74 be
       0.09074993 -0.13104272 -0.040587258 -0.23890166
000120 17 54 c7 3d 43 b4 b2 bc 6e 1e 80 bc 85 47 02 be
       0.09732836 -0.021814471 -0.01563951 -0.12722595
000130 b2 c1 59 3d ae 06 5e bd 4d 9a fa bc c8 f2 98 bd
       0.053163238 -0.05420559 -0.030591154 -0.07468182
000140 f6 af 26 bd b0 91 ea bd b6 7e d4 bd d1 9a cd bd
       -0.040695153 -0.11453569 -0.10375731 -0.100392945
000150 fa fe 56 bd b4 1e cc bd c0 91 dc 3d f0 72 a4 3d
       -0.05248926 -0.09966794 0.10769987 0.08029735
000160 d7 cc d5 3c b2 b0 e1 bc 23 73 f8 3d 23 82 96 3d
       0.026098652 -0.027550075 0.121313356 0.0734904
000170 41 7c 9a bd 3d 83 da bd ea fb 02 be ca ce e9 3d
       -0.07543231 -0.10669563 -0.1279141 0.11416395
000180 8b f1 c1 bd 31 c4 15 be b0 c6 87 3d 7e 85 95 bd
       -0.09469899 -0.14625622 0.066296935 -0.07300852
000190 5c 22 02 3c 19 8d e9 bd a9 81 9b bd f9 c8 a4 3d
       0.007942762 -0.11403865 -0.0759309 0.08046145
0001a0 65 22 99 bd bc 4c cc 3d 02 bd 6b bd c6 e2 c7 3d
       -0.07477263 0.099755734 -0.0575533 0.097600505
0001b0 56 88 53 3d f3 f3 39 bc 7b 49 84 3d 62 d9 db bc
       0.051643692 -0.011349666 0.06459328 -0.026837055
0001c0 97 8f e2 3d c8 c9 9f bd e7 d4 07 3e 53 94 97 b9
       0.11062544 -0.078021586 0.1326481 -0.00028911475
0001d0 79 d0 2a 3d 54 03 49 3d 44 17 bd bd 06 92 0f bc
       0.04170272 0.04907544 -0.09232953 -0.008762842
0001e0 f3 7a 91 3d 32 34 09 3c b8 54 c6 bd 3d af 33 3d
       0.07103529 0.008374261 -0.096841276 0.043868292
0001f0 aa ba 8a bd b1 74 c0 3c da c8 ed bd 02 72 41 bd
       -0.067738846 0.023493143 -0.11610575 -0.047227867
000200 5f e5 eb 3c 05 45 de bc 16 b4 a2 3d 2a 74 f6 bd
       0.028795896 -0.02713252 0.07944505 -0.12033875
000210 15 47 48 3a 59 c8 94 3c cd d4 59 bd 8e e8 9f 3d
       0.00076399866 0.01816194 -0.05318146 0.07808028
000220 d0 ab 67 bc 3b 2e d3 3d 8c 15 9e bd d5 fa 86 bd
       -0.014140084 0.10311552 -0.077189535 -0.06590811
000230 79 3e cb 3d f0 34 08 3e 2b 3f 94 3d c9 e1 b6 3b
       0.09924025 0.13301444 0.07238611 0.005581115
000240 90 9c a5 bd ab 79 02 3e f6 9d af bd c4 ad ca bd
       -0.080865026 0.12741725 -0.085750505 -0.098964244
000250 60 88 9d 3d 3e 85 e6 3d db 25 1a 3e 1a 4f ea bc
       0.07692027 0.11255883 0.15053503 -0.028602172
000260 71 d6 d3 3c dd 74 df 3d d6 64 4c 3d 82 2d fc 3d
       0.02585909 0.10910962 0.049900852 0.123133674
000270 eb 17 0f 3e b4 b4 d1 3e e2 8f 3e 3a 42 6a 8c bd
       0.13973968 0.40958178 0.0007269365 -0.068562046
000280 b3 51 8a bc 2d e7 93 3d 16 d3 5e bc d7 be 87 3d
       -0.01688466 0.07221828 -0.0136001315 0.06628197
000290 52 76 1e 3e 69 97 3a 3d 6a e2 99 3d bc f1 33 3d
       0.15474823 0.045554552 0.07513888 0.043931708
0002a0 91 44 b2 bd ab 36 63 3d 88 54 d0 bd 3d 52 65 3e
       -0.08704484 0.055472057 -0.10172373 0.22394653
0002b0 1a fc b8 bd 06 58 52 3d ea ea c8 3d 4b 83 89 3d
       -0.090324596 0.051353477 0.09810431 0.06714495
0002c0 98 4d 78 bd b5 c9 92 3d d7 5a 8d 3c 8d f0 88 3c
       -0.060620874 0.07167379 0.01725523 0.016716266
0002d0 7d d3 01 be a6 51 ae 3d fe 2f 08 3e f8 28 6a bb
       -0.12678333 0.08511667 0.13299558 -0.0035729986
0002e0 a6 80 b2 3d 73 b9 a3 3d 28 d2 9e 3d 76 3b 98 bd
       0.08715944 0.07994356 0.07754928 -0.07433216
0002f0 83 e0 f2 bd 10 e5 71 3d 2a e0 19 3e 4f 82 83 3d
       -0.118592285 0.05905634 0.15026918 0.06421339
000300 ff 26 16 3d 5d 76 da 3d ba 17 cf bd c9 98 ad bd
       0.036658283 0.10667107 -0.10111947 -0.08476407
000310 b4 8e d9 ba 88 30 b4 3e 08 4d ba bd 0b 39 84 3e
       -0.0016598315 0.35193276 -0.09096724 0.2582477

lstm2.bias_hh_l0 f4 [200]
000000 84 40 d3 bd 8e 6f c2 bd dc 8e 19 3e 4b fb 52 bc
       -0.1031504 -0.094939336 0.14995903 -0.012877296
000010 09 af 69 bc db 06 09 bc 8f 0a c1 bb 4c e0 a6 3e
       -0.014262923 -0.008363451 -0.0058911513 0.32593
000020 4e c2 fa bd d9 cb 8c 3a b7 15 86 3c ef 79 e8 bc
       -0.12244092 0.0010741904 0.016367776 -0.028378455
000030 f0 62 a4 bd 7e 13 ae bc 1c a3 95 3d f4 f2 cf bc
       -0.08026683 -0.021249529 0.07306501 -0.025384404
000040 0b 4a 09 bd e6 3f 39 3d 20 94 99 bb 39 de dc bd
       -0.03351788 0.045226954 -0.0046868473 -0.10784573
000050 db be d5 3d 58 94 a8 3e 7b dc 88 3a e9 e7 9b bd
       0.104367934 0.32925677 0.0010441685 -0.07612593
000060 78 7c 4f 3e e5 7d 8a 3d 22 15 13 3d 7d 3e f9 3d
       0.20262325 0.06762294 0.035908826 0.12170122
000070 1b f1 0c bc 9e 6c 8c 3d f4 0c 91 3c 2f 0a c7 bd
       -0.008602406 0.068566546 0.017706372 -0.09718739
000080 de 94 0d bc 8b 48 06 3e 6a cf b9 3d 88 27 e3 3d
       -0.00864145 0.1311361 0.09072764 0.11091524
000090 ed 98 1f 3d 72 d2 0a 3e 97 4a 4d 3d 76 84 1c 3e
       0.0389642 0.13556841 0.050119963 0.15284905
0000a0 1e ca 89 3d 13 2f 26 3e 59 93 af 3d c6 9a 80 3d
       0.06728004 0.16228895 0.08573026 0.06279521
0000b0 2f e6 f8 bd d0 35 8d bd 43 76 a0 bc 8f bd 8c 3e
       -0.12153279 -0.068950295 -0.019587642 0.27488372
0000c0 ed 96 1e 3a ad 5f 7e 3c 16 26 63 bc 3e 22 e2 bd
       0.00060497114 0.015525741 -0.013864061 -0.110416874
0000d0 a8 3b ca bd 7c 69 68 bd f9 33 c8 3d f7 18 e3 bc
       -0.0987466 -0.056741223 0.09775538 -0.027721865
0000e0 56 f0 50 bd 6e 15 c8 bc 5c dc db bc e1 a3 47 bd
       -0.051010452 -0.024424281 -0.026838474 -0.04874027
0000f0 8f 0a c0 bd 7c 30 2e bb 5d 22 9a 3c 22 70 4c 3d
       -0.09377014 -0.0026579192 0.018815214 0.049911626
000100 65 1e 5e 3d 9f 5a 11 be 9d a2 12 be d1 c3 5d 3d
       0.054228205 -0.14194725 -0.14319845 0.054141823
000110 9d 1d 9e 3d 94 09 7b bd 92 d6 e7 bc 56 eb cf bb
       0.07720492 -0.06128843 -0.028300557 -0.006345193
000120 71 42 0a 3d 6d 82 de bc 79 fe 33 be 5d 2d 27 bd
       0.03375477 -0.027161801 -0.17577542 -0.040814746
000130 f5 0e f8 3d 6d a1 03 bd f7 a4 2c bd ac 27 dd bc
       0.12112228 -0.03213637 -0.04214951 -0.026996456
000140 58 d0 03 be 1e 02 d4 3d 20 b4 e6 bd 29 bf e0 3d
       -0.12872446 0.10351966 -0.11264825 0.10973961
000150 08 ac 24 be 4e 82 24 be 23 65 f1 3d 16 78 15 be
       -0.1608125 -0.16065332 0.117868684 -0.1459659
000160 98 68 f3 bd 83 d6 c6 bb 02 1c d2 3d 7a f4 85 bd
       -0.11885184 -0.0060680523 0.10259248 -0.06540771
000170 c1 1f 80 bd 5f 3d 16 be d1 87 76 3d 48 26 2c bd
       -0.062560566 -0.14671849 0.06018812 -0.042028695
000180 b7 66 c0 3d 1a 84 60 bd e8 fa 53 3d ad c4 25 bd
       0.09394591 -0.054813482 0.051752955 -0.040470768
000190 d2 a8 5c bd 37 b8 f2 3d fa 4c 6f 3d 68 cf 5c bd
       -0.053871937 0.118515424 0.05842302 -0.053908736
0001a0 6f 32 87 bd b3 2c 0d 3d 7b fe cf 3d 48 30 86 bd
       -0.06601416 0.034466457 0.1015596 -0.06552178
0001b0 5d 8d b6 bb 56 78 cd 3b 87 8e 69 bd 95 cd 26 3d
       -0.005571051 0.0062704487 -0.05702069 0.040723402
0001c0 40 5b 54 bd 0b a6 42 bc e7 bd e2 bd 69 2e c4 3d
       -0.051844835 -0.011880408 -0.11071377 0.095791645
0001d0 c3 02 c0 bc eb 6d f9 3d 06 2d 9e ba bb f6 db bd
       -0.023438817 0.12179168 -0.0012067861 -0.107404195
0001e0 5c 3b 1a 3d db 04 5d 3d 26 2d 9e 3d 79 f9 bf 3d
       0.037654266 0.05395971 0.07723455 0.09373755
0001f0 7e a8 d1 bb 60 b3 b0 3d ab a3 72 3c 33 5d 1e bc
       -0.0063982597 0.08627963 0.014809529 -0.009665775
000200 93 e2 11 bc 19 15 e3 bd 25 f9 df 3c 7a 62 01 3e
       -0.008904117 -0.110880084 0.027340481 0.12635222
000210 41 07 a9 bd 57 30 e3 3d 90 6d aa 3d 7a c5 be bc
       -0.08253337 0.110932045 0.08321679 -0.023287524
000220 87 25 94 3d 37 89 f6 bd ce bc ed bd 27 65 85 bc
       0.0723372 -0.120378904 -0.11608277 -0.016283585
000230 ed 50 8f bd ef 55 bd bd 27 81 8c bd 81 dd de 3d
       -0.06997857 -0.09244906 -0.06860571 0.10882092
000240 c4 f9 82 bd 6a 91 ec bd a3 b3 54 bc b7 87 34 3d
       -0.06395295 -0.11551173 -0.012982282 0.04407474
000250 eb 1b 10 3d 5c dd 88 bc 7d 62 d9 3d 0d 88 60 3c
       0.035182875 -0.016707115 0.10614488 0.013704312
000260 92 a4 0c 3c 4d 88 a5 3c 10 83 6b 3d 02 18 2e 3c
       0.0085841585 0.020206595 0.057498038 0.010625841
000270 7f c4 41 3d 82 2b 7a 3e ff 68 7b bc 8c 3f fa 3d
       0.047306534 0.2443066 -0.015344857 0.12219152
000280 7f 7f e8 bb 49 b2 99 bd ef 17 9e 3d 76 71 05 3e
       -0.007095277 -0.07504708 0.07719409 0.13031563
000290 66 e8 84 bd 6a ba d3 3d 34 b9 05 3e ca b8 ea bd
       -0.06489639 0.1033829 0.1305893 -0.11461027
0002a0 9f 72 bd bd d3 ab 5a 3d d0 f9 a3 bd 1e e0 ca 3e
       -0.09250378 0.05338652 -0.08006632 0.39624113
0002b0 90 92 fa 3d e7 71 b8 3c 08 a0 9b 3d 28 2a 73 bd
       0.12234986 0.02251525 0.07598883 -0.059366375
0002c0 69 dc f8 3d 81 f9 e3 3d d2 93 fd 3a 7b 4a e1 3b
       0.12151415 0.111315735 0.0019346422 0.006875334
0002d0 4c 53 88 3d 68 39 b1 bd a2 f7 10 3e e7 7e f6 bd
       0.066565126 -0.086535275 0.14156964 -0.120359235
0002e0 eb 82 e9 3d 85 64 26 3e 24 9c 50 bd de c4 e6 3d
       0.11401924 0.16249283 -0.050930157 0.11268018
0002f0 9d b0 e1 3c 82 5a 4b bd 0c 0a 65 3d 7f 40 b0 bd
       0.027550036 -0.04964686 0.055917785 -0.08606052
000300 d0 ab bf 3d 5f 41 d9 bc 68 cc 1b bc c9 e9 fd bd
       0.093589425 -0.02652043 -0.0095091835 -0.123981066
000310 39 8a 81 bc 9a 17 7e 3e b5 d5 76 3b e1 f5 c0 3d
       -0.01581298 0.24813691 0.0037664 0.09421898
