Models/model_50.pth (torch, 132517 bytes, 11 tensors)

lstm1.weight_ih_l0 f4 [200, 1]
0.3288942 0.25449067 0.054796033 -0.14380522 0.2163823 0.21009265 0.31610867 -0.121297784
-0.14713997 -0.096040435 0.2394018 -0.12346369 -0.05843168 0.011121825 -0.5022564 0.16033767
0.001944297 -0.14404759 -0.08404887 0.21918385 -0.47600305 0.050175015 -0.08524251 0.22780243
-0.35761642 0.0801481 0.22490178 0.1445451 0.23212741 0.008102148 0.12777828 -0.2824708
-0.040227674 0.73016006 -0.077395536 0.28397092 0.20629042 -0.13376798 -0.09128863 0.040659305
0.26448423 0.07649362 0.3852501 0.060344327 -0.74675226 0.305743 0.07211438 0.2506487
-0.2562693 0.18583462 0.095211506 0.2632138 -0.0012053454 -0.07457625 -0.11412341 -0.07549344
0.28989187 -0.26389155 -0.014627498 0.072383784 0.146083 -0.2087663 -0.09914261 -0.07733863
-0.5911542 0.20890662 0.09028942 -0.18372151 -0.11050125 0.046194 -0.30880472 -0.038619094
0.08178662 0.044651773 -0.29301366 -0.039749775 0.04729656 0.020031774 0.124424286 -0.07804215
0.08373579 -0.21685962 -0.0627495 -0.026452702 -0.034779258 -0.18669711 0.22588468 -0.12689272
0.071608976 0.041709263 0.34069258 0.2293801 -0.2250378 0.14341208 -0.61344534 0.50032806
0.16681874 0.15728581 -0.11043586 0.23108642 0.31233785 0.24269971 -0.23936582 -0.07403771
0.26352808 -0.25550762 -0.31174698 -0.267602 -0.0699469 -0.07966693 0.23587193 0.07159311
0.17364326 -0.08219039 -0.07183017 0.17936133 0.29124394 0.058977924 0.11610224 0.27939427
0.102576114 -0.28413057 -0.21012516 -0.26170135 0.13473019 -0.21290514 -0.22414967 0.048936296
0.21712318 -0.10067154 0.5755585 0.08786656 -0.25710505 0.8852255 -0.053722467 0.16182826
-0.17547691 0.17007856 0.0017378478 -0.17275691 -0.26319766 0.29665413 -0.029905988 0.18069126
0.2014179 -0.13590598 -0.29697967 0.26739275 -0.15367098 -0.107299946 0.35324055 0.3398341
0.16144632 -0.0150480075 0.18726897 0.18290187 0.15681358 -0.3543628 -0.08208737 -0.0077291196
0.10018539 -0.20240942 -0.26039147 0.06797265 -0.49794644 0.14355497 0.123751655 -0.04057028
-0.003446701 0.22937335 -0.44773564 -0.04015347 0.021698482 0.12645705 -0.25612226 0.12100603
0.14484972 0.04494177 0.13097376 -0.16528222 0.01298353 -0.20842527 0.014896357 0.85110235
0.11907711 0.25993273 0.15596354 -0.37069038 0.042953733 0.18201828 0.3967322 0.2980888
0.40497452 0.018524367 -0.77791935 0.47268188 0.20038418 0.10361017 -0.120104514 0.24145207
00000000: d264 a83e 9a4c 823e ce71 603d ad41 13be
00000010: 5293 5d3e 8722 573e ffd8 a13e f96a f8bd
00000020: dcab 16be d9b0 c4bd bf25 753e 88da fcbd
00000030: 0f56 6fbd 5138 363c e093 00bf 8f2f 243e
00000040: c8d7 fe3a 3681 13be d021 acbd bb71 603e
00000050: acb6 f3be 5184 4d3d a093 aebd 0a45 693e
00000060: 8019 b7be b024 a43d a74c 663e a103 143e
00000070: cfb2 6d3e dfbe 043c 4fd8 023e 03a0 90be
00000080: c6c5 24bd c5eb 3a3f 8d81 9ebd a364 913e
00000090: cc3d 533e 79fa 08be 89f5 babd 5f8a 263d
000000a0: 7a6a 873e b0a8 9c3d 803f c53e 9d2b 773d
000000b0: 282b 3fbf 598a 9c3e b4b0 933d 0755 803e
000000c0: bb35 83be 6e4b 3e3e 40fe c23d f6c3 863e
000000d0: aefc 9dba 6fbb 98bd 89b9 e9bd 4e9c 9abd
000000e0: b56c 943e cb1c 87be 2ca8 6fbc f33d 943d
000000f0: c896 153e d5c6 55be 480b cbbd b763 9ebd
00000100: e255 17bf 9eeb 553e a9e9 b83d 7e21 3cbe
00000110: 7b4e e2bd eb35 3d3d a71b 9ebe 0e2f 1ebd
00000120: be7f a73d c7e4 363d e305 96be a9d0 22bd
00000130: 0aba 413d ad19 a43c 29d2 fe3d 90d4 9fbd
00000140: ab7d ab3d 7310 5ebe cf82 80bd 56b3 d8bc
00000150: b274 0ebd 872d 3fbe 504e 673e 2af0 01be
00000160: baa7 923d 55d7 2a3d 426f ae3e 9ee2 6a3e
00000170: 4f70 66be 9eda 123e c10a 1dbf 8015 003f
00000180: 88d2 2a3e 880f 213e 322c e2bd eba1 6c3e
00000190: bfea 9f3e 4686 783e 501c 75be 15a1 97bd
000001a0: 27ed 863e e5d1 82be 4d9d 9fbe 2103 89be
000001b0: 5240 8fbd 6a28 a3bd 6988 713e 699f 923d
000001c0: 8acf 313e 6f53 a8bd b21b 93bd 7faa 373e
000001d0: ed1d 953e d692 713d 03c7 ed3d c40c 8f3e
000001e0: 6d13 d23d 9079 91be 0d2b 57be b8fd 85be
000001f0: b6f6 093e ce03 5abe 7e87 65be 6d71 483d
00000200: 8a55 5e3e e12c cebd cd57 133f 62f3 b33d
00000210: 46a3 83be 239e 623f 170c 5cbd 4fb6 253e
00000220: 38b0 33be 1329 2e3e 7fc8 e33a 30e7 30be
00000230: d8c1 86be 0de3 973e 67fd f4bc 2107 393e
00000240: 7e40 4e3e f02a 0bbe b80d 98be b4e7 883e
00000250: ed5b 1dbe 13c0 dbbd f2db b43e bcfe ad3e
00000260: 2f52 253e eb8b 76bc 70c3 3f3e a14a 3b3e
00000270: bd93 203e 0a6f b5be 6c1d a8bd 8e44 fdbb
00000280: ff2d cd3d 6a44 4fbe 0852 85be 3f35 8b3d
00000290: d6f2 febe 1300 133e 8271 fd3d 062d 26bd
000002a0: 0ce2 61bb d9e0 6a3e 9b3d e5be f777 24bd
000002b0: 04c1 b13c f57d 013e 7522 83be 02d2 f73d
000002c0: 7c53 143e dd14 383d fc1d 063e be3f 29be
000002d0: dfb8 543c 6f6d 55be da0f 743c d8e1 593f
000002e0: b3de f33d e715 853e e8b4 1f3e 21cb bdbe
000002f0: 41f0 2f3d 0063 3a3e 7c20 cb3e 189f 983e
00000300: d258 cf3e 6ac0 973c b925 47bf 5c03 f23e
00000310: 8331 4d3e 9231 d43d 5bf9 f5bd 363f 773e

lstm1.weight_hh_l0 f4 [200, 50]
0.162289 -0.00013532687 0.014794183 -0.1711644 0.31334215 -0.081594855 0.06756229 0.16071418
0.004558209 0.012916605 0.20584662 -0.033336267 -0.19040182 -0.0034793506 -0.1284664 -0.0045096595
-0.0040741665 0.12526168 -0.018641753 0.093403436 0.060955293 0.06395829 -0.07091887 -0.20991881
-0.053472433 0.05738668 -0.15738925 -0.006924031 0.19755018 -0.13681304 -0.06453009 -0.061581604
-0.0746175 -0.105103776 0.058983427 -0.020258283 0.04542002 -0.1386788 0.11640341 -0.16634935
-0.24574138 0.13947245 -0.08451736 -0.0028386747 -0.23705366 -0.24146852 0.043820668 -0.062646754
0.05846706 -0.062204625 0.16746365 0.119918816 -0.047260627 0.064629056 -0.0594766 -0.028916739
0.0007322472 -0.10225172 0.12028195 -0.054503087 0.16340786 0.020379664 0.05135242 0.08772413
-0.014348495 0.07717528 -0.015005635 0.13481739 0.16785002 0.061458398 0.0015492439 -0.057831664
0.08744642 0.071507215 -0.111537725 -0.1402311 -0.11147809 0.049218073 0.05812392 0.12253525
0.035345916 0.1716806 -0.08633661 -0.09904364 -0.0011600086 0.10090389 -0.15844284 0.051529463
0.075677395 -0.11512107 -0.24312559 0.14221033 0.014913873 -0.020752314 -0.14166757 0.05109687
0.015072385 -0.0044379756 -0.08708337 -0.12868384 0.07625136 -0.10489768 -0.05413695 0.086133406
0.06599311 -0.095903315 0.10864154 -2.5768117e-05 0.052597217 0.103151895 -0.120446384 0.09029315
-0.026029773 -0.033239003 -0.017715808 -0.10228536 -0.022635799 -0.05186442 -0.115448534 -0.1020928
-0.09535828 0.08809605 0.030229006 0.11004822 -0.019157806 -0.15617603 0.17067033 -0.12283872
-0.13973501 0.02963075 0.0015797132 -0.059628904 -0.03478211 0.008778577 0.10187174 0.0898858
0.14132968 0.0753611 -0.03808747 -0.041807465 0.12705758 -0.05986249 -0.18225154 -0.051271457
-0.008631056 0.03757153 -0.09976515 0.13829874 0.04172053 -0.12313026 0.066884816 0.033231445
0.10710815 0.10431615 -0.035578005 -0.018724607 0.013731321 -0.0769638 0.025582453 0.02529788
0.011128837 -0.015870333 -0.15579437 0.013551818 0.038616754 -0.061044082 0.13804255 -0.027824039
0.021335578 -0.018326502 -0.052386094 0.15992379 0.049270283 0.12063384 0.075704366 0.042169947
0.014878912 -0.144746 -0.08620881 -0.02004177 -0.25413275 0.010363209 -0.12125403 0.06665123
0.03325141 0.07259426 0.1796551 0.10027968 0.07882463 -0.011810322 -0.029988112 0.042791255
0.109436885 0.08824937 0.072455324 -0.00021621061 0.21501184 0.04341085 -0.045809694 0.17689984
0.0058145327 0.17183135 -0.19093983 -0.14783071 -0.20896217 0.045978807 0.000173203 0.11764704
0.015716577 -0.113088384 -0.020045798 -0.14767084 -0.1831198 0.14590216 0.17455994 0.19347604
0.15018994 0.092637114 0.059417777 0.07598209 -0.24601632 0.05133763 -0.07799838 -0.1801636
0.1702638 -0.013792913 -0.06704202 0.19966795 0.024574907 0.06565378 0.01145534 0.07857311
0.04413355 0.10165848 0.017569628 0.1978873 -0.0026205557 -0.15829846 -0.13715024 -0.011228758
-0.07959629 -0.03624143 0.14339793 0.16758767 -0.19890727 -0.2178676 -0.05185145 -0.11663182
-0.2668701 -0.21106638 0.010944054 0.06836378 0.004984517 -0.05954961 -0.10348353 -0.03313036
00000000: 162f 263e 88e6 0db9 4d63 723c b845 2fbe
00000010: 626e a03e 341b a7bd 195e 8a3d 4292 243e
00000020: 075d 953b 2ba0 533c 75c9 523e 9c8b 08bd
00000030: b2f8 42be d105 64bb b28c 03be c4c5 93bb
00000040: 9680 85bb 9944 003e 97b6 98bc 4d4a bf3d
00000050: 42ac 793d 90fc 823d ea3d 91bd f5f4 56be
00000060: e905 5bbd 4c0e 6b3d a62a 21be fbe2 e2bb
00000070: 984a 4a3e b818 0cbe 5a28 84bd fe3c 7cbd
00000080: 0fd1 98bd a640 d7bd 9b98 713d b3f4 a5bc
00000090: 580a 3a3d d101 0ebe e964 ee3d 7c57 2abe
000000a0: a1a3 7bbe ded1 0e3e 7017 adbd 0f09 3abb
000000b0: 32be 72be 8643 77be 4d7d 333d f14c 80bd
000000c0: 287b 6f3d 47ca 7ebd 977b 2b3e ff97 f53d
000000d0: 5c94 41bd 3d5c 843d bc9d 73bd cce2 ecbc
000000e0: 47f4 3f3a 5a69 d1bd 6256 f63d a13e 5fbd
000000f0: 6454 273e 41f3 a63c ea56 523d b5a8 b33d
00000100: f315 6bbc 130e 9e3d 32da 75bc 920d 0a3e
00000110: e0e0 2b3e cdbb 7b3d 0010 cb3a e5e0 6cbd
00000120: 1c17 b33d 6072 923d e46d e4bd be98 0fbe
00000130: a04e e4bd e498 493d 5913 6e3d c3f3 fa3d
00000140: e1c6 103d 0acd 2f3e 40d1 b0bd 64d7 cabd
00000150: 6e0b 98ba b3a6 ce3d d73e 22be 8f10 533d
00000160: c0fc 9a3d 98c4 ebbd eaf5 78be 969f 113e
00000170: 5159 743c c200 aabc 4e11 11be f44a 513d
00000180: 2af2 763c 706c 91bb c458 b2bd b2c5 03be
00000190: ac29 9c3d 98d4 d6bd b5be 5dbd b666 b03d
000001a0: 6527 873d f568 c4bd 757f de3d 9c28 d8b7
000001b0: 2e70 573d 4d41 d33d 98ac f6bd 9deb b83d
000001c0: 643c d5bc 9f25 08bd be20 91bc fd7a d1bd
000001d0: b66e b9bc c96f 54bd 4870 ecbd 0816 d1bd
000001e0: 344b c3bd b46b b43d d2a2 f73c f660 e13d
000001f0: d5f0 9cbc 9cec 1fbe 34c4 2e3e de92 fbbd
00000200: b216 0fbe 30bc f23c 610e cf3a 703d 74bd
00000210: b077 0ebd 05d4 0f3c 21a2 d03d 0c16 b83d
00000220: bab8 103e ec56 9a3d 9b01 1cbd 4e3e 2bbd
00000230: 621b 023e 5f32 75bd 26a0 3abe 0502 52bd
00000240: 4669 0dbc 9be4 193d ac51 ccbd 2f9e 0d3e
00000250: 25e3 2a3d b82b fcbd e8fa 883d b21d 083d
00000260: 855b db3d b5a3 d53d 3eba 11bd 5964 99bc
00000270: 56f9 603c 329f 9dbd 4b92 d13c 803d cf3c
00000280: ba55 363c 8002 82bc 8f88 1fbe 7208 5e3c
00000290: 9a2c 1e3d 5c09 7abd 075b 0d3e 3def e3bc
000002a0: f3c7 ae3c 7621 96bc cd92 56bd 10c3 233e
000002b0: a3cf 493d e00e f73d e40a 9b3d 65ba 2c3d
000002c0: aec6 733c 4c38 14be 3f8e b0bd a32e a4bc
000002d0: b01d 82be 73ca 293c 0854 f8bd 7180 883d
000002e0: a132 083d 4dac 943d 82f7 373e 6f5f cd3d
000002f0: cf6e a13d 1580 41bc a1a9 f5bc e245 2f3d
00000300: 7220 e03d 16bc b43d 7563 943d 98b6 62b9
00000310: 102c 5c3e 93cf 313d f2a2 3bbd 3b25 353e
00000320: d687 be3b 8ff4 2f3e bb85 43be ef60 17be
00000330: 2efa 55be 4654 3c3d d49d 3539 eef0 f03d
00000340: 0dc0 803c e29a e7bd 1637 a4bc 0637 17be
00000350: c283 3bbe 6067 153e d7bf 323e 951e 463e
00000360: 64cb 193e 87b8 bd3d 0e60 733d 7f9c 9b3d
00000370: b4eb 7bbe 6847 523d 9dbd 9fbd cf7c 38be
00000380: a259 2e3e acfb 61bc 544d 89bd c175 4c3e
00000390: 5151 c93c 7d75 863d 2eaf 3b3c f0ea a03d
000003a0: 62c5 343d 5232 d03d 2eee 8f3c f8a2 4a3e
000003b0: a1bd 2bbb fe18 22be 1d71 0cbe d3f8 37bc
000003c0: 6103 a3bd e571 14bd e8d6 123e 1a9c 2b3e
000003d0: 59ae 4bbe af18 5fbe 3062 54bd aadc eebd
000003e0: 33a3 88be c921 58be b14e 333c 4f02 8c3d
000003f0: 2955 a33b 4bea 73bd 2cef d3bd b3b3 07bd

lstm1.bias_ih_l0 f4 [200]
-0.025493607 0.033277348 0.075546294 0.09152929 0.083811864 0.10174195 0.16891007 -0.0117690815
-0.17904407 0.07285547 0.18101028 -0.11399045 -0.17324643 -0.16699474 -0.09867051 -0.106077775
0.22495526 -0.305565 -0.09863765 -0.104513265 -0.15608752 0.15060352 0.0010039173 0.043588877
0.06834022 -0.17000337 0.056342136 -0.014572592 0.0602158 0.05039453 0.5497892 -0.1976135
0.0018593239 0.8346267 -0.0114408955 0.1540631 -0.14398406 -0.08104117 -0.21601118 -0.20542705
0.3874376 0.085851505 0.16894045 0.037056 0.051551953 0.11979645 0.1519358 0.21359354
0.02612768 -0.14611603 -0.022421036 -0.1020904 -0.1026148 0.030809304 0.17205003 -0.11053996
0.055528056 0.0731836 -0.24242036 0.010517721 -0.072351 -0.15464106 -0.029362475 -0.05428691
-0.1354747 0.057740893 -0.06394606 -0.11231142 -0.017266853 -0.10451161 -0.017261108 -0.042270638
-0.17042258 0.024609301 -0.20121346 0.01349455 -0.13111848 0.02562104 0.039 0.049339134
0.32313693 0.00034722808 -0.021338634 -0.041046005 -0.08489209 -0.113828644 0.006351561 -0.13423535
-0.08443207 0.027402205 0.0921313 -0.05697347 -0.18512847 0.026600486 0.004292406 0.09347843
-0.12738046 0.046572194 0.09353598 -0.05578118 -0.034552768 0.040077463 -0.051503923 0.13759872
-0.036354616 -0.07015935 0.13608992 0.0050310483 -0.048066102 -0.0043422976 -0.12344255 -0.026115905
-0.070137344 0.07765353 0.087515794 0.040566646 -0.015213095 -0.044762634 0.016204752 0.0523045
0.037965767 0.017125528 0.027321035 0.034772765 0.039500847 0.094836116 -0.0022337018 -0.033217143
-0.07530182 0.061014675 0.003150703 -0.07160668 -0.046018947 0.09951704 -0.004369278 0.072851904
0.0012869121 0.04539823 0.083545335 0.09370582 0.08076213 0.10331724 0.12958477 -0.07934305
0.03994513 0.03852429 -0.008638991 0.02190189 0.06365717 0.040526673 -0.022323776 0.06211781
0.09470877 0.026407499 0.14827566 0.10845799 -0.01952666 0.051936142 -0.2265856 -0.15627965
0.13802257 0.064133994 -0.1271091 -0.15477665 -0.089090966 0.01638102 -0.04645809 -0.115391344
-0.03287326 0.04547063 -0.15408035 0.17486927 0.11433433 0.020773066 0.16378534 -0.018999387
0.17490499 0.03456351 0.07063915 -0.18334611 0.5134453 -0.018152742 -0.07172897 0.9214099
-0.20592546 0.09140893 -0.16643967 -0.13942777 -0.16821742 -0.19041567 0.3097291 0.08890992
0.108867414 -0.041135732 -0.16209555 0.051954553 0.11584022 -0.0022798495 0.18375382 -0.11500728
00000000: f8d7 d0bc d44d 083d 04b8 9a3d b573 bb3d
00000010: 8ea5 ab3d 155e d03d c3f6 2c3e 1bd3 40bc
00000020: 5457 37be 4035 953d c25a 393e d373 e9bd
00000030: 8367 31be ab00 2bbe c413 cabd 4e3f d9bd
00000040: ac5a 663e 0473 9cbe 8902 cabd 0d0b d6bd
00000050: 68d5 1fbe cf37 1a3e e095 833a 408a 323d
00000060: f5f5 8b3d 5d15 2ebe 03c7 663d e2c1 6ebc
00000070: d8a4 763d 7f6a 4e3d fcbe 0c3f 315b 4abe
00000080: 8fb4 f33a 18aa 553f 9872 3bbc b8c2 1d3e
00000090: 8f70 13be eaf8 a5bd 0932 5dbe 785b 52be
000000a0: 395e c63e ead2 af3d bafe 2c3e 08c8 173d
000000b0: 2428 533d d757 f53d 0f95 1b3e 44b8 5a3e
000000c0: b709 d63c 719f 15be 52ac b7bc c614 d1bd
000000d0: b527 d2bd cb63 fc3c e22d 303e c662 e2bd
000000e0: 6371 633d 49e1 953d 0b3d 78be 8552 2c3c
000000f0: c32c 94bd 3a5a 1ebe 9389 f0bc f35b 5ebd
00000100: e1b9 0abe b781 6c3d 27f6 82bd 8803 e6bd
00000110: 3773 8dbc 2f0a d6bd 2b67 8dbc fa23 2dbd
00000120: 4283 2ebe 7299 c93c e70a 4ebe 3f18 5d3c
00000130: ec43 06be 37e3 d13c 77be 1f3d d517 4a3d
00000140: 3472 a53e 2a0c b639 5cce aebc db1f 28bd
00000150: e7db adbd fe1e e9bd c120 d03b fe74 09be
00000160: b9ea acbd 977a e03c 56af bc3d 035d 69bd
00000170: 5192 3dbe 43e9 d93c 50a7 8c3b 9e71 bf3d
00000180: 0670 02be 7cc2 3e3d cb8f bf3d ce7a 64bd
00000190: 3487 0dbd 4428 243d c7f5 52bd aee6 0c3e
000001a0: 94e8 14bd b5af 8fbd 285b 0b3e 7edb a43b
000001b0: f6e0 44bd d549 8ebb 73cf fcbd 06f1 d5bc
000001c0: 2ba4 8fbd d008 9f3d 7b3b b33d 3629 263d
000001d0: 5840 79bc 0659 37bd d4bf 843c 3e3d 563d
000001e0: fe81 1b3d d64a 8c3c 5dd0 df3c e36d 0e3d
000001f0: a4cb 213d 7039 c23d 4c63 12bb b30e 08bd
00000200: d737 9abd 86ea 793d 067c 4e3b 86a6 92bd
00000210: 5d7e 3cbd 97cf cb3d 292c 8fbb 6133 953d
00000220: 9bad a83a 7ff3 393d d119 ab3d d6e8 bf3d
00000230: 9e66 a53d fd97 d33d dfb1 043e 9c7e a2bd
00000240: 819d 233d a5cb 1d3d 8e8a 0dbc 986b b33c
00000250: b15e 823d 4cff 253d 5ae0 b6bc 3f6f 7e3d
00000260: acf6 c13d 8a54 d83c 93d5 173e 391f de3d
00000270: 60f6 9fbc feba 543d 0e06 68be c607 20be
00000280: ca55 0d3e af58 833d e328 02be c57d 1ebe
00000290: 5375 b6bd 7d31 863c d74a 3ebd 4c52 ecbd
000002a0: 1da6 06bd 693f 3a3d 3dc7 1dbe ee10 333e
000002b0: 1e28 ea3d 472c aa3c 58b7 273e 9aa4 9bbc
000002c0: 4b1a 333e 7892 0d3d 42ab 903d 15bf 3bbe
000002d0: 2771 033f 0fb5 94bc a3e6 92bd 85e1 6b3f
000002e0: 20de 52be 9b34 bb3d 296f 2abe 27c6 0ebe
000002f0: 3041 2cbe 53fc 42be d094 9e3e 6716 b63d
00000300: e1f5 de3d f17d 28bd 60fc 25be 4cce 543d
00000310: a33d ed3d 8769 15bb f629 3c3e f088 ebbd

lstm1.bias_hh_l0 f4 [200]
0.19755495 -0.102728434 0.0003708245 0.07905665 0.13281494 0.0036243834 0.0064247455 0.06410495
-0.22266951 -0.032324985 0.16583496 0.00067663577 0.05009897 -0.015959205 -0.049186077 0.03361911
0.09388157 -0.09093272 -0.04389654 0.11193553 -0.2047857 0.119409434 0.084501214 0.15087253
0.088963106 0.014317036 0.10144988 -0.20079754 -0.019800369 -0.05414873 0.4198567 -0.12731476
0.035912596 1.061594 -0.10438869 -0.05106769 0.048379354 -0.21756661 -0.13584869 -0.049627118
0.20656714 0.037412725 0.26013866 0.089790374 -0.065799326 -0.015683545 0.16937797 -0.028481299
0.21936761 0.1041447 0.032153822 0.07573493 -0.11497002 -0.09050335 0.102175444 -0.10873617
0.052082736 -0.18267846 -0.063648984 -0.081572585 0.08249094 -0.05691462 -0.17689972 -0.015551085
0.059361238 -0.17545013 0.033192612 -0.28765258 -0.21761128 0.08625639 -0.09496794 -0.100500666
0.06125753 0.029986884 -0.16854359 -0.18614142 -0.2130009 -0.0070687504 -0.16771509 -0.19774221
0.21326791 -0.005600974 -0.17468925 -0.022396324 -0.21800244 -0.21945848 0.057110563 -0.04324767
-0.11925734 -0.001489238 0.08512899 -0.023609724 -0.023091557 -0.053888697 -0.062861115 -0.10961342
0.08061691 -0.06633172 0.21753138 -0.026281457 -0.009694467 -0.041973546 0.044379618 -0.1035269
-0.069657 0.11386173 -0.01928721 0.10139087 0.078819774 -0.031770494 0.037909582 0.0166983
-0.071291424 -0.06486378 -0.03689992 -0.026060136 0.011898922 0.07589373 -0.029996319 -0.039392024
-0.085604586 0.09160909 -0.03322187 -0.026425032 -0.016309705 -0.059304863 0.04391344 0.061469022
0.059650227 0.008865185 -0.10134653 0.09556547 0.10105278 -0.13789284 0.03432445 -0.09183126
0.013939542 -0.0987476 -0.0607673 -0.06692624 -0.033728518 -0.090264596 -0.05016765 -0.010051355
-0.106791526 -0.0020881789 0.11682226 -0.07147099 -0.084009685 -0.017926166 -0.040715672 0.07395062
0.034698196 0.0771294 0.12024279 0.08448144 0.04399757 -0.029572247 -0.11537802 -0.19796908
0.035727188 0.042560995 -0.07876884 -0.005909865 -0.2230486 -0.04243668 0.058566045 -0.17648974
-0.10174055 0.07544872 -0.2345121 -0.039759394 -0.09936093 -0.021185761 0.0008124125 0.035316993
0.0675088 0.0010056335 -0.004241487 -0.19179974 0.37193263 -0.25127017 0.14761293 1.0418689
-0.14661866 -0.009343641 -0.1614217 -0.08703561 -0.13871947 -0.051369235 0.23949316 -0.08693191
0.13833803 -0.10229057 -0.1055431 -0.19361354 0.28067222 -0.024182318 0.21369687 -0.11204435
00000000: d84b 4a3e 4963 d2bd 396b c239 74e8 a13d
00000010: a400 083e 1087 6d3b ac86 d23b 7549 833d
00000020: 7a03 64be 3467 04bd a4d0 293e 4260 313a
00000030: 9434 4d3d e1bc 82bc 5777 49bd 31b4 093d
00000040: fb44 c03d ef3a babd dccc 33bd 753e e53d
00000050: 58b3 51be ef8c f43d f90e ad3d 547e 1a3e
00000060: 4a32 b63d 0092 6a3c f4c4 cf3d df9d 4dbe
00000070: 6234 a2bc 0fcb 5dbd 75f7 d63e cd5e 02be
00000080: 1619 133d 50e2 873f bdc9 d5bd 5b2c 51bd
00000090: 6e29 463d c8c9 5ebe eb1b 0bbe ce45 4bbd
000000a0: 5686 533e 163e 193d e530 853e 04e4 b73d
000000b0: ccc1 86bd c77a 80bc 6b71 2d3e 9d51 e9bc
000000c0: e7a1 603e d149 d53d bab3 033d ea1a 9b3d
000000d0: 6775 ebbd d259 b9bd 5c41 d13d 12b1 debd
000000e0: b554 553d 1010 3bbe 665a 82bd 870f a7bd
000000f0: 03f1 a83d 4e1f 69bd 3325 35be fac9 7ebc
00000100: c524 733d 33a9 33be faf4 073d 3347 93be
00000110: 7ed5 5ebe 31a7 b03d 8d7e c2bd 4bd3 cdbd
00000120: 2de9 7a3d 0ea7 f53c b196 2cbe db9b 3ebe
00000130: e81c 5abe faa0 e7bb 81bd 2bbe ef7c 4abe
00000140: e762 5a3e 6088 b7bb bde1 32be 7f78 b7bc
00000150: 083c 5fbe b9b9 60be c4ec 693d 7824 31bd
00000160: 313d f4bd 8932 c3ba 1c58 ae3d 2e69 c1bc
00000170: 812a bdbc 65ba 5cbd 54bd 80bd 007d e0bd
00000180: 7a1a a53d edd8 87bd 8cc0 5e3e 364c d7bc
00000190: 8bd5 1ebc 74ec 2bbd 67c7 353d e905 d4bd
000001a0: 54a8 8ebd 5730 e93d 3600 9ebc 04a6 cf3d
000001b0: 436c a13d c721 02bd 1447 1b3d e0ca 883c
000001c0: 3d01 92bd 4dd7 84bd 5f24 17bd 117c d5bc
000001d0: b2f3 423c 2c6e 9b3d d7ba f5bc 8859 21bd
000001e0: 7551 afbd 8c9d bb3d a813 08bd 4f79 d8bc
000001f0: ee9b 85bc a8e9 72bd 94de 333d f1c6 7b3d
00000200: cc53 743d 483f 113c c58e cfbd d4b7 c33d
00000210: c3f4 ce3d c833 0dbe cb97 0c3d 0712 bcbd
00000220: ad62 643c 2f3c cabd 22e7 78bd a010 89bd
00000230: ea26 0abd a5dc b8bd 987c 4dbd 70ae 24bc
00000240: 84b5 dabd d4d9 08bb 8240 ef3d 625f 92bd
00000250: 450d acbd e5d9 92bc 7ac5 26bd 6c73 973d
00000260: b21f 0e3d 05f6 9d3d da41 f63d 9b04 ad3d
00000270: cc36 343d 7f41 f2bc 504b ecbd 68b8 4abe
00000280: ac56 123d 7054 2e3d 8f51 a1bd 8aa7 c1bb
00000290: da66 64be 16d2 2dbd f3e2 6f3d bab9 34be
000002a0: 595d d0bd dc84 9a3d f123 70be bfda 22bd
000002b0: be7d cbbd c38d adbc 14f8 543a 8da8 103d
000002c0: 0e42 8a3d 76cf 833a 2cfc 8abb 2767 44be
000002d0: f46d be3e 7ca6 80be d827 173e f65b 853f
000002e0: 3423 16be 1216 19bc bb4b 25be ba3f b2bd
000002f0: 7a0c 0ebe 8c68 52bd b23d 753e 5b09 b2bd
00000300: 7ca8 0d3e b87d d1bd fb26 d8bd a142 46be
00000310: 45b4 8f3e ff19 c6bc 5ad3 5a3e 8277 e5bd

lstm2.weight_ih_l0 f4 [200, 50]
0.17903943 -0.107701935 -0.01876289 0.1101035 0.050406642 -0.03670175 0.09457527 0.17418285
0.027089212 -0.18481061 0.2121341 0.18272255 -0.27503443 -0.056094907 0.23035656 0.14184937
-0.01321283 0.03298158 -0.12147315 -0.014438945 -0.16124505 0.13836315 -0.17583662 0.029165586
0.34232193 0.20306043 -0.17251082 -0.011676021 0.21603066 0.14063315 -0.4654555 0.100402966
-0.24957776 0.32160383 -0.009712476 0.10305824 0.0561549 -0.18268456 0.120758116 -0.14008145
-0.22952063 -0.047339696 0.41288063 -0.059214957 -0.2428 -0.13563287 0.3564941 0.31379798
-0.27983588 0.015647758 0.20174782 -0.040829767 -0.007858565 -0.0006821124 0.065394424 0.0060730646
-0.18336199 -0.036441393 -0.043106195 0.040708102 0.060145967 0.1113792 -0.055652324 -0.022912176
0.022612544 0.13215314 0.027021797 0.11804221 0.061550923 0.0050113024 0.063473806 -0.16639358
-0.116651885 0.035519045 0.034570914 -0.13138953 0.025332758 0.07859225 -0.047057603 0.008951786
0.24234901 -0.1266501 -0.11499385 0.24094392 -0.08798538 0.14421137 -0.10733557 0.14520437
0.02131776 0.020582154 -0.18364303 0.07258971 0.005440367 0.10476495 -0.037415657 -0.061203387
-0.0043109385 0.15710123 0.0057233823 -0.022617852 -0.17445078 -0.29576445 0.14851637 0.09366602
-0.031968024 0.23433755 0.5984496 0.04453485 -0.099294186 0.06908571 -0.14827876 0.17443976
0.08569206 -0.26381838 0.097626336 -0.28830835 -0.30655342 -0.14145319 -0.094052434 -0.26161304
0.075699665 0.23710462 0.12117424 0.17673606 -0.080112234 0.15384202 0.094764225 -0.26861376
-0.23538285 -0.069707006 -0.2634577 0.014769909 -0.08523713 -0.50962716 -0.21662493 0.023435343
0.30610928 0.05294644 0.035822045 -0.013775128 0.09658379 -0.3008838 0.06582628 -0.16326523
-0.028512241 0.027328972 0.23607215 -0.08675099 0.058268376 0.12652144 -0.05119506 0.105611004
-0.09657254 0.15379313 -0.1806575 -0.04481087 -0.07299013 -0.10853865 -0.029451277 -0.11295365
0.10544689 0.06214567 0.032874573 -0.077054456 0.05740801 0.02242243 0.051752035 -0.013825603
0.06656286 -0.01898047 -0.09256216 -0.12520872 -0.019684209 0.058615837 0.06688208 0.07864052
0.14054893 -0.0698642 0.025820507 0.011666891 0.029149862 -0.054099914 -0.11156474 -0.0033242078
0.008758229 0.0046613957 -0.045953263 -0.032145087 0.05262516 -0.01249887 0.00064271985 -0.006697715
0.07809138 0.045233194 0.114190385 0.24438365 -0.09659445 0.028986307 -0.025567135 -0.011505283
-0.15185621 -0.14661674 0.0025013806 0.0024940546 -0.22806402 -0.06241034 0.13674721 0.10000448
-0.034768447 0.13427204 0.033920694 -0.0018833614 0.046586648 -0.16023266 0.1152465 -0.12693559
-0.018822007 0.114472434 0.011734044 0.08162945 -0.074871406 0.09041055 -0.0037330247 0.13002306
0.027805224 -0.0759892 0.050864916 0.07843594 -0.12030106 0.048844427 0.03502684 0.2207407
0.045124713 -0.11802298 0.052333966 -0.080460936 0.09070553 0.03776797 0.070582986 0.15761839
-0.036947224 -0.0035564257 0.032585897 0.050411798 -0.13230881 0.0691713 0.024702165 0.00029300895
-0.070466265 -0.034358405 0.048397627 -0.013282216 -0.0017908042 -0.05449074 0.06278863 0.028769711
00000000: 1d56 373e d592 dcbd a2b4 99bc f27d e13d
00000010: 3277 4e3d 9354 16bd aeb0 c13d fd5c 323e
00000020: 32ea dd3c fe3e 3dbe ae39 593e 9f1b 3b3e
00000030: 50d1 8cbe c6c3 65bd 97e2 6b3e f640 113e
00000040: a07a 58bc b117 073d eac6 f8bd 5391 6cbc
00000050: 6c1d 25be 12af 0d3e 840e 34be abec ee3c
00000060: d244 af3e 13ef 4f3e ada6 30be c84c 3fbc
00000070: 2437 5d3e 2302 103e 2f50 eebe 12a0 cd3d
00000080: 5091 7fbe 42a9 a43e 1421 1fbc 3310 d33d
00000090: ae02 663d a911 3bbe 0850 f73d 8371 0fbe
000000a0: 7507 6bbe 45e7 41bd 1765 d33e 628b 72bd
000000b0: 90a0 78be 58e3 0abe 6586 b63e 21aa a03e
000000c0: a646 8fbe ba2f 803c fb96 4e3e 1d3d 27bd
000000d0: 36c1 00bc cacf 32ba 83ed 853d 8f00 c73b
000000e0: 3fc3 3bbe 9243 15bd 1f90 30bd 8abd 263d
000000f0: 9e5b 763d c71a e43d b1f3 63bd 51b2 bbbc
00000100: f13d b93c 2753 073e d15c dd3c 1dc0 f13d
00000110: d21c 7c3d da35 a43b 8efe 813d 1463 2abe
00000120: 2fe7 eebd 6b7c 113d 3b9a 0d3d fa8a 06be
00000130: a586 cf3c f9f4 a03d 79bf 40bd 83aa 123c
00000140: 572a 783e 90b0 01be e581 ebbd 01ba 763e
00000150: ae31 b4bd 25ac 133e c0d2 dbbd 74b0 143e
00000160: 95a2 ae3c e89b a83c eb0c 3cbe eaa9 943d
00000170: 1b45 b23b 028f d63d 2941 19bd 67b0 7abd
00000180: c642 8dbb 25df 203e 368b bb3b 1349 b9bc
00000190: 3aa3 32be 706e 97be ad14 183e f8d3 bf3d
000001a0: e7f0 02bd 2ff6 6f3e fe33 193f 2d6a 363d
000001b0: c05a cbbd cf7c 8d3d 63d6 17be 56a0 323e
000001c0: 527f af3d 3413 87be 51f0 c73d 279d 93be
000001d0: 92f4 9cbe 1bd9 10be 909e c0bd 25f2 85be
000001e0: 6d08 9b3d 8ecb 723e 332a f83d 4cfa 343e
000001f0: e211 a4bd c388 1d3e bf13 c23d be87 89be
00000200: 3408 71be 8cc2 8ebd ede3 86be 7dfd 713c
00000210: ce90 aebd ed76 02bf edd2 5dbe 7afb bf3c
00000220: 5bba 9c3e 5ede 583d 23ba 123d 13b1 61bc
00000230: b9cd c53d 710d 9abe eecf 863d 002f 27be
00000240: 8192 e9bc 02e1 df3c e6bc 713e 81aa b1bd
00000250: d2aa 6e3d d68e 013e e9b1 51bd 954a d83d
00000260: d3c7 c5bd f27b 1d3e 48fe 38be 9a8b 37bd
00000270: d97b 95bd 8349 debd ce43 f1bc 3e54 e7bd
00000280: 8af4 d73d 758c 7e3d 7da7 063d bace 9dbd
00000290: a924 6b3d 3eaf b73c f1f9 533d c884 62bc
000002a0: 1c52 883d ee7c 9bbc 3b91 bdbd b736 00be
000002b0: c740 a1bc 2917 703d 79f9 883d 480e a13d
000002c0: 0fec 0f3e f614 8fbd 8785 d33c 7d26 3f3c
000002d0: b1cb ee3c df97 5dbd 0e7c e4bd f4da 59bb
000002e0: ad7e 0f3c 9fbe 983b 7d39 3cbd 91aa 03bd
000002f0: 7b8d 573d 0fc8 4cbc 337c 283a 8178 dbbb
00000300: 60ee 9f3d 7146 393d a6dc e93d b53f 7a3e
00000310: 50d3 c5bd b174 ed3c 2b72 d1bc a880 3cbc
00000320: 3280 1bbe b322 16be 34ee 233b 4b73 233b
00000330: 9d89 69be fca1 7fbd 7607 0c3e 26cf cc3d
00000340: 5c69 0ebd 9c7e 093e 6df0 0a3d 1fdb f6ba
00000350: a4d1 3e3d 0814 24be 5b06 ec3d 67fb 01be
00000360: 9c30 9abc 8670 ea3d 2640 403c 572d a73d
00000370: 2e56 99bd 2b29 b93d c3a5 74bb c424 053e
00000380: c8c7 e33c 3aa0 9bbd bb57 503d 06a3 a03d
00000390: 6760 f6bd 1811 483d 4e78 0f3d da09 623e
000003a0: b1d4 383d 08b6 f1bd 245c 563d b4c8 a4bd
000003b0: d2c3 b93d 96b2 1a3d d08d 903d b766 213e
000003c0: f955 17bd ec12 69bb ca78 053d 9a7c 4e3d
000003d0: f67b 07be afa9 8d3d 325c ca3c ff9e 9939
000003e0: 9e50 90bd 66bb 0cbd 973c 463d a79d 59bc
000003f0: 6bb9 eaba af31 5fbd 5397 803d 75ae eb3c

lstm2.weight_hh_l0 f4 [200, 50]
0.06798074 -0.079849735 -0.17824042 -0.08580879 -0.18926847 -0.20269364 1.010775 -0.16367486
0.21827999 -0.2437099 0.28611585 0.2773893 0.04399581 0.28276047 -0.45119202 -0.30180848
0.24705262 0.07474582 -0.031658504 0.30989057 -0.49805254 -0.06982484 -0.47410864 -0.33816347
-1.1753272 0.5416526 0.04452755 -0.032469813 0.14477082 -0.07052701 -0.1965335 0.2916886
0.09340526 -0.02103099 -0.21943045 -0.16845596 -0.09557241 -0.08895041 -0.27320853 0.52148104
0.08362333 -0.05917528 -0.03688173 -0.05746322 0.34970486 0.20235649 -0.32822523 -0.4605301
0.1586097 0.13387966 -0.16583613 0.080032974 0.1672888 -0.009438737 0.08941646 -0.08551757
0.09946626 0.016246192 -0.017700814 -0.047110613 0.05027131 -0.12062694 -0.06922704 -0.011259758
0.09945407 0.009520883 0.030624153 -0.0014984655 0.13070194 -0.010253239 -0.013668688 -0.033352192
0.010745118 0.027190892 0.029870683 -0.07973265 0.0662183 -0.016942624 0.12011071 -0.07591802
0.00073124556 -0.12313185 0.14197409 0.02233911 -0.1463661 -0.122713804 -0.06381173 -0.03296263
-0.15489262 0.1303973 -0.00812365 -0.13225855 -0.0010629282 -0.15331714 0.12454364 0.09737043
0.07986014 0.08328823 0.08413083 -0.12729207 -0.10741882 -0.30386764 0.025670137 -0.073560186
0.06260672 -0.10464261 0.22344165 -0.019174166 0.40895116 -0.5389636 0.45413393 0.2053935
0.080548204 0.59618086 -0.28991857 -0.25491217 -0.03690392 0.06842847 -0.013760319 0.10381911
-0.45559 0.04615403 -0.26594612 -0.15415598 -0.31777072 0.061210208 -0.19894052 -0.17734507
0.2871606 -0.38609022 -0.35245004 0.19514303 0.31247652 -0.11081427 -0.51661336 -0.40610543
-0.043191753 0.07875586 -0.57861704 -0.020490134 0.49502772 0.21661463 0.26058 -0.5788454
0.050614815 0.4856741 -0.16619563 -0.512609 -0.13502511 -0.102487564 -0.035182558 -0.11697385
0.0255692 0.06019308 0.002247577 -0.17850168 0.47625667 0.058726136 -0.09276522 0.09022549
0.12200107 0.11297881 0.053545587 0.14451148 0.04576624 -0.06711221 0.08039465 0.0060270126
0.011702711 -0.056180015 -0.1765434 0.088903785 0.070554994 -0.09713863 -0.4908358 0.07158089
-0.09683887 0.10471396 0.14359339 -0.07432572 0.10643771 0.13745363 0.14695491 0.048164304
-0.25971368 -0.17981896 0.045599572 -0.100568 -0.42169794 0.15613309 0.06265281 0.082574815
0.060549043 -0.122509815 0.06723749 0.07296395 0.10361671 0.035987664 0.44408932 0.14091507
-0.21270022 0.112590685 0.0019658084 -0.061494347 -0.058174256 0.08405711 0.254203 0.026515365
-0.071091324 -0.084123 0.08309375 0.18638827 -0.13449554 -0.029288143 -0.04278741 -0.0028363862
0.1091143 0.2642476 -0.093032524 0.09065109 -0.08970173 -0.09008771 -0.033484004 0.061657332
-0.6302475 0.09850806 -0.016963225 -0.26533696 -0.018863592 0.041157 -0.07200953 0.053196512
0.005402335 0.07917008 -0.13950017 0.095952936 0.0145717375 -0.057342622 -0.009132637 0.19773856
-0.12646818 0.14303027 0.09482163 -0.13724661 0.00319046 0.1544866 -0.042390764 0.07173395
0.54652303 0.052623615 -0.04997401 0.029421763 -0.008490918 0.015947979 -0.0049342983 -0.12476509
00000000: 7c39 8b3d 4288 a3bd a884 36be 85bc afbd
00000010: 98cf 41be ec8e 4fbe 1361 813f 629a 27be
00000020: ca84 5f3e 178f 79be c77d 923e f805 8e3e
00000030: f334 343d fbc5 903e a402 e7be a486 9abe
00000040: 5dfb 7c3e 5614 993d 59ac 01bd faa9 9e3e
00000050: be00 ffbe 5300 8fbd 5ebe f2be c323 adbe
00000060: 1f71 96bf bfa9 0a3f 8562 363d 11ff 04bd
00000070: cd3e 143e 7770 90bd 1440 49be 3558 953e
00000080: 424b bf3d 2f49 acbc 60b2 60be b87f 2cbe
00000090: 78bb c3bd a22b b6bd fde1 8bbe c87f 053f
000000a0: b542 ab3d c761 72bd 4c11 17bd 8e5e 6bbd
000000b0: 840c b33e 8a36 4f3e 230d a8be 9aca ebbe
000000c0: 956a 223e c017 093e f2d0 29be 54e8 a33d
000000d0: c14d 2b3e efa4 1abc fa1f b73d d623 afbd
000000e0: f7b4 cb3d bc16 853c 4c01 91bc 0ff7 40bd
000000f0: 4ae9 4d3d 420b f7bd e8c6 8dbd d97a 38bc
00000100: 93ae cb3d 7afd 1b3c 81df fa3c 2968 c4ba
00000110: bbd6 053e 34fd 27bc a2f2 5fbc 4f9c 08bd
00000120: 4b0c 303c 6fbf de3c 5db3 f43c df4a a3bd
00000130: 769d 873d 42cb 8abc 9bfc f53d e87a 9bbd
00000140: 0fb1 3f3a 8d2c fcbd a861 113e 8200 b73c
00000150: ffe0 15be 6051 fbbd b9af 82bd d303 07bd
00000160: 2c9c 1ebe df86 053e 0f19 05bc c96e 07be
00000170: f451 8bba 2bff 1cbe bc10 ff3d 266a c73d
00000180: b78d a33d 0593 aa3d c94c ac3d da58 02be
00000190: 66fe dbbd 8a94 9bbe 2e4a d23c b9a6 96bd
000001a0: f437 803d dd4e d6bd e3cd 643e 2413 9dbc
000001b0: 0c62 d13e 85f9 09bf 3e84 e83e ac52 523e
000001c0: 75f6 a43d 4f9f 183f 3570 94be d983 82be
000001d0: 9128 17bd 3a24 8c3d f672 61bc 1d9f d43d
000001e0: 1843 e9be 020c 3d3d 172a 88be 11db 1dbe
000001f0: d8b2 a2be 8eb7 7a3d 10b7 4bbe f299 35be
00000200: b706 933e 9ead c5be 5574 b4be 93d3 473e
00000210: ecfc 9f3e 98f2 e2bd c640 04bf 0ded cfbe
00000220: d6e9 30bd c14a a13d 3f20 14bf edda a7bc
00000230: 4674 fd3e 3ad0 5d3e be6a 853e 362f 14bf
00000240: 7b51 4f3d 47aa f83e 302f 2abe 583a 03bf
00000250: 0644 0abe 00e5 d1bd 961b 10bd fc8f efbd
00000260: 8076 d13c 058d 763d 164c 133b 25c9 36be
00000270: ead7 f33e d18a 703d b1fb bdbd 24c8 b83d
00000280: b2db f93d 6f61 e73d 9e52 5b3d d1fa 133e
00000290: 6275 3b3d 2072 89bd f3a5 a43d 3f7e c53b
000002a0: babc 3f3c 041d 66bd cbc7 34be 3013 b63d
000002b0: 237f 903d 9ef0 c6bd d44e fbbe 0099 923d
000002c0: 7553 c6bd 4674 d63d 250a 133e 1538 98bd
000002d0: 04fc d93d a5c0 0c3e 597b 163e ef47 453d
000002e0: 31f9 84be 7622 38be 9ec6 3a3d 98f6 cdbd
000002f0: cbe8 d7be 5ae1 1f3e 1e50 803d fc1c a93d
00000300: 4602 783d 6de6 fabd cfb3 893d 206e 953d
00000310: ff34 d43d cd67 133d ad5f e33e 0a4c 103e
00000320: 16ce 59be f295 e63d cbd4 003b 7fe1 7bbd
00000330: 2148 6ebd 2226 ac3d e526 823e c036 d93c
00000340: 5498 91bd ae48 acbd 0e2d aa3d 91dc 3e3e
00000350: 33b9 09be b0ed efbc da41 2fbd aae2 39bb
00000360: 5177 df3d 764b 873e d687 bebd 47a7 b93d
00000370: 8ab5 b7bd e87f b8bd 8626 09bd 668c 7c3d
00000380: e657 21bf 98be c93d 76f6 8abc 3fda 87be
00000390: d287 9abc 3e94 283d bc79 93bd 96e4 593d
000003a0: 1206 b13b ec23 a23d 22d9 0ebe f982 c43d
000003b0: 4cbe 6e3c 19e0 6abd 0ea1 15bc fa7b 4a3e
000003c0: e080 01be 8776 123e d831 c23d 608a 0cbe
000003d0: 0917 513b bc31 1e3e f0a1 2dbd 40e9 923d
000003e0: efe8 0b3f dc8b 573d 8cb1 4cbd e905 f13c
000003f0: 7e1d 0bbc 56a5 823c e5af a1bb d784 ffbd

lstm2.bias_ih_l0 f4 [200]
0.090041034 0.14630641 -0.09533556 0.11355136 0.031868372 -0.057029817 0.22815959 0.048872523
-0.051032618 0.012156066 -0.028271468 0.11376555 0.029096806 0.19624363 0.039798163 -0.032685116
0.08213116 0.060125202 0.01488519 0.13433456 0.113748424 -0.0874455 0.60466367 -0.035837255
0.5989388 0.14125025 0.11191516 -0.07107042 -0.011575634 -0.11085086 -0.014015926 -0.09466
-0.11008176 -0.24204302 0.16873066 -0.11438607 -0.109076805 -0.049657866 0.2829034 0.15453878
-0.08640605 0.04514541 -0.12659557 0.15440251 0.33744565 0.124350734 0.0058019347 -0.06127327
0.63788664 0.046157822 0.14657752 -0.10248665 -0.22624837 -0.08070451 -0.13493064 -0.08451169
-0.016806774 -0.077636145 0.037322786 0.036900815 0.021657731 -0.024509279 0.024342714 -0.06539137
-0.16254613 0.0629513 -0.18842168 -0.08038934 0.012023351 -0.2279021 -0.11088108 -0.03595242
-0.27380198 0.05607225 -0.012159412 -0.0765303 0.118611515 0.022447832 -0.036465827 -0.0724506
-0.051227946 -0.013668083 -0.17882314 -0.17234544 -0.08493259 -0.080246225 -0.2156621 -0.24202186
-0.12391991 0.028207177 -0.13476358 -0.006630407 0.06779494 -0.10082978 -0.13007423 -0.039617866
0.060957223 -0.07046295 -0.1840012 -0.07684811 -0.09387009 0.091003045 -0.053378537 -0.010550509
0.004406206 0.08894321 -0.0724574 -0.049320742 0.03324646 0.12684982 -0.06045322 0.01726227
-0.06420746 0.07031744 0.030205188 0.10542816 -0.050899964 0.09583421 -0.122151986 -0.050171565
-0.04007868 0.009612298 -0.03554993 0.018615546 -0.04109715 0.13712175 0.06170811 -0.10927565
-0.08361678 0.13045803 0.10965976 -0.029998725 -0.024467126 0.009083491 0.058080032 0.083888665
-0.0210359 -0.08949978 0.094572425 -0.09539707 -0.06280442 0.05348807 -0.10446104 -0.05836439
-0.0070954105 -0.108883895 -0.0058729136 -0.060534123 0.08237091 -0.0059756553 0.0117545705 0.106507376
-0.08639251 0.008545744 -0.023227826 0.02249068 0.2423598 0.008090675 -0.1089847 0.12129459
-0.0117904125 0.054731447 -0.19087023 -0.08081549 0.07432237 -0.020428587 0.21665724 0.033631135
-0.14520408 0.04250609 0.12885492 -0.07045786 0.4665654 -0.092136495 0.5682889 -0.08285834
-0.07710551 -0.23229617 0.09239571 0.0021859666 0.065775506 -0.11635293 -0.089987546 -0.11019034
0.095463626 -0.08074955 -0.07683554 -0.10264587 0.17114688 -0.046911363 0.013424486 -0.19152194
-0.021532921 0.06214437 0.21262634 -0.02724444 0.033112727 0.082862176 0.5800157 -0.010027331
00000000: 6f67 b83d 59d1 153e 4a3f c3bd 9e8d e83d
00000010: 6988 023d 1998 69bd aba2 693e 8e2e 483d
00000020: 9407 51bd 3c2a 473c 9199 e7bc eafd e83d
00000030: 6d5c ee3c 17f4 483e 6603 233d d4e0 05bd
00000040: 6234 a83d d845 763d 03e1 733c 008f 093e
00000050: eff4 e83d a016 b3bd 3dcb 1a3f 16ca 12bd
00000060: 0e54 193f e8a3 103e c733 e53d 5e8d 91bd
00000070: baa7 3dbc c705 e3bd 0ea3 65bc 1add c1bd
00000080: 8c72 e1bd 20da 77be bbc7 2c3e 3e43 eabd
00000090: a963 dfbd 0c66 4bbd b7d8 903e 6a3f 1e3e
000000a0: a8f5 b0bd 65ea 383d 45a2 01be b11b 1e3e
000000b0: adc5 ac3e 99ab fe3d 281e be3b aef9 7abd
000000c0: 8a4c 233f fc0f 3d3d 6b18 163e 85e4 d1bd
000000d0: a7ad 67be 6848 a5bd 422b 0abe 7714 adbd
000000e0: 5cae 89bc b3ff 9ebd c7df 183d 4f25 173d
000000f0: 8e6b b13c afc7 c8bc 5f6a c73c e9eb 85bd
00000100: 7e72 26be 9cec 803d 9df1 40be 2ba3 a4bd
00000110: 97fd 443c 2b5f 69be 9f15 e3bd d842 13bd
00000120: c62f 8cbe 04ac 653d 4538 47bc ebbb 9cbd
00000130: 98ea f23d 84e4 b73c 315d 15bd fb60 94bd
00000140: 65d4 51bd 18f0 5fbc 6a1d 37be 537b 30be
00000150: 23f1 adbd 2258 a4bd 87d6 5cbe 94d4 77be
00000160: b9c9 fdbd bd12 e73c 77ff 09be e343 d9bb
00000170: 13d8 8a3d d87f cebd 2e32 05be 5846 22bd
00000180: 48ae 793d e14e 90bd d06a 3cbe 8b62 9dbd
00000190: f63e c0bd ce5f ba3d 74a3 5abd 0bdc 2cbc
000001a0: ef61 903b dc27 b63d 8c64 94bd 8c04 4abd
000001b0: 712d 083d ebe4 013e cc9d 77bd 9b69 8d3c
000001c0: 337f 83bd 9702 903d df70 f73c b8ea d73d
000001d0: 7b7c 50bd ba44 c43d d22a fabd b380 4dbd
000001e0: 8b29 24bd e67c 1d3c ce9c 11bd a17f 983c
000001f0: 7c55 28bd a569 0c3e a5c1 7c3d e9cb dfbd
00000200: 463f abbd ca96 053e 4c95 e03d e3bf f5bc
00000210: 486f c8bc ecd2 143c 54e5 6d3d d2cd ab3d
00000220: 7b53 acbc a94b b7bd 30af c13d 8a5f c3bd
00000230: 9b9f 80bd 4e16 5b3d abef d5bd 800f 6fbd
00000240: 9e80 e8bb 85fe debd 9271 c0bb a1f2 77bd
00000250: 14b2 a83d 6ecf c3bb 3e96 403c 8a20 da3d
00000260: 8eee b0bd 7303 0c3c 4848 bebc 603e b83c
00000270: 2b2d 783e c08e 043c 5f33 dfbd 4c69 f83d
00000280: 932c 41bc 152e 603d 7c73 43be 9782 a5bd
00000290: 5436 983d da59 a7bc 65db 5d3e cdc0 093d
000002a0: 61b0 14be de1a 2e3d 8bf2 033e 364c 90bd
000002b0: a9e1 ee3e 0fb2 bcbd 627b 113f a2b1 a9bd
000002c0: 7ee9 9dbd 0cdf 6dbe f639 bd3d 6f42 0f3b
000002d0: 4fb5 863d 724a eebd 644b b8bd 79ab e1bd
000002e0: 6f82 c33d 0560 a5bd f45b 9dbd ff37 d2bd
000002f0: 2141 2f3e 2126 40bd 60f2 5b3c 541e 44be
00000300: cf65 b0bc 188b 7e3d b8ba 593e bb2f dfbc
00000310: 36a1 073d a5b3 a93d e97b 143f ad49 24bc

lstm2.bias_hh_l0 f4 [200]
0.2772365 0.14312004 -0.042138167 0.1066895 0.12375632 -0.1417059 0.24467425 -0.032005675
0.060567014 0.019583942 0.12036692 0.1603618 -0.14768225 0.01631228 -0.0119974 0.011188583
0.1381908 -0.027107764 0.09928406 -0.06260046 0.061138753 0.034995284 0.39550865 -0.16257194
0.5119571 0.061458446 0.011833189 -0.22985615 0.14505416 0.12098823 0.02920472 -0.13393846
0.0010715355 -0.24882808 0.03201924 0.057719085 -0.17686549 0.05641981 0.20402542 -0.047024712
-0.07876988 0.08256469 -0.16560988 0.14297529 0.3177342 0.16085202 -0.1507561 0.08365765
0.5323564 0.094129585 0.25203198 0.10510867 -0.12617947 -0.011441475 -0.1678248 -0.18017188
-0.17923252 -0.17501587 -0.15868464 -0.10031924 -0.040078685 -0.055460863 -0.19636887 -0.011775214
-0.10726446 -0.00944575 0.036467697 0.03803404 0.08801692 -0.21862985 -0.05359777 -0.13949317
-0.2179977 0.07088171 -0.024495745 0.08087624 -0.13257375 0.009668278 -0.03302672 -0.07655882
0.024102464 -0.16182327 -0.16173297 -0.27828416 0.01376863 0.113776445 -0.18034448 -0.26031104
-0.09587212 0.04179196 0.099496976 -0.033840515 -0.010404247 0.100838006 -0.25473222 -0.021819748
-0.07073311 0.021675076 -0.24502829 -0.0838592 0.0320535 0.09734419 0.005599447 -0.0759114
0.08278777 0.017591547 0.08994231 0.07593674 -0.12702091 -0.04222923 -0.02308864 0.04810609
0.09596379 -0.078524016 -0.10411254 -0.03525678 0.106226996 -0.02015109 0.1159939 -0.03040739
-0.038918633 -0.073509574 0.069224305 0.013268347 -0.027906429 -0.09906684 -0.08864118 0.08878245
-0.1251677 -0.018741583 -0.08961077 -0.05027297 -0.0685918 0.07585271 -0.08785338 0.11033349
0.07220418 0.097094424 -0.07233566 0.11044827 0.025615755 -0.088342406 0.074479975 0.06566657
-0.015457557 0.040248778 0.017987665 -0.021671198 -0.053165756 0.0471768 0.11736133 -0.01413212
-0.12987503 -0.01993748 0.052706618 -0.19434847 0.13940932 0.060613528 -0.09933496 -0.0043567396
-0.036674652 0.036811646 0.048916433 0.01676638 -0.12720127 -0.0029966023 0.124658085 -0.08988424
-0.1485657 -0.052308142 0.07214289 -0.1080258 0.42958507 -0.2577419 0.48082846 0.06266966
0.021596562 -0.2887551 -0.10050616 0.12784325 -0.11225214 0.017525509 0.010373779 -0.09132613
0.037387438 -0.05952078 -0.091340736 -0.07632003 0.15109555 0.17231229 0.08022367 -0.14509049
-0.06625115 0.08437924 0.19162226 0.058814727 -0.0002665032 0.16304691 0.5035174 -0.13824397
00000000: f1f1 8d3e 0f8e 123e 1299 2cbd 0680 da3d
00000010: f473 fd3d 5a1b 11be e38b 7a3e 6218 03bd
00000020: 1e15 783d 816e a03c ef82 f63d e235 243e
00000030: 043a 17be 55a1 853c be90 44bc 5250 373c
00000040: e481 0d3e 1a11 debc 7155 cb3d ac34 80bd
00000050: a16c 7a3d 3757 0f3d 1c80 ca3e 4279 26be
00000060: 9f0f 033f dabb 7b3d fedf 413c 695f 6bbe
00000070: 1489 143e adc8 f73d bd3e ef3c 2a27 09be
00000080: c472 8c3a cacc 7ebe 9b26 033d d96a 6c3d
00000090: 3a1c 35be 7518 673d 0aec 503e fc9c 40bd
000000a0: 1a52 a1bd ad17 a93d a395 29be 1d68 123e
000000b0: 0fae a23e 64b6 243e cf5f 1abe b454 ab3d
000000c0: 8248 083f 03c7 c03d 560a 813e 3743 d73d
000000d0: 3135 01be 0675 3bbc 44da 2bbe fa7e 38be
000000e0: bb88 37be 5c37 33be 3a7e 22be 2c74 cdbd
000000f0: 8c29 24bd ee2a 63bd ec14 49be d4ec 40bc
00000100: 78ad dbbd 59c2 1abc 275f 153d 95c9 1b3d
00000110: 3742 b43d 81e0 5fbe 5689 5bbd 4cd7 0ebe
00000120: ca3a 5fbe 6e2a 913d 4dab c8bc 71a2 a53d
00000130: 6ac1 07be b267 1e3c 0747 07bd dfca 9cbd
00000140: 8872 c53c 00b5 25be 549d 25be 437b 8ebe
00000150: d295 613c a003 e93d 39ac 38be 7d47 85be
00000160: 9a58 c4bd 0c2e 2b3d 12c5 cb3d 5a9c 0abd
00000170: 9376 2abc 2884 ce3d 436c 82be 54bf b2bc
00000180: 85dc 90bd ee8f b13c b2e8 7abe 5fbe abbd
00000190: 884a 033d 645c c73d 917b b73b 7077 9bbd
000001a0: a28c a93d 261c 903c ac33 b83d b984 9b3d
000001b0: c511 02be 8ff8 2cbd 6324 bdbc e40a 453d
000001c0: aa88 c43d 33d1 a0bd f538 d5bd 6a69 10bd
000001d0: 8a8d d93d e613 a5bc 368e ed3d eb18 f9bc
000001e0: 2569 1fbd 308c 96bd 79c5 8d3d 7b63 593c
000001f0: 069c e4bc 8ee3 cabd 8289 b5bd 93d3 b53d
00000200: f62b 00be f387 99bc da85 b7bd 08eb 4dbd
00000210: dc79 8cbd aa58 9b3d 79ec b3bd 86f6 e13d
00000220: c9df 933d 71d9 c63d b824 94bd b432 e23d
00000230: 22d8 d13c ddec b4bd f588 983d 327c 863d
00000240: b141 7dbc e7db 243d de5a 933c cc87 b1bc
00000250: 56c4 59bd 763c 413d 235b f03d 688a 67bc
00000260: f6fd 04be ed53 a3bc e5e2 573d 4903 47be
00000270: 51c1 0e3e e445 783d 2170 cbbd fbc2 8ebb
00000280: 2938 16bd cfc7 163d 995c 483d a659 893c
00000290: 0d41 02be a562 44bb bd4c ff3d 3a15 b8bd
000002a0: 9b21 18be 1041 56bd a7bf 933d a13c ddbd
000002b0: 93f2 db3e bff6 83be 262f f63e f358 803d
000002c0: 46eb b03c b5d7 93be 2cd6 cdbd 57e9 023e
000002d0: 73e4 e5bd a891 8f3c c8f6 293c 3209 bbbd
000002e0: 9223 193d 10cc 73bd da10 bbbd ad4d 9cbd
000002f0: cbb8 1a3e a272 303e 4f4c a43d 9a92 14be
00000300: afae 87bd 06cf ac3d a038 443e b6e7 703d
00000310: 74b9 8bb9 c5f5 263e 84e6 003f d48f 0dbe

fc1.weight f4 [25, 50]
-0.021959197 -0.1789573 -0.06033784 0.073478356 -0.027901791 -0.004442163 -0.2801357 -0.11999237
0.14254197 -0.13145187 -0.07994596 -0.13007477 0.1190451 0.173951 0.2686274 -0.02826393
0.17777553 -0.06832595 0.04575002 0.020552944 0.056169562 0.16780515 0.060768086 0.092973605
0.065668136 -0.40068117 -0.046072036 0.1306582 0.08958536 -0.25635743 0.049814835 0.011495619
0.06564764 0.008768314 -0.026421696 -0.05708015 -0.20534188 -0.36781514 0.01957345 -0.16025527
-0.106290236 -0.114986956 0.11069836 -0.034789376 0.038288068 0.105864234 -0.06845592 -0.040367924
0.57166904 0.1454203 -0.1356764 -0.13441545 -0.16680768 0.17423081 0.017208751 -0.06415373
0.42762786 -0.27866498 0.1988679 -0.09290931 0.2044559 -0.09856046 0.21210529 0.46721566
-0.05775378 -0.05741345 0.24456093 0.019270483 0.11523754 0.09119821 -0.07123103 0.10322081
-0.38280687 -0.08847871 -0.41911185 0.22860861 -0.05569106 -0.13226913 0.18655556 -0.058174834
-0.15927562 0.13610652 0.24169342 -0.07064489 -0.2462041 -0.12690523 -0.1394713 -0.13055313
-0.5405549 0.030935792 0.0034210617 0.031878583 0.15373829 -0.21572393 0.16069816 0.32473475
-0.1949819 0.008032722 0.086540505 0.20141017 -0.11297472 0.09778594 0.14890604 -0.08935455
0.10517973 -0.1183438 0.066440776 0.11045005 -0.069751225 -0.11393903 -0.056224734 -0.0101946
0.06943599 -0.05485832 0.006975615 -0.052452188 0.13887931 0.06917623 -0.0805166 0.026468614
-0.040897116 0.030980006 0.041940514 0.060154475 -0.083474785 -0.043402277 -0.044158906 -0.11306624
-0.106287725 -0.026777921 0.092081 0.14182755 0.007126268 0.011757553 -0.022796072 -0.08336935
0.12954763 -0.11115712 0.09894458 0.13819997 0.029434212 0.035262283 0.119586274 0.011293154
0.1578988 -0.033955097 0.015258168 -0.009636516 0.008214969 -0.0006632409 0.14300384 0.07704992
0.11782777 -0.09557746 0.04405128 0.046830524 -0.12808934 0.0595271 -0.04910143 0.14704
-0.05135388 -0.112325154 -0.10469671 0.064079456 0.11318354 0.07446523 -0.116269186 0.054297134
0.008021854 -0.033608746 0.008519895 -0.13453417 -0.06872948 -0.02220749 0.12088349 -0.08887866
-0.044948995 -0.09746212 -0.10426855 -0.030332599 -0.076771036 0.051256638 -0.124583006 0.004618534
-0.06253475 0.16520296 0.12541367 -0.07768402 0.16038565 0.0658094 0.045018114 -0.011900397
-0.07248449 0.15136494 -0.027032716 0.02400957 0.13023561 -0.096344836 -0.070464544 0.026087062
0.008833385 -0.08533383 -0.008111718 -0.10400871 -0.03671009 0.039233226 -0.20523658 0.059062287
0.061277065 0.05445981 -0.06729116 0.020865504 -0.11558595 -0.0014370354 0.11307065 0.06267586
-0.16367513 0.07680527 -0.00036986725 0.0010851648 0.14093623 -0.013498571 -0.04565495 0.13655683
-0.011536127 -0.17306872 -0.08889517 0.030193355 -0.13591892 0.16667841 -0.09874615 -0.037156176
-0.0988269 0.10206318 0.06901714 0.0035504797 0.046979938 -0.032421965 0.15855287 -0.12078673
0.08658392 0.057482008 -0.02216571 0.13303669 -0.05017936 -0.14861217 -0.11462066 0.02533658
-0.05315524 0.045500487 -0.08643251 -0.14948657 -0.062089346 0.119394265 -0.037099846 -0.042622417
00000000: c6e3 b3bc 9540 37be d024 77bd d27b 963d
00000010: 4c92 e4bc 908f 91bb f26d 8fbe 8fbe f5bd
00000020: 86f6 113e 529b 06be b5ba a3bd 5232 05be
00000030: ebcd f33d 3620 323e 8889 893e c289 e7bc
00000040: ca0a 363e 7aee 8bbd 5f64 3b3d a65e a83c
00000050: 0e12 663d 1dd5 2b3e f5e7 783d f268 be3d
00000060: 047d 863d 1526 cdbe 08b6 3cbd 43cb 053e
00000070: 8778 b73d 4841 83be a40a 4c3d 1f58 3c3c
00000080: 4572 863d f9a8 0f3c 5072 d8bc e0cc 69bd
00000090: 2445 52be 4452 bcbe 8058 a03c f519 24be
000000a0: b2ae d9bd 487e ebbd d2b5 e23d 4e7f 0ebd
000000b0: f3d3 1c3d 59cf d83d 9e32 8cbd d658 25bd
000000c0: e758 123f 0fe9 143e c1ee 0abe 34a4 09be
000000d0: a2cf 2abe 9069 323e 5ef9 8c3c 0863 83bd
000000e0: 0af2 da3e 2dad 8ebe 07a4 4b3e 3c47 bebd
000000f0: e35c 513e 11da c9bd 2132 593e e436 ef3e
00000100: 3a8f 6cbd 5e2a 6bbd 2e6e 7a3e 22dd 9d3c
00000110: a901 ec3d 21c6 ba3d 93e1 91bd 6f65 d33d
00000120: 43ff c3be 5334 b5bd d495 d6be 6018 6a3e
00000130: 4f1c 64bd 8f71 07be 6c08 3f3e bc48 6ebd
00000140: 2619 23be 825f 0b3e 7b7e 773e 45ae 90bd
00000150: ed1c 7cbe 72f3 01be 91d1 0ebe b8af 05be
00000160: ce61 0abf 0f6d fd3c e433 603b 1e93 023d
00000170: 926d 1d3e bce6 5cbe 0f8e 243e a243 a63e
00000180: 56a9 47be ae9b 033c 263c b13d 783e 4e3e
00000190: 4a5f e7bd ff43 c83d d37a 183e 85ff b6bd
000001a0: 7868 d73d 3c5e f2bd 1a12 883d a333 e23d
000001b0: bbd9 8ebd de58 e9bd e84b 66bd 4007 27bc
000001c0: 7534 8e3d 1eb3 60bd b393 e43b 1bd8 56bd
000001d0: 6136 0e3e 44ac 8d3d e3e5 a4bd b5d4 d83c
000001e0: bc83 27bd c8c9 fd3c d1c9 2b3d 8a64 763d
000001f0: d4f4 aabd 96c6 31bd f8df 34bd 468f e7bd
00000200: 61ad d9bd 5f5d dbbc f794 bc3d 3e3b 113e
00000210: 7883 e93b c0a2 403c d4be babc 8dbd aabd
00000220: 22a8 043e 58a6 e3bd 75a3 ca3d 4b84 0d3e
00000230: 0420 f13c 2f6f 103d a6e9 f43d ec06 393c
00000240: 39b0 213e 8014 0bbd 65fd 793c 7ae2 1dbc
00000250: 1498 063c 58dd 2dba 996f 123e 59cc 9d3d
00000260: b04f f13d 1ebe c3bd 1d6f 343d 5dd1 3f3d
00000270: da29 03be b0d2 733d 951e 49bd a791 163e
00000280: 7258 52bd bb0a e6bd 3b6b d6bd 173c 833d
00000290: c6cc e73d 3a81 983d 8a1e eebd ac66 5e3d
000002a0: 186e 033c 53a9 09bd 0897 0b3c 53c3 09be
000002b0: 0bc2 8cbd 7bec b5bc c391 f73d 0406 b6bd
000002c0: 701c 38bd 389a c7bd c08a d5bd 127c f8bc
000002d0: 223a 9dbd 7bf2 513d 6025 ffbd 1257 973b
000002e0: 3812 80bd f72a 293e 716c 003e cd18 9fbd
000002f0: 233c 243e 14c7 863d ea64 383d e2f9 42bc
00000300: c072 94bd 69ff 1a3e b773 ddbc b8af c43c
00000310: 7c5c 053e 7150 c5bd b74f 90bd 89b4 d53c
00000320: e7b9 103c 81c3 aebd 03e7 04bc 8502 d5bd
00000330: 525d 16bd 05b3 203d 8a29 52be 4ceb 713d
00000340: a9fd 7a3d 4011 5f3d f3cf 89bd 22ee aa3c
00000350: 54b8 ecbd e85a bcba 9691 e73d 345c 803d
00000360: 749a 27be 154c 9d3d beea c1b9 173c 8e3a
00000370: 9651 103e 1c29 5dbc af00 3bbd 8ed5 0b3e
00000380: 0602 3dbc ed38 31be ac0e b6bd 0e58 f73c
00000390: 542e 0bbe bfad 2a3e 6c3b cabd 1331 18bd
000003a0: c265 cabd 8006 d13d dc58 8d3d 2aaf 683b
000003b0: 096e 403d e5cc 04bd af5b 223e 085f f7bd
000003c0: e952 b13d 4172 6b3d dd94 b5bc c53a 083e
000003d0: df88 4dbd ca2d 18be 3dbe eabd a98e cf3c
000003e0: 4fb9 59bd b85e 3a3d 8703 b1bd 0213 19be
000003f0: 6651 7ebd fb84 f43d 02f6 17bd d894 2ebd

fc1.bias f4 [25]
-0.017793007 -0.057925086 -0.070237085 0.067154236 0.15875338 -0.07572874 0.14930353 -0.02236026
0.14673418 -0.020055274 0.111067034 0.00019579811 -0.075669855 -0.0086875055 -0.05495568 -0.05263188
0.060503084 0.007991516 0.08825907 -0.08597546 -0.027252382 0.03894507 0.040173676 0.15397851
0.121054165
00000000: a4c2 91bc db42 6dbd 76d8 8fbd 2988 893d
00000010: 3f90 223e ab17 9bbd 06e3 183e dd2c b7bc
00000020: 7c41 163e f54a a4bc 1d77 e33d 284f 4d39
00000030: ccf8 9abd 0a56 0ebc 3519 61bd 8794 57bd
00000040: 15d2 773d d9ee 023c 2cc1 b43d e713 b0bd
00000050: 6340 dfbc de84 1f3d 278d 243d 8bac 1d3e
00000060: 3feb f73d
