Models/model_MGM.pth (torch, 132765 bytes, 11 tensors)

lstm1.weight_ih_l0 f4 [200, 1]
000000 f9 d7 3f 3e fc fe 53 bc d5 89 1b 3f 58 f3 21 3d
       0.18734731 -0.012939211 0.6075719 0.03953871
000010 d3 49 92 3d e3 73 0a 3e ec e0 57 3e 4e 33 90 bd
       0.07142987 0.1352077 0.21081895 -0.070410356
000020 3d ed 71 3e 7a dd 24 3d 2b 55 a1 3c 6b 2f 96 3e
       0.23625655 0.04025028 0.019693932 0.29333052
000030 c7 dd b2 3a e3 78 a3 bc 88 f5 fe bc 3f 5e 3d 3c
       0.0013646417 -0.019955104 -0.031122938 0.011558115
000040 64 1e f3 3c 70 3a ce 3b ca 2b 08 3e 8c d3 ae 3e
       0.029677577 0.0062935874 0.13297954 0.34145772
000050 69 3c dc bc c1 ce 73 3e bd 42 c5 bd d0 b4 7d 3e
       -0.026884275 0.23809339 -0.0963187 0.24776006
000060 f6 47 22 3e 8d 06 27 3e cc 73 87 bc b8 64 4b 3d
       0.15847763 0.16311093 -0.016534708 0.0496566
000070 6e fd 88 3e 29 b6 ee 3d 56 25 6e 3e 90 1b d9 3d
       0.26755852 0.11655838 0.2325643 0.1060096
000080 21 34 13 3e d8 ab 35 3e 6d ee 32 3d 66 7f dd bb
       0.14375354 0.17741334 0.04368441 -0.006759572
000090 2b 4b f0 bd 67 3d 6e 3e 85 da 94 bc 5b 46 cd 3d
       -0.11733087 0.2326561 -0.018170604 0.10023185
0000a0 d9 3b 0a 3d 33 fe 4c 3d fd f0 8c 3e 51 7d 08 3e
       0.03374848 0.05004711 0.2752761 0.13329054
0000b0 e8 e5 0a 3e 42 28 99 3d 2b 6d 50 be 3b e5 34 3d
       0.13564265 0.07478382 -0.20354144 0.044163924
0000c0 08 62 2a 3e 71 8d 3e 3e 81 96 6a 3d 1c 2c 89 bd
       0.16638958 0.18608643 0.057272438 -0.06697866
0000d0 f6 e7 54 3e 59 4f 17 3e 31 a4 06 3e 79 e3 e7 3d
       0.20791611 0.14776362 0.13148572 0.11322684
0000e0 b2 b0 69 3d 6b 9f d0 bc fc 5c 0f 3e fd c6 5d 3e
       0.057053275 -0.025466641 0.14000314 0.2165794
0000f0 2c 35 fd 3d 47 65 89 3e 99 66 2d 3e 7a e5 84 bc
       0.12363657 0.2683508 0.16933669 -0.016222704
000100 43 24 d4 3d 7e 0e 8e 3e 8f ae e1 bd 94 98 10 3e
       0.10358479 0.27745432 -0.110196225 0.14120704
000110 ef 2d e2 bd 4e a0 77 3e a0 1a 95 3d 1f 61 bc 3e
       -0.110439174 0.24182245 0.07280469 0.36792848
000120 47 61 2d bc 53 ce d3 3d cb 34 f1 bb 82 99 bb 3d
       -0.010582275 0.103420876 -0.0073610297 0.09160139
000130 80 ec b1 3c 74 30 1f 3d 2e da 3b 3d 62 6d 19 3e
       0.021719217 0.038864568 0.04586237 0.14983132
000140 fa 0d 90 3e c9 4c b9 3d 5e 9d be bd 1a b0 a6 3d
       0.28135663 0.09047849 -0.09307359 0.081390575
000150 63 28 19 3e e0 55 2e be a1 a1 01 be c0 33 64 3e
       0.14956813 -0.17024946 -0.12659313 0.22285366
000160 90 05 31 3c 00 3c 91 3d 55 98 55 3d 6b 15 0a 3e
       0.010804549 0.07091522 0.05214723 0.13484733
000170 d6 a7 b5 3d c7 88 de 3d 8a c4 61 3d ee 03 86 3e
       0.08869903 0.10865932 0.055119075 0.26174873
000180 4d a3 01 be 74 9f 06 3e 12 e5 ba 3d 2b 1d 92 3d
       -0.1265995 0.13146764 0.09125723 0.071344696
000190 d7 18 89 be 4d f4 7e be 72 c5 51 3f ce 71 87 be
       -0.26776764 -0.24897881 0.819419 -0.26454014
0001a0 26 bb 92 be b5 6d 74 3e ff f8 e5 3d 2c 9e c2 bd
       -0.28658408 0.23869975 0.11229133 -0.09502825
0001b0 35 8d 36 be 58 31 1f 3d c7 60 3d be d1 fa e4 3d
       -0.17827304 0.038865417 -0.18493949 0.11180652
0001c0 71 c8 52 bd a8 ef c7 3d c4 4e ae bc 54 71 39 3d
       -0.051460687 0.09762508 -0.021277793 0.045274094
0001d0 a3 df 12 be 40 4e 2b bd f6 48 10 be e7 e7 c0 be
       -0.14343123 -0.041822672 -0.14090332 -0.37676927
0001e0 8d bb 43 bd 44 1e 80 3e fa a1 33 be d6 09 12 bd
       -0.047786284 0.2502309 -0.17542258 -0.03565391
0001f0 87 fd 7c 3e ea 86 b1 bc 2d 92 be bd 3c 9e cb 3d
       0.24706088 -0.021670777 -0.093052246 0.0994229
000200 60 2d 85 be b6 43 b7 3d 16 66 b3 bd 2d ed e7 3d
       -0.2601118 0.08948462 -0.08759706 0.113245346
000210 fc d1 91 3d 1c de ff 3d 67 e0 69 3d 7f a8 f1 3d
       0.071201295 0.12493536 0.057098772 0.11799716
000220 65 4f 20 be f2 a7 77 3e 63 25 22 bc 5b dd 2d be
       -0.15655287 0.2418516 -0.009896609 -0.16978972
000230 d8 93 7d be b4 9e 48 3e c4 92 84 3e dc 8e 7b be
       -0.24763429 0.1959179 0.25893223 -0.24566215
000240 1d bf d8 bd a5 c7 8c 3e de 7f bc bd 44 1c 97 bd
       -0.10583327 0.27496067 -0.09204076 -0.07378438
000250 60 6a 86 be a4 3c 8f 3e 23 f5 85 3e 4a d4 7e bd
       -0.26253033 0.27975953 0.26163587 -0.062214173
000260 b0 d5 dd 3e 23 6f 17 3e 0e 57 04 3e 2d 5f 98 3e
       0.43327093 0.14788489 0.12923834 0.29760113
000270 46 a4 8e 3d 16 c8 11 bc 50 6f b1 3e 35 f0 ea 3d
       0.069649264 -0.008897802 0.34655237 0.11471597
000280 69 65 58 3e 90 ea 10 3e 5c 4e 10 3e d5 91 f7 bc
       0.21132435 0.14151978 0.14092392 -0.030220905
000290 4f ae 10 3e a6 80 08 3e 0c b3 da bd 09 f8 51 bd
       0.14128993 0.13330325 -0.10678682 -0.051261935
0002a0 45 e7 f6 3a 12 3f 3a 3e 56 8e f5 3d 99 0e 3a 3f
       0.0018837234 0.18188122 0.11990039 0.72678524
0002b0 d0 04 d0 bd 89 c1 51 3e 97 4a f4 3d 5d 5e 4a 3e
       -0.10157168 0.20483984 0.119282894 0.19762559
0002c0 0a 58 33 3d 34 96 a2 3e 96 1d 3c 3e f5 be 84 3e
       0.043785132 0.3175522 0.18370661 0.2592694
0002d0 3b 9e 6a 3e 48 4d 9c 3e d5 62 7b 3d c6 8e ac 3e
       0.22911923 0.3052771 0.06137355 0.33702677
0002e0 fd 93 95 3e 99 6d e8 bd ea 0f e2 bd b9 95 91 3e
       0.2921447 -0.11349029 -0.110381916 0.28434542
0002f0 f2 f0 90 3d 30 79 3f 3e 8c 8a b8 3c 67 3e ed 3d
       0.07077207 0.18698573 0.022527002 0.11584168
000300 cc 92 89 3e dc 98 45 3e d3 18 93 3e d4 16 ad 3e
       0.2686981 0.19296592 0.28729877 0.3380648
000310 6c d2 c6 bd 3f d6 33 3e 13 be 56 3e ff 31 a9 3e
       -0.097081035 0.17562197 0.20970945 0.33045956

lstm1.weight_hh_l0 f4 [200, 50]
000000 78 14 5c 3d 5d 78 e0 bd b4 40 0d 3e 0b 3e 3a be
       0.053730458 -0.109604575 0.13794214 -0.1818773
000010 82 d7 41 3d 65 ff 17 3d f1 67 2f bd 3f 14 1d 3e
       0.047324665 0.037108798 -0.042823736 0.15339755
000020 b7 ec e9 bc b8 b2 14 3d 2c 36 08 3d a0 28 04 3e
       -0.028555257 0.036303252 0.033254787 0.12906122
000030 64 e9 fb bd c8 d4 a6 3d 53 89 2f 3c 92 dc 61 3d
       -0.12300375 0.081460536 0.010713893 0.055141993
000040 d3 b7 82 3d b0 31 e3 3d 82 cb 76 3d 92 9b 03 be
       0.06382718 0.110934615 0.060252674 -0.12852314
000050 17 8c 78 bd d7 fd ab bd d2 8b 5d 3c a3 f5 1a be
       -0.060680475 -0.083980255 0.013522105 -0.15132765
000060 6a 27 f4 bc 5f 34 52 bd 73 0a 4d 3d 32 e0 05 3e
       -0.02980395 -0.051319476 0.050058793 0.13073805
000070 bf c9 16 3d e3 73 f6 3d 03 73 b2 bd 3e f0 2e 3e
       0.036813494 0.120338224 -0.08713343 0.17083833
000080 27 65 c7 bc e5 2c c4 3d 45 60 20 3e 4f e3 f8 3c
       -0.024340225 0.095788755 0.15661724 0.030381827
000090 23 88 36 3b 8d d5 0c 3e 36 eb c8 bc d7 8b 81 3d
       0.002785214 0.13753338 -0.02452622 0.063255005
0000a0 9f 54 c1 3d bd 5f c3 bc a5 8e 8a bd aa ca 5e 3c
       0.09439968 -0.023849363 -0.067654885 0.013598124
0000b0 85 27 aa 3d 5b 53 e6 3d a8 fe a3 bc df ab 83 bd
       0.08308319 0.112463675 -0.02001889 -0.06429266
0000c0 bc 39 12 bd 6d 59 9d bc 7d fa 00 be ea a0 ea bd
       -0.03569959 -0.01920768 -0.12595554 -0.11456473
0000d0 b1 e4 14 3e e4 8d 30 3d 2d 85 53 be 56 79 88 bd
       0.14540364 0.043104067 -0.20656271 -0.06663768
0000e0 f4 be 92 3b 13 78 63 bd d4 b8 51 be 29 c2 83 3d
       0.00447833 -0.055534434 -0.20480663 0.064335175
0000f0 52 fa b4 bd df 2f 38 3e 24 38 2f 3d b1 3d 7a 3d
       -0.08836807 0.17987011 0.04277815 0.06109399
000100 4f 7f fe bd ed 56 93 3d 50 83 09 be 3c 11 df 3d
       -0.12426626 0.07194314 -0.13428998 0.10891959
000110 1e 5c 00 be 7c c2 16 be e8 a5 11 bd e0 c3 d6 3c
       -0.1253514 -0.14722627 -0.03555861 0.026216447
000120 0d 8a 06 be b4 7e 43 bd cf 9b 2c 3e dd d5 ac bd
       -0.131386 -0.047728255 0.16856311 -0.08439229
000130 3d b2 27 be 18 f1 35 3d d9 16 55 ba 19 77 9e bd
       -0.16376586 0.044419378 -0.000812871 -0.0773756
000140 d6 fa d6 3c e9 a2 58 3c c6 ca 9a bd 67 4c 83 3d
       0.026242655 0.013222435 -0.07558207 0.06411057
000150 17 a6 80 3d ca bb a0 bd 01 ad de 3d c9 78 42 3e
       0.06281679 -0.07848318 0.108728416 0.18991388
000160 4d a7 48 3d 25 e6 9b 3d 79 18 a3 bd e8 f5 c8 3d
       0.048987675 0.07612256 -0.07963652 0.09812528
000170 df 8f 6d 3d b3 25 3f be da f7 af bd c3 64 89 3d
       0.057998534 -0.18666725 -0.08592196 0.06708672
000180 56 67 94 bb 88 b4 40 bd e8 0c 01 be 24 02 a9 3c
       -0.00452892 -0.047047168 -0.1260258 0.020630904
000190 2a 21 71 be 98 ba 81 3e 2f 3c 93 3e a9 09 15 be
       -0.23547807 0.25337672 0.28756854 -0.14554466
0001a0 30 ca 28 be 7e 76 e9 3e a6 4e 4a 3e a9 37 e8 3e
       -0.16483378 0.45598215 0.19756564 0.45354965
0001b0 f8 39 f6 be 08 ea 0b 3f ca 41 0c be 18 3c 53 3e
       -0.48091102 0.5465398 -0.13696972 0.20628393
0001c0 9b 65 a8 be 12 32 47 be 18 c1 9f be 8d ff 96 be
       -0.3289002 -0.19452694 -0.31202006 -0.29491845
0001d0 9c 50 3c 3f ce 26 a1 3e 4b 38 a0 3d 65 18 97 be
       0.735605 0.31474918 0.07823237 -0.295108
0001e0 48 a0 24 be d8 f9 38 3f 63 8f 54 3f 96 8f 27 bf
       -0.16076767 0.7225623 0.8303129 -0.6545347
0001f0 c9 b9 2b bd 6f aa dd 3d e7 1b 91 be f6 12 db 3e
       -0.041925225 0.10823523 -0.283416 0.42787904
000200 b2 34 0f be 8f 18 47 3e 01 e4 a3 be 7a 32 50 3e
       -0.13984945 0.19442962 -0.3200989 0.20331755
000210 e9 64 9e 3e c6 dc ce 3e df 4f e0 3e 03 db 80 bf
       0.30936363 0.40402812 0.43810937 -1.0066837
000220 8b 7c 90 3e 57 de c8 3e 0f 77 0e 3f 19 81 68 bd
       0.2822002 0.39232132 0.5565042 -0.056763742
000230 af 1a 72 bd 44 f9 87 3e c8 eb 3e 3c fe 5a be be
       -0.05910748 0.26557362 0.011652894 -0.37178797
000240 07 c5 b2 be 2d d5 69 3e 50 96 36 3f c0 2b 8b be
       -0.34915945 0.22835226 0.7132311 -0.27181816
000250 55 64 fd bd 6a b9 0c 3e d2 2d ca bd 69 cd f4 bd
       -0.123726524 0.13742605 -0.09872021 -0.119532414
000260 8d 30 a8 bc 4f b3 fa bd 53 20 2b be 81 85 7c 3d
       -0.020530963 -0.12241232 -0.1671155 0.061650757
000270 9b 4e 00 3e e5 ad d2 3d 87 0e 3b 3d e1 a6 1b 3d
       0.12529986 0.10287074 0.04566815 0.038000945
000280 8a 8a 1c be 0b 7d ea 3d f3 52 2d bd bc f8 a6 bd
       -0.15287223 0.11449631 -0.042315435 -0.08152911
000290 9d 2c ab 3d 10 23 36 3d 1e 8c 91 3d 69 a2 2b bd
       0.08358119 0.044467032 0.07106803 -0.041902933
0002a0 bc fd 2e 3c 2a dd e9 bd 5f 55 13 be 0f 60 f3 3d
       0.010680612 -0.11419137 -0.14388035 0.11883556
0002b0 90 53 0f bd d6 8c 0f be 3b 6b 80 bd 0a 4d db bd
       -0.0349918 -0.14018568 -0.062704526 -0.107080534
0002c0 bc 9d 11 bd 6b ae 2c 3d 6f 47 27 3d 0b 60 0f bd
       -0.035550818 0.042158525 0.04083961 -0.035003703
0002d0 c1 fb 75 3d 49 ce 87 bd 58 e0 e3 bc 64 d0 d3 3d
       0.060054544 -0.06631143 -0.027816936 0.10342482
0002e0 e7 2e 8e 3d bf 90 95 3d 53 15 5d 3d e2 bf 9a bd
       0.0694254 0.07302999 0.053975414 -0.0755613
0002f0 b5 3f 23 3e 73 22 09 3d 9f a4 80 bd 7e 4b c0 3c
       0.15942271 0.03348012 -0.06281399 0.023473497
000300 11 50 ce 3d ed 75 48 bd 26 4f b6 3d 0a 68 0e 3e
       0.10073865 -0.048940588 0.08901815 0.13906875
000310 80 e6 29 3e 7d 88 c5 3c 26 6d 85 bd 26 c2 bc bd
       0.16591835 0.024112934 -0.06514959 -0.092167184
000320 32 38 7e bd 24 00 d3 bd 80 eb 4d 3e 38 3b c2 bd
       -0.06206531 -0.10302761 0.20109367 -0.09483951
000330 71 56 21 be 5f a1 97 3d 1d e1 11 bd 9a 3f c6 3d
       -0.15755631 0.07403826 -0.035615075 0.096801
000340 8d 73 cf ba 72 14 3d 3e c8 af 29 be aa 02 92 3c
       -0.0015827283 0.1846483 -0.16570961 0.017823536
000350 1a 27 32 be 7f cf 02 be 3d 46 36 bd 84 08 90 bd
       -0.17397729 -0.12774466 -0.04450058 -0.07032874
000360 fa 78 5a 3d e1 01 0d 3e 1e 45 8a bd 19 94 16 be
       0.05333803 0.13770248 -0.06751464 -0.14704932
000370 6b aa 40 be c8 89 b1 3d ee 5b a1 bd bc 3d 67 be
       -0.1881501 0.08668858 -0.07878862 -0.22582144
000380 b0 ad 71 3c a6 69 fa 3c 1c 77 60 3d 3c 94 cd bb
       0.014750883 0.030567955 0.05480109 -0.0062737744
000390 c8 55 6c bc 18 a3 69 bc 7f d1 42 3c f5 59 45 3e
       -0.014424749 -0.014260076 0.011890768 0.19272597
0003a0 8a 0c 7d bd 4a 1a a9 3d 66 c5 30 3e 36 67 c3 bd
       -0.061779536 0.08256967 0.17262802 -0.0954117
0003b0 39 cc 22 3e d2 4c 11 3e c5 7d 4b 3e 6c ca 8a 3c
       0.15898217 0.14189461 0.19872196 0.016942225
0003c0 dc 44 19 be 14 3c 3e 3e a0 ba 29 3e 86 94 a0 bc
       -0.14967674 0.18577605 0.16575098 -0.019602071
0003d0 e6 01 40 be b3 e2 30 3e 60 7a 7f 3d 92 19 42 be
       -0.18750724 0.17273979 0.062372565 -0.18955067
0003e0 c4 f0 dc bd 4b 5d 52 3d 9f 8c 2a bd 47 7f 98 bb
       -0.1078811 0.051358502 -0.041638013 -0.0046538445
0003f0 92 e6 91 bd ab 96 1f be e1 54 04 be af 43 f0 bd
       -0.07124056 -0.15584819 -0.12923004 -0.117316596

lstm1.bias_ih_l0 f4 [200]
000000 ae 7f 90 bc 7c 82 2e 3c 77 69 b1 3e ae 06 9b 3d
       -0.017639007 0.010651227 0.34650776 0.075696334
000010 db f3 fc 3d 05 25 eb 3d 27 54 c3 3d 85 64 c9 3d
       0.12351199 0.1148167 0.09537535 0.09833626
000020 85 21 0b 3e 14 48 32 3e 35 cf e5 3d c7 8c bf bd
       0.13587005 0.17410308 0.11221162 -0.09353023
000030 a1 a9 d3 3d 66 3b 7a 3c ec 2f 17 3d 92 21 bb 3d
       0.103350885 0.015272951 0.036910936 0.091372624
000040 46 a6 97 bd 98 98 41 bd 68 fd 05 3e 40 49 7c 3e
       -0.07404761 -0.047264665 0.13084948 0.24637318
000050 0d f9 f1 bd 69 21 53 3e c1 d6 2c 3e a6 32 03 bd
       -0.11815081 0.20618214 0.16878797 -0.032030724
000060 2f 88 0b 3e ee ad cd bc 79 a7 3a bd 5b 99 f2 3d
       0.13626169 -0.02510735 -0.04556987 0.118456565
000070 c3 88 d3 3c 1d 58 09 be 49 19 53 bd 14 cf 12 bd
       0.025822049 -0.13412519 -0.051537786 -0.035842016
000080 ec 6d 95 3d 79 20 f8 3c bd 0b ca bd 4e b3 c7 3c
       0.072963566 0.030288922 -0.0986552 0.024377491
000090 29 8c 0d bd 03 78 67 3d 01 e2 aa 3b 62 4f 45 bd
       -0.034557495 0.056510936 0.00521493 -0.04817141
0000a0 9f 16 01 3e 28 8b 93 bd 90 42 31 3e cc 96 48 3e
       0.12606286 -0.07204276 0.17310548 0.19588774
0000b0 0b 9a f5 3d 59 d6 46 3e 6e 3f 6c 3c d3 7c 8b bd
       0.11992272 0.19417705 0.01441942 -0.06810918
0000c0 f8 6a 1a 3e 71 28 ed 3d 3f 2b 8c bd bc 5d cd 3c
       0.15079868 0.11579979 -0.06844186 0.02506911
0000d0 76 59 17 3c 5f 0e 31 3d 34 e9 54 3d 84 30 25 bd
       0.009237638 0.043226596 0.051980212 -0.04032947
0000e0 97 20 08 be e2 7b 0b bd 9a 74 c7 3b 02 f8 cf 3d
       -0.13293682 -0.03405369 0.006086898 0.101547256
0000f0 5f 28 9d 3d 84 6c 07 be 75 60 ce bd 69 89 36 3c
       0.07673716 -0.13224989 -0.100769915 0.01114116
000100 fe b1 fc 3c 6f 23 a1 bd d7 47 81 bd b7 f9 f3 bd
       0.030846592 -0.078680865 -0.063125305 -0.11912864
000110 b5 7b ff 3c 98 91 d7 3d d1 ba ca bd ec 3a a1 3d
       0.031186918 0.10525817 -0.09898914 0.078725666
000120 62 f7 ed 3d 10 d8 83 3d 5b cf a7 bd 1c 79 fd bc
       0.1161945 0.06437695 -0.08193847 -0.030941539
000130 68 8d 14 be 94 83 99 3d 99 a7 d6 bd 6f 46 5d bc
       -0.14507067 0.074958 -0.104811855 -0.013505562
000140 8a 8e 5a bd ba 43 1b be 66 47 c8 3d b2 4c 6f bc
       -0.053358592 -0.15162554 0.09779243 -0.014605688
000150 62 c7 97 3d fc d8 23 bd 10 31 01 bd 81 d4 22 3e
       0.07411076 -0.040001854 -0.03154093 0.15901376
000160 3f bd 38 3d 76 93 a8 bd 14 db f1 3d 2d 3d b0 bd
       0.045102354 -0.08231251 0.11809364 -0.08605418
000170 f4 e8 88 3d 82 2f 87 3d 60 be 02 be e9 80 be bd
       0.06685057 0.06600858 -0.12767935 -0.093019314
000180 64 71 fc bd f5 02 35 3d bf e4 e3 bd 1c a4 24 3b
       -0.12326315 0.044192273 -0.11127614 0.002512223
000190 94 db 0a 3e fc 4b a1 3d 98 48 bf bd 3f 2c 2a bd
       0.13560325 0.07875821 -0.09340018 -0.041546103
0001a0 7e 98 38 bd 11 aa df b9 d8 b3 a6 3c 6a bf 9b 3c
       -0.045067303 -0.00042660584 0.020349428 0.019012172
0001b0 c5 01 3c bd 93 57 32 3e a2 52 d7 bd 7a 28 09 be
       -0.045900125 0.1741622 -0.10513808 -0.13394347
0001c0 28 77 be bd 67 f5 45 bd 98 b0 cd bd d8 11 89 bd
       -0.09300071 -0.048329737 -0.10043448 -0.066928566
0001d0 c7 70 09 be 12 eb 83 3d 4f fe 95 bb 96 f0 4e 3c
       -0.13421927 0.064413205 -0.004577435 0.012630602
0001e0 f8 6c ac 3d b4 ff 27 3c b8 67 74 bc eb b9 0b be
       0.08419222 0.0102538355 -0.014917307 -0.13645141
0001f0 29 72 7e 3d 61 bb 86 bc 2b d1 f6 bc 13 2e d9 3c
       0.06212059 -0.016446771 -0.030129036 0.026511228
000200 93 dc e2 bd 3d 63 ea 3d 2b 47 1d bd c9 78 16 3d
       -0.110772274 0.114447095 -0.03839795 0.036736283
000210 79 5b 67 3d 74 05 48 3b 4c a6 6d 3d d5 06 07 3d
       0.05648372 0.0030520828 0.05801992 0.0329655
000220 c1 bc 46 3d b2 23 00 3e de 85 75 3d f2 85 4a bd
       0.048519854 0.12513617 0.05994212 -0.049444146
000230 ce 08 30 bc 9b c1 c8 3d 97 49 18 3d 6b 1f c0 bc
       -0.010744287 0.09802552 0.037179556 -0.023452481
000240 94 b6 a7 bd bb b1 a6 bb f7 e2 89 3d 9d 4a a8 3d
       -0.08189121 -0.005087105 0.06732743 0.08217356
000250 6f 59 03 bc 63 b7 d8 3d fc ec fe bb 58 2d ae 3c
       -0.008016928 0.10581853 -0.0077797156 0.021261856
000260 7e e8 06 3f c2 97 ed 3c b4 7f aa 3c 67 10 a1 bd
       0.52698505 0.029003028 0.020812847 -0.078644566
000270 66 20 af bd b5 9a c1 bd d0 cc b7 3d 8a 97 7a 3d
       -0.085511014 -0.09453336 0.08974612 0.061179675
000280 47 7d dc 3d 0b ed 11 3d 21 6e 6a bd 6b 90 e0 bc
       0.10766082 0.035626452 -0.057233933 -0.027412614
000290 44 8f e0 bd c3 9c 28 be 23 fe c8 bd 0c 8c 10 be
       -0.10964826 -0.1646605 -0.09814098 -0.14115924
0002a0 46 d2 e8 3d b5 09 81 3e a9 8b 7b bd a3 52 a0 3c
       0.113682315 0.25202718 -0.061412487 0.019570654
0002b0 1b 1a 29 3d 14 b1 5b bd a5 4d 4d 3e 62 3a 39 bb
       0.04128466 -0.05363567 0.2004915 -0.0028263559
0002c0 c4 32 8d bd b9 d1 ba 3d 27 ed 86 bd 02 8e 82 3d
       -0.068944484 0.09122033 -0.06588202 0.06374742
0002d0 20 77 44 bd 83 69 a8 bd 0a 04 e0 bd dd 7d 6b bd
       -0.04796517 -0.0822325 -0.109382704 -0.05749308
0002e0 00 c2 08 3d e9 2c ee bb 2a 84 10 be 48 51 99 bd
       0.033388138 -0.0072685373 -0.14112917 -0.07486206
0002f0 30 09 12 3b a4 04 51 bd 0f 60 c1 3d d3 0e b5 3d
       0.0022283308 -0.051029816 0.0944215 0.08840718
000300 97 a2 c8 3d 24 a5 76 3e 96 5b 40 bc 3c 10 b2 3d
       0.097966366 0.24086434 -0.011740586 0.08694503
000310 ff 04 a1 3d 91 87 b8 bd bc 17 03 bd 36 c3 65 3e
       0.07862281 -0.09010232 -0.032005057 0.22437748

lstm1.bias_hh_l0 f4 [200]
000000 ff 10 26 3e 9d d8 e7 3a 68 ab 07 3f 30 70 95 bd
       0.16217421 0.0017688457 0.5299592 -0.07296789
000010 42 dd 51 3d 49 1d a2 bd d1 cc 98 bc 69 8c c3 bd
       0.0512364 -0.07915742 -0.018652352 -0.095482655
000020 45 05 26 3e 52 bc 2a 3e ff a8 e5 bd 8e 89 01 3c
       0.16212948 0.16673401 -0.11213874 0.007906331
000030 63 8a 0a be 28 8f 10 be 59 5f b8 bd 53 b7 6a 3d
       -0.13529353 -0.1411711 -0.09002561 0.057303738
000040 3e 40 af bd 52 1f b1 bc ae 24 3d 3b 1d d7 8a 3d
       -0.08557175 -0.02162138 0.0028860974 0.06779311
000050 be eb 36 be 4d 74 09 3e 2c a3 8d 3d 8a 9a af bb
       -0.17863366 0.13423271 0.06915888 -0.0053589987
000060 d3 79 e9 bc 95 4b ac 3d a6 d2 92 bd d9 71 4a bd
       -0.028500473 0.08412854 -0.07169084 -0.04942498
000070 11 5b 8c bc 65 54 3f 3d fc 9d 80 bd 58 52 14 be
       -0.017133268 0.046711344 -0.06280133 -0.14484537
000080 88 83 da bd 75 a9 a0 3d 9b fe 06 bd 69 5f 3f 3e
       -0.10669619 0.07844821 -0.032957654 0.1868874
000090 8f 7c e6 ba 30 f2 83 bd 45 95 d0 bc 2b e3 7f 3d
       -0.0017584729 -0.06442678 -0.025461802 0.062472504
0000a0 fd d5 82 bd a6 f5 73 bc 09 a2 d3 bb 3e cf 5a 3e
       -0.06388471 -0.01489011 -0.006458525 0.21368119
0000b0 a6 99 eb 3c 27 3c 6b 3e f8 79 59 bd c1 91 e8 3d
       0.028759789 0.22972165 -0.053094834 0.11355925
0000c0 a3 67 e7 bc 43 da 76 3e 1d 38 c5 3c c7 fc 86 3d
       -0.02824766 0.24106698 0.024074608 0.06591182
0000d0 3e a0 5a be a4 18 a9 3d f6 7a e2 bd cc 3e 17 bd
       -0.2135019 0.08256653 -0.11058609 -0.036925122
0000e0 27 9e d9 bc d9 2e 1b be cf 0e cc 3d 3a e7 42 3e
       -0.02656467 -0.1515459 0.09963762 0.19033518
0000f0 ad 19 ae bd ff de de 3d ab 09 6e 3d e8 98 75 bd
       -0.08500991 0.10882377 0.05811469 -0.059960276
000100 57 73 15 3d b7 82 f0 bd 73 77 ed bd 49 ba 85 3d
       0.03648695 -0.11743682 -0.11595049 0.06529672
000110 34 41 66 bd d5 12 87 bc 7c db 3b 3a 3f bf ff 3d
       -0.056214526 -0.016488472 0.00071661896 0.12487649
000120 a0 1a e7 3c 39 d3 05 be 7f 88 e0 bd 68 a7 5b bd
       0.028210938 -0.13068856 -0.109635346 -0.053626448
000130 b5 26 04 be 76 ca 9a bd 8b 5c 8b 3d 57 72 c3 3d
       -0.1290539 -0.075581476 0.068047605 0.09543293
000140 e0 f6 14 bd 47 48 af 3c ba 96 86 3a fe 87 ed bd
       -0.03636825 0.02139677 0.0010268309 -0.11598204
000150 91 7a 4a bc 75 4c 12 3e 09 18 07 3d 71 36 ec bc
       -0.012358324 0.14286979 0.032981906 -0.028834553
000160 51 e5 8d 3d 26 aa c6 bd 30 10 ec 3b 20 49 1a bc
       0.06928504 -0.09700422 0.007204078 -0.009416848
000170 b1 b7 3b 3d 3e 25 28 3e 4d 80 b6 3d e9 30 07 3e
       0.04582948 0.16420457 0.0891119 0.13202251
000180 96 27 ca bd 67 9b a8 3d 1b 70 fb bd 99 bf d6 bd
       -0.09870832 0.08232766 -0.12277242 -0.10485763
000190 b8 05 c3 bd 12 4b 9b 3d 48 1b a0 3d 5c 0b a3 bc
       -0.09522575 0.07582678 0.078177035 -0.019902878
0001a0 25 68 b4 3d f8 04 37 bc 5b ea 68 3d 78 64 ce 3d
       0.088089265 -0.011170618 0.056864124 0.10077757
0001b0 79 49 1a bd fb 21 b4 3c 14 26 98 bc 96 06 d5 3d
       -0.037667725 0.02198886 -0.018572845 0.10401647
0001c0 26 a2 52 3d f1 64 3f bd 90 a4 36 bc ff b1 bb b9
       0.051424168 -0.046727125 -0.011147633 -0.00035800037
0001d0 ed 07 04 3e 42 55 93 3d dd ff 13 3d da 05 dc 3d
       0.12893648 0.07193996 0.036132682 0.107433036
0001e0 a0 9e cd 3d bd b6 aa bd 9c f4 4f 3c 56 17 a2 3c
       0.10040021 -0.08335636 0.012692597 0.019786518
0001f0 7e 71 c5 bc e2 43 96 3d c3 b1 d7 bd 12 03 de 3d
       -0.024101969 0.07337166 -0.10531952 0.10840429
000200 46 45 02 3e ad f0 64 bd d7 c7 27 3d d3 54 a7 3c
       0.12721738 -0.05589359 0.040962067 0.02042619
000210 a6 58 c7 3d 7a 17 d6 3d dd fb e1 3c 44 27 da bd
       0.09733705 0.104536965 0.027585918 -0.106520206
000220 e7 61 ce bd 41 e6 e4 bd 77 57 b2 3d 5a 86 ed 3d
       -0.10077267 -0.1117673 0.08708089 0.11597891
000230 2a 98 a4 3d f9 5f 83 bd 27 68 5d 3c 01 a7 44 bd
       0.080368355 -0.0641479 0.013513601 -0.04801083
000240 ee 06 13 3d 7c 35 e3 bc 69 b9 9d bd af dc 66 3d
       0.03589528 -0.027735464 -0.0770138 0.056362804
000250 eb bc 7c bd db c5 f6 bd 78 59 39 bd 41 45 81 bc
       -0.061703604 -0.12049457 -0.04525134 -0.015780093
000260 7c 2b ca 3e 4d d1 0f 3c 75 a1 bf 3d cf 9f 16 3e
       0.394863 0.008777929 0.09356967 0.147094
000270 3d dc e7 bc 04 fb 04 bd 9e b3 af bd ca c2 ae 3d
       -0.02830326 -0.03246595 -0.08579181 0.08533247
000280 5e 2d 1d bd 84 ce a7 bd 97 43 47 bc 2d 1a 8e ba
       -0.038373344 -0.081936866 -0.012162111 -0.0010841541
000290 6a ed 19 3d 22 c9 c9 3d 16 f2 0c 3e 77 70 a1 bd
       0.03757993 0.09852816 0.13764223 -0.07882779
0002a0 98 ef 05 3e 9f c9 90 3e 81 28 9f bd 46 72 cb 3b
       0.13079679 0.28278825 -0.077713974 0.006208691
0002b0 03 ae b6 bd ab 46 bc 3d 63 80 f1 3d 43 5f 41 bc
       -0.08919909 0.09193166 0.11792066 -0.011802497
0002c0 38 a3 b7 3c 3b 6d d7 bd 97 a3 0a bd f8 a3 22 bd
       0.022416696 -0.10518881 -0.033847418 -0.039707154
0002d0 4c c7 14 3d b4 1a 8d bc 5d 88 ec bc 0e 76 8f bd
       0.036322877 -0.017224647 -0.028873617 -0.07004939
0002e0 a0 1e 4c bd f9 22 c5 bb 59 b0 4c bd 90 d6 9f bc
       -0.049833894 -0.006016132 -0.049972866 -0.019511491
0002f0 10 83 b5 bd 4c 8b 72 3d f5 df 0f 3e ab 47 af bd
       -0.08862889 0.059214875 0.14050277 -0.085585915
000300 53 06 de 3c 74 05 15 3e 49 b2 da bd 31 1a 67 3e
       0.027102625 0.14552861 -0.106785364 0.22568585
000310 48 78 88 bc 63 c9 9d bd 6b 13 bc 3d 98 41 54 3d
       -0.016658917 -0.07704427 0.09183391 0.051820368

lstm2.weight_ih_l0 f4 [200, 50]
000000 78 6d 15 be 65 8e db bd 23 e7 4f 3c df cc 9d 3c
       -0.1459254 -0.10720519 0.012689385 0.01926273
000010 52 5b 5a be 98 a9 6a 3e e9 79 0d 3d 28 25 c6 3d
       -0.21323898 0.22916257 0.03454009 0.09675056
000020 72 fe 05 be 83 3c 49 3d c1 69 12 be 81 c0 25 3e
       -0.13085344 0.049129974 -0.14298154 0.16186716
000030 27 31 c6 3d 86 20 ce 3a 0f eb 27 be 8e 7c 80 bc
       0.09677344 0.0015726245 -0.16398261 -0.015684392
000040 ca 7c fb 3d e5 b7 d2 3d 51 01 b6 3d 1a f6 d8 bd
       0.12279661 0.10288981 0.0888697 -0.10593815
000050 c0 5e 9e bd 68 7a af 3d ba fd 15 3d eb 21 29 be
       -0.07732916 0.08568269 0.036618926 -0.16516845
000060 c9 22 54 3d 87 0a c2 3b eb 47 2a 3d 21 bc ac bc
       0.051790986 0.005921665 0.041572493 -0.0210858
000070 d7 00 b7 bd bd 01 0d 3b 46 cf 63 3d 34 b1 9e bd
       -0.08935707 0.0021515929 0.055617593 -0.077486426
000080 39 21 e0 bb 5f 02 a5 bd a2 43 fd 3d 3a 3b ea 3c
       -0.006839898 -0.08057093 0.123664156 0.028592695
000090 bd 65 04 3e d3 ce e3 bc fd fe 6c 3d e6 c3 03 3c
       0.12929435 -0.027808582 0.057860363 0.008042311
0000a0 a8 bb 3f be 3a 67 c5 bd 22 fc 16 bc 76 d6 24 be
       -0.18723929 -0.096388295 -0.009215387 -0.16097435
0000b0 2d 75 a7 bd 52 06 4c 3e a9 c2 3c bd 13 8e 1d be
       -0.081766464 0.19924286 -0.04608408 -0.15386228
0000c0 2c fd 0f be a1 ae 9f bd eb 07 da be 31 19 3a 3e
       -0.14061421 -0.0779698 -0.42584166 0.18173672
0000d0 48 bf 29 3e 72 ab 8b be 3b 62 8e be 85 02 e1 3e
       0.16576874 -0.2727924 -0.2780932 0.43947235
0000e0 7f fe 18 3e f3 e8 93 3e 2b 53 80 bf 06 12 74 3f
       0.14940833 0.28888664 -1.0025381 0.9534
0000f0 56 ef b1 be eb 4d ca 3e d6 f3 c8 be a4 c9 6c be
       -0.3475291 0.39512572 -0.39248532 -0.23123795
000100 a4 a9 f6 be 2e 13 8e be 40 57 00 3f 32 45 f3 3d
       -0.481763 -0.27749008 0.5013313 0.11878432
000110 e6 1f 81 3e 92 84 44 be 0f ee d3 bd 94 73 2e 3f
       0.2521965 -0.19191197 -0.103481404 0.6814511
000120 40 8d b2 3e fe 8f 43 bf 74 a5 c2 3d 36 67 8a 3e
       0.3487339 -0.7639159 0.09504214 0.2703187
000130 ff 23 a2 be 4c c4 f5 3e 0c 80 e6 be 4f 24 76 3e
       -0.31668088 0.48001325 -0.45019567 0.24037288
000140 37 85 8f be fc f8 ef 3e 19 c1 39 3e 3e 15 b3 3e
       -0.28031322 0.46869648 0.18140067 0.34977144
000150 45 14 dc 3e f2 b5 20 bf 7c d3 44 3d c8 f2 9a 3e
       0.42984214 -0.62777627 0.04805325 0.30263352
000160 9a 60 07 3f d4 08 6b be 0c 99 3c be 9d 35 86 3e
       0.5288178 -0.22952586 -0.18417758 0.2621278
000170 0b e2 9e 3d d3 37 17 be ed 0a a2 be 58 56 17 3f
       0.07757958 -0.14767389 -0.3164896 0.59116125
000180 52 15 9e 3e 62 42 3a be e6 53 ea be 62 24 b4 3d
       0.3087564 -0.18189386 -0.45767134 0.08796002
000190 ea 1b 64 bd c9 4b 41 3d 20 3c 8f 3e 3a 74 14 be
       -0.055690683 0.047191415 0.2797556 -0.14497462
0001a0 e2 1a 31 be 8d bf 2f 3e d9 3a 11 3d ef 99 02 3d
       -0.17295411 0.17162915 0.035456512 0.031885084
0001b0 20 23 7b bd 3c b3 0d 3e 4a 8c a7 bd 90 59 5f 3e
       -0.061312795 0.13837904 -0.08181055 0.21811509
0001c0 ef 58 8c bc f8 44 04 be e4 d3 33 be b0 f6 41 3d
       -0.01713225 -0.12916934 -0.17561299 0.0473544
0001d0 95 ed 2c bc 63 53 37 3d 72 48 15 be 83 e3 86 be
       -0.010554691 0.04475726 -0.14578417 -0.26345453
0001e0 ec ec c4 3d ba 6c 79 bc 40 25 49 bd c5 2f 81 3d
       0.09615502 -0.015223676 -0.04910779 0.063079394
0001f0 31 c0 07 bd 46 7a 49 3c 7c 03 a2 3d 5c 77 9a 3d
       -0.033142272 0.012297219 0.07910821 0.07542297
000200 44 a9 09 be ae ff ac 3d 47 34 c7 bd 62 a1 a3 bd
       -0.13443476 0.084472045 -0.09726768 -0.07989766
000210 ca fe 92 3d a7 15 e8 3d da 5b 1c bd cf 47 0a 3e
       0.071775034 0.11332255 -0.038173534 0.13503955
000220 c9 8a dd 3d f6 77 95 3d 76 e3 35 3e 59 94 1c be
       0.10817487 0.07298271 0.1776255 -0.15290965
000230 02 c7 59 3d ad d3 53 3c 8b f6 31 3e dc d2 12 be
       0.053168304 0.012928885 0.17379205 -0.14338249
000240 0b a6 dc bd 8b bd 0b 3e d8 94 9d bd 96 87 08 3d
       -0.10773858 0.13646524 -0.07694405 0.03333243
000250 73 19 1f be 1d 41 99 3d 81 7a 5f be 14 f1 6d 3d
       -0.15537052 0.074831225 -0.21824075 0.05809124
000260 fb 99 89 3e 89 c1 3a be 1f b3 26 be 2d a4 91 3d
       0.2687529 -0.1823789 -0.16279267 0.07111392
000270 59 32 aa bd 80 e2 8f bd 07 df 54 bc b5 a0 09 3d
       -0.08310384 -0.07025623 -0.012992627 0.033600528
000280 a3 c6 d4 bd 88 e6 9b bb c3 e7 c7 3c 4b 16 68 bd
       -0.103894494 -0.004757706 0.024402505 -0.056661885
000290 c7 1b d2 3c 12 fc ac bd e9 0d 1f 3d eb c3 86 bd
       0.02564801 -0.08446516 0.038831625 -0.06580337
0002a0 3e d3 e8 3c 31 c7 89 bd 5a 4a 1e be 78 76 6a 3e
       0.02842104 -0.06727446 -0.1545805 0.22896755
0002b0 10 9a 0e bd 0a f3 22 be ca 2c b3 3c 2d 73 54 3d
       -0.034814894 -0.15913025 0.021871943 0.051867653
0002c0 e7 4f f5 3d 48 9e 3b 3e b2 86 11 bd df 1d 07 bd
       0.11978131 0.18322098 -0.035528846 -0.03298747
0002d0 cd cc b4 bb 81 ee 58 3d 50 01 10 be a2 b5 c6 3d
       -0.005517578 0.05296183 -0.14063 0.097026125
0002e0 bb 4b 2b 3e 86 7e 9f bc 40 64 05 3e a4 2a 98 3d
       0.16728108 -0.01946951 0.13026524 0.07430008
0002f0 7f 2b 36 3e 34 da bd bd 51 50 3e 3d 27 c8 28 bc
       0.1779003 -0.092701346 0.046463314 -0.010301626
000300 44 c7 7c 3c 38 d0 a4 bd 51 76 f1 3c a6 e8 06 3c
       0.015428368 -0.08047527 0.029475363 0.008234179
000310 c9 ae 91 bd 09 da 7e 3d 9d de 7f 3c 88 cf 50 3e
       -0.07113416 0.062219653 0.01561704 0.20391667
000320 11 42 23 bc 01 0d 79 bc 30 d1 13 3d d6 e4 68 3d
       -0.009964482 -0.015200854 0.03608817 0.05685886
000330 c9 4e e1 3d e5 b5 98 bc 27 90 c9 bd 50 76 07 3e
       0.11001355 -0.018641422 -0.09841948 0.13228726
000340 9d 0f 84 3d b3 a3 c4 bd 34 0e b3 3d d2 61 21 3d
       0.064482905 -0.09601536 0.087429434 0.03939993
000350 45 d8 19 be c7 70 91 bd 35 3d e8 bd 2a c8 36 3d
       -0.15023907 -0.07101589 -0.11339799 0.044624485
000360 98 51 1e be 65 00 21 3e f5 79 31 3d 3a b3 cd 3c
       -0.15460813 0.15722807 0.043329198 0.025109876
000370 fe a5 e2 bd 2f 3f a4 bd 11 61 34 bd 90 d7 fd 3d
       -0.11066817 -0.08019864 -0.044037882 0.12394631
000380 fc 1f c6 bd 25 88 d5 3d 22 8f 52 bc 7d ca b3 3d
       -0.09674069 0.10426358 -0.012851508 0.08778856
000390 51 44 64 bd f0 2b 38 bd ab 29 98 bd c1 68 a6 bd
       -0.055729214 -0.044963777 -0.074298225 -0.08125449
0003a0 45 57 be 3d 28 ab ef 3d ec cf 41 bc 45 b1 91 bd
       0.09293989 0.11702567 -0.011829358 -0.071138896
0003b0 ae d8 01 3e a3 1b 09 3e 03 a7 ea bd 69 bd 55 3d
       0.12680313 0.13389449 -0.11457636 0.05218259
0003c0 01 e0 df bc ec 27 01 3e de 41 aa 3c 62 95 a1 bd
       -0.027328493 0.12612885 0.020783361 -0.07889821
0003d0 d3 33 fd bd b7 23 e7 3d 31 90 e8 bb a9 34 0a be
       -0.123634 0.11286109 -0.007097267 -0.13496651
0003e0 32 89 d5 bd c3 23 ba 3d a8 b5 02 be 2b 84 6c 3d
       -0.104265586 0.09088852 -0.12764609 0.057743233
0003f0 ae 8b d2 3d 9d d0 6f bd 01 55 25 3d d4 1b 41 3e
       0.10280548 -0.05854856 0.04036427 0.18858272

lstm2.weight_hh_l0 f4 [200, 50]
000000 0a 3e 9b 3d 77 ee cb 3c 29 78 fe bd 88 e9 97 bd
       0.075801924 0.024893982 -0.124252625 -0.074175894
000010 34 25 b6 bd 93 d4 0d 3d fd 41 fa bd 0f 4b e6 bd
       -0.08893815 0.034626555 -0.122196175 -0.11244785
000020 32 94 11 bd 63 92 b7 bd a7 e0 ac 3d 0c 4d c9 bd
       -0.03554172 -0.08963468 0.084412865 -0.09829149
000030 6f bb c1 3d da 9d b9 bc 08 65 9d 3d b0 06 74 3d
       0.09459578 -0.022658277 0.07685286 0.05957669
000040 14 09 37 be 8f 74 d4 3d 5c 63 13 be 3b 78 73 3d
       -0.17874557 0.10373794 -0.14393371 0.059440833
000050 3b 22 80 3c 1f 85 08 be bf 01 ea bc 19 d0 71 bd
       0.015641322 -0.13332032 -0.028565286 -0.059036348
000060 a0 25 05 3e 58 3e d2 bd 89 7a f8 bd 06 e5 02 be
       0.13002634 -0.102657974 -0.12132747 -0.12782678
000070 4b 8d ac 3d 27 33 3d bd 9b cc a5 bd db 26 e7 3d
       0.08425387 -0.04619136 -0.08095666 0.11286708
000080 b3 48 11 3d b8 d1 1b 3e 24 f6 c5 3c 59 d0 ae bd
       0.035469722 0.1521672 0.02416522 -0.08535833
000090 38 46 f9 3a cf e2 d5 3d 44 fa cf ba 6d 61 ae 3d
       0.0019018119 0.10443651 -0.0015867432 0.08514676
0000a0 90 ef 34 bd 96 5f 14 bd 18 b1 81 3c 60 1f 69 3d
       -0.044173777 -0.03622397 0.015831515 0.056914687
0000b0 f7 27 00 be 21 31 ef bd 20 e1 19 be 09 db d1 bc
       -0.12515245 -0.116792925 -0.15027285 -0.02561714
0000c0 06 03 83 3d 79 8b 00 3e 7f 63 15 3c 68 ea 8e bc
       0.06397061 0.12553205 0.00911796 -0.017445758
0000d0 18 02 d4 bd 33 24 49 bd 36 d8 51 bd e5 95 82 3e
       -0.10351962 -0.049106788 -0.051231585 0.25504985
0000e0 8c 12 37 3e fa 29 2a bf 41 b9 63 be 72 58 2f 3e
       0.17878169 -0.664703 -0.22238638 0.17123583
0000f0 4b c8 96 bc 8c 6f 35 3e b3 3c dd bd 7f 6f 98 3c
       -0.018406054 0.17718333 -0.10802593 0.018607853
000100 6a 06 a7 3e 54 3f 3e 3f 9d 2f 49 bf 3b e1 60 3e
       0.3262208 0.7431538 -0.7858828 0.21960919
000110 a5 fe 07 bf ea 5c 93 be 18 74 85 3e 81 78 93 3e
       -0.5312293 -0.28781825 0.26065135 0.28802875
000120 b7 5e b7 3c 2d 41 83 bf bf d9 c8 be 1e 87 ce be
       0.02238403 -1.0254265 -0.39228627 -0.4033746
000130 49 f0 60 3e 13 52 f8 3e ff 50 8f be 8d 63 13 3e
       0.21966662 0.48500118 -0.27991483 0.14393444
000140 f3 da 4f 3e 61 0b e9 bd 94 d7 17 3d 83 d1 d3 3e
       0.20298366 -0.113791235 0.037070826 0.41370782
000150 d9 17 cc be a5 8c 2b 3d 43 f7 83 3e 8c 80 9a 3e
       -0.39861944 0.041882176 0.25774583 0.30176198
000160 fc 7a 61 3e c3 e0 cf bf 8a 00 14 3e d1 c3 71 3e
       0.22019571 -1.6240467 0.1445333 0.23609854
000170 6f 69 49 bd 55 02 87 be 82 76 23 be 11 a1 2d bf
       -0.049172815 -0.26368967 -0.15963176 -0.6782389
000180 da c0 07 3e 24 2c 28 3e 18 46 71 3e 17 95 2f bd
       0.13257161 0.16423088 0.23561895 -0.042866793
000190 d3 95 d3 bd e5 b8 2e bd 41 44 62 3d ca 3b f0 3d
       -0.10331311 -0.042656798 0.055240873 0.11730154
0001a0 13 49 41 3d 13 a8 07 be 29 52 85 3d 68 51 dd 3d
       0.04718883 -0.13247709 0.065098114 0.10806543
0001b0 b1 e4 e1 bd e2 6b 36 bd cd 1a 84 3c 34 8d 0a 3e
       -0.110299475 -0.04453648 0.01612606 0.13530427
0001c0 42 04 b9 3d 01 3a f5 bd ef 60 b9 3d bc 44 95 3d
       0.09034015 -0.11973954 0.09051692 0.07288501
0001d0 e7 ae 2d bb 31 a3 67 bd 2b a5 ce bd 71 ea e8 bd
       -0.0026501955 -0.056552116 -0.10090097 -0.11372841
0001e0 11 5f 4e bb ab 99 fb bd 18 14 31 bd a1 7b c9 bd
       -0.003148977 -0.12285169 -0.043232054 -0.098380335
0001f0 28 84 21 3e c0 48 92 bd a5 9c 47 bd bc 31 8c 3d
       0.1577307 -0.07142782 -0.048733372 0.068454236
000200 47 d3 08 be 71 7f 15 be 4b f1 d5 3d 21 1e 47 bd
       -0.13361846 -0.14599396 0.104464136 -0.048612718
000210 77 0c 10 be fc 8a c3 3d ef b2 b6 3d 0f 4d 38 be
       -0.14067255 0.095479935 0.089208476 -0.17998146
000220 0d f7 49 bd db 72 d7 bd 96 f2 15 bd 12 d7 d9 3d
       -0.04930787 -0.10519954 -0.0366083 0.106367245
000230 d9 c5 11 be 94 f8 db bd b3 24 88 bd 6a 66 5e 3d
       -0.14235629 -0.10740772 -0.06647625 0.05429689
000240 4e 36 a3 bd b6 bd ea 3c 88 07 1e bc 6b d2 12 3d
       -0.07969342 0.028654914 -0.00964535 0.0358452
000250 9e 1b e9 3d 53 b8 1c 3d 5f 66 10 bd ae 9b d8 3d
       0.11382221 0.038261723 -0.03525388 0.105765685
000260 02 c5 9f bd 0a 97 22 bd d8 a5 10 be 32 8c f6 3d
       -0.07801248 -0.039694823 -0.14125764 0.12038459
000270 4b 29 ef 3d 19 46 a2 bd 60 e6 a3 bd 0d 0d 58 bc
       0.11677798 -0.07923526 -0.08002925 -0.013186705
000280 4f ac 8f bd 1e 57 87 bd 1b 44 82 3d 9b ac 9a 3d
       -0.07015287 -0.06608413 0.06360646 0.07552453
000290 20 0a 65 bd db 9c e5 3d ab 29 df ba 28 19 08 3d
       -0.05591786 0.112115584 -0.0017025968 0.033227116
0002a0 3c 45 04 be f7 f0 9e bd 22 25 07 3e 20 18 15 3e
       -0.12917036 -0.07760804 0.13197759 0.14559984
0002b0 85 01 e3 3b dd 28 72 3d 87 a9 16 3d d1 4f 7f 3d
       0.0069276714 0.059121 0.036782768 0.06233198
0002c0 a1 08 91 ba a9 46 f9 3d 3c 33 d4 3c a4 c7 9c 3d
       -0.0011065194 0.121716805 0.025903337 0.07655266
0002d0 f7 f3 b9 3d d2 75 de bb 58 1e 51 bd 09 e3 e7 3c
       0.09079736 -0.0067889476 -0.05105433 0.028306501
0002e0 fd db c2 3d 40 01 f9 3c 81 ed e3 bd 30 e2 6d 3d
       0.09514616 0.030396104 -0.11129285 0.058077037
0002f0 de 8e 65 3d 78 de 2a 3d 7d cd a8 bc f0 c7 56 3d
       0.056044452 0.04171607 -0.020605797 0.05243677
000300 bf 52 0a be 8c a7 f0 bd de 30 be bb 8e 85 bf 3d
       -0.13508128 -0.11750707 -0.0058041653 0.093516454
000310 a2 2d ed bd af ab 11 3e af c8 27 3d c3 59 89 3d
       -0.115809694 0.14225648 0.04096287 0.06706574
000320 59 28 5e 3c 24 2f 27 3e 0a 71 73 bc 31 48 81 3d
       0.013559424 0.16326576 -0.014858494 0.063125975
000330 63 46 f2 3d 29 4f 99 3d 1a d6 38 3c 1d b4 17 3d
       0.118298315 0.07485802 0.011281515 0.037037004
000340 1b 9d bb bd 5d 78 ff bd 5f 22 40 3d a7 05 87 bd
       -0.09160825 -0.12474129 0.04690778 -0.06592875
000350 a0 dc dd bc f1 87 fb bc 88 6f b4 3d de 7f 26 be
       -0.027082741 -0.03070447 0.088103354 -0.16259715
000360 c0 cc 7a bd c2 c0 60 3c 8b fa 5d 3e 31 2f 90 bd
       -0.06123042 0.013717832 0.21677606 -0.07040251
000370 46 d4 2d bd b9 3d 87 bd 60 3d c5 bd 24 f5 11 3e
       -0.042438768 -0.066035695 -0.09630847 0.1425367
000380 06 9f 56 3e 12 a8 ab 3d b3 1e 04 ba c7 7a 8b 3d
       0.209591 0.08381666 -0.0005039975 0.06810527
000390 ae 86 cb 3d c3 70 e7 bc c7 05 99 3d 06 e2 c0 3d
       0.099377975 -0.028252011 0.07471805 0.094181105
0003a0 1d a8 7e 3c 81 ac e3 bc 4a 83 83 3d f8 76 a1 bc
       0.015543011 -0.027792217 0.06421526 -0.019710049
0003b0 fe 80 d3 3c 21 f6 a1 3d 3b 4e 85 bd ab 3e 64 bc
       0.025818344 0.079082735 -0.06509062 -0.013930957
0003c0 51 49 b3 3c c6 57 3c 3d 55 06 1f be af 93 e0 bd
       0.021885546 0.045982145 -0.15529759 -0.109656684
0003d0 ab 7e 84 bd 7a f1 43 3e 93 51 0d 3e 0f fe f7 bd
       -0.064694725 0.19135085 0.1380065 -0.12109005
0003e0 80 3c b4 bd ab 21 7f 3d f2 ff af 3c 86 50 73 3e
       -0.08800602 0.062287968 0.021484349 0.23761186
0003f0 af 08 01 3e be 68 a7 3d ef 0f 12 3e 78 18 57 3d
       0.12600969 0.08174275 0.1426389 0.05251357

lstm2.bias_ih_l0 f4 [200]
000000 5a 90 15 3e 51 05 a7 3e 94 2c 5c b8 7c 18 c0 3d
       0.14605847 0.32621244 -5.2493604e-05 0.0937967
000010 17 fb 8b bd 5c 4a 24 3c 89 32 8d bd 23 98 8a bd
       -0.06835001 0.010027494 -0.068944044 -0.06767299
000020 b9 1a 89 3d 9f 31 9a bc 55 b4 f4 3d 67 d9 05 3e
       0.0669455 -0.01882249 0.11948458 0.13071214
000030 88 a9 a9 3d 55 b1 1e 3e a4 42 18 3e 15 1b 9f 3d
       0.08284289 0.15497334 0.14869171 0.07768837
000040 4b 7e 5b 3e 13 6f da bd 58 df 74 3e 6f 43 92 3d
       0.21434896 -0.10665717 0.23913324 0.07141768
000050 2d 39 cc bb 3d bc 5c 3d 89 16 f8 bb 98 74 7c 3d
       -0.006232402 0.053890456 -0.007571046 0.06163463
000060 ab 4b ca 3d 53 9d 4b 3e f6 cb c5 3d 0c a7 f0 3d
       0.09877714 0.19884233 0.09658043 0.11750612
000070 41 02 b7 bd 5a ea bc bd f7 f6 1c bc d1 15 bb bc
       -0.08935977 -0.092243865 -0.009580365 -0.022837551
000080 49 76 04 3f 0a 55 5c bc b9 b5 54 bd a9 10 20 3e
       0.5174299 -0.013448009 -0.051931117 0.15631355
000090 21 81 2d bd c3 d1 f7 3d c5 bb 87 3d c2 c6 3c 3e
       -0.042359475 0.12100556 0.06627611 0.18435195
0000a0 db 6e 22 3d b3 cf ae bd a7 e1 25 3a cb ab da bd
       0.0396565 -0.08535709 0.00063278753 -0.10677298
0000b0 9e ef 68 bb 4c 78 42 bd 38 c1 87 bd 0b 10 9f 3d
       -0.0035543214 -0.047478005 -0.066286504 0.07766732
0000c0 21 20 00 3e 33 52 1b be c1 9a 15 be 4a 16 ab bd
       0.12512256 -0.15168075 -0.14609815 -0.08353861
0000d0 4c d4 8b bd 58 8c 02 bd cf ec 77 3d dd 83 be bd
       -0.06827602 -0.031872123 0.060528573 -0.09302495
0000e0 9c 72 4d 3d 3c c7 dd bc 07 f4 fb 3d 56 8c 21 bd
       0.05015813 -0.027072541 0.12302404 -0.039440475
0000f0 7d 34 0f bd 46 ee e2 bd 66 57 18 be 1d 7b e0 39
       -0.034962166 -0.11080603 -0.1487709 0.00042816336
000100 6e 1e dd 3b de 2b 21 be af d3 2f 3e 56 4d 21 3d
       0.0067480123 -0.1573939 0.17170595 0.039380394
000110 d6 b1 7e 3d 1f fe 65 bd 13 a8 15 be b9 70 83 bc
       0.062181316 -0.056150552 -0.14614896 -0.016044961
000120 e7 e8 2a 3d 9a 94 c3 bd 49 ff 5f 3d 50 d6 ef bc
       0.04172602 -0.09549828 0.05468682 -0.029276997
000130 c0 9c 94 3d 5d 06 f0 bd e5 8d da 3d 84 66 84 3d
       0.0725646 -0.11719964 0.106715955 0.06464866
000140 87 9d d6 bd 69 b0 04 3e b3 b9 d3 bd bf 06 0b bd
       -0.10479265 0.1295792 -0.10338154 -0.03394198
000150 69 a3 ca bd bd 22 c7 3d 0a bd a6 bd 42 26 15 be
       -0.09894449 0.09723423 -0.08141525 -0.14565375
000160 35 bc b3 3d f3 13 91 3e 10 ac ba bd 6c 2d 2e 3d
       0.08776132 0.28335533 -0.091148496 0.042523786
000170 b2 6c 06 be 8e 5a e7 bd 4b 9e 33 3c b9 c7 c4 bd
       -0.13127401 -0.11296569 0.010963033 -0.096084066
000180 3a 8d 0d bd 77 2b 08 3d f6 d4 2b 3d 7f 31 1e be
       -0.034558512 0.033244576 0.041951142 -0.15448569
000190 45 72 f1 bd a2 9b 07 3e b8 a9 ee bd 7d c1 2e bd
       -0.11789373 0.13242963 -0.11653465 -0.042664994
0001a0 20 ed 8f bd 1f 17 d9 3d 00 c3 99 b9 57 ac 83 3c
       -0.0702765 0.10600113 -0.0002932772 0.016073389
0001b0 f3 3b a7 bd b4 f7 81 bd 91 a0 22 bd 28 26 df bd
       -0.08165731 -0.06346074 -0.03970391 -0.108959496
0001c0 25 ac 00 be 50 e1 9a bd 80 81 55 3d c8 bd f2 3d
       -0.12565668 -0.07562506 0.052125454 0.11852604
0001d0 e4 cf fa 3d ab 97 cd 3d c2 c5 a5 3c 81 18 5c bd
       0.12246683 0.10038694 0.0202359 -0.053734306
0001e0 0a cf 84 bd 2b 06 f1 3d f5 46 b7 3c 79 66 f5 bb
       -0.06484802 0.117687546 0.022372702 -0.0074890223
0001f0 62 21 0c be 73 67 5e 3d 3c 36 a1 bd d4 e2 91 3d
       -0.1368461 0.054297876 -0.078716725 0.07123342
000200 66 dd e6 bd ee 37 a4 3c 60 ac 81 3d 7b a5 16 be
       -0.11272697 0.0200462 0.06331706 -0.14711563
000210 fc eb e6 3d 13 b0 93 3d 55 08 c4 bd c7 c2 b4 bd
       0.11275479 0.07211318 -0.09571902 -0.08826213
000220 35 7d 5b bd 86 3a 1d 3e ae 04 58 3c 6c 9b 3a be
       -0.053586204 0.15354356 0.0131847095 -0.18223351
000230 da ef c2 3d 13 26 d7 3d 5e 72 c4 bd 19 b3 0f bd
       0.09518404 0.10505309 -0.09592126 -0.03508291
000240 42 a9 83 bb 3e c8 f5 bd 81 f4 eb bd a5 45 63 3d
       -0.00401798 -0.12001084 -0.11521245 0.05548634
000250 35 5e aa 3d 34 d2 bc 3d 67 07 e1 bd 0d ea c7 3e
       0.0831875 0.092197806 -0.1098774 0.39045754
000260 71 24 01 be 61 4d 96 bd b2 2e bd 3c a3 b0 f6 bd
       -0.12611558 -0.073389776 0.023093555 -0.120454095
000270 f3 b9 7e 3d e3 4d a1 bc c9 90 da 3d bb 81 09 bd
       0.062189054 -0.01969046 0.10672147 -0.033570986
000280 4c ac 9a bd 0a ee 30 bd cb f2 c4 3d bb 7a f0 3c
       -0.07552394 -0.04319576 0.096166216 0.029355397
000290 8a 79 da 3b 00 18 1b be 91 61 9d 3d bc e1 6e 3d
       0.0066673206 -0.15145874 0.07684625 0.058320746
0002a0 fe 6b d4 3d f2 c3 06 3d be e2 96 bd 5a 65 60 3c
       0.103721604 0.03290171 -0.073674664 0.013696039
0002b0 a3 b5 eb 3d 93 d7 e0 39 66 de 71 3c c3 ac b7 3e
       0.11509254 0.00042885225 0.014762497 0.35873994
0002c0 1d 7c ec 3d f6 ce 99 bd d9 36 c7 bc 22 40 df bd
       0.1154711 -0.07510178 -0.024318146 -0.10900904
0002d0 f1 03 22 3b 02 ca 99 3d 1c 6e 92 3e 93 aa 8f bd
       0.0024721588 0.07509233 0.28599632 -0.07014956
0002e0 00 bc ce 3d 27 e8 7c 3e 7f 85 c9 3c 69 5f e2 3c
       0.10094452 0.24697934 0.024599789 0.027633386
0002f0 ab e8 06 3e 0a df 1a 3e c0 17 58 3b 1a 25 05 3e
       0.13174693 0.15124145 0.003297314 0.13002434
000300 8b fc 63 3d 2e 65 ce 39 75 4f ef bc dd 07 05 3d
       0.055660766 0.00039366767 -0.029212693 0.032478202
000310 da 9f c0 3d 3b 00 76 3d 37 a5 04 3e bf 6e 31 3d
       0.09405489 0.060058814 0.1295365 0.043318506

lstm2.bias_hh_l0 f4 [200]
000000 8d 1b ae 3d 2f c9 fd 3e 6d bc 4a 3c 4c e0 23 3e
       0.08501349 0.49567553 0.012374026 0.16003531
000010 69 e8 15 bb f6 0c 13 3c e5 fb 84 bd 9f 10 f1 bd
       -0.0022874123 0.008975258 -0.064933576 -0.11770748
000020 fa 32 cb 3c d6 4c 44 3d a1 49 c3 bc 05 49 9d 3d
       0.024804581 0.04792484 -0.02383882 0.07679943
000030 04 58 c2 3d 24 0e a9 3d 4b 0c cf 3d fc 6f 09 be
       0.09489444 0.0825465 0.101097666 -0.13421625
000040 16 e9 ae 3d 65 e3 cf 3d 1f 11 c5 bb b5 78 af bc
       0.08540551 0.10150794 -0.006014004 -0.021419862
000050 4e 2a a1 3d b3 4d 84 3d a8 e9 80 bc 22 fa af bd
       0.07869397 0.064601324 -0.015736416 -0.08592631
000060 3f e2 68 3c 66 be b9 3e d9 e0 20 bd 86 3d b0 3d
       0.0142140975 0.36278075 -0.03927693 0.08605485
000070 75 bb 4e 3d b5 5c 19 3e 88 9c b9 bd 44 98 3c 3c
       0.05047174 0.14976771 -0.09063059 0.011510912
000080 b3 79 f5 3e e1 56 2d 3e 81 64 5c 3c 9b a1 73 3e
       0.47944412 0.16927673 0.013451696 0.23792116
000090 29 aa 4e bd da 1c 04 3e 8c 99 cc 3c 64 f0 44 3e
       -0.050455246 0.12901631 0.02497556 0.19232327
0000a0 06 3b a9 bd b5 0d eb 3d 26 47 03 3e c3 ce 0d 3e
       -0.08263211 0.11477224 0.1282011 0.13848405
0000b0 4d 4d 07 3d fe d7 22 3d d6 bd 4c 3e 2d f6 df bc
       0.033032704 0.039756767 0.19994292 -0.027339065
0000c0 67 33 68 3d ea ac 3d bd dd ae e0 bd ec 8c 86 bc
       0.056689646 -0.04630748 -0.109708525 -0.016424619
0000d0 46 30 c8 bd af b7 14 be bb 7a 74 bd df b3 62 3d
       -0.097748324 -0.14523195 -0.059687357 0.05534732
0000e0 49 61 9d 3d 80 87 fa bb 44 ca 7d bd 86 6b 52 bd
       0.07684571 -0.0076455474 -0.061960474 -0.051372074
0000f0 62 fc 1b be 38 2e db 3d c7 30 8d bd 76 61 3a bd
       -0.15232995 0.10702175 -0.06894069 -0.045503102
000100 8e 2b 85 3d b0 2b 85 bd 68 86 72 bc 12 3c fe bd
       0.06502448 -0.06502473 -0.014802553 -0.12413801
000110 3c 02 d1 3d 86 be ed bd 1c ec 8f 3d d3 3a 0a be
       0.10205504 -0.11608605 0.07027456 -0.13499002
000120 fd 33 e3 bd 4d 6d 85 bd 17 d2 99 3d 04 53 dd bd
       -0.110939 -0.06514988 0.075107746 -0.108068496
000130 f2 dd fb 3c 7f bf c5 3d 61 00 b5 bd 10 ae c2 3c
       0.03074548 0.096556656 -0.08837963 0.02376464
000140 81 ce 10 be eb 7e ce bd 03 8f 64 be f8 2f c8 3d
       -0.14141275 -0.100828014 -0.2232018 0.09774774
000150 e2 c4 35 bd 41 db 94 3d be 1e 8a 3d 5d 3d bd 3d
       -0.044377215 0.07268382 0.06744145 0.0924022
000160 45 bc 28 bd aa 07 20 3e df 32 2f 3d a4 70 0d be
       -0.041195173 0.15627924 0.042773124 -0.138125
000170 82 91 e4 bd d2 a0 e6 bd 2e f8 d0 bd 9a 43 a0 ba
       -0.11160566 -0.11261143 -0.102035865 -0.0012227178
000180 03 76 fe 3c cb 2f 09 be 1c 35 e8 3c ab 17 5f bc
       0.031062132 -0.13397138 0.028345637 -0.013616483
000190 c6 96 54 3d 8a 40 35 bd c0 98 18 bd 10 81 01 bd
       0.0519016 -0.044251002 -0.03725505 -0.031617224
0001a0 6d b3 09 bd 27 23 87 bd 89 dd 19 3e 27 61 85 3d
       -0.03361838 -0.06598502 0.15025915 0.06512671
0001b0 20 6f 91 bc fc 3d d9 3c 2a db 01 3e 68 13 d2 3d
       -0.017753184 0.026518814 0.1268126 0.10257608
0001c0 a6 66 ab 3d 10 b3 fe 3a 8b 5a 01 be 89 5d a6 ba
       0.08369188 0.0019432027 -0.12632196 -0.001269267
0001d0 04 9d ea bd e5 e7 c9 bd 86 89 2d 3d 05 ee 07 be
       -0.114557296 -0.098586835 0.04236748 -0.13274391
0001e0 a2 8f 64 3d d5 19 cf bd 44 5b 56 bc db 29 5d bd
       0.05580104 -0.10112349 -0.013083283 -0.053994995
0001f0 30 ea d7 bc 2e 4a cf bd 6b 59 90 3c 51 fd 63 bd
       -0.026356786 -0.101215705 0.017620763 -0.055661503
000200 6a dd 4c 3d 32 52 1b bb 26 6d 90 bb 7f e8 bc bd
       0.050015844 -0.0023700115 -0.0044075428 -0.092240326
000210 39 78 02 be 53 8e 50 3d 2d 2f da bd bb 76 dd 3d
       -0.12741174 0.05091698 -0.10653529 0.10813662
000220 34 52 ee 3d 0c 27 f8 3d 02 53 ec 3d a8 6b 69 be
       0.11636773 0.121168226 0.1153927 -0.22794974
000230 0c 56 06 3e 94 d5 58 bd bd 77 ad 3a 84 60 1c be
       0.13118762 -0.05293806 0.0013234537 -0.15271193
000240 ef 82 a1 3b 44 68 b6 3d 1b ac ea 3d e9 fe ec bb
       0.0049289386 0.08906606 0.11458608 -0.007232536
000250 eb f9 84 bd c0 4c a4 bc 3b 0e c9 3d 9a fb 6e 3e
       -0.064929806 -0.020056129 0.09817167 0.23338166
000260 52 a0 8c 3d e1 d6 0f 3e 09 36 e7 bd c1 f3 72 bd
       0.06866516 0.14046814 -0.11289603 -0.059314493
000270 19 a2 50 bd bf 6c 29 3d f7 67 a3 3d 48 6e 22 bc
       -0.05093584 0.041363474 0.07978814 -0.009913988
000280 0f eb 1f 3d cc 1b 14 bd f2 ab 09 3e e3 3c f3 ba
       0.03904253 -0.03615932 0.13444498 -0.0018557574
000290 84 d7 f8 bb 7d a2 68 bd ae 85 40 3e 4e 52 23 bd
       -0.007594051 -0.056795586 0.18800995 -0.039873414
0002a0 84 23 87 bd bd 82 81 3c aa 1d c4 bd 79 84 27 3d
       -0.06598571 0.015809411 -0.095759705 0.04089782
0002b0 6b c7 3e bd f8 fb 16 bd 3f 97 3c 3d 8d 75 d7 3e
       -0.0465769 -0.03686139 0.046042677 0.42081872
0002c0 49 1f 56 3d a0 64 8d 3d 16 2d 35 3d f0 54 ea 3c
       0.05227593 0.06903958 0.04423245 0.028604954
0002d0 a3 b1 da 3d 66 69 e0 3d 5e d2 90 3e a7 a1 e6 bd
       0.10678413 0.10957603 0.28285497 -0.112613015
0002e0 b6 73 d3 bd cc 75 8e 3c 51 e6 ce 3d c7 6b a1 3a
       -0.103248045 0.017390154 0.10102523 0.0012315445
0002f0 6f 32 8f bb 30 b2 4c 3d 93 95 a4 3d b0 05 04 3d
       -0.004370026 0.04997462 0.080363415 0.032231987
000300 ed cc 18 3d 01 f7 d8 3d 0f 30 55 3d 26 a2 e1 3b
       0.037304807 0.10593987 0.052047785 0.0068857847
000310 99 1b 3b 3e 36 91 f0 3c 68 10 ac bd 57 9c 86 3b
       0.18272246 0.029366117 -0.08401567 0.0041079926
