Models/model_T.pth (torch, 132609 bytes, 11 tensors)

lstm1.weight_ih_l0 f4 [200, 1]
000000 e6 29 77 3e a3 dd 14 3e 81 6b af bd b5 d3 2d bc
       0.24137077 0.14537673 -0.085654266 -0.010609557
000010 a1 da 1e bd 99 15 f4 bd 26 da 56 3e 6c db 9a 3e
       -0.03878272 -0.11918182 0.20981655 0.3024553
000020 79 ef 0e 3f 65 29 7f 3e 61 f7 28 3e 63 3e 70 3c
       0.55834156 0.24918135 0.16500618 0.014663312
000030 d0 2e 49 3e b9 f0 c8 3d 98 35 21 be 72 e4 9f bd
       0.19646764 0.09811539 -0.157431 -0.07807244
000040 ec 42 04 bd 27 0f 01 be 3c f8 17 3e 23 28 e1 3d
       -0.032290384 -0.12603436 0.14840788 0.109939836
000050 70 5d 6c 3e 77 60 fb bd 93 3d 37 3e a4 a0 48 3e
       0.23082519 -0.122742586 0.17894582 0.1959253
000060 05 5e a0 3d 12 ce 40 3e f4 3f 68 3e 5e 74 76 3e
       0.07830433 0.1882861 0.22680646 0.24067828
000070 d0 2e 80 3e 18 83 9d 3e 1d 60 7b 3e 5e cd 77 3d
       0.25035715 0.3076408 0.24548383 0.060498588
000080 46 ef 88 3e b9 3e 57 3e b5 cf f3 3d 17 c4 3e 3d
       0.2674505 0.2102002 0.11904851 0.046573725
000090 53 2a 4e 3e c6 74 47 bd c7 ef 53 3e 40 fb 5a 3e
       0.20133333 -0.04869535 0.20696937 0.21384907
0000a0 68 3d 2a 3d 8e ea 18 3e b0 ff 6e be 61 03 8e 3e
       0.041562468 0.14933226 -0.23339725 0.27736953
0000b0 1f bd 84 3e a8 9e a7 3e 86 ce 69 3e 79 d1 9c 3d
       0.25925538 0.32738233 0.22832689 0.07657141
0000c0 38 41 bb bd e6 1c 63 3d 08 2f 0d 3e c5 17 4a bb
       -0.09143299 0.05544748 0.13787472 -0.0030836922
0000d0 73 f8 e2 bd 6f 57 03 3e 8a d7 c2 bd 2e 0e ef 3c
       -0.11082544 0.12826322 -0.09513767 0.029181566
0000e0 b9 52 18 3e b7 58 12 3d 29 99 cd 3e 62 07 23 3e
       0.14875306 0.035729136 0.40155914 0.15920785
0000f0 c6 de c7 3c e5 9b 5b bb 52 1f 49 3e 97 31 f0 3d
       0.024398219 -0.0033509668 0.19640854 0.117282085
000100 ec 3b 07 be 12 b8 95 bc 17 64 87 bd cc 98 94 bd
       -0.13206452 -0.018276248 -0.066108875 -0.07255706
000110 42 86 a9 bc 3b 86 80 3e 12 2f e6 3d b8 a7 78 3d
       -0.020693902 0.2510241 0.11239447 0.060706824
000120 f7 d0 9a 3c df 80 f4 3d fd e3 57 3e aa b4 08 bd
       0.01889847 0.11938643 0.21083064 -0.03337542
000130 26 0c 0f 3e 6a 47 8b 3e cb 43 07 3e e8 7f 83 3d
       0.13969478 0.27202922 0.13209455 0.064208806
000140 80 1c 23 3e 32 e1 21 3e 74 b6 4a 3e 0c 39 29 3e
       0.1592884 0.15808561 0.19796163 0.16525668
000150 cf 0c 46 bc 6e 4d 62 3e 10 e9 0a 3d 03 3e 47 3d
       -0.012088015 0.2209985 0.033913672 0.048643123
000160 a0 05 69 3e 78 c5 31 3e 32 df fe 3c 4c 9d 8b bd
       0.22756052 0.17360485 0.031112287 -0.068171114
000170 ef 19 8a bc 1a dc 56 3e 21 7e 1a 3e 31 93 8b 3e
       -0.01685807 0.209824 0.15087177 0.27260736
000180 7e 53 03 bc 4e 6b 35 3e 33 46 79 3d 96 53 34 3e
       -0.008015512 0.17716715 0.060857963 0.1761001
000190 33 28 a9 be 1d 07 8e bc 8c 75 cc bd 21 63 69 bd
       -0.33038482 -0.017337376 -0.09983358 -0.056979302
0001a0 56 f4 71 be 8c 36 e3 3d a6 4f b4 bd 86 b4 72 3e
       -0.23628363 0.11094388 -0.08804254 0.23701677
0001b0 53 7f 7d be 0b fc 8f 3e 71 3c a5 3d b0 21 6c 3e
       -0.24755602 0.2812198 0.08068169 0.23059726
0001c0 2c ac 48 be 00 52 63 3e fe f3 0e be cc 40 a7 3d
       -0.19596928 0.2219925 -0.13960263 0.08166656
0001d0 15 28 e7 bd a3 e3 9b 3d d8 4a 13 be 78 8d 3f 3e
       -0.11286942 0.07611778 -0.1438402 0.1870631
0001e0 ba a2 c4 3d 7d 97 25 be 2e 20 6b 3d 7a 08 33 be
       0.0960135 -0.1617107 0.057403736 -0.17483702
0001f0 f7 09 c2 3d f9 a9 b0 3e 67 cc 50 3e 1d 6b 3c be
       0.09474557 0.3450468 0.20390473 -0.18400235
000200 30 62 30 be 12 64 46 3e 28 09 5c 3e 38 69 09 3e
       -0.17224956 0.19374111 0.21487868 0.13419044
000210 28 66 0d 3e bf bb 0a be 06 1d 51 3e 4b 94 3b bd
       0.13808501 -0.13548182 0.20421228 -0.04579572
000220 e5 5c d1 bd 83 b7 46 be d8 c2 56 be af 64 75 be
       -0.10222796 -0.19405942 -0.20972764 -0.23964189
000230 9d 05 27 3e 33 55 5f 3e 68 03 cc bd 32 20 84 be
       0.16310735 0.21809845 -0.09961587 -0.25805813
000240 af 9a 7c be 5a e0 6b be 27 10 50 be a4 8b 5b be
       -0.24668382 -0.23034802 -0.20318662 -0.21439987
000250 b5 9f 68 3d e4 57 83 3e f9 39 cf 3e 4b 4b f6 bc
       0.056792933 0.25652993 0.40473917 -0.0300652
000260 45 ed a6 3d 24 bb 87 3d b7 0f 05 be e3 f9 54 bd
       0.08150724 0.06627491 -0.12994276 -0.051996123
000270 4d fb 80 3d 2a 9d 80 3e c3 d0 55 3f 65 04 97 3e
       0.06297932 0.25119907 0.8352167 0.2949554
000280 e2 41 47 3c 84 05 35 3e 96 a1 81 3e c5 00 b2 3d
       0.012161704 0.17677885 0.25318593 0.08691553
000290 a3 7f 6c be 39 18 e7 bd 3f 89 28 3e ef 09 94 3d
       -0.23095565 -0.11283917 0.16458605 0.07228457
0002a0 dc 06 5c 3d 4b 80 42 3e 5a c0 46 3e b9 f5 92 3c
       0.05371748 0.18994252 0.19409314 0.017939435
0002b0 df 7e 01 3e b5 15 57 3e c7 e0 ed 3d 32 f4 a7 3e
       0.12646054 0.21004374 0.116151385 0.32803494
0002c0 a0 e4 b3 3d 8d 87 c4 3e cd 3f 31 3e c7 90 f8 3e
       0.08783841 0.38384667 0.17309494 0.48547956
0002d0 fc d1 0c 3e a1 8c 5a 3e fc bb 1d 3e 60 38 42 3e
       0.13751978 0.21342708 0.15403742 0.18966818
0002e0 f1 8d 3d 3e 85 05 56 3e 1a f9 7d 3e cb 9b 32 3c
       0.18511178 0.20900543 0.24802056 0.010901402
0002f0 b8 ef 32 3e 3d f1 4e 3e 71 86 0b 3e ff ae ca 3d
       0.17474258 0.20209213 0.13625504 0.09896659
000300 7e 55 78 be da ee e6 3e 8b 46 75 3e 56 9b d7 3e
       -0.24251363 0.45104104 0.23952691 0.421107
000310 5c 17 6a 3d 82 02 81 3e 1b 82 fa 3d 1e 08 8d 3e
       0.057151183 0.25197226 0.12231847 0.27545255

lstm1.weight_hh_l0 f4 [200, 50]
000000 4e cf 39 be f4 05 71 3d bf 33 e6 3d 0f 19 21 bd
       -0.18145487 0.058843568 0.112403385 -0.03933054
000010 25 0a 00 bd 6a 82 11 be 06 04 81 bd ec ad 20 3e
       -0.031259675 -0.14209905 -0.062995955 0.15691346
000020 32 43 08 be a8 32 52 3e 21 2b ad 3b 0a 02 23 3e
       -0.13306883 0.20527136 0.0052846824 0.15918747
000030 e1 52 45 be 56 58 57 3e d9 c3 55 3e 71 2f 4e be
       -0.19269897 0.21029791 0.20875491 -0.20135285
000040 39 64 c2 bd ac ba ba bd da 94 0c ba 7d 03 14 3e
       -0.09491772 -0.09117636 -0.0005362757 0.14454456
000050 06 2b f8 3d b6 3c 00 3e 5a 18 d8 3c fc f1 3a be
       0.12117581 0.1252316 0.0263788 -0.18256372
000060 e9 22 24 3e 66 e5 e0 3c 32 fd 43 3c 87 0c b7 bd
       0.16028942 0.027453136 0.011962222 -0.08937936
000070 5d 48 75 be 3b 7b 31 3e d0 72 00 3d cd 88 14 3e
       -0.23953386 0.17332165 0.031359494 0.1450531
000080 bf 78 2c bd b8 66 01 be 1e 05 0b 3c 7a 57 85 bd
       -0.04210734 -0.1263684 0.008485107 -0.065108255
000090 c2 92 b9 bd f5 da 6c be 10 f2 72 be ea 45 24 3d
       -0.09061195 -0.231304 -0.23725152 0.040105738
0000a0 eb 7e e6 3d 2b 8f e8 bd ab fc eb 3c 83 75 81 be
       0.112546764 -0.11355432 0.028807005 -0.25284967
0000b0 aa 33 4f be bd 05 12 be 90 bc 51 be f8 d6 50 be
       -0.20234552 -0.14260001 -0.20482087 -0.20394504
0000c0 46 a9 36 3d f3 c4 5a 3e e3 79 93 bd 4e dc c9 bd
       0.044595025 0.21364193 -0.072009824 -0.09856473
0000d0 85 60 2a be 7a 16 07 3e 3d 78 4b 3d 5d be 66 3d
       -0.16638382 0.13192168 0.049675215 0.05633389
0000e0 f5 49 5b 3d a0 e7 e8 3d 56 22 cd 3d 1f 4c 9d bd
       0.053537328 0.11372304 0.10016315 -0.076805346
0000f0 87 44 fa bd 0e 93 0e 3d 6b 85 c0 3d 46 a3 de bd
       -0.12220102 0.03480821 0.094004475 -0.10870986
000100 66 1d fd bb 4e 92 cb bd fd 3d d9 bd e2 48 0a bd
       -0.007724452 -0.09940015 -0.106075265 -0.033760913
000110 e4 bf e3 bd 39 02 d6 3d d2 67 c1 ba f1 32 41 3d
       -0.111205846 0.10449643 -0.0014755672 0.047167722
000120 da 26 9f 3c b5 2e 18 3e ca 16 dd bd 1d 3a 1e bd
       0.019427706 0.14861567 -0.10795362 -0.03862964
000130 2c 3d 8c bd 92 a7 24 3e 04 54 c3 bd d9 3a 39 be
       -0.06847605 0.16079548 -0.09537509 -0.18088855
000140 b4 99 25 bd 9e ea 9e bd 43 11 23 be 23 5b f9 bd
       -0.040429786 -0.077595934 -0.15924554 -0.12175586
000150 75 6c 00 bc da 27 23 3e dd b1 a5 3d b4 db 4a bd
       -0.007838358 0.15933171 0.08090565 -0.04952593
000160 24 3c 38 bc c5 92 f3 bd 74 a6 28 3e 2f 1c e4 3d
       -0.011244807 -0.118932284 0.16469747 0.11138188
000170 27 0e 28 be 4f dd 4f 3d 29 a5 64 bd 73 47 b2 3d
       -0.16411649 0.050748166 -0.05582157 0.08705034
000180 a2 78 86 3d 24 99 36 3d 94 43 a2 3d 10 2b 06 3d
       0.06565978 0.04457964 0.07923046 0.03275591
000190 a4 b3 98 3c 4f 19 04 bd 5b e3 f1 3c 17 f6 9d bc
       0.018640347 -0.0322507 0.029527357 -0.019282384
0001a0 16 75 88 bd 06 64 b5 bc 48 b3 dc bc 99 b1 be bd
       -0.06662957 -0.022142421 -0.026940957 -0.09311218
0001b0 3a 95 5c bc ef c7 04 bc 4b fa 20 be 4d d1 b0 3d
       -0.013463313 -0.0081043085 -0.15720479 0.08633671
0001c0 ed 26 b9 bb a8 72 41 bc 4e 99 63 3d 99 a1 13 3e
       -0.0056503923 -0.011807121 0.055566125 0.14417113
0001d0 29 38 a0 bd 0f 54 05 3d eb e9 df 3d f1 f6 75 bd
       -0.07823212 0.032550868 0.10933288 -0.060049955
0001e0 42 68 3a bd 58 ef a1 bd 03 bc a6 3d 10 46 d7 bd
       -0.045509584 -0.07906979 0.08141329 -0.1051141
0001f0 80 2c 83 bc 63 e0 dc bc 02 ef 95 3d 58 f9 27 3e
       -0.01601243 -0.026962465 0.07320978 0.16403711
000200 64 05 be 3d d1 f3 06 be 50 aa ff bd 89 e0 0b bd
       0.09278372 -0.13178946 -0.124836564 -0.03414968
000210 28 98 26 3d 2c 02 91 3d d7 cf e9 3d fa e8 c8 3d
       0.04067245 0.070804924 0.114165954 0.09810062
000220 c8 e1 4d bd 87 1f 01 be 8b ba 8d 3d 7b 1e c6 bd
       -0.05026415 -0.12609683 0.06920346 -0.096737824
000230 aa 6a 41 ba df f4 c1 3d 2e 28 dd bd 51 97 32 bd
       -0.000737826 0.094705336 -0.10798679 -0.043601338
000240 b7 94 0e 3d 9d 60 bf bc 04 57 8e 3c a1 b1 ba 3d
       0.034809794 -0.023361498 0.017375477 0.09115911
000250 ae 92 73 bc 15 a5 55 3d 0f 3a 01 be 59 50 97 bc
       -0.014866514 0.052159388 -0.12619804 -0.01847093
000260 44 27 af 3d 78 8d 5b 3d de f9 9d bd 5e 16 0e be
       0.08552411 0.053601712 -0.07713674 -0.1387572
000270 42 bd 9e 3d 12 3e 09 3e ef 1c 85 3d 91 05 dc 3d
       0.07750942 0.13402584 0.06499659 0.10743249
000280 0d 0b 80 bd 6e 9b 5d bd 70 77 c3 3c 8f 81 0a 3e
       -0.06252108 -0.054103307 0.023860663 0.13525985
000290 ab 4c 61 3d fa c5 49 3d 49 f2 ad 3d 5d 74 b3 3c
       0.055004757 0.04926107 0.08493478 0.021906072
0002a0 00 98 9c 3a df 1f 5e 3d 69 6c c2 bd 32 1a df 3d
       0.0011947155 0.054229613 -0.09493334 0.10893668
0002b0 c9 c1 64 3d 54 cd c8 3d d8 2c 84 bd d4 20 ba 3d
       0.05584887 0.09804788 -0.06453866 0.09088293
0002c0 d9 67 6f bd 5a 6b fb 3c d8 ca 4b bd 2f 41 8d 3d
       -0.058448646 0.030690838 -0.049753994 0.068971984
0002d0 7b 93 81 bc 03 a4 13 3e f3 25 ce bd 7b 87 dc bd
       -0.015817394 0.14418034 -0.10065832 -0.10768028
0002e0 7c 8e 36 bd 12 86 97 bd 96 f8 75 bd d9 36 b9 bd
       -0.044569477 -0.07398619 -0.060051523 -0.090436645
0002f0 82 57 26 be 7f ad b0 3c 94 b7 e3 bb 59 22 77 3d
       -0.16244319 0.021567104 -0.0069493745 0.06033549
000300 ec 2b 45 bc ef 80 85 3c 9f c3 2e bd 57 9a 25 be
       -0.012034398 0.016296832 -0.042667028 -0.16172157
000310 53 0a 0c be bd 1f 94 3d 52 28 f9 3d f8 53 a5 bd
       -0.13675813 0.07232616 0.121658936 -0.080726564
000320 51 17 c0 bd db ed 85 3b f7 35 be 3c f3 e8 d5 3c
       -0.09379447 0.0040871925 0.023219092 0.026112055
000330 21 f0 9f 3d 1a f2 8b bd 47 fa 3f 3d e6 82 38 3e
       0.07809473 -0.068332866 0.046869542 0.18018684
000340 36 bd 68 be d6 2d 2f 3e a2 30 47 3e 53 16 58 3e
       -0.22728428 0.17107329 0.19452146 0.21102266
000350 eb 65 39 bb ff 5f 65 3e a7 29 f5 3d 4d 24 02 3d
       -0.0028289508 0.22399901 0.11970835 0.0317729
000360 76 fb 20 bd 01 2b f5 bd 82 5c c0 bd 48 73 aa bb
       -0.03930231 -0.11971093 -0.093926445 -0.005201731
000370 b7 34 18 bc dc 58 2a bd fe 61 ef bc 6c e6 39 be
       -0.009289912 -0.04158865 -0.029221531 -0.18154305
000380 e8 e1 29 3e 7b 3c 82 3b 23 e1 f8 3d fa 66 42 be
       0.16590083 0.003974495 0.121523164 -0.18984595
000390 bf f9 0e be ad 46 f0 3c 5f 05 33 3e ee 07 5d 3d
       -0.13962458 0.029330576 0.17482518 0.05396264
0003a0 68 17 30 3e 1d 1c 98 bc 51 7f 24 3e e8 11 33 3c
       0.17196429 -0.018568093 0.16064192 0.010929562
0003b0 d8 27 bd bb 9c a3 d2 3c 47 2b 30 be 2e 36 58 be
       -0.005772572 0.02571278 -0.17204009 -0.21114418
0003c0 92 8e f4 bb 53 22 7e 3c 1d b6 53 3e a3 bc 68 be
       -0.007463285 0.015511113 0.2067494 -0.22728209
0003d0 f2 fc b0 bd 95 01 c4 bd 5f 9d e8 3c 41 69 e3 bc
       -0.086419955 -0.09570614 0.028395353 -0.02776015
0003e0 39 4c 0a 3e d5 39 94 3d ab aa f9 bd 1b 70 8c bd
       0.13505639 0.07237593 -0.121907555 -0.0685732
0003f0 6e 0f a3 3d 64 84 f6 3d 37 a5 06 be 04 ba 2b 3c
       0.07961927 0.1203697 -0.13148962 0.010481361

lstm1.bias_ih_l0 f4 [200]
000000 99 20 05 3e 03 e4 8f 3d bd ae b5 3d 47 54 bb 3d
       0.13000716 0.07025912 0.08871219 0.09146934
000010 a3 5f ac 3c 8f 63 01 b9 b2 76 e3 bd e0 a0 07 3e
       0.021041697 -0.00012339487 -0.11106624 0.13244963
000020 73 6d 28 3f b6 12 4d bd 4a 7f ac 3d 79 60 32 bd
       0.65792006 -0.050066672 0.08422716 -0.043549035
000030 fd 97 5f 3d 63 c8 b6 bd 44 a3 89 bd 91 f9 a4 3d
       0.054588307 -0.089249395 -0.067205936 0.080554135
000040 3a 45 bd 3d d4 fa 5d 3d cc 4b 96 3d 6b 0f 0e 3e
       0.092417195 0.054194286 0.07338676 0.13873069
000050 1d 4a 20 be 9c 77 19 bd f0 c1 c7 bc b2 17 e3 3d
       -0.15653272 -0.037467584 -0.024384469 0.11088504
000060 08 7a 5f bd ef 5f 0b 3f db 0f cb 3d a9 ad 49 3d
       -0.054559737 0.5444326 0.099151336 0.04923788
000070 be b0 a3 bd d2 ba 27 bd c7 43 1b 3d a8 b0 05 3e
       -0.07992695 -0.04094965 0.037906434 0.1305567
000080 80 07 80 bd f5 97 34 bb f2 55 fc 3d 63 8e ec 3d
       -0.062514305 -0.0027556394 0.1232108 0.115505956
000090 d0 db 95 bc c9 9c 94 3c 2e cc 43 3c 78 ef b3 bd
       -0.018293291 0.018141167 0.011950536 -0.087859094
0000a0 29 df 5a bd 5c 13 96 3e 63 0f 8e 3d c0 2a c7 3b
       -0.05343548 0.29311645 0.069365285 0.0060780942
0000b0 0e ac 92 3d c2 66 4f 3e a4 f6 9c 3d db b0 b3 3d
       0.07161723 0.20254043 0.076642305 0.08773967
0000c0 8f aa 11 be 5d a9 6e bd 1b 20 eb 3c 32 45 19 3c
       -0.14225219 -0.058266986 0.028701833 0.009354876
0000d0 7f 81 de 3d 4a ba 8f bd c4 f9 8b bd 07 e3 ea 3d
       0.10864543 -0.07017954 -0.068347484 0.11469083
0000e0 37 a5 2f bd 0d 34 2f bd 26 c1 5c be fc 42 27 bc
       -0.04288217 -0.04277425 -0.21558055 -0.010208841
0000f0 39 5c 1c bd 84 0b 2b bc 11 31 09 be 78 c1 d6 bd
       -0.038173888 -0.010439757 -0.13397624 -0.1048612
000100 e0 b3 0c 3c 56 3a f8 bd b1 26 64 3d 7d a6 9e bd
       0.008587807 -0.12120502 0.05570096 -0.07746599
000110 95 6e a4 3d 8e a4 28 bd 15 38 04 be b6 80 96 bd
       0.08028904 -0.041172557 -0.12912019 -0.073487684
000120 b1 6d ce 3d fc 70 74 bd 8c fc f0 3c ab e6 1b be
       0.10079516 -0.059678063 0.029417299 -0.15224712
000130 8f 67 95 bc 09 2b 2a be eb 0e ee bd e1 b5 b8 bd
       -0.018237857 -0.16617979 -0.11623939 -0.09019066
000140 18 10 36 bd 8c 3a ad bc 3c 2f 69 bd 47 6e 0d 3d
       -0.044448942 -0.021146081 -0.05692981 0.034528997
000150 a9 91 73 3b c9 0a c6 bd 0b d8 83 bd bb 0c 07 bd
       0.0037165678 -0.09670026 -0.06437691 -0.032971125
000160 35 92 e9 bd e6 68 a0 3d 1c 16 d3 ba 5d 1f 3c be
       -0.1140484 0.07832508 -0.0016104612 -0.18371339
000170 52 d9 e2 bc fa e5 9b bb 91 d4 2d bd 55 23 3c bc
       -0.027691517 -0.00475764 -0.042439047 -0.011483033
000180 7c 25 66 3d 95 2c 1a bd ec bf b7 3d f1 ac 98 bd
       0.05618809 -0.037640173 0.08972153 -0.07454861
000190 c8 97 d9 3d 16 83 c3 bd 1f 96 96 3d d6 3f ad bd
       0.10624653 -0.09546487 0.07352852 -0.08459441
0001a0 0d 2a f8 3d cb bc 76 bd cd d2 be 3d 6c 8b fb 3d
       0.121173956 -0.06023864 0.09317551 0.12282452
0001b0 cd 79 b9 bd 1b 4a ff bd c3 1b f0 3d ca 29 80 bd
       -0.09056435 -0.12465306 0.11724045 -0.06257971
0001c0 f9 41 8e 3d 95 af 8a 3d 9c 43 05 3e 1f 49 99 bd
       0.06946177 0.06771771 0.13014072 -0.0748465
0001d0 60 7c d2 bd 71 05 38 bd e9 6b 69 bd 9a 56 0e bd
       -0.10277629 -0.044927064 -0.056987677 -0.03475056
0001e0 5e 26 e1 3d f5 60 a3 3d 0a 8b 91 bc cd 86 da 3d
       0.10993646 0.079774775 -0.017766494 0.106702425
0001f0 6b c3 aa 3d ce 6f 91 ba 6f f0 e7 3c 07 ef c9 3d
       0.08338054 -0.0011095942 0.02831289 0.09860044
000200 89 50 ac 3d b8 f7 ed 3d c3 2c 28 3d dc 38 a0 3d
       0.08413798 0.11619514 0.041058313 0.07823345
000210 f1 0f 40 3d 32 ce e3 3d 70 3d cd bd 7c 9b 6a 3d
       0.046890203 0.11123313 -0.10021484 0.057277188
000220 45 ec 2d 3c b3 bf 81 bd 31 33 bd bd 93 76 98 bb
       0.010615413 -0.06335392 -0.092382796 -0.004652807
000230 a1 6a 9b 3d ca fa 00 be 7e 01 85 3d 84 d3 0f 3b
       0.07588697 -0.12595668 0.06494425 0.0021946141
000240 25 13 ad bd 1b 3d 07 3d c6 c2 b7 bc f3 24 00 3c
       -0.08450917 0.03301726 -0.022431742 0.007821309
000250 90 09 6c 3d 4d 15 5f bc 20 f1 f3 3d af 1a 95 bd
       0.057626307 -0.013615918 0.11911225 -0.0728048
000260 65 69 6b 3d 43 50 04 3e e4 f5 b1 3c d6 77 14 3d
       0.05747356 0.12921242 0.021723695 0.036247097
000270 3c ff 7c 3d 6c 42 4f 3e a4 26 4d 3f 81 c7 7d bc
       0.061766848 0.20240182 0.80137086 -0.01548946
000280 7a 2b dd bb 88 4f 53 bc 82 8d 00 bd fb 9b f5 bd
       -0.0067495676 -0.01289738 -0.031384952 -0.119926415
000290 33 b7 25 3e 99 1b bf bc ee 7c b4 bd 06 6e 51 bd
       0.16183166 -0.02332859 -0.08812891 -0.051130317
0002a0 72 97 e2 3d c9 43 71 3d 17 67 90 3d 63 57 04 3e
       0.11064042 0.058902536 0.07050913 0.1292396
0002b0 1a 16 0e be 2f 3f 41 3d 41 65 f8 3d 79 26 cb 3e
       -0.13875619 0.047179397 0.12128688 0.3967779
0002c0 79 d5 0e 3d 64 db 5e 3d cb 5d c4 bd 0c 0a a0 3d
       0.034871552 0.054408446 -0.09588202 0.07814416
0002d0 74 7d 3d 3d 8a d8 de 3d 5f 5b cd 3d 9e 4c 4a bd
       0.04626222 0.10881145 0.10027193 -0.049389474
0002e0 1e 0b 15 3e 30 76 f8 bd b9 14 87 bb a2 e1 ce 3d
       0.14555022 -0.121319175 -0.0041223434 0.1010163
0002f0 9d 8c 66 3d 2e 62 b6 bd 21 10 0e bd bd 6f 96 3e
       0.056286443 -0.08905445 -0.03468335 0.29382125
000300 97 0f d2 3d 74 e7 c4 3d 5c e2 4c 3e ec 87 81 3e
       0.1025688 0.09614459 0.20008224 0.25299013
000310 6a fb 12 bb 89 ea ab 3b c9 f0 66 3c b7 ea f6 bc
       -0.0022427686 0.0052464646 0.014095494 -0.030141218

lstm1.bias_hh_l0 f4 [200]
000000 af 9d d7 bb b4 bb bf 3c c6 b2 62 bd 13 e9 d6 bd
       -0.0065800766 0.023404934 -0.055346273 -0.10493674
000010 7e a7 1d 3e 66 f5 b1 3b 9a 7b 31 bd 15 d8 d3 3d
       0.15395924 0.005430865 -0.043330766 0.10343949
000020 b0 71 3d 3f 18 3d 8c bd 84 87 f3 bd 2c 9d f2 bc
       0.740016 -0.0684759 -0.11891082 -0.029615961
000030 65 49 32 3b 12 a2 04 be 02 64 1e 3e bc 16 0f be
       0.002720439 -0.1295245 0.15467837 -0.13973516
000040 f9 e7 6c bc 4b dc d3 3b f6 ec da 3d 33 b1 c4 bd
       -0.0144596035 0.00646547 0.10689728 -0.096041106
000050 47 7d 8c 3d 36 92 14 3e 40 9b a7 3d 76 e1 91 3d
       0.06859832 0.145089 0.081839085 0.071230814
000060 0e 77 03 3e 5f db ad 3e 92 2f e2 3c cc 28 b9 3d
       0.12838385 0.3395643 0.027610574 0.090409845
000070 12 39 d3 bd 50 04 20 bd b8 08 58 3e 2b ac ed ba
       -0.1031362 -0.039066613 0.21097076 -0.0018132975
000080 af 15 51 bd a9 e2 96 3d 92 95 58 3d e3 ae e4 3d
       -0.05104607 0.07367451 0.052877016 0.111661695
000090 50 81 d3 bc 2f e7 ae 3d b6 56 97 3d e0 9b 89 3c
       -0.025818497 0.085401885 0.07389586 0.01679796
0000a0 45 68 09 3e d9 42 14 3e bb 47 df bc 3c 38 1c 3e
       0.13418682 0.14478625 -0.027255883 0.15255827
0000b0 9c e5 c9 3d 0c 0f 88 3e 7a 62 e4 3d 6e 41 23 3e
       0.09858248 0.2657398 0.111515954 0.15942928
0000c0 b9 73 27 3d d1 41 a2 3d 58 d3 f5 bd 5e da 27 be
       0.040881846 0.0792271 -0.12003201 -0.16391894
0000d0 96 de 33 3d 80 9d ee 3d 9b 9d 12 3e 51 3b c9 3d
       0.043913446 0.116511345 0.14317934 0.09825767
0000e0 46 85 96 bd 89 b1 57 bc 0d da fe bd 74 7f af 3c
       -0.07349639 -0.013164886 -0.12443934 0.02142308
0000f0 cd 67 40 3d 55 7f c5 bd 3d f5 e0 bd c7 1b 84 bd
       0.046973992 -0.09643427 -0.109842755 -0.064506106
000100 d3 20 ac 3d fa f4 22 3c 4b 59 e8 3d af 5d 1f be
       0.08404698 0.009946102 0.11345156 -0.15563081
000110 09 1a bd 3d a0 a2 67 bd 40 41 22 be 40 82 6f 39
       0.092334814 -0.056551576 -0.15845203 0.00022841338
000120 73 cb 98 bc b3 9a a8 bd d2 31 8f 3d 19 c8 b2 bd
       -0.0186517 -0.082326315 0.06991924 -0.08729572
000130 00 4f f9 bd a0 b8 0b 3d cc 8d 97 bc 71 4b 96 3d
       -0.12173271 0.03411162 -0.018500231 0.07338608
000140 ec 9e 72 3d 44 e5 56 3d 5a 04 a0 bb 1d 84 1c 3d
       0.05923359 0.05246474 -0.0048833312 0.03821193
000150 fb 3a df 3d d6 94 cd 3c cb b2 b7 bd 86 03 e2 3d
       0.108999215 0.025095385 -0.08969649 0.11035828
000160 61 8d c7 3d 7e 03 a0 3d 33 24 de bd 9b 95 3d be
       0.09743763 0.07813166 -0.10846748 -0.18514101
000170 52 e5 e8 bc 67 93 eb bd 31 39 4f 3e 8a 4d a1 bb
       -0.028429661 -0.11502724 0.2023666 -0.0049225735
000180 70 1f 84 3d 94 cb 89 3a de 52 0e 3b 93 f9 83 3d
       0.06451309 0.0010512942 0.0021716873 0.06444087
000190 6e d4 eb bd af 84 dc bb 91 16 8e bd 56 3b a5 3c
       -0.11515127 -0.0067296843 -0.06937898 0.020169895
0001a0 e9 fe 61 3d 5b b6 ad bd 05 34 bf bd 5e 44 15 be
       0.055174742 -0.08482047 -0.09336094 -0.14576861
0001b0 f5 e4 36 3d 0c b5 66 3d 70 19 0e be 01 16 ca 3c
       0.044651944 0.056325004 -0.13876891 0.024668695
0001c0 b8 46 6d bd c6 03 2e bd d4 d2 8c 3d d2 ed 4f bd
       -0.05792877 -0.042484067 0.0687615 -0.050763912
0001d0 0b 04 aa bc 11 b1 e6 3c cc 55 ee bc 22 f3 b0 3d
       -0.020753881 0.028160604 -0.029093646 0.08640124
0001e0 f4 44 15 bd 92 dd 2d bd b2 af 8c 3c 3d a8 d2 bd
       -0.036442712 -0.042447634 0.017173622 -0.10285995
0001f0 30 a9 c9 3c 56 a2 ee bd ff fc c2 3d f5 ac ef bd
       0.024616808 -0.11652057 0.095209114 -0.11702911
000200 3d e1 e7 bd b5 4f c3 bc 2f 27 43 bd 72 8c a4 bd
       -0.11322258 -0.023841718 -0.04764479 -0.080346
000210 51 c6 b8 bc e8 aa e0 bd 0a ef 42 3d c2 fb 4c bd
       -0.022555502 -0.10970098 0.047591247 -0.050044782
000220 f7 04 09 be fc 02 69 3d ae de 6c bd 86 a2 52 bd
       -0.133808 0.05688761 -0.05782955 -0.051424526
000230 5b ab ff bd 35 67 b7 3d c6 3a 81 bd 9c fc e7 bb
       -0.12483855 0.08955232 -0.06310038 -0.007079674
000240 74 2d 25 3e 5c 2e be bd a6 e8 24 bd be 22 94 bd
       0.1613062 -0.09286186 -0.040260933 -0.07233189
000250 a8 7c c9 3c 19 98 c9 b9 da d4 a4 3d 4a 87 36 3c
       0.024595574 -0.0003845103 0.08048411 0.011140654
000260 64 bf 65 bd 35 08 f0 3d 99 06 00 3e 1c 7b 12 bd
       -0.056090727 0.11720315 0.12502517 -0.035761937
000270 e4 3d ba bd f9 5b b2 3d 63 2a 4f 3f 61 00 b2 3d
       -0.09093836 0.08708949 0.8092405 0.086914785
000280 b4 52 32 bc b1 b4 cf 3d f0 d1 ff 3d a3 1e ec bd
       -0.010883976 0.10141886 0.12491214 -0.11529281
000290 29 05 9b 3c 12 fd b1 3d ff b7 99 bd 99 aa 7d bc
       0.018923359 0.086908475 -0.075057976 -0.015482568
0002a0 d6 8a b2 3d 36 89 eb 3c d6 71 0c 3d 28 04 5f 3d
       0.08717887 0.02875195 0.03428825 0.054447323
0002b0 c8 9e a5 3d 4f 2a bc bd a6 60 ed bd 59 93 e3 3e
       0.08086926 -0.09187757 -0.115907 0.44448355
0002c0 5d a8 20 bd f7 0b 88 3d ef 29 97 3d cb 7b 5d 3b
       -0.039223064 0.06642907 0.07381045 0.003379571
0002d0 49 cd 33 3e 17 20 7a 3c c3 1b d4 3d e2 da c9 3d
       0.17558779 0.01526644 0.10356858 0.09856202
0002e0 7e 54 02 3e aa b0 5e bd c6 63 b4 bd cc 4a 46 bd
       0.12727544 -0.0543677 -0.08808093 -0.048411176
0002f0 34 1e d9 3c 24 df cb bd 29 c9 2c 3d 5e 28 5c 3e
       0.02650366 -0.0995467 0.04218403 0.21499774
000300 88 b4 1d 3d 74 72 d5 3d 75 1c 94 3c 38 22 1c 3e
       0.038502246 0.10422221 0.018079976 0.15247428
000310 c5 30 e2 3d c3 3a a4 bd 40 8c a0 bc 64 f5 9d 3b
       0.11044458 -0.080190204 -0.019598126 0.0048205126

lstm2.weight_ih_l0 f4 [200, 50]
000000 87 06 9a bd 48 59 75 3d a3 64 39 bd b8 26 60 3d
       -0.07520776 0.0598996 -0.04526199 0.054724425
000010 9c 30 ee bd 3a 6f da bd 0f c0 0a 3d fe 58 0d 3e
       -0.11630365 -0.10665746 0.033874568 0.13803479
000020 93 0b ad be fc 27 0c 3c 0f 6e 79 bd 62 2d b2 3d
       -0.33797893 0.008554455 -0.060895976 0.08700062
000030 7d 3f 20 be 3c d3 28 3e b5 d5 b1 3d c7 c5 91 3d
       -0.15649219 0.1648683 0.086833395 0.07117801
000040 be 7e 5c be 81 60 9c 3d 0a bf 6a be 21 88 83 3e
       -0.21532723 0.07635594 -0.22924438 0.25689796
000050 55 e3 df 3c 39 c3 68 3d d5 ba 4e bd 80 9c 5e be
       0.02733008 0.056826804 -0.050471146 -0.21739388
000060 99 65 3b bc 83 94 2b 3e 5e 7f a0 3d 5b fa 92 be
       -0.011437797 0.16755871 0.07836793 -0.2870663
000070 39 de 89 bc 00 8d 9b 3e 03 b2 4d 3e a0 09 07 3e
       -0.016829597 0.30381012 0.20087437 0.13187265
000080 48 21 28 3e aa 0c 81 be 29 2b 7a 3e 1f 7c 16 be
       0.16418946 -0.25204974 0.24430527 -0.14695786
000090 d8 b3 39 be 8a 18 6d be 92 eb 3f be a2 9d e8 bc
       -0.18135011 -0.23153892 -0.18742207 -0.028395478
0000a0 1c d7 12 3d 52 6b 9e 3d 00 6e d6 bd 2c 54 04 be
       0.035849676 0.077353135 -0.104701996 -0.12922734
0000b0 f8 7c 6d be fe 35 55 be d3 b4 77 bd c2 05 6d be
       -0.23192203 -0.20821378 -0.06047518 -0.23146728
0000c0 55 99 2e 3d 5e 01 04 3e b0 6d 79 bd 66 9e 86 3d
       0.042626698 0.12891147 -0.06089562 0.06573181
0000d0 5a 82 05 3d c8 8e be bd 42 db ac 3d 37 22 a6 bd
       0.032595016 -0.09304577 0.084402576 -0.08111995
0000e0 05 02 66 3d 44 2b da 3d 35 10 3a be a7 40 3c bd
       0.05615427 0.106527835 -0.18170245 -0.045960095
0000f0 36 1b 7f 3b be 4d a8 bd 0b b7 eb 3d 8c 52 b0 bd
       0.003892613 -0.08217953 0.11509522 -0.086094946
000100 34 5b 91 3d 15 0c b2 3d 60 04 0e 3e 02 70 46 bb
       0.07097474 0.08693711 0.13868856 -0.0030279164
000110 85 40 e1 bd c8 5c a4 bd 8d 3d 62 3c ba 34 03 be
       -0.10998634 -0.08025509 0.01380862 -0.12813082
000120 a2 19 55 bc f9 e6 da 3d ad 38 c6 3d 5d dd a0 bd
       -0.0130066 0.10688586 0.09678779 -0.07854722
000130 5a c5 b0 bc 95 c6 da bd ff 97 79 3d e6 2f 18 3d
       -0.02157848 -0.10682408 0.06093597 0.037155055
000140 fd 59 af bd 2d f8 f9 bd 61 b4 e3 bd 88 1c 8d bc
       -0.08562086 -0.12205539 -0.11118389 -0.017225519
000150 34 37 13 be 37 2b a8 3d 51 20 1a 3e 2d 6e 15 be
       -0.14376527 0.082113676 0.1505139 -0.1459281
000160 6e 8e 20 3d ef cc 73 bd 5f 98 74 bd 48 de 8b 3a
       0.03919833 -0.05952161 -0.059715625 0.0010671103
000170 54 72 bd 3d c3 90 21 3d 22 67 d4 bc f1 0c 39 3d
       0.09250322 0.039444696 -0.025928084 0.045178358
000180 e1 0d b8 3c 52 db e4 3d 9f 23 b2 3d fd a2 83 bd
       0.022467555 0.111746445 0.086982004 -0.06427572
000190 66 d4 17 bd e3 b4 46 be 1b 82 f2 3d 6c 88 48 3c
       -0.037067793 -0.1940494 0.11841222 0.012239557
0001a0 2d 59 8f 3d 36 ca a3 bd 0c 6f 24 be a8 e3 8a 3e
       0.06999431 -0.07997553 -0.16057986 0.27126813
0001b0 c9 db 6e be ed 7a 24 bd 8c 7c 07 3e 74 5a 0f 3d
       -0.23326029 -0.040156294 0.13231105 0.034998372
0001c0 be 77 47 bd 8f 1a 86 3d 22 e2 12 3e 9b e8 04 bd
       -0.04869818 0.065480344 0.14344075 -0.032448392
0001d0 f4 31 16 be 33 b1 b0 bd a5 c0 95 bd 90 13 0e 3e
       -0.14667493 -0.08627548 -0.07312135 0.1387465
0001e0 c0 28 32 3e 9c 8a 0e 3e d6 6f 17 3b c5 e7 0b bd
       0.17398357 0.13920063 0.002310743 -0.03415658
0001f0 a9 39 1d 3e d1 dc 2c 3e 43 b9 4c 3e a4 34 2e be
       0.15354027 0.1688111 0.19992547 -0.17012268
000200 e9 67 9a bd 94 bd 5a 3e f0 96 55 3d 4f a8 49 3d
       -0.075393505 0.21361381 0.0521459 0.049232777
000210 bd d8 84 3d 30 10 9a bd 73 a9 54 3d 20 1c 07 be
       0.06486652 -0.07522619 0.051919412 -0.13194323
000220 ee b8 62 be d9 6f 66 be 3e 78 20 be e8 80 03 3d
       -0.22140858 -0.22503604 -0.15670869 0.032105356
000230 42 8a a1 3d f4 44 31 3e aa 38 2d 3d 4d 19 3c bc
       0.07887699 0.1731146 0.042290367 -0.011480642
000240 bf b3 5e be c8 c5 77 be 9b 5c b8 bd a9 be 89 3c
       -0.21748255 -0.24196541 -0.09002038 0.016814547
000250 98 39 ed 3c 2b b7 69 3d a2 31 5a 3d df c0 2e 3d
       0.028958127 0.05705945 0.05326999 0.042664405
000260 3d 10 3b bd f3 b3 e9 3d 74 10 45 3d 47 93 df 3d
       -0.045669783 0.11411276 0.048111394 0.10916763
000270 5c a8 2c be c7 49 60 3c d0 07 5d be 9a fa f2 3d
       -0.16861099 0.013689465 -0.21585011 0.11864205
000280 56 34 d8 3c c4 0c 37 3e fa 6b d0 bd 16 bb 00 3e
       0.026392143 0.17875963 -0.10176845 0.12571368
000290 2c aa dc 3d f6 a3 00 bd 9a 0d e5 3d 4f d9 1a be
       0.10774645 -0.031406365 0.11184235 -0.15121959
0002a0 1a f3 33 3d 6d 3a c0 3d 0b f9 20 bd 69 f5 b9 3d
       0.04393301 0.09386144 -0.039300006 0.090800114
0002b0 62 0c e4 bc da b4 c9 3d ce 3b 16 bd b3 23 b4 3d
       -0.027837936 0.09848948 -0.036678128 0.087958716
0002c0 18 64 97 bc 54 33 f0 bd 3a 9b 15 be 90 81 6b 3d
       -0.018480346 -0.1172854 -0.14609995 0.057496607
0002d0 d0 04 6d 3d 1e f1 a2 3d 98 8a 84 3d ca a3 11 bd
       0.057865918 0.07956146 0.06471747 -0.035556592
0002e0 ec 43 da 3c 3c fb 9b bd 21 f8 aa bd df 09 e9 bd
       0.026643716 -0.076162785 -0.08348108 -0.11378836
0002f0 df 5b 33 bd 62 2a d0 bd 0f 03 b9 3d 3e 60 12 be
       -0.043788787 -0.10164334 0.090337865 -0.14294526
000300 ed fc a3 bb bb d7 e4 bd 05 24 a3 bd 16 4d f9 3b
       -0.0050045163 -0.1117396 -0.079658546 0.0076080663
000310 0f 7d a0 3d 4f a8 8b 3d 50 f4 2b 3c 24 92 aa 3d
       0.07836353 0.06819212 0.01049526 0.08328655
000320 6b 6a 07 be 22 22 0d 3d fb d6 c4 bd f5 a1 fb bb
       -0.13224189 0.03445638 -0.09611317 -0.007679219
000330 61 2e ab be 7b bd 04 be 8f 17 2b 3d de 0c 58 bd
       -0.33433822 -0.12962906 0.041770514 -0.052746646
000340 52 e7 88 3d 7a 0b bd 3c b8 54 a9 3d 39 3a 1b 3e
       0.06684746 0.023076762 0.08268112 0.15158929
000350 ca 7d f4 bd 1e de 19 3e 65 01 f8 bd b5 12 71 bd
       -0.11938055 0.15026137 -0.12109641 -0.05885573
000360 2a 5b d7 bd 25 4d 35 3d 7b af 39 bc 1c 89 a6 3d
       -0.10515435 0.044263024 -0.011333342 0.0813162
000370 06 6f 99 3d 05 3b e2 3c a6 3a 9a bd 2b bb c6 bd
       0.07491879 0.027616033 -0.075307176 -0.09703668
000380 60 20 13 bc bb df 71 3e c0 f5 47 3e 36 fb ed 3c
       -0.008979887 0.23620503 0.1952734 0.02905045
000390 04 62 81 bd 01 41 0b 3e 55 7d bc 3d 3a f2 02 bd
       -0.06317523 0.13599016 0.09203593 -0.031969287
0003a0 9b 2f 7a bd 2f 00 b2 bd 94 8c 32 bd 3f 1f 75 3c
       -0.061080556 -0.08691441 -0.043591097 0.014961063
0003b0 8f 90 06 bd 6c c6 d7 bc 1b 8b 0f 3b 3d a9 02 be
       -0.032852706 -0.026339732 0.0021902982 -0.12759872
0003c0 fc 58 9a 3b 48 1b f1 bb c1 0b 29 be aa 8f 50 be
       0.004710315 -0.0073579885 -0.1650839 -0.20367303
0003d0 c3 e0 70 be cf 3e 51 3d 99 dc 1d bc fe 75 06 3d
       -0.2352324 0.05108529 -0.009635114 0.03282737
0003e0 ca f0 02 3d 27 55 cb 3c ac 7a a5 bd 40 3b db 3d
       0.031967916 0.024820877 -0.080800384 0.107046604
0003f0 d8 a1 e8 3d 02 33 46 bd 3e 91 6f bc ad 31 63 bb
       0.11358994 -0.04838849 -0.014622031 -0.003466706

lstm2.weight_hh_l0 f4 [200, 50]
000000 7d 03 5f 3d 2a 77 11 3d 06 b8 07 3c 6b ac df 3c
       0.054446686 0.035514034 0.008283621 0.027303895
000010 68 f9 0c be 9b bb b7 bd 82 7e 1a 3e 7a fe a4 be
       -0.13767016 -0.0897133 0.15087321 -0.322254
000020 d7 65 ac bd 17 86 43 be f6 71 2d 3d 29 b3 a0 3d
       -0.08417862 -0.1909412 0.04234501 0.07846672
000030 05 d8 04 3b a5 d6 72 3d 3e ab fd 3d d3 29 85 3b
       0.002027036 0.059286732 0.123861775 0.0040638237
000040 5e 37 21 be 17 7c 0c 3d ac 13 35 bd 27 42 51 3d
       -0.15743777 0.03429803 -0.044208214 0.05108848
000050 2c 36 2e be 65 4d c4 bc 55 77 70 3d 6a eb de 3c
       -0.17012852 -0.023962686 0.058707554 0.027211864
000060 c8 e0 94 3d f8 9e a1 3d 68 9a 21 3e 2e 85 c7 bd
       0.07269436 0.07891649 0.15781558 -0.09742199
000070 fd 0d 28 be 40 fc a6 bd 9a 67 ef bc c8 ad 94 be
       -0.16411586 -0.081535816 -0.029224206 -0.29038835
000080 e0 bb 58 3e cd f5 f2 bd 0e 35 17 be f5 2e 0e 3e
       0.21165419 -0.11863289 -0.14766333 0.138851
000090 3d 49 c9 bc a2 d6 77 bd c1 dc 6c bd 89 98 25 be
       -0.024571056 -0.060507424 -0.057827715 -0.16171469
0000a0 0c 41 21 3e 00 9b 0b be 85 4c ca bc cf c9 80 bd
       0.1574747 -0.13633347 -0.02469469 -0.06288492
0000b0 df 6b 84 3d 1e 38 f1 bd 9d 8d 3d bd c9 67 26 bc
       0.06465887 -0.11778282 -0.04627763 -0.01015658
0000c0 de 5b da bd b4 a7 c6 bc 91 a7 db 3d ab b6 96 bd
       -0.106620535 -0.024249889 0.1072532 -0.0735906
0000d0 f5 2b 02 be 77 12 18 3d d5 b5 8d bc a6 56 9a bd
       -0.12712081 0.037126984 -0.017298618 -0.07536058
0000e0 8b 34 19 be 00 1f 9e 3c e6 bb bd bd 64 cd a2 bd
       -0.1496145 0.019301891 -0.092643544 -0.079493314
0000f0 91 2f 38 3d c4 13 3f ba 5c da 31 3d 14 cc 7d 3d
       0.044967238 -0.0007289017 0.043421134 0.061962202
000100 3e 16 e9 bd 1a 2d 86 bd 8a 06 e5 3d 7a a5 23 3d
       -0.113811955 -0.06551571 0.11182888 0.039952733
000110 2a c7 85 3d 7f 32 13 3e 1d 32 a0 3c bd 14 d8 bd
       0.06532128 0.14374731 0.019555146 -0.105508305
000120 81 74 b9 bd 7e 0e c5 bd 6a b3 1d be 81 d6 a9 3d
       -0.090554245 -0.09621905 -0.15400472 0.082928665
000130 48 f1 0c bd 8b 7c 01 3e 38 af 3c 3c e4 ee 3c 3c
       -0.03440979 0.12645166 0.011516385 0.011531565
000140 b7 98 fc bd 54 96 13 3e 07 77 df bd 05 08 27 be
       -0.123338155 0.14412814 -0.109113745 -0.16311653
000150 9e e6 8c bb 83 71 dd bd a8 91 bf bc 45 0f 9a bd
       -0.0042999526 -0.10812666 -0.023384884 -0.07522444
000160 aa 9a 4e bc 06 cb d4 3d a1 60 a4 3d a3 24 18 3e
       -0.012610117 0.10390286 0.08026243 0.14857726
000170 75 af 1e 3d d8 0a f1 3d a9 4d fe bd 0a 22 bd 3d
       0.038741548 0.117696464 -0.12417156 0.09235008
000180 ab 6b 28 bd 38 c7 5c 3c fe 5c ad bd 3c b3 c8 bd
       -0.041118305 0.013475232 -0.084650025 -0.09799811
000190 35 31 fc 3d dd b2 c0 3d da 6d ee 3d 1a 8a 2b be
       0.12314073 0.094091155 0.11642046 -0.167519
0001a0 17 3e e2 3d 95 ad 17 be 60 16 51 bd eb 26 97 be
       0.11046999 -0.1481231 -0.05104673 -0.2952188
0001b0 3b 2e ef 3b 80 d9 02 bd de a4 54 3d 4c 1d e1 bd
       0.0072992123 -0.031945705 0.051915042 -0.10991916
0001c0 13 f4 63 bd a1 3f b5 3d 1e 8f 98 bc 74 ec 2c 3e
       -0.05565269 0.08850027 -0.018622931 0.16887075
0001d0 c4 de de bd 35 9f f6 bc f9 b4 d4 bc db 00 0c be
       -0.10882333 -0.030105213 -0.0259652 -0.13672201
0001e0 b7 ef 93 bc 51 90 d4 3d e1 03 f4 bd a4 46 cd bd
       -0.01805864 0.10379089 -0.11914802 -0.10023239
0001f0 39 a3 11 3d 13 ba e5 3d 56 54 ec 3d ab 4f 32 3d
       0.035556052 0.112171315 0.11539523 0.04353301
000200 bb 54 75 be ea 7b 37 be 5a 20 22 3e 18 a8 5a bc
       -0.23958103 -0.17918363 0.15832654 -0.013345741
000210 6c 51 52 3d 2d ba f8 3d 1d 74 92 3d 76 c6 08 3e
       0.05134718 0.12144885 0.07151053 0.13356957
000220 2c 6f fb bc 1f 1b 6c 3c f4 98 a3 3d 16 49 83 bd
       -0.03069266 0.014410763 0.07988158 -0.064104244
000230 82 e1 2d 3d 92 ad ae 3d 1f 43 bc 3d 7f f3 63 bd
       0.04245139 0.085292 0.0919249 -0.055652138
000240 60 79 4c 3e 6f 88 00 be fc 87 f4 bd 32 b9 33 3e
       0.19968176 -0.12552045 -0.119399995 0.17551115
000250 db 8e a7 3c 32 83 3a bd 38 0b c2 bc 44 b1 a4 3d
       0.020453861 -0.045535274 -0.02368699 0.08041623
000260 8c cc d2 3c 51 b1 36 3e 37 a6 8e bd 90 c3 d2 bd
       0.025732301 0.17841078 -0.06965297 -0.10291207
000270 6d 93 34 3e ce 68 80 bd 10 7e ae 3d 1e f8 32 bd
       0.17634363 -0.0626999 0.08520138 -0.043693654
000280 b8 8d 63 bd 31 e7 c7 3d 93 a0 05 3e 21 7e 04 be
       -0.055555075 0.09760893 0.13049535 -0.1293874
000290 bb 10 00 3d 78 f8 a7 bd f5 30 2e be 81 30 e3 3a
       0.031265955 -0.082016885 -0.17010863 0.0017333181
0002a0 23 ed 53 3e 41 f9 66 bc 21 e8 8b bc c4 a7 93 3d
       0.20695929 -0.014097513 -0.017078461 0.07209733
0002b0 df 1d a8 bd 46 e9 ce 3d 26 e4 cb bc 94 f3 80 be
       -0.082088225 0.10103087 -0.024889063 -0.25185835
0002c0 6d 05 8f 3c 70 f4 d7 bc 85 0f 74 be a9 62 2e bd
       0.017458642 -0.026361674 -0.23834045 -0.04257456
0002d0 45 3a 42 be 87 e0 ba bd e1 c2 16 3e a6 64 f2 3a
       -0.1896754 -0.091248564 0.14722778 0.001849313
0002e0 76 3b 2a 3d 7d 2a f2 3d 5a 50 01 bd 1c be 0b bd
       0.041560613 0.1182451 -0.03157077 -0.03411685
0002f0 10 8d 85 3c 84 ea 04 3d 21 02 0b 3e e4 d2 1c be
       0.016302615 0.032450214 0.13575031 -0.15314823
000300 13 20 56 3e 9d d1 ab bd b8 44 ff 3c a3 1b af bd
       0.20910673 -0.0838959 0.031160697 -0.08550193
000310 75 c6 c8 3b 77 6d 1b 3e 8d cd 84 bd 25 86 2f be
       0.0061271735 0.15178476 -0.06484518 -0.17141016
000320 e5 6d 8f bd 8b 0a bd 3c 9e d9 98 3c d6 b1 b3 3d
       -0.070033826 0.023076316 0.018658455 0.08774154
000330 0f df 25 3c e0 3b da 3d 10 18 b3 3d 8a 79 03 3e
       0.010123982 0.106559515 0.08744824 0.12839332
000340 80 84 21 be 06 26 5f 3d e5 a1 a3 bc 64 5f fb bc
       -0.15773201 0.05447962 -0.019974658 -0.030685134
000350 bc 57 11 bd ed f0 d1 3d b9 60 17 3d d7 5d e5 bd
       -0.03548406 0.10251031 0.036957476 -0.11199539
000360 1f fa a0 bd 31 8f 2b 3c 41 92 f2 3c 47 3a 09 be
       -0.07860207 0.010471151 0.029610755 -0.13401137
000370 0e d6 b9 bd 71 46 00 be 22 10 ed 3d cf 30 cd bd
       -0.09074031 -0.12526871 0.11575343 -0.10019075
000380 05 87 fd 3d 35 c6 cf 3d 77 b9 4d 3d 24 91 19 be
       0.123792686 0.10145227 0.0502257 -0.14996773
000390 87 24 9c bd 54 9e 03 be 00 88 c2 ba 4d f1 c8 3d
       -0.076241545 -0.12853366 -0.0014841557 0.098116495
0003a0 e9 ef 92 3d ea 9f b0 bd 74 73 27 be 1d 81 87 3d
       0.071746655 -0.08624251 -0.16352636 0.06616423
0003b0 67 67 df 3d 31 ea d3 3c 55 92 a5 bd be 01 de bc
       0.10908394 0.025868507 -0.08084551 -0.02710044
0003c0 46 82 29 3e 85 57 1a 3d 65 7f 8f 3d 7e 5d 2e 3d
       0.16553602 0.03768112 0.070067205 0.04256963
0003d0 56 6b 5c bd 0e c6 c2 3d f8 52 ed bd 23 1d b1 bd
       -0.0538133 0.09510432 -0.11588091 -0.086481355
0003e0 ed 89 a4 3d 60 0c 82 bd e7 9f 6b bb 22 f3 29 bd
       0.0803412 -0.063500166 -0.0035953464 -0.041491635
0003f0 12 de b0 bc 18 ab fa 3d fa 66 e2 3c 18 4a 2f 3d
       -0.021590266 0.12239665 0.027636994 0.04279527

lstm2.bias_ih_l0 f4 [200]
000000 c7 a4 dc 3d 39 a2 bd 3d 97 f8 09 3e 8f f5 8a 3d
       0.10773616 0.09259457 0.13473736 0.06785118
000010 43 e1 b8 bd 3f f1 ab bd 5e 73 b1 bd 02 b6 0c 3e
       -0.0902734 -0.083956234 -0.08664583 0.13741305
000020 41 ee 3b 3d c0 1f 0c 3e 6c e2 18 3e 97 ea 13 3e
       0.045881514 0.13683987 0.14930123 0.14444958
000030 48 fa d1 bd 59 16 da 3d 4a 45 08 3e 4f 9d 84 bd
       -0.102528155 0.10648794 0.13307682 -0.06475317
000040 47 fc 9b 3d 89 d4 33 3d be 18 b3 3d 8b 20 fd 3d
       0.076164775 0.04390386 0.087449536 0.12359723
000050 f4 87 11 be fc 81 0c 3e e1 0a b8 3d 33 0f 95 bd
       -0.14212018 0.1372146 0.0898645 -0.0727829
000060 79 23 7a 3d 2f 3d f6 3e b2 3c 4b 3d f4 36 e5 bd
       0.061068986 0.48093554 0.04961843 -0.11192122
000070 6f 82 cd 3e 11 45 98 3d db 6f 69 bd 5e d1 9b bd
       0.40138575 0.07435048 -0.05699144 -0.07608293
000080 29 59 9a 3a ce 10 40 bd 34 9f 09 3e 9c a2 9e 3d
       0.0011775839 -0.046891026 0.13439637 0.07745859
000090 fb 05 25 bd f2 85 20 3d 45 a1 db 3d df 5c 02 be
       -0.040288907 0.03919024 0.10724119 -0.1273074
0000a0 cd e5 c2 bc f1 37 03 bd 2a 7d e9 3d 44 53 ad bd
       -0.023791218 -0.03203577 0.11400826 -0.08463147
0000b0 f3 e2 95 3d 84 27 7b bc 37 09 c4 3d 78 86 66 3d
       0.07318678 -0.0153292455 0.0957207 0.056280583
0000c0 54 c9 99 3d 83 4c f2 bc 55 d9 9b bd d0 36 20 be
       0.075091034 -0.0295775 -0.07609812 -0.1564591
0000d0 15 e9 ac bd f8 60 07 be 06 bc f2 3d 07 e1 dd 3d
       -0.08442894 -0.13220584 0.11852269 0.10833936
0000e0 79 cc 0c be d7 61 54 bd 1e df 9e bd 12 0b 84 bd
       -0.13749875 -0.05185112 -0.077574 -0.06447424
0000f0 87 93 a3 3d cc 09 f5 bd 31 43 6d 3d 63 fc 8d bd
       0.07987123 -0.11964759 0.057925407 -0.069329046
000100 fd db bd 3d fb 50 fd bc 34 83 b5 bd f5 a1 b0 3d
       0.09270475 -0.030922404 -0.08862916 0.08624641
000110 1a 5e b6 3c fe c3 a2 3d 19 de 15 be 79 e0 0a 3d
       0.022261668 0.07947539 -0.14635505 0.03390548
000120 0d b9 40 3d 9e ac 0d be b5 51 33 3c 77 1b 9a be
       0.04705148 -0.1383538 0.010944773 -0.3009908
000130 2a d2 95 bd 85 91 16 be ba 3c ba 3c c5 78 63 3b
       -0.07315476 -0.14703949 0.022734035 0.0034709435
000140 60 3a eb 3c d5 07 d7 bc 24 0e 31 3b 87 a9 b4 3d
       0.028714359 -0.026248852 0.0027016485 0.08821397
000150 75 58 02 be 4f a6 16 be e6 b6 20 bd 68 99 b3 bd
       -0.12729056 -0.14711879 -0.039236926 -0.08769494
000160 c8 a0 23 3d 02 e6 85 bd d6 a7 1f 3e b8 bd e6 bd
       0.039948255 -0.06538011 0.15591368 -0.11266655
000170 91 78 7f 3d c0 61 c0 bc 2b 9c 4a 3d b0 7c ca bd
       0.06237084 -0.02348411 0.04946534 -0.098870635
000180 00 e4 00 bd 7d 4b 06 bc c6 e3 05 3d 68 c7 70 3d
       -0.031467438 -0.008196709 0.032687925 0.05878392
000190 b7 93 02 bd 39 3b 8f 3d 39 54 02 3d ab c2 e1 bd
       -0.031879153 0.06993718 0.031818602 -0.11023458
0001a0 9e ef 88 3d 31 b6 bb bc fc 39 4b bd db b9 21 bc
       0.06686328 -0.022914024 -0.049615845 -0.009870972
0001b0 e9 85 e3 bd 2f 30 a9 3b 21 b1 d1 bd 4b 87 24 bd
       -0.11109526 0.0051632146 -0.10238863 -0.040168088
0001c0 f9 6e 01 bd 95 23 c1 3d 6d 7f ba 3d 27 c4 11 bc
       -0.031599972 0.09430615 0.09106336 -0.008896864
0001d0 a2 8e e0 bd 12 a3 d4 3d b7 94 40 3a f7 20 f0 bd
       -0.10964705 0.10382666 0.0007346379 -0.117250375
0001e0 d6 35 54 3d 35 ad 0f be f3 ff d8 3c 16 5f f4 3d
       0.051809154 -0.14030917 0.026489234 0.11932199
0001f0 81 a0 88 bd 4c 9e d5 3d 2d 1d 2b 3e 5a 5e e8 bd
       -0.06671239 0.10430583 0.16710348 -0.11346121
000200 43 be a4 bd d1 81 1a bd 29 b5 77 3d 52 fb 4b 3d
       -0.08044102 -0.03772146 0.060475502 0.049800225
000210 df 1e 77 3c 75 6d 7d bd 21 77 be 3d 71 7d 3a 3d
       0.015083044 -0.061871964 0.09300066 0.045529786
000220 23 6f 8a 3d 2b af 3c bd 78 a3 9a bd 45 a0 b4 bd
       0.06759479 -0.04606549 -0.075507104 -0.088196315
000230 4c c0 92 3d 87 c0 9c bd 24 61 bb 3d be ad c6 3d
       0.07165584 -0.07653909 0.091493875 0.097011074
000240 75 2d d2 3d 7d e2 03 be 90 31 52 3d f8 af bb 3c
       0.102625765 -0.12879367 0.051316798 0.022911057
000250 30 f2 8b 3d 1a f1 b6 3d d0 59 3f 3d 73 3d 64 3d
       0.06833303 0.08932705 0.04671651 0.055722665
000260 9c a6 09 3e 45 12 84 3d 23 e7 17 3e cf df 81 3d
       0.13442463 0.06448797 0.14834265 0.06341516
000270 d6 10 c8 3d eb e3 79 3e c2 7c c2 3d ec 59 c9 bc
       0.09768836 0.2440335 0.09496452 -0.02457901
000280 70 e0 d5 3c 47 c9 14 3e 3f c7 b9 3d 8a d2 b3 bd
       0.026107997 0.14529906 0.09071206 -0.087803915
000290 6e e6 df bd 1e 48 e5 3c 17 c9 78 3d f0 98 12 3e
       -0.10932623 0.02798849 0.06073865 0.14316154
0002a0 f8 17 16 3e fc 38 72 bd 35 ee 84 bd 66 6a 71 bd
       0.14657581 -0.059136376 -0.06490747 -0.05893936
0002b0 ab 57 8b bd a3 f7 f2 3d 93 15 b8 bc 34 57 8a 3e
       -0.06803831 0.11863639 -0.022471225 0.27019656
0002c0 42 b9 bf 3d 94 f6 c9 3d 87 84 ab 3e 46 e2 b5 bd
       0.09361507 0.09861484 0.33499548 -0.08881049
0002d0 72 6a 8b bd 91 ea 0c 3e 90 a1 cd 3d 43 fa c2 bc
       -0.06807412 0.13761355 0.10040581 -0.023800975
0002e0 fc 3b 03 be 7b d7 24 bd cd c3 cb bd 33 bc 25 be
       -0.12815851 -0.04024456 -0.099494554 -0.16185074
0002f0 f4 22 a6 3d 41 b7 18 be 93 37 95 3c 66 00 fb 3c
       0.081121355 -0.14913656 0.018214976 0.030639838
000300 97 c5 bc 3c c2 4e 88 3c de 5c 60 39 a8 a1 ea 3d
       0.023043437 0.016639117 0.000213969 0.11456615
000310 f1 30 be 3d ad 42 18 bd e7 79 e8 3d 04 a6 04 3e
       0.092866786 -0.037172962 0.11351376 0.12953955

lstm2.bias_hh_l0 f4 [200]
000000 cc 4b 40 3e 49 61 d1 3d d8 b6 0c bc 29 83 be 3d
       0.18778914 0.10223634 -0.008588515 0.093023606
000010 90 44 08 3d f2 50 0c bd 42 49 1a 3e 30 4f 00 3e
       0.03326851 -0.034256883 0.15067008 0.12530208
000020 56 8a 05 3e c8 2c 02 3e 76 90 78 3d 03 c7 2a 3c
       0.13041052 0.12712395 0.060684644 0.010423425
000030 b7 7f 37 bd 0d 57 c7 bd a4 a7 0b 3e 4a 88 29 bc
       -0.044799533 -0.097334005 0.13638169 -0.010347435
000040 25 9c 2d 3e 2d a6 24 3d 1f f9 80 bd b1 1d db 3c
       0.16954096 0.04019754 -0.06297516 0.026747556
000050 d3 25 be bd 4c 91 a8 bd 31 24 24 bd 72 0c 35 3e
       -0.09284558 -0.08230838 -0.040073577 0.17680529
000060 fd e0 8d 3a 59 5f d5 3e 2c ee 24 3a a9 f5 84 3c
       0.0010824498 0.41674307 0.0006291594 0.016230421
000070 6d 1e 21 3e 16 0e 1a bb ea 47 e3 bc 87 2a 0a 3e
       0.15734263 -0.002350693 -0.027744252 0.13492785
000080 02 21 f4 3d 8f 0e ea bc 1a 4a 13 3e 72 d3 d3 3d
       0.11920358 -0.028571395 0.14383736 0.10343064
000090 29 a8 bf 3d 97 fb ee bd 31 6f 26 3d 63 30 98 bc
       0.09358246 -0.11669081 0.040633384 -0.01857776
0000a0 ec d4 ff bc c2 34 0b 3e fe ca be bd 0e b9 c7 3d
       -0.031229459 0.13594344 -0.093160614 0.09752093
0000b0 e2 d5 ff 3c 51 40 a1 3d c5 9b ad 3d 51 40 93 bd
       0.031229917 0.078735955 0.08476976 -0.07190002
0000c0 4c 8b fe 3d a7 d5 fa bd bd a5 b8 3d 7d b3 a3 bd
       0.124289125 -0.12247782 0.09015987 -0.07993219
0000d0 73 24 f4 bd 79 9a c6 3b 7c 22 3b 3d 57 f7 0d be
       -0.11921015 0.006060895 0.045687184 -0.13863884
0000e0 23 b8 02 be 91 8d c0 bd 79 4e 18 bd fc 0d 1f 3e
       -0.12765555 -0.09402002 -0.037184212 0.15532678
0000f0 e7 6a 94 bd e3 b3 49 bc b5 ba 2c be e7 a4 0f be
       -0.072469525 -0.012310955 -0.16868098 -0.14027749
000100 c1 93 af 3d ff d5 db 3c e5 9f 02 be 09 e5 88 bd
       0.08573104 0.02683544 -0.12756307 -0.0668431
000110 34 a6 c6 3c a5 e2 c2 bc 97 cc f6 bd dc 33 02 3d
       0.024249174 -0.023789713 -0.12050741 0.03178774
000120 38 8f bc bd ac 76 6e bd a8 29 0c be 47 97 8a be
       -0.09207004 -0.058218643 -0.13687766 -0.2706854
000130 66 62 0d be b2 87 f7 3c cd fd 14 be c8 50 09 3e
       -0.13807067 0.030216072 -0.14549942 0.13409722
000140 7b f3 57 3d ed 01 e6 3d de 9c 75 3d ed 0f b9 3b
       0.052722435 0.11230836 0.059964053 0.0056476505
000150 6d c5 d5 3d 29 d5 45 3c 68 bb d1 3d f2 db a7 bd
       0.104380466 0.012074747 0.10240823 -0.08196248
000160 80 8f 9f 3d c8 47 63 3d ca a0 31 3d 58 d9 ca 3d
       0.07791042 0.055488378 0.04336623 0.09904736
000170 76 9c 81 3d 7a 6f fb 3c 7b f8 39 bd f2 e9 ee 3d
       0.06328671 0.030692805 -0.045402985 0.11665715
000180 ea e8 06 be 62 d0 5f bd fe c1 92 3d 46 05 f1 3d
       -0.13174787 -0.05464209 0.07165907 0.11768584
000190 a8 24 9b 3d 0a b6 89 bc 32 bd c2 3d c9 04 d7 bd
       0.07575351 -0.016810436 0.095087424 -0.104989596
0001a0 e6 90 ef bd 39 47 b7 bd 2a e2 2e bc 1f 49 bc bd
       -0.11697559 -0.089491315 -0.010674039 -0.09193634
0001b0 5d 64 da bd 18 90 06 be 49 8d ba bd 71 ea 37 bd
       -0.10663674 -0.13140905 -0.09108979 -0.044901315
0001c0 4f 68 32 3d 01 2d af 3d 65 fb 0d 3c 04 68 84 bd
       0.043556508 0.08553506 0.008665894 -0.06465152
0001d0 6b 9e 3b 3c a0 38 af bb 8a 45 f1 3c 19 9d f1 bd
       0.011451344 -0.0053473264 0.029452104 -0.11797542
0001e0 cf 84 b8 bc 30 8a 81 ba 7f c5 c4 bd 96 05 98 bd
       -0.022524266 -0.0009883102 -0.09607982 -0.074229404
0001f0 cd 21 8e 3d 37 7f 19 3c 1f dd 5c 3d b9 e7 01 3d
       0.06940041 0.009368709 0.053921815 0.03171513
000200 65 d7 de 3c 84 36 d8 bd cd 71 25 3d 1e 54 d7 bd
       0.027202317 -0.10557273 0.040391732 -0.10514091
000210 52 21 62 3d 5f e7 c4 bd 9f ec ce 3d 07 b4 4e bd
       0.055207558 -0.09614443 0.10103726 -0.050464656
000220 59 52 c5 3b df 01 91 3d 2b 8a 1e 3c 7d d8 61 3d
       0.0060217795 0.07080435 0.0096764965 0.0551381
000230 30 50 15 3d 4b 0b bc bd 5a 9a e4 bd ed be 23 bd
       0.036453426 -0.091818415 -0.11162253 -0.039977003
000240 b6 47 17 3b ff ea 02 3d 43 bf 91 3d d9 53 f9 3d
       0.0023083515 0.03196239 0.071165584 0.12174196
000250 40 9f 9e 3d fc 07 4f bd 57 e8 e3 3d 93 73 e6 bd
       0.07745218 -0.050544724 0.111283 -0.11252513
000260 68 69 50 3e 5b 43 c4 3d 07 2a 45 bd 8d 26 e7 bd
       0.2035271 0.095831595 -0.048135784 -0.1128665
000270 d0 7f 87 bd 32 fb 87 3e 13 24 79 bd aa 76 dc 3d
       -0.06616175 0.26558834 -0.06082542 0.10764821
000280 47 40 48 3d 46 16 a7 bd 0a 5c 3e 3d c8 10 6f bd
       0.048889425 -0.08158545 0.046474494 -0.058365613
000290 d5 c5 2a 3c 65 ee 16 be 13 76 41 bd 92 57 19 3d
       0.010423143 -0.14739378 -0.047231745 0.03743703
0002a0 5c 63 1a 3e bd 44 90 3d f2 47 b0 bd 1e 2e 89 bb
       0.15076965 0.07044361 -0.086074725 -0.004186406
0002b0 41 90 a4 bd 4d 16 07 3e 98 c2 b7 3d f0 08 af 3e
       -0.08035327 0.13192101 0.08972663 0.34186506
0002c0 68 a2 f7 bd f4 9c 7a bd ee 1a 13 3e be d1 d7 bd
       -0.120915234 -0.06118484 0.14365742 -0.10538052
0002d0 58 df 1a be 57 da 2e bd 9a 2c c9 bd c1 82 11 3d
       -0.15124261 -0.042688694 -0.0982296 0.035525087
0002e0 90 73 ce bd 00 1e a5 3d cb 17 d6 bd 8d 4e aa 3c
       -0.100806355 0.08062363 -0.10453757 0.020789409
0002f0 f6 0a ce 3d 96 96 9e 3c de a8 04 3e 81 8f ca 3d
       0.100606844 0.019358914 0.12955043 0.098906524
000300 f0 3a b7 3d 65 d7 66 bc c3 86 c9 bd 2e 73 cb bd
       0.08946788 -0.01408944 -0.09840157 -0.09934078
000310 0e 6a c4 3b ff 97 71 bd 3d e0 eb bd 7f b4 6e 3d
       0.005994088 -0.058982845 -0.115173794 0.058277603
