Models/model_BA.pth (torch, 132751 bytes, 11 tensors)

lstm1.weight_ih_l0 f4 [200, 1]
0	0x3e5e5076	0.21710381
1	0x3cf64d13	0.030066049
2	0xbd7415c1	-0.05959106
3	0x3d1da691	0.03848893
4	0xba649831	-0.0008720188
5	0x3dc8a339	0.09796757
6	0xba8cfd0a	-0.0010756564
7	0x3c86d937	0.016460998
8	0x3e80c1b3	0.2514778
9	0xbe09b855	-0.13449223
10	0xbc3caacd	-0.011515331
11	0x3e32e2f1	0.17469384
12	0xbe009645	-0.12557323
13	0x3df48946	0.11940245
14	0x3e231ba1	0.15928508
15	0x3d5e4093	0.0542608
16	0x3eb47966	0.3524887
17	0x3da93632	0.0826229
18	0xbe049a30	-0.12949443
19	0x3e0912b2	0.13386038
20	0xbdace98a	-0.084429815
21	0x3d73cf5c	0.059523925
22	0xbd69bcfa	-0.057064988
23	0x3e0bbafd	0.13645549
24	0x3e1acda4	0.15117508
25	0xbd1ff3b5	-0.039050777
26	0xbe26db3e	-0.16294572
27	0x3e2198cc	0.15780944
28	0x3e235e82	0.1595402
29	0x3e5de74b	0.21670263
30	0xbdddf58e	-0.108378515
31	0xbc2ed2e1	-0.010670395
32	0x3d1b2a95	0.037882406
33	0x3dc7edc4	0.09762147
34	0x3dcc89ca	0.09987219
35	0x3da4bb28	0.0804351
36	0xbdbb76a6	-0.0915349
37	0x3e4c6227	0.19959317
38	0x3d929d88	0.07158953
39	0x3da38afa	0.07985492
40	0x3bd8c339	0.006615069
41	0x3cb54cb3	0.0221313
42	0x3b12adee	0.0022381502
43	0x3d4cf70b	0.050040286
44	0x3de2ba81	0.11070729
45	0x3e6f8a4e	0.23392603
46	0x3e34937e	0.17634389
47	0x3e5be807	0.2147523
48	0x3e0169fd	0.12638088
49	0x3e531861	0.20614769
50	0x3d12851b	0.03577147
51	0x39c5b0aa	0.00037706393
52	0x3d217fe2	0.0394286
53	0xbd50de67	-0.05099335
54	0x3db87d61	0.09008289
55	0x3e238c74	0.15971547
56	0x3e720325	0.23634012
57	0xbdb89141	-0.0901208
58	0x3e346c49	0.17619433
59	0xbe07afb3	-0.13250618
60	0x3d2f6f5b	0.042830806
61	0x3e27039f	0.16309975
62	0xbe867ae7	-0.26265642
63	0x3ce05d25	0.027388165
64	0x3dcd210c	0.10016069
65	0x3e1eb257	0.15497719
66	0xbf2ae7b8	-0.66759825
67	0xbd1975f5	-0.03746601
68	0xbbd0993a	-0.0063659223
69	0x3dd6f3cb	0.104957186
70	0xbd03a010	-0.03213507
71	0x3e430069	0.19043125
72	0xbdca763d	-0.098858334
73	0x3d88334d	0.0665041
74	0x3e6291f6	0.22125992
75	0xbcb16333	-0.021653747
76	0x3bf503ca	0.0074772583
77	0x3d6fa2cd	0.05850487
78	0x3da5403d	0.08068893
79	0xbca229cb	-0.019795319
80	0xbe968b89	-0.29403332
81	0xbad8dfd7	-0.0016546202
82	0x3e34d7db	0.17660467
83	0xbcb759d2	-0.022381697
84	0x3e52f6b2	0.2060192
85	0x3e04f65d	0.12984605
86	0xbd7e2fb7	-0.062057223
87	0xbd1e7a9b	-0.038691144
88	0xbd0003af	-0.031253513
89	0x3e428d77	0.18999277
90	0x3e007e93	0.12548284
91	0x3dab1d38	0.083551824
92	0x3e0c2713	0.1368678
93	0x3db0dfd0	0.08636439
94	0x3d09eca6	0.03367295
95	0x3e175d1b	0.1478161
96	0x3df4c913	0.11952414
97	0xbcbf599e	-0.023358162
98	0x3e3d912a	0.18512407
99	0x3e12ec1e	0.14347884
100	0xbdd7e57d	-0.10541818
101	0x3d8e2482	0.06940557
102	0x3cc3651c	0.023851924
103	0x3e54c38d	0.20777722
104	0xbe63afe5	-0.22235067
105	0x3e95e9a6	0.29279822
106	0xbd054e45	-0.032545347
107	0xbca47644	-0.020075925
108	0xbe60ab05	-0.21940239
109	0x3e54303c	0.20721525
110	0xbe05daa1	-0.13071682
111	0x3de2c2d0	0.11072314
112	0xbe87ee02	-0.26548773
113	0xbda2fb70	-0.07958114
114	0xbd9f2025	-0.07769803
115	0xbdbdc1e8	-0.092655
116	0x3f24f951	0.64442927
117	0xbde4e92f	-0.11177289
118	0xbe84dc61	-0.25949386
119	0x3dd02be2	0.1016462
120	0xbc726438	-0.014794402
121	0xbe10e572	-0.14150026
122	0xbe12c4a6	-0.14332828
123	0x3e337473	0.1752489
124	0x3e40e99b	0.18839113
125	0xbe0eb320	-0.13935518
126	0xbccb4ae9	-0.024815993
127	0x3d97140b	0.0737687
128	0x3e8b33d4	0.2718798
129	0xbe8beed1	-0.2733064
130	0x3e9945cc	0.29936063
131	0xbe6ac772	-0.22927645
132	0x3d98b6fd	0.07456777
133	0xbcd5a812	-0.026081119
134	0x3e3a0c0b	0.18168657
135	0x3e4adc02	0.19810489
136	0xbe5a51ea	-0.2132031
137	0xbe84808d	-0.25879326
138	0x3e81ef8e	0.25378078
139	0xbdb873f0	-0.09006488
140	0xbd578375	-0.0526156
141	0xbe7af9aa	-0.24509302
142	0x3e1a0fab	0.1504504
143	0xbe835114	-0.25647795
144	0xbe341257	-0.17585121
145	0xbe1aa8d5	-0.15103467
146	0xbe81ba5f	-0.25337502
147	0xbe944150	-0.2895608
148	0x3e5862f7	0.21131502
149	0x3e8b1e2c	0.27171457
150	0x3d1fa92d	0.038979698
151	0xbd970ccb	-0.07375487
152	0x3e6627e5	0.22476156
153	0xbdbfb2f4	-0.093603045
154	0x3e8a8042	0.27050978
155	0x3d889b22	0.06670214
156	0x3d1e9760	0.03871858
157	0xbe0177c7	-0.12643348
158	0x3e408aba	0.1880292
159	0xbe13f35f	-0.14448307
160	0x3e222c84	0.15837294
161	0x3e492134	0.19641572
162	0x3d8960b2	0.06707896
163	0x3dec8350	0.11548483
164	0x3deba43f	0.11505937
165	0x3d5f3b14	0.0544997
166	0x3dff3bf0	0.12462604
167	0x3e866524	0.2624904
168	0xbe41c9f6	-0.18924698
169	0xbd90e3ef	-0.07074725
170	0xbcc73f4e	-0.024322178
171	0x3e4ded0f	0.20109962
172	0x3dfc7129	0.12326271
173	0x3d4d3597	0.050099935
174	0x3e848c84	0.25888455
175	0xbdcf1388	-0.10111147
176	0x3d4da56b	0.050206583
177	0xbcbf1c2d	-0.023328865
178	0xbc70c53d	-0.014695463
179	0x3e868c84	0.2627908
180	0xbe6c9985	-0.23105438
181	0x3d764e1c	0.060133085
182	0xbda90ff9	-0.08255
183	0xbd70a950	-0.05875522
184	0x3e13d3b1	0.14436223
185	0x3e2bbbee	0.16770908
186	0xbe4b09af	-0.19827913
187	0x3e1e405b	0.15454237
188	0x3e0037d6	0.125213
189	0x3e22f2be	0.15912911
190	0x3d0ed2b6	0.03486892
191	0x3d0a8b65	0.033824343
192	0x3e1ea9bb	0.15494435
193	0x3e7761ed	0.2415845
194	0x3e0b0d58	0.13579309
195	0x3e65cb07	0.2244073
196	0x3e12802f	0.1430671
197	0x3dd48c62	0.103783384
198	0x3e72a023	0.236939
199	0x3e25fd8b	0.1621

lstm1.weight_hh_l0 f4 [200, 50]
0	0xbd396cbf	-0.045269724
1	0x3d5b1afa	0.053492524
2	0x3ce4c446	0.027925622
3	0x3d660296	0.05615481
4	0xbdad3b2b	-0.08458551
5	0xbd944143	-0.0723901
6	0x3c064c9b	0.008196975
7	0xbe25f09b	-0.16205065
8	0xbdcc3249	-0.09970529
9	0xbdba144c	-0.090859026
10	0x3d3f064b	0.04663686
11	0x3d8ba952	0.06819405
12	0x3cf69822	0.03010184
13	0x3de2bcfe	0.11071204
14	0xbde103a6	-0.10987024
15	0x3d608b0a	0.054820098
16	0x3cc7e5ec	0.024401627
17	0xbdfcbf74	-0.12341204
18	0xbc61bbbd	-0.01377767
19	0xbd8b6549	-0.06806428
20	0x3cfe87cc	0.031070612
21	0xbdc66313	-0.09686866
22	0x3e06ce52	0.13164642
23	0x3db6e9cc	0.08931312
24	0x3e10af9c	0.1412949
25	0xbc827744	-0.01592601
26	0xbd7e1ee4	-0.06204118
27	0xbda9e51d	-0.08295653
28	0xbdcf021f	-0.101078264
29	0xbdb5a40b	-0.08869179
30	0xbcb7da69	-0.022443013
31	0xbda81ce3	-0.08208635
32	0x3ca2ece4	0.019888349
33	0x3d792f9a	0.060836412
34	0x3da5ccb0	0.08095682
35	0x3dd3d516	0.10343377
36	0x3d8e0aa9	0.06935627
37	0xbde31606	-0.11088185
38	0xbc75b98b	-0.01499785
39	0xbcef9686	-0.02924658
40	0x3d06cc06	0.032909416
41	0xbd8b2249	-0.06793649
42	0xbd3526c9	-0.04422644
43	0x3e00a28d	0.12562008
44	0x3d47b7eb	0.048759382
45	0xbe0f8555	-0.14015706
46	0xbe071397	-0.13191067
47	0xbd910f3c	-0.07082984
48	0x3d1098cf	0.03530198
49	0x3dd5e09f	0.10443234
50	0xbdf14062	-0.11779858
51	0x3d5e08f2	0.05420775
52	0xbd073d3e	-0.03301739
53	0x3decba5f	0.11558985
54	0x3e05fc84	0.13084608
55	0xbdcb928b	-0.0994006
56	0x3da978f0	0.0827502
57	0xbd7f9869	-0.06240121
58	0x3d500d3a	0.050793864
59	0x3d7d95d1	0.061910454
60	0xbd8e1e3d	-0.06939361
61	0xbd49b851	-0.049248043
62	0x3e06b5ae	0.13155243
63	0x3e001b09	0.12510313
64	0x3dcf0f74	0.10110369
65	0x3e0d29df	0.13785504
66	0x3c564c93	0.01307978
67	0xbdc0c9e8	-0.094135106
68	0xbde7d384	-0.1131964
69	0xbde3189e	-0.1108868
70	0x3dd0a914	0.10188499
71	0x3de8f73b	0.113752805
72	0x3dda6067	0.106629185
73	0x3dd16af4	0.10225478
74	0x3d993057	0.07479923
75	0x3dcd54b9	0.10025925
76	0x3df37d51	0.118891366
77	0x3db992b2	0.09061183
78	0x3c77aaac	0.015116375
79	0x3ca95791	0.020671638
80	0x3e0a8f3d	0.13531204
81	0x3d2528f7	0.04032227
82	0xbd8c6664	-0.06855467
83	0xbdbce1f9	-0.09222788
84	0x3da8985e	0.08232187
85	0xb849434b	-4.7984806e-05
86	0xbd7b0d0f	-0.06129175
87	0xbdd155a4	-0.10221413
88	0x3d5f78a3	0.054558408
89	0x3dc389fa	0.09547801
90	0xbdeab86b	-0.11460956
91	0x3ad827a8	0.0016491311
92	0xbd4dfeb7	-0.050291743
93	0x3d55e7bd	0.052222956
94	0x3df8bf25	0.12145833
95	0x3dc61677	0.096722536
96	0xbdad06e9	-0.08448584
97	0x3cef7313	0.029229676
98	0x3e010647	0.12600051
99	0xbc9c9e8a	-0.019118566
100	0x3c482a44	0.012217108
101	0xbc8a27d0	-0.016864687
102	0xbbe3d960	-0.0069534034
103	0xbd5021de	-0.05081355
104	0xbdec8f6d	-0.11550794
105	0x3e14ea75	0.14542563
106	0xbdd6a6fa	-0.10481067
107	0xbdfdecc5	-0.12398676
108	0x3d966873	0.07344141
109	0x3cd43714	0.02590517
110	0x3d064e91	0.03278977
111	0xbdfa9001	-0.12234498
112	0xbdc79990	-0.097460866
113	0x3dc09e80	0.094052315
114	0xbe0c232e	-0.13685295
115	0xbddf3391	-0.108985074
116	0x3ced275a	0.028949428
117	0x3d2fa6e1	0.042883758
118	0x3db34b77	0.08754628
119	0xbd8a7d24	-0.0676215
120	0x3e0147b3	0.12625007
121	0x3b2d3b3f	0.0026433019
122	0xbbd3f4e6	-0.006468403
123	0x3dbf48da	0.09340067
124	0x3d838c50	0.06423247
125	0xbdabaad0	-0.08382189
126	0xbdca2844	-0.09870961
127	0xbdeb5e59	-0.11492605
128	0x3d694f94	0.056960657
129	0x3e0430d6	0.12909254
130	0x3d8f9940	0.07011652
131	0x3ca41577	0.020029766
132	0x3c2e0a59	0.010622584
133	0x3c633409	0.013867387
134	0x3dd6845c	0.10474464
135	0xbcfb0864	-0.03064365
136	0xbe071042	-0.13189796
137	0xbe06f331	-0.13178708
138	0x3decf6f9	0.11570544
139	0xbd268935	-0.040658195
140	0xbce5fac3	-0.028073674
141	0xbdec0b1a	-0.11525555
142	0x3d0f72f7	0.03502175
143	0x3da55216	0.08072297
144	0x3994a56b	0.00028352006
145	0xbd3b35a3	-0.04570545
146	0xbb891f65	-0.0041846507
147	0xbe0ab5e0	-0.13545942
148	0x3ded2b4a	0.11580522
149	0x3da8e224	0.08246258
150	0x3c465452	0.0121050645
151	0xbd7e5aad	-0.062098194
152	0xbd7f0191	-0.062257353
153	0xbe317ce6	-0.17332801
154	0x3d90d559	0.07071943
155	0x3c0ae531	0.008477495
156	0xbe108cbb	-0.14116184
157	0xbdce2aff	-0.100667946
158	0xbde8769f	-0.1135075
159	0xbcf76c2d	-0.03020295
160	0xbdfc9802	-0.12333681
161	0xbcf1dd06	-0.029524338
162	0x3e1e355f	0.15450047
163	0xbe4e41f5	-0.20142348
164	0x3ba3ca2d	0.0049984665
165	0xbe30cbab	-0.17265193
166	0xbc893d88	-0.016752973
167	0xbdb7a931	-0.089678176
168	0x3e158276	0.14600548
169	0x3cfe725e	0.031060394
170	0x3e4763f5	0.19471724
171	0xbd82263a	-0.063549474
172	0x3bd19c52	0.0063968087
173	0x3e441bd6	0.19151244
174	0xbd51f479	-0.051258538
175	0x3e04320e	0.1290972
176	0xbe15932a	-0.1460692
177	0x3bd6e0db	0.0065575666
178	0x3d982572	0.07429017
179	0xbd3ff3d2	-0.046863385
180	0xbe3f56a1	-0.1868539
181	0x3b934f7b	0.004495559
182	0xbe336a0a	-0.1752092
183	0xbcb6b3ad	-0.022302473
184	0x3df14ed3	0.11782613
185	0x3e3699d9	0.17832126
186	0x3e0e6688	0.139063
187	0xbb89bf5d	-0.0042037205
188	0xbce5a4d6	-0.028032701
189	0xbe0373f9	-0.12837209
190	0x3dcece25	0.10097913
191	0xbdf84238	-0.12122005
192	0x3ce53fea	0.027984578
193	0xbe221a69	-0.15830387
194	0xbd8d8f37	-0.06912082
195	0x3a8ba8ad	0.0010655128
196	0xbe02b449	-0.12764086
197	0xbbe029db	-0.006840927
198	0x3e3a67cf	0.18203662
199	0x3d946943	0.072466396
200	0x3d9b4842	0.075821415
201	0xbdb7ced0	-0.08974993
202	0x3b54f9b9	0.003249748
203	0x3d117532	0.035512157
204	0xbdc80f4e	-0.09768544
205	0xbb562619	-0.0032676517
206	0xbe29b7cf	-0.16574024
207	0xbc6f20dc	-0.014595237
208	0x3cb41ca1	0.021986308
209	0x3cd2103c	0.025642507
210	0xbde1172e	-0.10990749
211	0xbdbabffe	-0.09118651
212	0xbbe54eb8	-0.0069979094
213	0xbe152848	-0.14566147
214	0xbe0c4994	-0.13699943
215	0x3db5d910	0.08879292
216	0x3dcd6324	0.10028675
217	0x3db73c8e	0.08947097
218	0xbdadcc18	-0.084861934
219	0xbd8c9e48	-0.06866127
220	0xbd9ec5fa	-0.07752605
221	0x3d61eaf7	0.05515572
222	0x3ce3a372	0.027787898
223	0x3cbe0fb1	0.023200842
224	0x3c7fafb4	0.015605856
225	0xbdd13641	-0.10215426
226	0x3c19a6ca	0.0093781445
227	0x3c876f29	0.016532497
228	0xbdce3d5a	-0.10070296
229	0xbd0803ca	-0.03320674
230	0xbdb74af0	-0.0894984
231	0x3d88322c	0.066501945
232	0xbd95cb94	-0.0731422
233	0xbdde9ca3	-0.1086972
234	0x3b910306	0.0044254092
235	0x3c3b48ee	0.011430962
236	0x3dbf15e3	0.093303464
237	0xbe1253c1	-0.14289762
238	0x3dacf16b	0.08444484
239	0x3dc83908	0.09776503
240	0x3e26b6c7	0.16280662
241	0xbe1490df	-0.14508389
242	0x3d74b2ec	0.059740946
243	0x3d92826f	0.071537845
244	0x3d85670d	0.06513796
245	0x3bb84b22	0.005624191
246	0xbd8b107f	-0.06790256
247	0xbd19847a	-0.037479855
248	0x3ca207a7	0.01977904
249	0xbd108c55	-0.03529008
250	0x3ba5317c	0.0050412994
251	0xbe08bf6c	-0.13354272
252	0x3da5754d	0.08079014
253	0xbdbbace9	-0.09163839
254	0xbe3540f5	-0.1770056
255	0x3e39bdb8	0.18138778

lstm1.bias_ih_l0 f4 [200]
0	0xbe080e51	-0.13286711
1	0x3e0772dd	0.1322741
2	0x3ce71350	0.028207451
3	0x3c874a0e	0.016514804
4	0xbcde4783	-0.027133709
5	0x3e2b26ab	0.1671397
6	0xbda6040e	-0.08106242
7	0xbd7697a3	-0.060203206
8	0x3d08f954	0.033440903
9	0x3d7e538d	0.0620914
10	0xbd2fd175	-0.042924363
11	0xbc7fc58d	-0.015611065
12	0x3dc62886	0.09675698
13	0x3d942e1d	0.07235358
14	0xbe0a312f	-0.13495325
15	0x3dcec110	0.100954175
16	0x3f4ecf9f	0.80785555
17	0xbd32b89e	-0.043633096
18	0xbda547ab	-0.0807031
19	0x3caaf397	0.020868106
20	0xbdbee229	-0.093204804
21	0xbbdd113d	-0.0067464397
22	0x3d9b518f	0.075839154
23	0xbc21d67b	-0.009877796
24	0x3de00c06	0.10939793
25	0xbdb4caba	-0.088277295
26	0xbcb7be56	-0.022429626
27	0xbcc7f3c0	-0.024408221
28	0xbc9d1c21	-0.019178452
29	0x3dffb6c4	0.12486032
30	0x3e7289e1	0.23685409
31	0x3d4849b6	0.04889842
32	0xbca45f73	-0.020065045
33	0x3d2d3b84	0.042293087
34	0x3d504be4	0.050853625
35	0xbd947a4c	-0.07249889
36	0x3b7af25f	0.0038291437
37	0x3e0deb8b	0.13859384
38	0xbd878ffb	-0.06619259
39	0xbdbad31d	-0.09122298
40	0x3cd307c8	0.025760546
41	0xbd7f2d7b	-0.062299233
42	0x3c4e7131	0.012600229
43	0xbda005ff	-0.07813644
44	0xbe0d7e12	-0.13817623
45	0x3de25594	0.11051479
46	0xbbe981b4	-0.0071260575
47	0x3e4320b5	0.19055445
48	0x3d5cf6a8	0.053946167
49	0x3e117688	0.14205372
50	0x3df59bf2	0.11992635
51	0xbda6bdf1	-0.08141697
52	0x3d20a466	0.039219283
53	0x3e215071	0.15753342
54	0xbd023988	-0.031793147
55	0xbd81312f	-0.06308209
56	0x3e14be85	0.14525802
57	0xbdebbcf9	-0.11510653
58	0xbc98aed4	-0.018638052
59	0xbd3ae094	-0.04562433
60	0x3cc54380	0.024080038
61	0xbe0e6d45	-0.1390887
62	0x3d22427f	0.039614197
63	0xbdc969c1	-0.09834624
64	0xbdd240aa	-0.1026624
65	0x3d3a3f6b	0.045470636
66	0xbe6c6520	-0.23085451
67	0x3d68a183	0.056794655
68	0xbe108dee	-0.14116642
69	0xbcb898e5	-0.022533843
70	0x3c852d62	0.016256992
71	0xbe09575b	-0.1341223
72	0xbcade83a	-0.021228898
73	0x3d23fac9	0.04003409
74	0xbd9ec9ce	-0.07753335
75	0x3d2e291f	0.042519685
76	0x3c77f6cd	0.0151345255
77	0xbd162aee	-0.036662035
78	0xbda04430	-0.07825506
79	0xbc0bc9b6	-0.008531978
80	0x3dc3075d	0.09522889
81	0xbdc66cf8	-0.09688753
82	0xbe17cfff	-0.14825438
83	0xbdad68d1	-0.08467258
84	0xbdb28253	-0.087162636
85	0xbd4d86d2	-0.050177403
86	0x3e14b990	0.14523911
87	0xbe0c31d2	-0.1369088
88	0xbdb653e9	-0.08902723
89	0x3ddae10d	0.10687456
90	0xbd12b305	-0.035815258
91	0x3de4ba59	0.111683555
92	0x3d218f27	0.03944316
93	0xbdd62090	-0.104554296
94	0xbd330aab	-0.043711346
95	0xbe185079	-0.14874448
96	0xbd7cae6a	-0.06168977
97	0x3d11277f	0.035438057
98	0xbd0bc482	-0.03412295
99	0xbd3e05b9	-0.046392176
100	0xbd844f70	-0.06460464
101	0x3dc76544	0.09736112
102	0x3c3abd2f	0.011397644
103	0xbda05c9d	-0.078301646
104	0x3d9d2dc0	0.07674742
105	0xbd8e19c2	-0.06938507
106	0x3cb3ebba	0.02196299
107	0x3b02db12	0.0019967002
108	0x3c67a4c0	0.014138401
109	0xbe02d388	-0.12776005
110	0xbdf5f284	-0.12009147
111	0xbd9315f4	-0.071819216
112	0x3da485b8	0.08033317
113	0xbd509630	-0.05092448
114	0x3dc11f6a	0.0942982
115	0xbd126dc0	-0.035749197
116	0xbcda8252	-0.02667347
117	0x3d8620c8	0.06549221
118	0x3dba580a	0.09098823
119	0xbd3f0541	-0.04663587
120	0xbcb1ace6	-0.02168889
121	0x3e1257e2	0.14291337
122	0x3d819177	0.06326573
123	0x3cef414f	0.029205946
124	0x3b3291b2	0.0027247486
125	0x3db3f0b1	0.087861426
126	0xbb2d0419	-0.0026400147
127	0x3d7eb89f	0.062187787
128	0xbd7f3dd5	-0.062314827
129	0xbb6352cb	-0.00346868
130	0x3c96339b	0.018335154
131	0x3b3db857	0.0028948986
132	0xbcc9030f	-0.024537591
133	0x3d9419e2	0.07231499
134	0x3d2b7b71	0.04186577
135	0x3dc843d8	0.09778565
136	0x3e133511	0.14375712
137	0x3c83b53c	0.01607763
138	0x3c486add	0.012232509
139	0xbc8bb7f4	-0.01705549
140	0x3da2f095	0.07956044
141	0xbbaaa3f3	-0.0052075326
142	0xbdc39ed9	-0.09551782
143	0xbdd86e4c	-0.105679125
144	0xbd50e95c	-0.0510038
145	0x3cd9189b	0.02650099
146	0xbcde5289	-0.027138965
147	0xbbacc497	-0.005272459
148	0x3dda804f	0.10669004
149	0x3dcf5d73	0.10125246
150	0x3e0a6744	0.13515955
151	0x3e13c5a7	0.14430867
152	0x3d8ad728	0.06779319
153	0x3dd6c56e	0.104868755
154	0xbdc54dba	-0.09633966
155	0x3e3a6ff1	0.18206765
156	0x3c469096	0.012119433
157	0xbdd209cf	-0.10255777
158	0x3dcc076b	0.09962352
159	0x3e179914	0.14804488
160	0xbd34e837	-0.04416677
161	0xbdae3f32	-0.08508147
162	0x3df4629d	0.119328715
163	0x3deba0f9	0.115053125
164	0xbcdcaad4	-0.026936926
165	0x388660e8	6.407668e-05
166	0x3f5b1910	0.8558512
167	0xbdb44564	-0.08802298
168	0x3dcc2bb1	0.09969271
169	0xbe1608e4	-0.14651829
170	0xbd4b021e	-0.049562566
171	0x3df5ddff	0.12005233
172	0x3df6a14e	0.12042485
173	0xbd1ef93b	-0.038811903
174	0x3da2dabb	0.07951876
175	0x3ddbf66a	0.10740359
176	0x3d4b8847	0.04969051
177	0x3d1c5440	0.038166285
178	0x3d035c39	0.032070372
179	0x3af9481b	0.0019018681
180	0x3e8e2507	0.27762625
181	0x3c904c4d	0.017614508
182	0xbe00a6d7	-0.12563644
183	0x3dbf98fc	0.09355351
184	0xbe071379	-0.13191022
185	0xbe1687c8	-0.14700234
186	0xbc714ee3	-0.014728281
187	0xbd87e285	-0.06635002
188	0x3dec777e	0.11546229
189	0xbc751884	-0.014959458
190	0xbdb78120	-0.089601755
191	0x3e14257b	0.14467423
192	0x3e12b600	0.1432724
193	0xbd2fab64	-0.04288806
194	0x3c53d016	0.0129280295
195	0x3d88dc9c	0.06682703
196	0x3c8776df	0.016536174
197	0x3e468b0d	0.19388981
198	0x3d9f602f	0.077820174
199	0x3de08cf7	0.10964387

lstm1.bias_hh_l0 f4 [200]
0	0x3b1f4882	0.0024304693
1	0x3d239d91	0.03994519
2	0x3e030bed	0.12797518
3	0x3dc4ea8d	0.096150495
4	0x3da1d5b3	0.07902088
5	0x3dab3da0	0.083613634
6	0xbdd64426	-0.10462217
7	0xbcbef9bc	-0.023312442
8	0xbd2b8b34	-0.0418808
9	0xbca1d5e8	-0.019755319
10	0xbe10d791	-0.14144732
11	0xbe12b7d3	-0.14327936
12	0x3cd0f9a1	0.025509657
13	0x3ced7ef2	0.028991196
14	0x3d0f9733	0.035056304
15	0xbd45de31	-0.0483076
16	0x3f84bd5e	1.037029
17	0x3e04c845	0.12967022
18	0x3dad5097	0.08462637
19	0x3ca2dbb9	0.019880163
20	0xbd63b106	-0.055588745
21	0xbd650512	-0.05591304
22	0x3dfc63ab	0.12323698
23	0xbd61fe01	-0.055173878
24	0x3cf3d5da	0.029765058
25	0x3d47c6d7	0.048773613
26	0xbde635ca	-0.11240728
27	0xbde59be7	-0.11211377
28	0xbdbb6587	-0.09150224
29	0xbd77d65f	-0.060507175
30	0x3dc28132	0.09497298
31	0x3d94ef60	0.0727222
32	0x3dffce5d	0.124905325
33	0xbdcef47f	-0.10105228
34	0x3e17d1df	0.14826153
35	0xbde900e8	-0.11377126
36	0x3ba37029	0.0049877358
37	0x3ce9bd95	0.028532783
38	0x3dcb05e1	0.09913231
39	0x3d1e7f1c	0.03869544
40	0xbb3ec98d	-0.0029111833
41	0xbb79035a	-0.0037996382
42	0xbda390eb	-0.07986625
43	0xbd5321d6	-0.05154594
44	0x3d5bd6a0	0.05367148
45	0x3ca9872d	0.02069434
46	0x3da3f870	0.0800637
47	0x3dfdb16b	0.123873554
48	0xbb91adf7	-0.004445787
49	0x3e0ca2ae	0.13733932
50	0xbd01caa3	-0.03168739
51	0xbd934302	-0.07190515
52	0xbdc9a89d	-0.098466136
53	0x3d822bcf	0.06356012
54	0xbd8ee7c6	-0.06977801
55	0xbcbf758b	-0.023371479
56	0xbba88aa5	-0.005143481
57	0x3d9ee119	0.07757778
58	0x3dca8906	0.098894164
59	0x3d063042	0.032760866
60	0x3d86f3c9	0.06589467
61	0x3d02c06c	0.03192179
62	0xbd8460e6	-0.064637944
63	0xbd1aa83d	-0.0377581
64	0xbd8dce8d	-0.06924162
65	0xbdba95cc	-0.09110603
66	0xbea4348d	-0.32071343
67	0x3dcccf34	0.10000458
68	0x3d080c86	0.03321507
69	0xbdf51963	-0.11967733
70	0x3b9fc0b8	0.004875269
71	0xbccb9c02	-0.024854664
72	0x3d4213a6	0.04738202
73	0x3da9d978	0.08293432
74	0x3cabe9db	0.020985534
75	0x3daac6ea	0.08338721
76	0xbc17945f	-0.009251683
77	0xbd5df4cc	-0.054188535
78	0xbdcfa396	-0.101386234
79	0x3d2dae57	0.04240259
80	0x3cef860a	0.02923872
81	0x3cd13f1a	0.025542784
82	0xbe18908f	-0.14898895
83	0x3c4d99f6	0.012548914
84	0x3ddef677	0.10886853
85	0x3c8ba875	0.0170481
86	0x3d108e49	0.035291944
87	0x3df97d31	0.121820815
88	0x3d46c57b	0.048528176
89	0x3e186b1e	0.14884612
90	0x3d7151ab	0.058915775
91	0xbde09f35	-0.10967866
92	0x3d0c5e13	0.034269404
93	0xbd99ae3a	-0.07503934
94	0x3d97bebe	0.07409428
95	0xbdf30b8f	-0.11867439
96	0xbd17d89e	-0.037071817
97	0xbd83f832	-0.06443824
98	0xbdcc03ff	-0.099617
99	0xbdcad136	-0.09903185
100	0x3d5ca331	0.05386657
101	0xbdc8a55e	-0.09797166
102	0xbc1a2237	-0.0094075715
103	0x3d7ba824	0.06143965
104	0xbe04212c	-0.12903279
105	0x3d1afd44	0.03783919
106	0xbc9977a4	-0.018733807
107	0xbdc20801	-0.09474183
108	0xbe04076a	-0.12893453
109	0xbd539e5c	-0.051664695
110	0x3ca73027	0.020408703
111	0x3d18fbdd	0.03734957
112	0xbd6d2311	-0.05789477
113	0xbd8b7a07	-0.06810384
114	0xbd89caa2	-0.06728102
115	0xbd3f78b2	-0.046745963
116	0xbdbc6335	-0.0919861
117	0xbddc5789	-0.107588835
118	0x3dabb9cc	0.08385047
119	0xbda151f8	-0.078769624
120	0x3d34b118	0.044114202
121	0xbde0c0ff	-0.10974311
122	0x3d994017	0.07482927
123	0xbddabcbf	-0.10680532
124	0xbc94405e	-0.018097099
125	0x3ded517d	0.11587808
126	0xbd174fb1	-0.036941234
127	0x3cd0b01c	0.0254746
128	0x3cff63ad	0.031175459
129	0xbd06f327	-0.032946732
130	0xbdc9a2c0	-0.09845495
131	0xbd9f1291	-0.07767213
132	0xbce84b35	-0.028356174
133	0x3ce2dc07	0.027692808
134	0xba772c6c	-0.00094289216
135	0x3da25de2	0.07928063
136	0xbce578b0	-0.02801165
137	0xbc4644b6	-0.012101343
138	0xbd99842f	-0.07495915
139	0xbc615ab0	-0.013754532
140	0xbc34d6ba	-0.011037523
141	0x3d51fb96	0.05126532
142	0x3db5944f	0.08866178
143	0x3dbc4d64	0.091944486
144	0xbd9d8871	-0.0769204
145	0xbd4e5cdb	-0.050381523
146	0x3ccab30b	0.024743577
147	0x3e22ea59	0.15909709
148	0xbd436750	-0.04770595
149	0xbdf0d3c7	-0.11759143
150	0x3bc6239b	0.006046725
151	0xbdf99efa	-0.121885255
152	0x3df76bf4	0.12081137
153	0x3e47a089	0.19494833
154	0xbdcb7ed0	-0.09936297
155	0x3e2c5521	0.16829349
156	0xbc7533b5	-0.014965941
157	0x3d72336a	0.059131064
158	0xbdb1aac5	-0.0867515
159	0x3d8f6821	0.07002283
160	0xbdec7566	-0.115458295
161	0x3d3dd612	0.04634673
162	0x3e2dc1f7	0.16968523
163	0xbdaf63dd	-0.08563969
164	0x3d07b693	0.0331331
165	0x3defc544	0.11707547
166	0x3f85b06b	1.0444463
167	0xbbb16b10	-0.005414374
168	0x3ce65f67	0.028121663
169	0x3d6e838b	0.058230918
170	0x3dc4d2af	0.09610497
171	0x3e03f623	0.12886862
172	0x3d4f0afd	0.05054759
173	0xbdd8e2f1	-0.10590161
174	0xbdab8c09	-0.08376319
175	0xbe102571	-0.14076783
176	0x3cc9e41e	0.024644908
177	0x3d28fd8a	0.04125742
178	0x3e1ff3e0	0.15620375
179	0xbccca6f5	-0.024981955
180	0x3db8b525	0.090189256
181	0xbb6c0ed5	-0.0036019583
182	0x3d860bbb	0.06545206
183	0xbda6454b	-0.08118685
184	0xbd517eec	-0.051146433
185	0xbd2d02e1	-0.042239074
186	0xbdb7b762	-0.08970524
187	0x3de2eb01	0.1107998
188	0x3df14ba0	0.117820024
189	0x3d93e26a	0.072209194
190	0xbce58b5c	-0.028020553
191	0xbd55b8dd	-0.052178252
192	0xbdd55622	-0.10416819
193	0x3bff8125	0.0077973776
194	0x3da94b31	0.08266295
195	0x3dec8eb0	0.11550653
196	0x3e0380bb	0.12842076
197	0x3dc7dea4	0.09759262
198	0x3dccee31	0.10006369
199	0x3e2fc2de	0.1716418

lstm2.weight_ih_l0 f4 [200, 50]
0	0xbec99631	-0.393724
1	0x3c3a3b5d	0.011366692
2	0x3eb49ffe	0.35278314
3	0xbe742aed	-0.238445
4	0xbe8421c6	-0.25807017
5	0x3e0f0ae0	0.13968992
6	0xbe9fac61	-0.31186202
7	0xbefd2924	-0.4944545
8	0xbe73b3f1	-0.23799111
9	0xbf38dd2f	-0.722125
10	0xbed68d5c	-0.41904724
11	0x3e8f0687	0.27934667
12	0x3e8dd777	0.2770345
13	0xbede2e04	-0.43394482
14	0xbe2ce616	-0.16884646
15	0xbec10b81	-0.3770409
16	0x3eb8f725	0.36126056
17	0xbeab9cfe	-0.33518213
18	0x3f53e952	0.82777894
19	0xbee85a79	-0.45381525
20	0x3e73a45c	0.23793167
21	0xbe32e801	-0.17471315
22	0x3e0d05fb	0.13771813
23	0x3e29c920	0.1658063
24	0x3eb37a5f	0.350543
25	0x3e98e1dc	0.29859817
26	0xbe959b48	-0.29220033
27	0x3ec81410	0.39077806
28	0x3e63a333	0.22230224
29	0xbe5f0a86	-0.21781358
30	0xbea60cdb	-0.32431683
31	0xbe8d4b4b	-0.27596506
32	0xbebf2828	-0.37335324
33	0x3f0ceca2	0.55048573
34	0x3ec816d6	0.39079922
35	0x3f073d78	0.5282817
36	0x3f248c2d	0.6427639
37	0xbe90ef44	-0.28307545
38	0x3e038646	0.1284419
39	0xbe7c0ec4	-0.24615008
40	0x3e0d6717	0.13808857
41	0xbba8c50d	-0.0051504434
42	0x3d89c8cc	0.06727752
43	0xbee1448d	-0.43997613
44	0xbea94cd3	-0.33066425
45	0xbea18739	-0.3154848
46	0xbe9e30f9	-0.30896738
47	0x3e4c5be0	0.19956923
48	0x3eb5623b	0.35426506
49	0x3da7594b	0.08171328
50	0xbda9a038	-0.082825124
51	0x3e2aae82	0.16668132
52	0x3c7408eb	0.014894704
53	0x3d5432b0	0.051806152
54	0xbddd08b0	-0.10792673
55	0xbd700044	-0.058594003
56	0xbdc7e5a6	-0.09760599
57	0xbc7a90de	-0.015293328
58	0xbe50f0a4	-0.20404297
59	0x3d4bcfc8	0.049758703
60	0xbc3eff4e	-0.011657549
61	0x3dc48c51	0.09597076
62	0x3d78171e	0.06056892
63	0x3d97f8f8	0.07420534
64	0xbe488ff3	-0.19586162
65	0x3cbb6461	0.022875013
66	0xbe010f7b	-0.12603562
67	0xbd8d286d	-0.06892476
68	0xbd44e091	-0.048065726
69	0xbbf3809d	-0.0074311034
70	0xbc928640	-0.017886281
71	0xbe1943df	-0.14967297
72	0x3e021f1e	0.12707183
73	0x3e019915	0.12656052
74	0x3e143f2a	0.1447722
75	0x3d49696d	0.049172807
76	0x3dac98e1	0.08427597
77	0x3de28e04	0.110622436
78	0xbb739e17	-0.0037173086
79	0xbe517681	-0.20455362
80	0x3bcaf1c9	0.006193374
81	0x3db83112	0.089937344
82	0xbe0d8484	-0.13820082
83	0x3d99508f	0.074860685
84	0xbd3e8c81	-0.046520714
85	0x3e117b41	0.14207174
86	0xbae9213d	-0.0017786395
87	0x3d929682	0.07157613
88	0x3d475c6b	0.04867212
89	0xbce94189	-0.028473632
90	0xbc6e5456	-0.014546474
91	0xbcbc7811	-0.02300647
92	0x3dda83d7	0.10669678
93	0xbd6243d1	-0.055240456
94	0xbe0ed547	-0.13948546
95	0xbdfae55a	-0.122507766
96	0xbe3c0367	-0.18360673
97	0xbd87e15e	-0.06634782
98	0x3d6edd42	0.058316477
99	0xbcab9d85	-0.020949135
100	0x3ca81263	0.02051658
101	0xbdae52ac	-0.08511862
102	0x3d41e658	0.047338814
103	0xbdf0a7ba	-0.11750741
104	0x3d61ced0	0.055128872
105	0x3da4b60c	0.08042535
106	0x3dabc721	0.0838759
107	0x3e118227	0.14209805
108	0xbd7ba6e1	-0.061438445
109	0x3bfa2fca	0.0076350914
110	0xbd1a8248	-0.037721902
111	0xbdb1b21f	-0.08676552
112	0xbd1a16cc	-0.037619397
113	0xbd0ecd73	-0.0348639
114	0x3de7354d	0.11289463
115	0xbd960d7f	-0.07326793
116	0xbe07088a	-0.13186851
117	0x3cc76aed	0.024342978
118	0x3d33b9b6	0.04387828
119	0x3c8868ad	0.016651476
120	0x3db6144d	0.08890591
121	0xbdd3ed9c	-0.10348055
122	0xbd29daa1	-0.041468266
123	0x3c70e148	0.014702149
124	0xbd1c2627	-0.038122322
125	0x3df176a4	0.11790207
126	0x3d4f106c	0.05055277
127	0xbd9851b4	-0.07437459
128	0x3d66f35a	0.056384422
129	0x3df1b244	0.118015796
130	0xbde3e00e	-0.111267194
131	0xbd3a5c54	-0.045498207
132	0xbd1d0efa	-0.03834436
133	0x3db6ab3d	0.0891938
134	0x3b244f5f	0.0025071723
135	0x3dee0626	0.116222665
136	0xbca6dcb6	-0.020368915
137	0x3d00b4ec	0.03142254
138	0x3d0a177f	0.033713814
139	0x3dddb74f	0.10825979
140	0xbdf26f1f	-0.11837601
141	0x3da66b8c	0.08125982
142	0x3d39657c	0.0452628
143	0xbc106ed6	-0.008815488
144	0x3de76bad	0.112998344
145	0xbe1114b8	-0.1416806
146	0x3d42878f	0.04749256
147	0xbe3ca240	-0.18421268
148	0xbde56bb5	-0.11202184
149	0x3d2a132d	0.041522194
150	0xbe04acb5	-0.12956508
151	0x3b803565	0.003912615
152	0x3d349b65	0.04409351
153	0x3c8f2faa	0.017478783
154	0xbe210ad7	-0.15726791
155	0xbcb17cf3	-0.021666026
156	0xbe3bedaa	-0.1835238
157	0xbda63cc2	-0.081170574
158	0xbe3a7514	-0.18208724
159	0x3dee260b	0.1162835
160	0xbccc8bd2	-0.024969015
161	0xbcc35ff9	-0.023849474
162	0x3c01d24f	0.007923677
163	0x3d57de45	0.052702207
164	0x3d0f5722	0.034995206
165	0xbd0af107	-0.033921268
166	0x3db7cfdd	0.08975194
167	0xbc91ca20	-0.017796576
168	0xbe6870b7	-0.22699247
169	0x3d3d9dd9	0.046293113
170	0x3d77cf23	0.060500275
171	0xbe038ee6	-0.1284748
172	0xbe5e4d36	-0.21709141
173	0x3e3a789c	0.18210071
174	0x3e0470d9	0.12933673
175	0x3e2d3070	0.16913009
176	0x3d536e0f	0.051618632
177	0x3dcedcdd	0.1010072
178	0x3e2144c4	0.15748888
179	0xbda7814a	-0.08178957
180	0x3dacbdcc	0.084346384
181	0xbda74c12	-0.08168806
182	0xbddc32d2	-0.10751881
183	0xbd6a78d7	-0.057244148
184	0x3d7f20bc	0.062287077
185	0x3e56ab47	0.20963775
186	0xbdbb6a6c	-0.09151158
187	0xbe48b166	-0.19598922
188	0x3db69227	0.08914595
189	0xbd911e5d	-0.070858695
190	0x3e32388d	0.17404385
191	0xbe970bf6	-0.29501313
192	0x3dbdb1fc	0.092624635
193	0xbe6790bf	-0.2261381
194	0x3bcbd297	0.0062201726
195	0xbdb14b14	-0.08656898
196	0xbc4ce5a1	-0.01250592
197	0xbe0ae5ae	-0.13564178
198	0x3d36f5e8	0.04466811
199	0x3e1dd7de	0.15414378
200	0x3c7e4e30	0.015521571
201	0x3dd89daf	0.10576951
202	0x3db855b4	0.090007216
203	0xbc5471c7	-0.01296658
204	0xbd8aa4f4	-0.067697436
205	0x3c8a8211	0.016907724
206	0xbb0367d9	-0.0020050912
207	0x3d3cbf80	0.046081066
208	0xbe550740	-0.20803547
209	0xbde36b7c	-0.111044854
210	0xbdec4904	-0.11537364
211	0x3d66e7bd	0.056373347
212	0x3c3e0f85	0.01160038
213	0x3d879e13	0.06621947
214	0x3d9921e2	0.07477166
215	0xbd476787	-0.048682716
216	0xbe2caff0	-0.1686399
217	0x3db53ec9	0.08849866
218	0xbc45219f	-0.012031942
219	0x3d52cdce	0.051465802
220	0xbdc40bfe	-0.095726
221	0xbe008ec7	-0.12554465
222	0x3d94078d	0.07228003
223	0xbcb0e813	-0.021595037
224	0x3e0883ff	0.13331603
225	0xbd0460bb	-0.032318812
226	0x3dd23cad	0.10265479
227	0x3c8eb9a4	0.017422505
228	0x3e15e621	0.14638568
229	0xb9765b6f	-0.0002349445
230	0xbdb620ca	-0.08892973
231	0xbe285c43	-0.16441445
232	0xbde11283	-0.10989859
233	0x3db90fcc	0.09036216
234	0xbd8507f2	-0.06495656
235	0xbd8393c8	-0.064246714
236	0x3d919246	0.071079776
237	0x3cfb15e6	0.03065009
238	0x3d04d429	0.032428894
239	0x3b76e8ba	0.0037675337
240	0xbdc697ce	-0.09696923
241	0xbe16df47	-0.14733611
242	0x3c56c9dc	0.01310965
243	0xbde6f838	-0.11277813
244	0xbdc73351	-0.09726585
245	0x3dc2a071	0.09503258
246	0xbd1ed249	-0.038774762
247	0x3cc9afdd	0.024619991
248	0xbd81f233	-0.06345024
249	0x3e45c30b	0.19312684
250	0xbe144bbc	-0.14482015
251	0xbdd7ca5f	-0.10536646
252	0x3e5d60d8	0.21618974
253	0x3c58288d	0.013193262
254	0xbdff1b89	-0.12456424
255	0x3da66dba	0.081263974

lstm2.weight_hh_l0 f4 [200, 50]
0	0xbdc29415	-0.09500901
1	0x3f678140	0.90431595
2	0x3ed67104	0.418831
3	0xbe5cd155	-0.21564229
4	0xbd4fb8ac	-0.050713226
5	0xbc7b2103	-0.015327695
6	0x3e6fdae0	0.23423338
7	0x3ec7588f	0.38934752
8	0x3effe12a	0.49976474
9	0xbea278d4	-0.3173281
10	0xbe51d7a0	-0.2049241
11	0xbcdc2ff4	-0.026878335
12	0xbec61aa1	-0.3869219
13	0x3e1b3f5f	0.15160893
14	0x3f8c9031	1.0981504
15	0xbf082267	-0.53177494
16	0xbbf40134	-0.0074464325
17	0x3ebd0fc2	0.36926085
18	0xbd82501a	-0.063629344
19	0x3eb440e6	0.35205764
20	0xbe99c978	-0.3003652
21	0xbda084a1	-0.07837797
22	0x3f4383a3	0.76372737
23	0xbe7f0988	-0.2490598
24	0x3e92c153	0.2866312
25	0xbf297bac	-0.66204333
26	0x3dcb11ac	0.0991548
27	0xbeb5da5e	-0.35518163
28	0x3f049946	0.51796377
29	0x3ea9f8b3	0.33197555
30	0xbeb608df	-0.35553643
31	0xbed6cbc5	-0.4195234
32	0x3d9e9d72	0.07744874
33	0xbe8320bb	-0.2561091
34	0xbda1a0d9	-0.078920074
35	0x3dc824e0	0.09772658
36	0x3e7c5cc0	0.24644756
37	0x3e75b41f	0.23994492
38	0x3e93f197	0.28895256
39	0x3e7cf7dc	0.24703926
40	0xbe3af5b8	-0.18257797
41	0x3e754446	0.23951825
42	0x3f659d0d	0.89692765
43	0x3e95ccf0	0.29257917
44	0x3b254147	0.002521591
45	0xbdbf5dce	-0.09344064
46	0xbeb41e50	-0.35179377
47	0xbf8f06fe	-1.1174009
48	0xbeaa927c	-0.33314884
49	0x3f5a52e0	0.8528271
50	0x3db9ac86	0.09066109
51	0x3d1bcd91	0.03803784
52	0xbdb964c2	-0.09052421
53	0x3d9a5d0a	0.07537277
54	0xbd8c96c0	-0.06864691
55	0x3c946a91	0.018117221
56	0x3dd02e60	0.10165095
57	0x3db89e9f	0.090146296
58	0xbcb53cc0	-0.022123694
59	0xbdfbe5f5	-0.1229972
60	0xbd39dec3	-0.045378458
61	0xbdfe1ad5	-0.124074616
62	0xbc9f0608	-0.019412056
63	0xbdc14892	-0.0943767
64	0x3e58cd88	0.21172154
65	0xbe094feb	-0.13409393
66	0xbdb6f45e	-0.08933328
67	0x3d46140b	0.04835896
68	0x3dca0eed	0.09866128
69	0x3e06c991	0.13162829
70	0x3d8c4146	0.068483874
71	0xbd37a185	-0.04483177
72	0x3e2a880b	0.16653459
73	0xbcd07994	-0.025448598
74	0x3d759de1	0.05996502
75	0x3c9ebf3b	0.019378295
76	0xbd1a3bc7	-0.037654664
77	0x3dbf9c4b	0.093559824
78	0xbd4b10a1	-0.049576405
79	0xbdb0869b	-0.08619424
80	0x3df3f315	0.119115986
81	0xbdef661c	-0.11689398
82	0x3cc028d5	0.02345697
83	0xbceb3119	-0.028709935
84	0xbd8cd7ae	-0.06877075
85	0x3e12ffc1	0.14355375
86	0x3d4eb7c3	0.050468218
87	0xbd57c6c2	-0.052679785
88	0x3dfd3f9f	0.123656504
89	0x3e058f3c	0.13042921
90	0xbb270887	-0.002548726
91	0x3e14d585	0.14534576
92	0x3e3e1d88	0.18565953
93	0xbde8f5db	-0.11375018
94	0xbd52f5d0	-0.051503956
95	0x3d84dec8	0.06487805
96	0xbe11e0d4	-0.14245921
97	0xbe43fcfa	-0.19139472
98	0xbe262920	-0.16226625
99	0xbd804d31	-0.06264723
100	0xbe783d9a	-0.24242249
101	0xbcb24d77	-0.021765454
102	0xbe0d9496	-0.13826212
103	0xbd2c8995	-0.042123396
104	0xbe00d195	-0.12579949
105	0x3d237e6f	0.0399155
106	0xbde741c7	-0.11291843
107	0x3defa585	0.11701492
108	0x3d60f40d	0.054920245
109	0xbdcb611b	-0.09930631
110	0xbd1ad5f0	-0.037801683
111	0xbc9818f9	-0.018566595
112	0xbdae94d9	-0.08524484
113	0xbdf4bbce	-0.119498834
114	0xbd48f04d	-0.049057294
115	0x3e0f5866	0.13998565
116	0xbdaed108	-0.08535963
117	0x3d9578cc	0.07298431
118	0xbe550dea	-0.20806089
119	0x3d05f448	0.032703668
120	0x3b89a5b8	0.0042006634
121	0x3da1013b	0.07861563
122	0xbc67ab06	-0.014139896
123	0xbd29b933	-0.041436385
124	0x3df9ccc6	0.121972606
125	0xbd22a7b9	-0.039710734
126	0xbb8ba5c1	-0.0042617028
127	0xbd235925	-0.039879937
128	0xbc8ef75a	-0.01745193
129	0xbdb0f41b	-0.086403094
130	0xbd61b66b	-0.055105608
131	0x3e2d021d	0.16895337
132	0x3c0324e1	0.008004398
133	0x3d0b6ac6	0.034037374
134	0x3dd990c6	0.106233165
135	0xbd4e7784	-0.050406948
136	0xbd69cf2b	-0.057082336
137	0xbd1192a5	-0.03554024
138	0x3dbf0e9d	0.09328959
139	0x3de2c6e6	0.11073093
140	0xbd3f36ae	-0.046683006
141	0xbdd16887	-0.10225015
142	0xbc900158	-0.017578766
143	0xbd0fb6ef	-0.03508657
144	0x3c3b7ace	0.011442853
145	0x3e29806b	0.16552894
146	0xbe03b1ad	-0.12860747
147	0xbd5dace8	-0.054119974
148	0x3cc58f15	0.024116078
149	0xbd17439a	-0.036929704
150	0x3d6df50c	0.058095023
151	0x3c5d3f4c	0.013503861
152	0x3e254587	0.16139804
153	0x3c96c9b6	0.01840673
154	0xbdd9ff6b	-0.1064442
155	0xbcc3bfec	-0.023895226
156	0xbda4d5fa	-0.08048625
157	0x3d341873	0.04396863
158	0x3e00035a	0.12501279
159	0xbdec01bc	-0.11523768
160	0xbb1ae010	-0.0023632087
161	0xbcf448e5	-0.029819915
162	0xbd568d59	-0.052380893
163	0x3d32bb6b	0.043635767
164	0x3e6ca661	0.23110344
165	0xbd0ebd4a	-0.03484849
166	0x3d9e98b6	0.07743971
167	0x3e4c67c8	0.19961464
168	0xbc8cd5e5	-0.017191837
169	0x3dce6dcf	0.10079538
170	0xbe0fb8dd	-0.14035363
171	0xbdb8faa7	-0.09032183
172	0x3d0b935a	0.034076072
173	0xbde724b8	-0.112863004
174	0x3bf53c8f	0.007484026
175	0x3d519716	0.051169477
176	0xbdb9018e	-0.090335
177	0xbdb60e67	-0.08889466
178	0x3c61b305	0.013775592
179	0xbb2a0ef4	-0.0025948854
180	0x3d61b5d3	0.05510504
181	0xbe097e43	-0.13427071
182	0xbd95fd1b	-0.07323667
183	0xbdb5ff8d	-0.08886633
184	0x3dd80df6	0.10549538
185	0x3cb90404	0.022584923
186	0xbd489031	-0.048965637
187	0x3d35a8c7	0.04435041
188	0xbd909579	-0.0705976
189	0xbd8b2abf	-0.067952625
190	0x3cde8fe8	0.02716823
191	0xbde7f9dd	-0.113269545
192	0xbe165c1a	-0.14683571
193	0x3d2e8b6a	0.042613424
194	0x3d4b2937	0.049599852
195	0x3cc70d5e	0.024298366
196	0x3db02d9a	0.08602448
197	0x3e112a6c	0.14176339
198	0xbafc7adc	-0.0019262689
199	0xbd8fa6e1	-0.070142515
200	0xbe5b68fd	-0.21426769
201	0x3cb504b1	0.022096964
202	0x3e19dd33	0.15025787
203	0xbd41c729	-0.047309075
204	0x3e0aec60	0.13566732
205	0xbc8252cb	-0.01590862
206	0xbde3c485	-0.111214675
207	0x3d363de2	0.04449261
208	0x3e09ece8	0.13469279
209	0xbcde2042	-0.027114991
210	0xbda903f7	-0.08252709
211	0xbdc4c3e2	-0.09607674
212	0xbd6019de	-0.05471217
213	0xbcfb1c39	-0.030653106
214	0x3e275610	0.16341424
215	0xbcb84899	-0.022495555
216	0x3e1d8e06	0.15386209
217	0x3dc66b4e	0.096884355
218	0xbda87095	-0.08224598
219	0x3d26e9ed	0.040750433
220	0xbe0f216b	-0.13977592
221	0x3ba60209	0.0050661606
222	0x3e0d09e6	0.13773307
223	0xbe356164	-0.17712933
224	0xbd53d9eb	-0.051721495
225	0x3d435131	0.047684852
226	0x3d577ee4	0.052611247
227	0xbe332455	-0.17494328
228	0x3dbb47b3	0.09144535
229	0xbc36f66a	-0.011167148
230	0xbe351350	-0.17683148
231	0xbcb1c848	-0.021701947
232	0xbcf718b8	-0.030163154
233	0xbe0a0e5b	-0.13482039
234	0xbe05b4fb	-0.1305732
235	0x3e0c2ad0	0.13688207
236	0xbd1c6cea	-0.038189806
237	0xbd06827c	-0.032839283
238	0x3d82cb53	0.06386437
239	0x3df05e97	0.117367916
240	0x3c56cb36	0.013109973
241	0xbc814318	-0.015779063
242	0xbcb6aea8	-0.02230008
243	0xbdbfab5d	-0.09358857
244	0x3c917e55	0.017760435
245	0xbe1234b8	-0.14277923
246	0x3dcb487d	0.099259354
247	0x3e0864ce	0.13319704
248	0xbe1446d8	-0.1448015
249	0x3c09822f	0.008392855
250	0xbe694a86	-0.22782335
251	0x3e9f2829	0.31085327
252	0x3e68e23b	0.2274255
253	0xbdf60431	-0.12012518
254	0xbdc72268	-0.09723359
255	0xbdbbb959	-0.09166212

lstm2.bias_ih_l0 f4 [200]
0	0x3f209bdd	0.6273783
1	0x3e23ec92	0.16008213
2	0x3de72207	0.11285787
3	0xbc136f5c	-0.008998718
4	0x3dcf266d	0.10114751
5	0x3e44e20f	0.1922686
6	0xbdd6892c	-0.10475382
7	0x3bd7e6c6	0.0065887896
8	0x3ae804ad	0.0017701589
9	0x3c25ea84	0.010126714
10	0xbd922b40	-0.071371555
11	0xbcef4bfd	-0.029211039
12	0x3cdfd9bd	0.027325505
13	0x3e0b781e	0.1362004
14	0x3e143f3a	0.14477244
15	0x3df032c8	0.11728436
16	0x3d1c74a2	0.038197167
17	0xbba96184	-0.0051690955
18	0x3f0daa10	0.5533762
19	0xbd95e441	-0.073189266
20	0x3adfd8fc	0.0017078216
21	0xbdf17c3d	-0.11791275
22	0xbd5c8c47	-0.053844716
23	0x3d87d7b0	0.06632936
24	0x3a22f78c	0.0006216697
25	0xbdb8fc55	-0.090325035
26	0x3e89a774	0.2688557
27	0xbdd49e78	-0.10381788
28	0xbe1c9dca	-0.15294567
29	0xbd352a35	-0.044229705
30	0x3e2f0dd9	0.17095126
31	0x3e8dcd2a	0.2769559
32	0x3b7a57e2	0.0038199355
33	0x3d7a9c7e	0.0611844
34	0x3e568062	0.20947412
35	0xbe13c47d	-0.14430423
36	0x3e084205	0.13306434
37	0xbde1d3b0	-0.11026704
38	0xbdc218ec	-0.0947741
39	0xbdb0f121	-0.08639742
40	0xbd279d8d	-0.040921737
41	0x3e0c427b	0.13697235
42	0xbdf97d9e	-0.12182163
43	0x398ef4c6	0.0002726672
44	0xbcf387a2	-0.02972776
45	0x3dbf6e29	0.09347183
46	0xbd2869b7	-0.041116443
47	0x3e4667a4	0.19375473
48	0x3e004f34	0.12530214
49	0x3cb7122a	0.022347528
50	0xbdd5f9df	-0.1044805
51	0x3ddd6751	0.10810722
52	0x3d344525	0.044011254
53	0xbd25a526	-0.0404407
54	0xbbe6ef9c	-0.0070476066
55	0xbda7c8dc	-0.08192608
56	0x3d00b6f0	0.031424463
57	0x3d721ce7	0.059109595
58	0x3e0e945c	0.13923782
59	0xbc965c71	-0.018354626
60	0x3d6c9d0d	0.057766963
61	0x3da54b5e	0.08071016
62	0x3e0d67bf	0.13809107
63	0x3c3b712b	0.011440556
64	0xbe03a1c1	-0.12854673
65	0xbdbc9d23	-0.09209659
66	0xbda44641	-0.08021212
67	0x3e03dd3d	0.12877364
68	0xbcf48fd6	-0.029853743
69	0x3d694315	0.05694874
70	0xbdefe1fb	-0.11713024
71	0x3cb77cdd	0.022398407
72	0x3c851f91	0.016250404
73	0x3d54a979	0.051919434
74	0x3d511391	0.05104405
75	0xbe145ead	-0.14489241
76	0xbd4f4ded	-0.050611425
77	0xbd63fa3a	-0.055658557
78	0xbdf3db00	-0.11907005
79	0xb97b42d2	-0.00023962118
80	0xbce5b969	-0.028042512
81	0x3d2a1f18	0.04153356
82	0xbd4b9473	-0.04970212
83	0x3ca68420	0.020326674
84	0x3cb0854d	0.021547938
85	0xbe0805cb	-0.1328346
86	0x3e06db34	0.13169557
87	0x3d994362	0.074835554
88	0x3cfce0f0	0.030868977
89	0xbdf72519	-0.12067623
90	0xbd931ea6	-0.0718358
91	0x3cf10b49	0.029424326
92	0x3d1e50d7	0.038651314
93	0x3d887bec	0.06664261
94	0xbc91a352	-0.017778073
95	0xbb7c729f	-0.0038520468
96	0x3ded5b86	0.11589722
97	0x3dc3c2eb	0.09558662
98	0xbd818d07	-0.06325727
99	0x3b4bc9ec	0.0031095697
100	0xbdb8fa03	-0.09032061
101	0x3d8b6932	0.06807174
102	0x3dfc0d9d	0.12307284
103	0x3d44a94e	0.048013024
104	0x3da8b2d6	0.08237235
105	0x3d556572	0.0520987
106	0xbd66c983	-0.05634452
107	0xbd1b414d	-0.037904073
108	0x3e120602	0.14260104
109	0xbe0269df	-0.12735699
110	0xbcf14c85	-0.029455433
111	0x3a4c3d68	0.00077911327
112	0xbd18aa23	-0.03727163
113	0x3d48f911	0.049065653
114	0xbb4d5790	-0.003133271
115	0xbe099849	-0.13436998
116	0x3e02d57c	0.1277675
117	0x3da77b71	0.081778415
118	0x3b052bf7	0.0020320395
119	0x3e102370	0.14076018
120	0x3db9120b	0.090366445
121	0x3c8de687	0.017321838
122	0xbde1f586	-0.11033158
123	0xbe2330b5	-0.15936549
124	0x3d9bc911	0.0760671
125	0xbe08047f	-0.13282965
126	0xbcaeb8b7	-0.021328313
127	0x3dbfae0c	0.09359369
128	0x3dbc9b28	0.09209281
129	0x3d5a63c9	0.05331782
130	0xbdbbe803	-0.09175112
131	0xbd897d90	-0.06713402
132	0x3d320132	0.04345817
133	0xbd2e46db	-0.04254804
134	0x3dc9bbc3	0.09850266
135	0xbdd7ca69	-0.105366535
136	0xbd47d109	-0.048783336
137	0x3e17db56	0.14829764
138	0x3e028164	0.12744671
139	0xbc662b91	-0.014048473
140	0xbd428abd	-0.047495592
141	0xbd89eb7c	-0.06734368
142	0x3d1a46c8	0.03766516
143	0x3d3f3499	0.04668102
144	0x3dc04f20	0.09390092
145	0xbdbdf1b4	-0.09274617
146	0xbd8896a3	-0.06669357
147	0x3dcf3fb1	0.1011957
148	0xbe04f00f	-0.129822
149	0x3dc9222c	0.09820971
150	0x3f15d471	0.58527285
151	0x3e0c14c7	0.13679801
152	0x3e065ebe	0.13122079
153	0xbdc033b8	-0.093848646
154	0x3e4304ec	0.19044846
155	0x3c965dd3	0.018355286
156	0xbcafc681	-0.021456959
157	0x3d10feed	0.035399366
158	0xbd0a5f0d	-0.033782054
159	0xbdecbb3d	-0.1155915
160	0xbd5e8e4e	-0.05433493
161	0x3e052f00	0.1300621
162	0x3dacc782	0.084364906
163	0x3cc83abe	0.024442073
164	0x3e00ebcc	0.1258995
165	0x3c5fc2ab	0.013657252
166	0x3d8662dc	0.06561825
167	0x3bb26678	0.005444344
168	0x3e92a1d2	0.28639084
169	0x3d5d6ec0	0.054060698
170	0xb9a391ce	-0.00031198416
171	0x3da57e49	0.080807276
172	0xbd4f504c	-0.050613686
173	0xbd16d2ea	-0.036822237
174	0x3d295be8	0.041347414
175	0xbd89eeba	-0.067349866
176	0x3d258296	0.04040774
177	0xbdd6b79c	-0.104842395
178	0xbdfa2f47	-0.12216049
179	0x3d16d2cb	0.03682212
180	0xbd82c99d	-0.06386111
181	0x3db771f1	0.089572795
182	0x3d2f97c0	0.04286933
183	0x3d2fa681	0.0428834
184	0x3e96c823	0.29449567
185	0x3daaa159	0.08331556
186	0x3d3c0a71	0.045908395
187	0x3cb56ae2	0.022145692
188	0x3d5f936f	0.054583963
189	0xbdfda357	-0.1238467
190	0x3dd5f977	0.10447972
191	0x3de086b9	0.10963196
192	0x3d482c92	0.04887063
193	0x3d0ebc09	0.034847293
194	0x3cf0155c	0.02930706
195	0x3d289458	0.041157097
196	0x3d8fe440	0.07025957
197	0x3da0ea30	0.07857168
198	0xbc4c01ec	-0.01245163
199	0x3dfbb72f	0.12290799

lstm2.bias_hh_l0 f4 [200]
0	0x3f11bb18	0.5692611
1	0x3e1c7ec0	0.15282726
2	0x3e0a9560	0.13533545
3	0x3bd7e029	0.0065880013
4	0xbd741c4c	-0.0595973
5	0x3e87a6d7	0.26494476
6	0x3d89e552	0.067331925
7	0x3d6a92dd	0.057268966
8	0xbd8a6f13	-0.06759467
9	0x3d772d96	0.06034621
10	0xbdeacfc8	-0.114654124
11	0xbc9bc5f3	-0.019015288
12	0x3e0b7531	0.13618924
13	0x3d954375	0.07288257
14	0x3e1c07ce	0.15237352
15	0x3c80e3d9	0.015733646
16	0x3d84914c	0.06473026
17	0x3d2a846a	0.041630186
18	0x3eec2304	0.46120465
19	0x3db21e71	0.086972125
20	0x3da972dd	0.082738616
21	0x3d681011	0.056655947
22	0xbdac2e1b	-0.084072314
23	0xbd51ba31	-0.051202957
24	0xbdc2064a	-0.09473856
25	0xbd734f44	-0.059401765
26	0x3e7a541e	0.2444615
27	0xbde69b27	-0.11260062
28	0xbdcc3d2b	-0.09972604
29	0xbd560c9b	-0.052258115
30	0x3d1f23bc	0.03885244
31	0x3e0f86da	0.14016286
32	0x3d885bd3	0.06658139
33	0x3daca00b	0.08428963
34	0x3e2f1598	0.17098081
35	0x3dd739ab	0.10509046
36	0x3da0dff1	0.078552134
37	0x3e138146	0.14404783
38	0xbd946c9c	-0.07247278
39	0xbe059c45	-0.13047893
40	0x3dda9871	0.10673607
41	0xbe11d961	-0.1424308
42	0x3da63916	0.08116357
43	0x3e18942a	0.1490027
44	0x3d209eef	0.03921407
45	0x3d239a45	0.039942045
46	0x3c2ea0ab	0.010658423
47	0x3df6606d	0.120301105
48	0x3dfa2983	0.12214949
49	0x3d86143c	0.06546828
50	0xbdab286f	-0.083573215
51	0x3d50771f	0.050894853
52	0x3d99b681	0.07505513
53	0xbcc36291	-0.023850711
54	0xbabb4cdf	-0.0014289877
55	0x3e05c3d5	0.13062985
56	0x3d877bdb	0.066154204
57	0x3c309c66	0.010779476
58	0xbd30047e	-0.042973034
59	0x3d1d5327	0.03840938
60	0xbd7fb2df	-0.062426444
61	0x3d7bf5b0	0.061513603
62	0xbb0c70ce	-0.0021429542
63	0x3d4db809	0.050224338
64	0xbe0564c3	-0.13026719
65	0xbb520b6a	-0.003205026
66	0xbd814d69	-0.06313593
67	0xbba18e65	-0.004930305
68	0xbe20d6bf	-0.15706919
69	0xbd443881	-0.04790545
70	0x3cf9c198	0.03048782
71	0xbd729b7e	-0.05923032
72	0xbe18a3da	-0.14906254
73	0xbdaebe71	-0.085324176
74	0xbdb65d3e	-0.08904503
75	0xbdfa5bf1	-0.12224568
76	0x3ce63981	0.028103592
77	0xbdd2417f	-0.10266399
78	0x3bcf6e43	0.006330283
79	0x3cea7627	0.028620793
80	0xbcfcd695	-0.03086404
81	0xbdd3b65d	-0.103375174
82	0x3c8fd60c	0.01755812
83	0x3dc5ada2	0.096522585
84	0xbd95f761	-0.073225744
85	0x3d2bc278	0.041933507
86	0x3d9a84d2	0.07544865
87	0xbda35176	-0.07974522
88	0xbdfcc7d7	-0.12342804
89	0x3da85c77	0.08220761
90	0xbdd068d0	-0.101762414
91	0x3d117963	0.035516154
92	0xbd481017	-0.04884347
93	0xbd2fba61	-0.042902354
94	0x3ca87e6e	0.020568099
95	0x3df8771f	0.121320955
96	0xbd63d5d2	-0.055623837
97	0x3db9dda3	0.09075477
98	0x3d08a76a	0.033362783
99	0x3d88ccdd	0.066796996
100	0x3d823849	0.06358392
101	0x3dacd9a4	0.08439949
102	0x3dedb825	0.116073884
103	0xbd6193e4	-0.05507268
104	0xbdb8f690	-0.09031403
105	0xbda5cd07	-0.080957465
106	0x3dc8be2e	0.09801899
107	0x3ddb702a	0.10714753
108	0x3e2cf2fe	0.16889569
109	0xbdc1df2d	-0.094663955
110	0xbd0efe99	-0.034910772
111	0x3e064c63	0.13115077
112	0xbd453c1d	-0.04815303
113	0xbce24050	-0.027618557
114	0xbbb0b572	-0.0053927237
115	0xbd870ba5	-0.06594018
116	0xbde20b82	-0.11037351
117	0xbb3aac1a	-0.0028483928
118	0xbd0ed6da	-0.034872867
119	0xbd84944b	-0.06473597
120	0xbca3f839	-0.020015823
121	0xbca94ca9	-0.020666437
122	0x3d3726c7	0.044714715
123	0x3d95d413	0.073158406
124	0xbd38004b	-0.044922154
125	0xbd9d7d14	-0.076898724
126	0x3c9997b9	0.018749105
127	0xbdac7c5a	-0.08422156
128	0xbbcc79de	-0.0062401136
129	0x3d13c56d	0.03607695
130	0xbdcd7fef	-0.10034167
131	0x3d7b823c	0.061403498
132	0x3ceaeb0e	0.028676536
133	0x3dbe0579	0.092783876
134	0x3d8569c3	0.06514313
135	0xbdab9855	-0.083786644
136	0x3e0735ce	0.13204119
137	0x3e05297a	0.13004103
138	0x3dc741b5	0.097293295
139	0xbc87d549	-0.016581194
140	0xbca35c2d	-0.019941414
141	0xbdbf9cd3	-0.09356084
142	0x3dd258c0	0.10270834
143	0xbbae4e25	-0.005319374
144	0xba4aa906	-0.0007730875
145	0xbda17ce4	-0.07885149
146	0x3c0317fb	0.008001323
147	0xbde2a821	-0.11067224
148	0xbd7a0b62	-0.06104601
149	0xbdb190a4	-0.08670166
150	0x3f169620	0.5882282
151	0x3bff4f73	0.0077914535
152	0x3db8ac3d	0.09017227
153	0x3e140b23	0.14457373
154	0x3de8281c	0.11335775
155	0x3e8682ec	0.2627176
156	0x3d73bfe1	0.05950916
157	0x3d3089bd	0.043100107
158	0x3d99de23	0.07513072
159	0xbde6d067	-0.11270218
160	0xbdce4723	-0.10072162
161	0x3dddb80b	0.10826119
162	0x3db7a3e6	0.08966808
163	0x3e0b0f61	0.13580085
164	0x3dd49207	0.10379415
165	0xbdb1d9a0	-0.08684087
166	0xbd5ffc6a	-0.05468408
167	0x3defece8	0.11715108
168	0x3ecda0bc	0.40161693
169	0xbda258ec	-0.07927117
170	0xbc4e5322	-0.012593063
171	0xbde9254d	-0.11384068
172	0xbe102c25	-0.1407934
173	0x3d4ed134	0.05049248
174	0x3d90fdb8	0.07079643
175	0x3c6ff2ad	0.014645261
176	0x3dd81c3b	0.105522595
177	0x3ce749ad	0.028233374
178	0xbc0ee481	-0.008721472
179	0xbd77295d	-0.06034218
180	0xbd58df2e	-0.052947216
181	0x3deae275	0.114689745
182	0xbdbc1021	-0.09182764
183	0x3d20ff61	0.03930605
184	0x3e871a74	0.2638737
185	0x3d518aeb	0.051157873
186	0x3d9b82aa	0.075932816
187	0xbb32b719	-0.002726978
188	0x3befd6ef	0.0073193233
189	0xbd87012a	-0.06592019
190	0x3cb54155	0.02212588
191	0xbcc23cc0	-0.023710608
192	0xbd605284	-0.054766193
193	0xbbfeda6c	-0.0077775028
194	0xbe3e0520	-0.18556643
195	0x3dd97f89	0.106200285
196	0x3ddc1448	0.10746056
197	0x3e51dbe1	0.20494033
198	0x3c400f4e	0.011722399
199	0x3cacae4a	0.021079201
