Models/model_IBM.pth (torch, 132765 bytes, 11 tensors)

lstm1.weight_ih_l0 f4 [200, 1]
0.10133378 0.3372761 -0.023951419 0.10788016 0.07230211 0.16346343 0.19608644 0.08136664
-0.06754413 0.25321233 0.0361153 -0.008293112 -0.1876256 0.025729576 0.04453266 -0.0038227316
-0.06024095 -0.0021427886 0.2273324 0.13073023 0.052177027 -0.20627114 0.13935608 0.12330443
-0.06879501 0.0717954 0.20376039 -0.10530188 -0.04943105 0.029978612 -0.0043781735 0.10008124
0.1813831 0.013553953 0.042576257 -0.03022362 0.083535954 -0.1513631 0.036451582 -0.020018945
0.9092295 0.62190765 0.058910426 -0.044513315 0.030169584 -0.12863791 0.15358962 -0.08402255
0.04814545 0.07658836 -0.030879412 -0.015268881 -0.18325898 0.12225093 0.11750357 -0.12486179
-0.024418484 0.08550241 -0.031458694 0.0027781883 0.12015376 -0.04119095 0.052569002 -0.0040290835
0.10072101 0.13105562 -0.083671436 -0.14725423 0.09656431 0.046449784 -0.06772137 0.029935675
-0.0033456814 0.0635495 -0.08094381 0.087678626 0.09234124 -0.002982709 0.15816484 0.21003853
-0.13150005 0.15839387 0.10293776 -0.03657985 0.016990341 -0.04041342 0.2003495 -0.11900954
-0.15870583 0.010718594 -0.32074904 0.47086853 0.10793308 0.030057218 -0.026626417 -0.021253143
-0.0011373509 0.025331918 -0.20585735 0.023095068 0.1456291 0.22172277 0.08100071 0.16738935
0.25506634 0.22579247 0.21167728 -0.11620368 0.061187144 0.23964114 0.2564702 0.0024142596
-0.17363696 0.16640756 0.21910703 -0.225692 0.026837515 0.21098211 -0.26695037 -0.16422349
0.10552624 0.024101088 0.124551386 -0.22135255 0.24266137 -0.17320177 -0.0644801 -0.06887209
-0.08412609 -0.26235172 0.041399464 0.08689649 0.20738168 -0.06212899 -0.24348374 0.21102993
-0.13463545 -0.12574202 -0.13062494 0.12156571 0.5283437 -0.30570695 0.20722611 0.10323482
-0.109742284 -0.154023 0.24731389 0.16460276 0.2359701 -0.13353036 0.19891742 0.2729121
0.05997093 0.030426724 -0.023269568 0.0012780834 0.09006888 0.011509783 0.023473926 0.03642239
0.2134453 0.11111538 -0.048992272 0.2620308 0.27271208 0.022440879 0.11947357 -0.021101996
0.08426008 0.08531039 -0.2159859 0.01736749 0.115443565 0.2338963 0.10349513 -0.06640093
0.10058844 0.11354131 -0.07977903 0.05605341 0.029839376 -0.0323986 0.031466898 0.16235116
0.25882724 0.061589137 0.20143472 -0.07155019 -0.22964771 0.08265707 0.8433377 0.7999487
0.28455988 -0.009224998 0.25785628 -0.12662421 0.004866158 0.10359701 -0.15665299 -0.0019019155
00000000: 1688 cf3d 74af ac3e c435 c4bc 46f0 dc3d
00000010: 2113 943d f562 273e e2ca 483e 8ea3 a63d
00000020: 9454 8abd 0ca5 813e a3ed 133d d5df 07bc
00000030: ed20 40be d5c6 d23c e167 363d cb86 7abb
00000040: 37bf 76bd 076e 0cbb d3c9 683e 25de 053e
00000050: 94b7 553d be38 53be 5cb3 0e3e 0887 fc3d
00000060: 66e4 8cbd 7709 933d 90a6 503e 83a8 d7bd
00000070: 3678 4abd b595 f53c c876 8fbb 65f7 cc3d
00000080: 7ebc 393e 6611 5e3c 7164 2e3d 8697 f7bc
00000090: e614 ab3d eefe 1abe 414e 153d c5fe a3bc
000000a0: 44c3 683f 5735 1f3f 0f4c 713d 9853 36bd
000000b0: 3426 f73c a8b9 03be 9946 1d3e 0414 acbd
000000c0: 2a34 453d 5cda 9c3d d2f6 fcbc 542a 7abc
000000d0: 3ea8 3bbe b25e fa3d b6a5 f03d 8ab7 ffbd
000000e0: 4609 c8bc e31b af3d d5da 00bd 4412 363b
000000f0: 2d13 f63d d7b7 28bd 9852 573d 6706 84bb
00000100: d146 ce3d 7233 063e ee5b abbd d0c9 16be
00000110: 82c3 c53d 2142 3e3d 80b1 8abd a93b f53c
00000120: 3843 5bbb 3e26 823d dec5 a5bd da90 b33d
00000130: 671d bd3d 8e79 43bb f7f5 213e 5714 573e
00000140: f3a7 06be 0132 223e 08d1 d23d c1d4 15bd
00000150: 542f 8b3c 8b88 25bd 6b28 4d3e 46bb f3bd
00000160: c883 22be 0b9d 2f3c 3839 a4be ae15 f13e
00000170: 050c dd3d 8e3a f63c a51f dabc 121b aebc
00000180: 2a13 95ba e284 cf3c 45cc 52be de31 bd3c
00000190: cb1f 153e 4b0b 633e b3e3 a53d 1d68 2b3e
000001a0: 0e98 823e 2436 673e eec1 583e 32fc edbd
000001b0: 5f9f 7a3d 7d64 753e 1050 833e 8e38 1e3b
000001c0: e3cd 31be be66 2a3e 985d 603e ce1b 67be
000001d0: 59da db3c b20b 583e b8ad 88be 342a 28be
000001e0: 241e d83d a56f c53c cc14 ff3d 3eaa 62be
000001f0: 397c 783e ce5b 31be 250e 84bd cf0c 8dbd
00000200: 4d4a acbd f752 86be 7c92 293d c9f6 b13d
00000210: dd5b 543e f87a 7ebd cd53 79be 3b18 583e
00000220: e0dd 09be 84c2 00be 8bc2 05be 71f7 f83d
00000230: 8841 073f 9f85 9cbe 1533 543e c76c d33d
00000240: 90c0 e0bd 35b8 1dbe da3f 7d3e a08d 283e
00000250: 25a2 713e 2fbc 08be 02b1 4b3e 23bb 8b3e
00000260: 14a4 753d 7741 f93c d29f bebc 5d85 a73a
00000270: 0876 b83d 8793 3c3c 644c c03c a52f 153d
00000280: 6891 5a3e 7690 e33d 1fac 48bd e728 863e
00000290: eba0 8b3e efd5 b73c 8fae f43d 18de acbc
000002a0: 8c90 ac3d 37b7 ae3d 682b 5dbe 4446 8e3c
000002b0: ad6d ec3d 8382 6f3e 41f5 d33d 36fd 87bd
000002c0: 5001 ce3d 5988 e83d 3063 a3bd 4398 653d
000002d0: b571 f43c 65b4 04bd 6fe3 003d 623f 263e
000002e0: 0185 843e e444 7c3d e744 4e3e e888 92bd
000002f0: c528 6bbe 1c48 a93d fbe4 573f 70c9 4c3f
00000300: d5b1 913e 7224 17bc bd05 843e c7a9 01be
00000310: 4b74 9f3b ab2a d43d a469 20be b249 f9ba

lstm1.weight_hh_l0 f4 [200, 50]
0.03904924 -0.035291586 -0.07738515 -0.011538396 -0.098430745 0.037059173 0.06812551 0.099687085
0.009174378 -0.04734198 0.089118026 -0.08264198 -0.10525696 0.10894149 0.059348326 0.08823043
-0.123181954 -0.085265815 -0.04606294 -0.08863101 0.11127181 -0.07964072 -0.07547407 -0.036524232
0.10015118 -0.08340617 0.08420997 -0.08426531 0.019073851 -0.015530627 0.09171702 -0.026988328
0.16670038 0.069019206 0.10997612 0.0077638193 -0.20749442 -0.14837393 0.04384504 -0.046120934
-0.14977366 0.12822056 0.13759795 -0.08341799 -0.09161798 0.10826784 -0.07229228 0.089684
0.19739488 -0.055578925 -0.01809418 -0.12941082 -0.13084663 0.01900268 -0.011391432 0.036619224
-0.01795188 -0.16172145 -0.18089274 -0.04586018 0.038877405 -0.064857125 0.05963913 -0.045500427
-0.101898685 0.1175606 0.033463117 -0.097818956 0.033695295 -0.008617703 -0.07508908 -0.007479253
-0.02027018 -0.13084213 -0.048055157 0.13614404 0.5334342 -0.061172076 0.04145962 0.10186406
-0.085627265 -0.027653772 -0.12684737 0.033193726 0.057978835 -0.07295493 -0.017211756 0.06452095
0.16451949 -0.11784752 0.10804034 -0.28777403 0.094005674 -0.021727277 -0.042984262 0.074503005
-0.1288976 0.16830942 -0.033801947 0.019420411 -0.100543946 -0.04576885 -0.041354228 0.0069649727
-0.13619123 -0.117752254 0.08742158 -0.13648956 0.012172996 -0.08138223 -0.15972842 0.010540565
0.106174245 -0.12472426 -0.10318091 0.025070272 -0.11798126 0.11183704 -0.0721812 0.11884247
0.13330661 0.100811176 0.022013389 0.08593451 0.0920753 0.07597113 0.101046175 0.057939004
0.1122526 0.004645968 0.055705093 -0.13870186 0.047761824 0.12553462 -0.0016488306 0.053532504
-0.03545112 -0.0036727833 0.04225762 0.13368797 -0.14128381 0.11352824 0.06418466 0.15396625
0.0021693353 -0.019077959 -0.12483711 0.118512385 0.03644119 0.053040355 -0.03828271 0.07210212
0.111630976 0.13532083 -0.044671748 -0.046020396 0.04483843 0.05835377 0.12043942 0.0612825
-0.020983502 0.037584957 0.10885577 0.004338603 -0.08209643 -0.0565793 -0.08997316 0.07316731
0.014069489 -0.09339336 -0.061577674 0.096897505 -0.054647535 -0.090219185 0.13163117 0.028891658
0.18254614 -0.007782624 -0.0774969 -0.13275011 0.11067745 -0.045711033 0.017240295 0.0332556
0.08489774 0.06272907 0.0284113 -0.03560663 0.1530834 0.08646396 -0.069157295 0.16381666
-0.09780824 -0.07632247 0.10158199 0.07200193 0.10079667 0.099158466 0.008610157 -0.10359501
0.08478382 -0.0063248556 -0.19872198 0.032166038 -0.15029019 -0.17222658 0.022885617 -0.22164655
-0.063346386 -0.095012814 0.006470376 -0.13417166 0.06709728 -0.0023478318 -0.008179775 -0.22347264
0.22699921 -0.36912507 0.022489047 -0.07098766 -0.13442609 0.021270037 0.008947221 -0.070386484
-0.11828545 0.2185032 0.36970317 -0.19697125 0.102835976 0.003050022 0.043809384 -0.00022581856
0.13374938 -0.08185297 -0.027971502 -0.17139243 -0.13995863 0.20020042 0.33934867 -0.08411542
0.10267306 0.47197267 0.09463669 -0.076271266 -0.14308959 -0.07692303 0.04277928 0.19941436
-0.19987923 0.0046968893 0.16461962 0.046661448 -0.022500036 -0.065327615 0.12230548 -0.01665785
00000000: 19f2 1f3d e98d 10bd 1b7c 9ebd 8a0b 3dbc
00000010: 0f96 c9bd 5ccb 173d 6385 8b3d be28 cc3d
00000020: 2150 163c aae9 41bd 8383 b63d 3340 a9bd
00000030: f690 d7bd b71c df3d 3b17 733d 28b2 b43d
00000040: d246 fcbd d89f aebd 7eac 3cbd 2d84 b5bd
00000050: 7ae2 e33d ac1a a3bd 2692 9abd 6f9a 15bd
00000060: 101c cd3d dbd0 aabd 4776 ac3d 4a93 acbd
00000070: c440 9c3c 2c74 7ebc 22d6 bb3d a016 ddbc
00000080: 81b3 2a3e f159 8d3d 293b e13d a367 fe3b
00000090: 6b79 54be 56ef 17be db96 333d 4ee9 3cbd
000000a0: 445e 19be 404c 033e 7ae6 0c3e 0dd7 aabd
000000b0: 35a2 bbbd 88bb dd3d fa0d 94bd 3fac b73d
000000c0: e221 4a3e baa6 63bd 3f3a 94bc 4584 04be
000000d0: a9fc 05be 82ab 9b3c 21a3 3abc 0afe 153d
000000e0: d20f 93bc 4f9a 25be f23b 39be e2d7 3bbd
000000f0: ea3d 1f3d d0d3 84bd 2948 743d a85e 3abd
00000100: 42b0 d0bd 9dc3 f03d 9f10 093d 4e55 c8bd
00000110: 1404 0a3d 4431 0dbc 4ec8 99bd 8614 f5bb
00000120: a60d a6bc 7bfb 05be 7cd5 44bd 5869 0b3e
00000130: 258f 083f 928f 7abd 90d1 293d 1b9e d03d
00000140: 595d afbd 2a8a e2bc 47e4 01be 25f6 073d
00000150: 377b 6d3d 6569 95bd abff 8cbc 8f23 843d
00000160: cc77 283e 0a5a f1bd 4144 dd3d 1e57 93be
00000170: 0c86 c03d 67fd b1bc 4410 30bd 0895 983d
00000180: bcfd 03be 4e59 2c3e e973 0abd 8e17 9f3c
00000190: fce9 cdbd 1e78 3bbd 0d63 29bd 6d3a e43b
000001a0: b775 0bbe 1828 f1bd 160a b33d ebc3 0bbe
000001b0: 3f71 473c baab a6bd d98f 23be 55b2 2c3c
000001c0: e271 d93d 6f6f ffbd 8350 d3bd 2c60 cd3c
000001d0: 29a0 f1bd d10a e53d bdd3 93bd ae63 f33d
000001e0: 8781 083e 1776 ce3d 6c55 b43c 6ffe af3d
000001f0: fa91 bc3d c096 9b3d 4cf1 ce3d 7351 6d3d
00000200: b1e4 e53d 343d 983b 062b 643d dc07 0ebe
00000210: e7a1 433d 268c 003e 931d d8ba e644 5b3d
00000220: 3235 11bd 14b3 70bb 5316 2d3d 80e5 083e
00000230: b4ac 10be 7e81 e83d 3f73 833d 54a9 1d3e
00000240: 682b 0e3b 6149 9cbc 99aa ffbd 9fb6 f23d
00000250: 5b43 153d d840 593d 55ce 1cbd 47aa 933d
00000260: c89e e43d 8b91 0a3e b9f9 36bd e27f 3cbd
00000270: 80a8 373d 5d04 6f3d f1a8 f63d 5c03 7b3d
00000280: 98e5 abbc aff2 193d c6ef de3d d72a 8e3b
00000290: 2c22 a8bd b2bf 67bd d943 b8bd bed8 953d
000002a0: b783 663c 0545 bfbd df38 7cbd 3372 c63d
000002b0: 18d6 5fbd d6c4 b8bd 52ca 063e 33ae ec3c
000002c0: 60ed 3a3e 6205 ffbb b2b6 9ebd a5ef 07be
000002d0: dcaa e23d 7e3b 3bbd 853b 8d3c 0637 083d
000002e0: dede ad3d 1978 803d d1be e83c 42d8 11bd
000002f0: e5c1 1c3e 0414 b13d 57a2 8dbd 8ebf 273e
00000300: b04f c8bd f54e 9cbd 380a d03d bf75 933d
00000310: 7c6e ce3d 9813 cb3d 9e11 0d3c 9f29 d4bd
00000320: 24a3 ad3d bc40 cfbb c67d 4bbe 89c0 033d
00000330: ace5 19be 2a5c 30be 9e7a bb3c 50f7 62be
00000340: c0bb 81bd 1496 c2bd 7305 d43b 4c64 09be
00000350: 4c6a 893d 15de 19bb 7704 06bc 03d6 64be
00000360: 7b72 683e f6fd bcbe f33a b83c fa61 91bd
00000370: fea6 09be 803e ae3c 5d97 123c ca26 90bd
00000380: a43f f2bd 4ebf 5f3e bc49 bd3e d5b2 49be
00000390: ab9b d23d e1e2 473b 7871 333d b5c9 6cb9
000003a0: 99f5 083e 88a2 a7bd 7e24 e5bc 7f81 2fbe
000003b0: 5151 0fbe 5701 4d3e 1cbf ad3e b544 acbd
000003c0: 4146 d23d 67a6 f13e e2d0 c13d 1c34 9cbd
000003d0: 1486 12be d289 9dbd 5439 2f3d 4733 4c3e
000003e0: 24ad 4cbe 5de8 993b 0c92 283e 1320 3f3d
000003f0: ff51 b8bc 7cca 85bd 4c7b fa3d 0b76 88bc

lstm1.bias_ih_l0 f4 [200]
0.077122234 0.1643104 -0.11503319 0.06997159 0.0920748 0.13692997 -0.006310558 -0.06531085
0.118581906 0.123717345 0.1375237 0.09294611 -0.1071736 -0.14586733 -0.044446155 0.14251783
0.061396167 0.085532404 0.09877939 -0.033980906 -0.0075183827 0.11906714 -0.10105106 -0.079022214
-0.0708175 -0.0058450806 0.05839392 0.04926121 0.02696636 0.11932595 -0.17101745 0.041437782
0.19118634 0.009837216 0.14046079 0.017276017 -0.06697764 0.041013096 0.19208011 -0.07469801
0.7169529 0.4196616 0.095248714 0.032036606 -0.10902091 -0.119329415 0.09389592 0.062810116
0.01729684 0.061426487 -0.0564503 -0.04327637 -0.07088803 0.021666612 -0.027227094 0.11552194
0.071498886 0.012370739 -0.0010198898 -0.16513301 0.14587061 -0.109441206 0.113852195 -0.13058354
0.03199452 0.12645462 -0.005142874 -0.06322002 0.004870268 -0.16079402 0.0059771924 -0.072499685
-0.069080465 0.13423862 0.119289346 -0.08734872 0.066349916 0.0065737786 0.06353461 -0.06907662
-0.07011304 -0.06720276 -0.09836597 -0.0033259382 -0.004024885 0.074752554 0.07355222 -0.09883883
-0.056024205 -0.025768278 -0.1776165 0.10267288 -0.10071219 0.0787446 -0.07977684 0.03168411
-0.049992457 -0.10507343 0.057308186 -0.048447933 0.008208109 0.017515529 -0.10958359 0.09182031
-0.0012747868 -0.01406685 -0.03902913 -0.020618374 -0.029331855 0.066098556 0.06051061 -0.08522158
0.000792298 0.052262112 0.09197423 0.17073096 -0.12110113 0.012943958 0.14654404 0.10539074
-0.09727166 -0.10652908 -0.109773055 -0.05122184 -0.018137926 0.09490713 -0.025448969 -0.10317968
0.068740085 -0.0137618035 0.092440285 -0.009814973 -0.10225009 0.028986497 -0.027257476 0.06743055
-0.05860332 0.054571677 -0.033290528 -0.07270052 -0.12364894 -0.00275648 -0.038270656 -0.043242656
-0.040971532 -0.019023523 -0.0074986634 0.03983198 -0.04064887 0.05767848 0.0245252 0.061432634
-0.10385459 0.012362311 0.117094465 0.0021131546 0.0031346849 0.022323413 0.09456682 0.20372766
0.013913921 0.03561644 -0.032121297 -0.09379256 0.1610037 0.04141069 -0.056525357 -0.030253328
0.07446196 -0.08941048 -0.097230405 -0.013767874 -0.0340331 0.133354 0.04456006 -0.102951005
0.14058441 -0.04575557 -0.0008135442 0.11329942 0.096715495 -0.000105844716 -0.0015118236 -0.12989488
-0.039845422 -0.01366091 -0.073472194 -0.0028089702 0.1539756 0.1069584 0.6033937 0.3590315
0.10348368 -0.022907758 -0.1384022 -0.12907323 0.04105169 -0.083603226 0.021566218 -0.122926325
00000000: 43f2 9d3d fc40 283e 8596 ebbd 444d 8f3d
00000010: b691 bc3d 5f37 0c3e ccc8 cebb b2c1 85bd
00000020: 12db f23d 855f fd3d 03d3 0c3e 885a be3d
00000030: d57d dbbd 3f5e 15be 2c0d 36bd 32f0 113e
00000040: 8c7a 7b3d 9d2b af3d d94c ca3d 902f 0bbd
00000050: c45c f6bb 79d9 f33d dcf3 cebd 66d6 a1bd
00000060: c408 91bd 1788 bfbb 772e 6f3d 1fc6 493d
00000070: 8ee8 dc3c 2a61 f43d 331f 2fbe aaba 293d
00000080: 5ac6 433e 462c 213c f4d4 0f3e 6f86 8d3c
00000090: 932b 89bd 59fd 273d a6b0 443e 45fb 98bd
000000a0: 3a8a 373f e3dd d63e c211 c33d d138 033d
000000b0: 5b46 dfbd fb62 f4bd 814c c03d 97a2 803d
000000c0: 1ab2 8d3c 579a 7b3d 6e38 67bd 9042 31bd
000000d0: be2d 91bd 2e7e b13c 5b0b dfbc c496 ec3d
000000e0: 026e 923d a4ae 4a3c d3ad 85ba a118 29be
000000f0: 1b5f 153e b622 e0bd 572b e93d b1b7 05be
00000100: b00c 033d 527d 013e 8e85 a8bb 7f79 81bd
00000110: c596 9f3b 30a7 24be 53dc c33b b77a 94bd
00000120: 0f7a 8dbd d975 093e f94d f43d e3e3 b2bd
00000130: 77e2 873d da68 d73b 6f1e 823d 0b78 8dbd
00000140: 6d97 8fbd 9aa1 89bd 1974 c9bd fcf7 59bb
00000150: 2fe3 83bb de17 993d 8ca2 963d 036c cabd
00000160: a379 65bd ff17 d3bc 1ae1 35be 2946 d23d
00000170: 3142 cebd d944 a13d 0a62 a3bd 33c7 013d
00000180: e4c4 4cbd bd30 d7bd fdbb 6a3d 5771 46bd
00000190: 4e7b 063c ba7c 8f3c 5c6d e0bd 490c bc3d
000001a0: bf16 a7ba a578 66bc 02dd 1fbd dde7 a8bc
000001b0: 5c49 f0bc ae5e 873d f9d9 773d a788 aebd
000001c0: 38b2 4f3a cc10 563d fc5c bc3d 19d4 2e3e
000001d0: df03 f8bd e512 543c a40f 163e 1ad7 d73d
000001e0: 5d36 c7bd eb2b dabd b2d0 e0bd fecd 51bd
000001f0: fd95 94bc ab5e c23d 5b7a d0bc de4f d3bd
00000200: 9ac7 8c3d 3079 61bc 5551 bd3d fbce 20bc
00000210: 7f68 d1bd 1775 ed3c 124b dfbc 0719 8a3d
00000220: 090a 70bd 8d86 5f3d a65b 08bd 03e4 94bd
00000230: a83b fdbd 0fa6 34bb b1c1 1cbd 361f 31bd
00000240: c4d1 27bd 38d7 9bbc 59b7 f5bb dc26 233d
00000250: 6e7f 26bd 4540 6c3d 12e9 c83c c9a0 7b3d
00000260: b7b1 d4bd 4a8b 4a3c 39cf ef3d da7c 0a3b
00000270: 496f 4d3b 97df b63c 40ac c13d fc9d 503e
00000280: 37f7 633c 8be2 113d 9f91 03bd 5016 c0bd
00000290: 27de 243e 419e 293d 2287 67bd d4d5 f7bc
000002a0: 837f 983d d71c b7bd bc20 c7bd a692 61bc
000002b0: 4b66 0bbd f38d 083e 9c84 363d fad7 d2bd
000002c0: 5cf5 0f3e 316a 3bbd 0744 55ba 8709 e83d
000002d0: c612 c63d f3f8 ddb8 6228 c6ba 2a03 05be
000002e0: f434 23bd 02d2 5fbc 9778 96bd b316 38bb
000002f0: c8ab 1d3e 010d db3d 0278 1a3f fad2 b73e
00000300: 40ef d33d 0da9 bbbc 4eb9 0dbe c62b 04be
00000310: d125 283d 2b38 abbd a3ab b03c ccc0 fbbd

lstm1.bias_hh_l0 f4 [200]
-0.10462556 0.108770326 -0.13195422 -0.075344965 0.0556922 0.0497492 0.06995384 -0.088207036
-0.1123303 0.30084804 0.19629566 0.010145412 0.116522975 0.0045999927 -0.007912072 0.09897628
0.12476629 0.15315281 0.09761288 0.056014895 0.008720002 0.10061664 -0.11891569 0.09370196
0.13829787 -0.056149993 0.22280502 0.07592712 0.098490074 0.15044348 -0.15554295 0.101467505
-0.011931655 0.10960575 -0.06456033 -0.047098417 0.02938073 -0.030953513 0.16220391 0.069906764
0.7567821 0.43747365 0.17669605 0.10362562 -0.07085403 0.07293208 0.19475716 -0.0556456
0.18125086 0.0977947 -0.1303558 -0.030466815 -0.022190524 0.040304665 0.17304486 -0.043366462
0.0076739336 -0.032141227 0.015502711 0.08668338 0.020096 -0.27266926 -0.13739061 0.0841797
0.12333295 0.11062807 0.12462837 0.071029544 0.13086715 0.08888714 0.06096577 0.0061480603
0.13607967 -0.0914392 0.07189203 0.10751551 0.009993652 -0.12512645 -0.015859427 0.042321283
-0.17531422 0.08448012 -0.03537169 -0.07220262 0.021673562 -0.1295741 -0.09364416 -0.0533711
-0.15364957 0.04877848 -0.10684332 0.044003442 -0.14089964 -0.07129153 0.0754005 0.035781443
0.061073292 -0.084780775 -0.033943925 0.08919415 0.034681957 -0.06426148 0.09012638 -0.06298964
-0.08280315 -0.033070985 0.098399974 -0.020224443 -0.09626116 -0.095656365 -0.12522066 0.059103236
0.11843998 -0.00046228807 -0.1417271 -0.10455067 0.1338667 -0.099641055 -0.09929648 -0.06270704
0.050960153 0.10014049 0.035645675 0.051773667 -0.12830903 0.09572243 0.07276182 0.122864686
0.0035717862 0.03161175 0.07218408 -0.015698029 0.08438381 -0.049921945 0.06391863 -0.111084364
0.13593723 0.011165767 0.04941438 0.03254503 0.06586583 0.042525724 0.0156458 -0.055513684
0.0100304205 0.042661857 -0.0062456555 0.007725078 -0.0030726271 0.058049712 -0.04986269 0.08843302
0.06634682 0.12111728 0.13217972 0.18661626 0.0037219662 0.0013270664 -0.08774914 0.16406119
0.08936466 0.12639649 0.082380734 -0.05820087 -0.06625193 -0.08423802 -0.12935825 0.17927487
-0.08133503 0.1430956 -0.10876666 -0.10894028 0.084295094 0.016286613 -0.04486949 -0.026022775
0.22752947 0.014358152 0.012104829 -0.03097605 0.08287588 0.10833351 -0.041967414 -0.064688556
0.17202055 0.031767566 0.1369495 -0.08966094 0.001995957 -0.091083236 0.6259818 0.35606802
0.01212104 -0.053534795 -0.0080421865 -0.1281493 0.10418889 -0.15793048 0.20991382 -0.1662678
00000000: ed45 d6bd fac2 de3d 021f 07be 764e 9abd
00000010: 811d 643d d1c5 4b3d f543 8f3d e4a5 b4bd
00000020: 6e0d e6bd c108 9a3e bb01 493e f138 263c
00000030: 99a3 ee3d 89bb 963b a3a1 01bc 13b4 ca3d
00000040: 7885 ff3d 17d4 1c3e 43e9 c73d e06f 653d
00000050: 57de 0e3c 1910 ce3d 128a f3bd d0e6 bf3d
00000060: f59d 0d3e 89fd 65bd 0027 643e ae7f 9b3d
00000070: 2ab5 c93d db0d 1a3e a746 1fbe 32ce cf3d
00000080: fd7c 43bc fb78 e03d 3538 84bd 45ea 40bd
00000090: dbaf f03c 3992 fdbc c818 263e 472b 8f3d
000000a0: 79bc 413f 8cfc df3e cfef 343e ab39 d43d
000000b0: eb1b 91bd 6a5d 953d 6c6e 473e a4ec 63bd
000000c0: d399 393e 9648 c83d fe7b 05be 8b95 f9bc
000000d0: e7c8 b5bc 8116 253d ac32 313e 08a1 31bd
000000e0: 9f75 fb3b 85a6 03bd 15ff 7d3c 0e87 b13d
000000f0: 5ea0 a43c 4e9b 8bbe 20b0 0cbe 6866 ac3d
00000100: fc95 fc3d f890 e23d 293d ff3d f077 913d
00000110: 0a02 063e 760a b63d 3eb7 793d ab75 c93b
00000120: 7858 0b3e 7a44 bbbd 213c 933d 1731 dc3d
00000130: 6abc 233c 2621 00be a1eb 81bc 1559 2d3d
00000140: 9285 33be ea03 ad3d e8e1 10bd f8de 93bd
00000150: c18c b13c 13af 04be 82c8 bfbd a89b 5abd
00000160: 5056 1dbe f2cb 473d acd0 dabd f43c 343d
00000170: ff47 10be 4b01 92bd 946b 9a3d 908f 123d
00000180: fd27 7a3d 8ba1 adbd c908 0bbd 6cab b63d
00000190: ab0e 0e3d 869b 83bd 2e94 b83d b600 81bd
000001a0: b394 a9bd 7175 07bd ed85 c93d bbad a5bc
000001b0: 9224 c5bd 7ce7 c3bd d839 00be 3c16 723d
000001c0: a990 f23d 415f f2b9 e920 11be a91e d6bd
000001d0: 5a14 093e 9c10 ccbd f45b cbbd 8c6c 80bd
000001e0: 98bb 503d 7516 cd3d 3301 123d a010 543d
000001f0: 7163 03be 1f0a c43d 2604 953d 7ba0 fb3d
00000200: a114 6a3b 537b 013d 3fd5 933d 2799 80bc
00000210: 6bd1 ac3d f47a 4cbd c5e7 823d 3380 e3bd
00000220: 2133 0b3e 9ff0 363c bc66 4a3d f04d 053d
00000230: aae4 863d 742f 2e3d 9f2b 803c 5162 63bd
00000240: a256 243c 33be 2e3d 5ba8 ccbb a722 fd3b
00000250: 215e 49bb 89c5 6d3d d23c 4cbd 5f1c b53d
00000260: d7e0 873d 560c f83d 1f5a 073e 5518 3f3e
00000270: 3bec 733b f6f0 ad3a d2b5 b3bd a8ff 273e
00000280: d204 b73d 156e 013e 3bb7 a83d 0964 6ebd
00000290: 18af 87bd fc84 acbd 7d76 04be d593 373e
000002a0: fb92 a6bd a787 123e 0ec1 debd 151c dfbd
000002b0: e8a2 ac3d 816b 853c 12c9 37bd b72d d5bc
000002c0: 7cfd 683e 743e 6b3c 5553 463c 7cc1 fdbc
000002d0: d4ba a93d f6dd dd3d 06e6 2bbd 6f7b 84bd
000002e0: 2826 303e b51e 023d 7d3c 0c3e 28a0 b7bd
000002f0: 9ace 023b d989 babd 5840 203f 8c4e b63e
00000300: 5497 463c 4d47 5bbd 60c3 03bc 9239 03be
00000310: fc60 d53d 87b8 21be a6f3 563e 1b42 2abe

lstm2.weight_ih_l0 f4 [200, 50]
0.0054465216 -0.06958588 -0.030525198 0.06182351 0.27978784 0.022796875 -0.032459196 -0.011036944
-0.1354685 0.017134601 0.020066787 -0.02077393 0.005682618 -0.09412069 0.088228665 0.020580342
-0.10032104 0.09468129 -0.14680478 0.01593101 -0.08038473 -0.062496383 -0.03533641 0.04132521
0.076694615 0.13540898 0.017922638 0.12121048 -0.0885024 -0.04598722 -0.021319743 -0.052780345
-0.05872739 -0.12056713 -0.2143466 0.09884333 -0.20590177 -0.09167946 -0.01034206 0.01171613
0.08195122 -0.16500068 -0.03655213 -0.014446666 -0.15001093 0.045269623 0.22051275 0.13621403
0.05737416 -0.003757898 0.34762007 0.37021556 -0.29501802 0.42982435 0.13740978 0.66358435
0.51677865 -0.3233986 -0.37447193 0.68491757 0.8402262 0.26540163 0.2904013 0.4956629
0.5921088 -0.53086954 0.45681712 0.029736865 -0.43520913 -0.39473003 -0.3050117 0.10616027
-0.34416074 -0.51937085 0.036923103 0.20715378 0.3174013 -0.32583675 0.32248503 -0.36027598
0.4676793 0.2829346 0.62677705 -0.39765614 -0.48632926 0.068340056 -0.5316225 0.22958598
-0.07435849 0.12449285 1.1460788 -0.91104424 0.53465277 -0.31225243 -0.55329335 -0.17478031
0.5322031 0.36832696 -0.31380296 0.39603764 -0.006494155 -0.029671758 0.011498697 0.013762202
-0.035860993 0.011646573 0.16735648 -0.11552582 0.07701565 0.15169245 -0.0068211327 0.04786244
-0.051058415 0.055567473 -0.008430539 -0.14233868 -0.044919375 -0.12921184 0.051466968 -0.011075682
-0.114475004 -0.030454649 -0.15171438 -0.041908484 -0.061611526 0.030252378 -0.124997385 0.09154924
-0.07121459 -0.10696854 0.042184956 0.15209615 -0.08515145 -0.09776153 -0.039451323 -0.06360634
0.0010023015 0.062106498 0.008070601 0.08923679 0.14075935 0.00016304273 -0.021245388 -0.120616615
0.077487655 -0.035624944 0.07242623 -0.05825885 0.012159818 -0.07373127 0.08001736 0.027829254
0.101941876 0.10341464 0.12398103 0.025593428 0.033442553 0.055308904 0.12844403 0.2079006
0.23839769 0.019165268 -0.100909725 -0.022194188 0.12616912 0.009211756 -0.0062596416 0.09304028
0.06217937 -0.10107264 0.035752732 -0.08940705 0.001327909 -0.0010270547 0.3158496 -0.10636118
-0.16348152 -0.12589175 -0.08002177 0.0472991 0.079495914 -0.032611642 0.13432254 0.020081295
-0.13036367 0.11294497 -0.08922346 -0.07155196 -0.14790039 -0.09542932 0.2283505 -0.101937674
0.06623204 0.025886709 0.03521229 -0.15421124 0.14059742 0.054581754 0.21585032 0.08531432
0.07214556 0.062960625 0.037826072 -0.030716414 0.15979795 0.038042236 0.085696846 0.12065319
0.016684843 0.047027 -0.09995082 0.014216075 -0.12727743 0.12725224 -0.030286083 -0.09988349
0.12752548 0.1372251 0.06151225 -0.026951281 -0.018729616 -0.061979845 0.06326387 0.025154632
-0.02781177 -0.01739959 0.15843911 0.034623384 -0.092214994 0.04106404 -0.025260424 0.088024974
-0.048554678 0.010388817 0.05750462 0.1219472 -0.013241048 -0.07203963 0.032083403 -0.03484724
0.15626515 0.03459329 0.07095457 -0.14554252 -0.12653875 -0.12585081 0.22678907 0.0035471057
-0.09505586 0.14844614 0.21797884 0.10129197 -0.06044346 0.044283155 0.11620389 0.17517163
00000000: bc78 b23b 0b83 8ebd fb0f fabc a63a 7d3d
00000010: 5a40 8f3e 83c0 ba3c eff3 04bd 4cd4 34bc
00000020: 41b8 0abe dd5d 8c3c 1a63 a43c 172e aabc
00000030: 4135 ba3b 59c2 c0bd 3bb1 b43d 1b98 a83c
00000040: 1e75 cdbd 44e8 c13d fe53 16be c081 823c
00000050: c0a0 a4bd 35fc 7fbd e9bc 10bd a044 293d
00000060: 1112 9d3d a7a8 0a3e 7fd2 923c 333d f83d
00000070: bf40 b5bd 185d 3cbd bea6 aebc 3430 58bd
00000080: 228c 70bd e6eb f6bd ad7d 5bbe 5f6e ca3d
00000090: ead7 52be 71c2 bbbd be71 29bc 03f5 3f3c
000000a0: 0bd6 a73d f0f5 28be b0b7 15bd b6b1 6cbc
000000b0: 779c 19be a46c 393d 18ce 613e b17b 0b3e
000000c0: 2b01 6b3d 1147 76bb 42fb b13e e58c bd3e
000000d0: 9a0c 97be f011 dc3e 26b5 0c3e aae0 293f
000000e0: 9b4b 043f 8094 a5be c9ba bfbe c256 2f3f
000000f0: 1019 573f b9e2 873e 7baf 943e 87c7 fd3e
00000100: 7194 173f 11e7 07bf efe3 e93e ba9a f33c
00000110: bbd3 debe 0e1a cabe 7e2a 9cbe 8e6a d93d
00000120: d635 b0be 7df5 04bf ae3c 173d 1f20 543e
00000130: 6c82 a23e 13d4 a6be c21c a53e 1876 b8be
00000140: a973 ef3e cedc 903e 7674 203f 9699 cbbe
00000150: 2600 f9be dff5 8b3d 6a18 08bf 9618 6b3e
00000160: 4449 98bd 1bf6 fe3d b6b2 923f 323a 69bf
00000170: 01df 083f 8ddf 9fbe a2a4 0dbf 9cf9 32be
00000180: 763e 083f 5a95 bc3e c8aa a0be 72c5 ca3e
00000190: eccc d4bb 3012 f3bc 0865 3c3c dc7a 613c
000001a0: fae2 12bd 45d1 3e3c 7f5f 2b3e cd98 ecbd
000001b0: 62ba 9d3d 4455 1b3e cf83 dfbb 680b 443d
000001c0: a122 51bd b89a 633d 3e20 0abc 3bc1 11be
000001d0: 61fd 37bd 1c50 04be 07cf 523d c776 35bc
000001e0: df71 eabd 077c f9bc 045b 1bbe 3ba8 2bbd
000001f0: 5e5c 7cbd d6d3 f73c a1fe ffbd 2b7e bb3d
00000200: f4d8 91bd 5212 dbbd 22ca 2c3d 18bf 1b3e
00000210: e263 aebd 3237 c8bd b697 21bd 0a44 82bd
00000220: a85f 833a 6263 7e3d 8e3a 043c c7c1 b63d
00000230: 3823 103e 73f6 2a39 cf0a aebc d805 f7bd
00000240: d9b1 9e3d 76eb 11bd 3454 943d d5a0 6ebd
00000250: f939 473c 6c00 97bd 24e0 a33d 2dfa e33c
00000260: e7c6 d03d 0ecb d33d c4e9 fd3d 4fa9 d13c
00000270: 0ffb 083d 978b 623d d586 033e e5e3 543e
00000280: 861e 743e 7b00 9d3c c2a9 cebd 96d0 b5bc
00000290: 7a32 013e e8ec 163c ae1d cdbb e78b be3d
000002a0: ccaf 7e3d 2cff cebd 7571 123d 0b1b b7bd
000002b0: 3b0d ae3a 3d9e 86ba 0ab7 a13e e4d3 d9bd
000002c0: b367 27be c4e9 00be 74e2 a3bd b3bc 413d
000002d0: c1ce a23d c993 05bd d98b 093e 8781 a43c
000002e0: 0e7e 05be b14f e73d caba b6bd d689 92bd
000002f0: 3373 17be 7370 c3bd b7d4 693e b3c4 d0bd
00000300: aaa4 873d 5d10 d43c c33a 103d 8de9 1dbe
00000310: c5f8 0f3e 1e91 5f3d de07 5d3e 46b9 ae3d
00000320: 0dc1 933d 80f1 803d 83ef 1a3d fda0 fbbc
00000330: 13a2 233e 2dd2 1b3d d481 af3d 0519 f73d
00000340: a7ae 883c 629f 403d 04b3 ccbd 8aea 683c
00000350: 0455 02be 694e 023e 851a f8bc b78f ccbd
00000360: 0a96 023e bd84 0c3e 45f4 7b3d efc8 dcbc
00000370: da6e 99bc 94de 7dbd 7d90 813d 1611 ce3c
00000380: 82d5 e3bc 9689 8ebc dd3d 223e 40d1 0d3d
00000390: 37db bcbd c432 283d f3ee cebc 7046 b43d
000003a0: 45e1 46bd db35 2a3c f789 6b3d 74bf f93d
000003b0: fbf0 58bc 8389 93bd e369 033d fbbb 0ebd
000003c0: f903 203e b2b1 0d3d a150 913d 1909 15be
000003d0: 6093 01be 09df 00be 653b 683e 8f76 683b
000003e0: a6ac c2bd 4402 183e d835 5f3e 2a72 cf3d
000003f0: 9093 77bd 4162 353d 4efc ed3d 3160 333e

lstm2.weight_hh_l0 f4 [200, 50]
0.119502194 0.011030018 0.024607133 -0.1244393 0.116698146 -0.024911318 0.06087876 -0.007826791
-0.01776712 -0.06647615 0.050694574 0.014545235 0.106661364 0.027784353 0.0049821385 0.0967396
0.08113465 -0.087981544 0.11616224 -0.040222745 0.08061049 -0.11981363 0.01145211 -0.071135126
0.12420931 0.076695524 0.019898703 0.04331647 -0.06437826 0.17879535 -0.114708416 -0.07479132
0.047918294 0.07985382 -0.10328051 0.08512333 -0.103411674 -0.007631801 0.020353809 -0.038416464
-0.07766805 0.07325768 -0.067043655 0.08345028 -0.08347741 -0.009865676 -0.072716884 0.10400443
-0.034662567 -0.06366828 -0.36785138 0.71041715 -0.13813157 -0.25881928 -0.17800166 0.18578146
-0.20783016 0.24412905 0.16059698 0.38973483 0.31085682 -0.12559421 0.34212482 -0.32974255
-0.26157194 0.14444198 0.14080589 -0.27919355 0.49891976 -0.31248975 0.18891664 -0.20098159
0.1604367 0.18578732 0.30608276 -0.28312573 0.37617686 -0.21371387 0.12286262 0.3417479
-0.1458679 0.25319427 -0.025963908 0.17984715 -0.57973343 -0.041405894 0.30630144 0.14534292
-0.35924846 0.15814888 -0.18353018 0.17706521 -0.4580977 -0.08427391 0.015810013 -0.31454834
-0.7167897 0.17967659 0.38183424 0.3635419 -0.013048412 0.09981242 -0.012861941 -0.15505876
-0.10533672 0.068633355 -0.021563377 -0.075098224 0.109061494 -0.02315283 0.013192756 -0.04658405
-0.099072665 0.11766261 -0.06207144 -0.020395797 0.048039082 -0.09407559 0.1342306 0.000677479
-0.06974881 -0.085751034 -0.07966534 0.14015928 -0.11446253 0.118184164 -0.038478546 -0.12317768
-0.053292267 -0.0919064 -0.040943693 0.13136707 0.09320759 -0.020646676 0.028133553 0.07407009
-0.070123315 0.063609645 -0.107981704 -0.07582607 0.014679675 -0.0711154 0.092333 0.14209719
0.06876594 0.041762877 0.032896247 0.101738684 0.14340553 -0.06532619 -0.11225739 0.008490773
-0.037888464 -0.06258782 0.0778812 -0.0016788397 0.14553621 0.09379964 -0.15971315 -0.08944135
0.092656665 0.14754948 -0.051097218 0.12772925 0.09483286 -0.0069981767 0.04216942 -0.12555596
0.10074122 0.015878398 0.0005752978 0.050430205 0.090276204 0.123044714 0.060663033 0.09898587
-0.08354878 0.11217004 0.13496007 -0.073431745 -0.014921321 0.1033797 -0.11755781 0.13522944
-0.122130744 -0.050443895 0.062714145 -0.059856374 -0.07512486 -0.0015808818 -0.08834821 0.13361683
0.04549556 0.030971041 0.16242978 0.07049675 0.07826136 0.13594443 0.08300015 -0.103581585
0.04800099 -0.018894853 0.019875932 -0.15819862 0.03427507 -0.026062666 -0.08620777 -0.024122648
0.06118994 0.005159831 0.09835494 -0.0006122575 0.055629853 -0.208395 -0.11344144 0.16385019
0.04713506 -0.07452772 0.17734791 -0.047333416 0.08542229 0.012514534 0.011795818 -0.09754126
0.1011047 -0.057033792 -0.11762416 0.05985969 0.09238046 -0.066237606 -0.11008155 0.094926134
0.0026519427 0.2216048 -0.116562344 -0.051702037 -0.060637318 0.15384652 0.059663195 0.08023178
-0.081869945 -0.071533 0.055804446 -0.018193994 0.0029432925 0.034418263 0.07041961 0.032245763
0.05678569 -0.12722895 -0.008650201 0.09911291 -0.09284072 0.016743697 0.12552834 0.03728864
00000000: 91bd f43d 40b7 343c e694 c93c 08da febd
00000010: 70ff ee3d d212 ccbc 025c 793d f13b 00bc
00000020: 5a8c 91bc a624 88bd 1da5 4f3d 234f 6e3c
00000030: 4671 da3d 039c e33c 3541 a33b 691f c63d
00000040: ec29 a63d ab2f b4bd 78e6 ed3d 9bc0 24bd
00000050: 1d17 a53d d960 f5bd a1a1 3b3c 4baf 91bd
00000060: 7361 fe3d 8b12 9d3d 9b02 a33c 9c6c 313d
00000070: c0d8 83bd 2116 373e 3fec eabd 312c 99bd
00000080: f945 443d 668a a33d bb84 d3bd 2455 ae3d
00000090: 80c9 d3bd 3014 fabb 08bd a63c 955a 1dbd
000000a0: 6d10 9fbd 1f08 963d 2f4e 89bd fbe7 aa3d
000000b0: 34f6 aabd a5a3 21bc 97ec 94bd 4600 d53d
000000c0: 56fa 0dbd 8464 82bd 0457 bcbe e6dd 353f
000000d0: 5d72 0dbe f683 84be 1146 36be 7f3d 3e3e
000000e0: 6ed1 54be f7fc 793e 8973 243e 538b c73e
000000f0: a028 9f3e c59b 00be fc2a af3e 04d4 a8be
00000100: c2ec 85be 99e8 133e 6b2f 103e 75f2 8ebe
00000110: 6972 ff3e a8fe 9fbe 5d73 413e 1ece 4dbe
00000120: 8549 243e 083f 3e3e e1b6 9c3e dbf5 90be
00000130: 419a c03e cfd7 5abe 669f fb3d 95f9 ae3e
00000140: 655e 15be aea2 813e 43b2 d4bc da29 383e
00000150: 6969 14bf 3a99 29bd 8bd3 9c3e c6d4 143e
00000160: 6aef b7be c8f1 213e 56ef 3bbe 9550 353e
00000170: c88b eabe cd97 acbd 0084 813c 7b0c a1be
00000180: 887f 37bf 24fd 373e c77f c33e 2a22 ba3e
00000190: 02c9 55bc 746a cc3d e4ba 52bc b9c7 1ebe
000001a0: c7ba d7bd a58f 8c3d aea5 b0bc 19cd 99bd
000001b0: a25b df3d 01ab bdbc 6e26 583c ebce 3ebd
000001c0: 9ce6 cabd 18f9 f03d 9f3e 7ebd 1615 a7bc
000001d0: a1c4 443d b4aa c0bd bf73 093e d998 313a
000001e0: 77d8 8ebd 3d9e afbd 9527 a3bd ea85 0f3e
000001f0: 556b eabd 8a0a f23d ae9b 1dbd 9444 fcbd
00000200: fe48 5abd 6c39 bcbd 93b4 27bd 1785 063e
00000210: 9fe3 be3d 3823 a9bc 5678 e63c 0fb2 973d
00000220: d09c 8fbd c645 823d 8325 ddbd b34a 9bbd
00000230: 0583 703c f3a4 91bd 1519 bd3d ed81 113e
00000240: 28d5 8c3d 8d0f 2b3d 37be 063d 5f5c d03d
00000250: e6d8 123e bdc9 85bd 34e7 e5bd e21c 0b3c
00000260: ef30 1bbd 0b2e 80bd 2e80 9f3d 830c dcba
00000270: 7207 153e 071a c03d d88b 23be 072d b7bd
00000280: c7c2 bd3d 3617 173e 514b 51bd 75cb 023e
00000290: bb37 c23d f650 e5bb d7b9 2c3d be91 00be
000002a0: 6a51 ce3d 6a13 823c 95cf 163a e78f 4e3d
000002b0: bbe2 b83d defe fb3d cd79 783d 1bb9 ca3d
000002c0: 9f1b abbd 68b9 e53d f932 0a3e 6263 96bd
000002d0: 8e78 74bc bcb8 d33d 26c2 f0bd 9679 0a3e
000002e0: af1f fabd 429e 4ebd 4670 803d f52b 75bd
000002f0: 10db 99bd 9735 cfba e8ef b4bd dad2 083e
00000300: 8d59 3a3d fbb6 fd3c fe53 263e 9a60 903d
00000310: 7e47 a03d 0435 0b3e fcfb a93d 9522 d4bd
00000320: b09c 443d 61c9 9abc dad2 a23c d2fe 21be
00000330: 0464 0c3d 5f81 d5bc b38d b0bd dc9c c5bc
00000340: 4da2 7a3d cd13 a93b 516e c93d e87f 20ba
00000350: 21dc 633d 8065 55be fc53 e8bd 58c8 273e
00000360: b110 413d fda1 98bd b19a 353e afe0 41bd
00000370: e2f1 ae3d c309 4d3c 3f43 413c b6c3 c7bd
00000380: fb0f cf3d 449c 69bd f0e4 f0bd 6f2f 753d
00000390: f731 bd3d 95a7 87bd 7072 e1bd a268 c23d
000003a0: 37cc 2d3b 5eec 623e 3db8 eebd 84c5 53bd
000003b0: d65e 78bd f189 1d3e 6561 743d 8f50 a43d
000003c0: 6eab a7bd e57f 92bd 3493 643d 920b 95bc
000003d0: 41e4 403b 2afa 0c3d 2838 903d 2214 043d
000003e0: 1d98 683d 4e48 02be 93b9 0dbc b6fb ca3d
000003f0: 4723 bebd 142a 893c 808a 003e f9bb 183d

lstm2.bias_ih_l0 f4 [200]
0.13203767 0.37684736 0.019981505 0.07678002 -0.10927139 0.11165948 0.20952035 0.07585028
0.23240748 -0.08455004 -0.070569344 0.05561331 -0.096843615 0.12054814 0.01901155 0.07440954
-0.034915287 0.056165095 -0.15019168 0.13863476 -0.1217458 0.07821916 0.022157919 0.05765321
-0.05325889 -0.059613246 0.0035074227 0.0046750293 0.029292513 0.4729309 0.14470139 -0.056799464
0.041927055 0.11737123 -0.013056296 0.10527281 -0.11954718 -0.05430602 0.00065494486 0.007200898
-0.099418834 -0.101597026 -0.09873168 0.19341417 0.2575395 -0.14009716 0.045297634 0.044646244
-0.10923555 -0.08467491 0.019486217 -0.07362038 -0.09996899 0.08228322 -0.16415541 -0.111099854
-0.034274198 0.005267016 -0.12168985 0.0583192 0.08700626 -0.05207774 -0.03864647 0.014320052
0.082015455 -0.039969966 -0.062946334 0.0360365 -0.1507722 -0.031720944 -0.11845488 0.07632239
-0.11383212 0.088222206 -0.11775918 -0.033666074 0.0037273655 0.08325344 0.056371875 -0.21694157
0.2110949 -0.1492175 -0.0017552511 -0.025611382 -0.030008407 -0.059014596 0.05671133 -0.20212628
-0.12042582 -0.04788784 0.09941374 0.073498085 -0.08376567 0.01657484 0.01092012 -0.10433309
0.14709951 -0.05514225 -0.11613352 0.02659814 -0.118121676 0.04168193 0.050486077 0.032383163
0.10724785 -0.07173078 0.10592808 0.09928324 -0.11313628 -0.022924801 -0.07367912 0.013827596
0.04874631 -0.099654 -0.05384863 -0.026778731 0.019263739 -0.048011955 0.055645026 0.055451635
0.12285587 -0.13224038 0.07522765 0.04695275 0.0036137255 0.08178189 0.044342447 -0.11322279
-0.0020417734 0.016012667 -0.035023686 0.03288437 -0.028056486 -0.027808866 0.079017095 -0.045497082
-0.0049335756 -0.11741802 -0.037836526 0.119085096 -0.14830115 -0.031299002 0.060889535 -0.019626753
0.046458945 -0.07614191 -0.021360472 -0.0013967997 0.01742505 -0.11435462 0.072151214 0.40084958
-0.06528248 -0.08176661 0.029970834 0.23997423 0.21195686 0.13385361 0.1318849 -0.14488174
-0.091083325 -0.12439931 -0.14857708 0.06178639 -0.040455014 0.11003767 0.037462763 -0.12409022
0.070030995 0.05436131 0.012036808 -0.03087499 -0.07625222 0.0173632 0.08316534 -0.00757975
0.025831578 0.12804063 0.0044883783 0.43641633 0.032185916 -0.11399829 0.08645207 0.010557604
0.1560452 0.11432784 0.04832758 0.052435152 0.020672837 0.09393962 -0.103052884 0.054184735
-0.037930436 0.10040994 0.36041495 -0.0028206918 -0.04667235 0.12622538 -0.05046115 -0.04680147
00000000: e234 073e 23f2 c03e 41b0 a33c d83e 9d3d
00000010: aec9 dfbd baad e43d 818c 563e 6457 9b3d
00000020: 3afc 6d3e 9228 adbd a986 90bd c8ca 633d
00000030: f255 c6bd f1e1 f63d 1cbe 9b3c 0764 983d
00000040: 5503 0fbd 5f0d 663d d9cb 19be 45f6 0d3e
00000050: dd55 f9bd 5e31 a03d 8684 b53c c625 6c3d
00000060: fe25 5abd 052d 74bd cadc 653b fd30 993b
00000070: daf6 ef3c 0024 f23e 9a2c 143e 8ea6 68bd
00000080: b4bb 2b3d 5460 f03d 13ea 55bc 4599 d73d
00000090: 27d5 f4bd fd6f 5ebd 9bb0 2b3a 83f5 eb3b
000000a0: 1a9c cbbd 1a12 d0bd d633 cabd 5d0e 463e
000000b0: 38dc 833e a175 0fbe 038a 393d fbde 363d
000000c0: e3b6 dfbd 0a6a adbd 8fa1 9f3c 48c6 96bd
000000d0: 8bbc ccbd 1b84 a83d 5b18 28be 5288 e3bd
000000e0: 1a63 0cbd ef96 ac3b 8738 f9bd 1de0 6e3d
000000f0: 5730 b23d 784f 55bd c34b 1ebd a79e 6a3c
00000100: b8f7 a73d 8cb7 23bd 02ea 80bd 029b 133d
00000110: 0764 1abe d2ed 01bd 7998 f2bd ea4e 9c3d
00000120: d120 e9bd d8ad b43d ba2b f1bd 70e5 09bd
00000130: d146 743b c880 aa3d 32e6 663d ee25 5ebe
00000140: 4329 583e 79cc 18be 7410 e6ba f6ce d1bc
00000150: 31d4 f5bc 4ab9 71bd 244a 683d 31fa 4ebe
00000160: d0a1 f6bd 0a26 44bd 6e99 cb3d 2a86 963d
00000170: 568d abbd f5c7 873c 4eea 323c 96ac d5bd
00000180: 41a1 163e d7dc 61bd 69d7 edbd 58e4 d93c
00000190: c7e9 f1bd acba 2a3d 7dca 4e3d 35a4 043d
000001a0: c3a4 db3d 96e7 92bd d2f0 d83d 0355 cb3d
000001b0: feb3 e7bd cbcc bbbc 14e5 96bd 248d 623c
000001c0: 36aa 473d 6517 ccbd 6290 5cbd 125f dbbc
000001d0: fdce 9d3c 2fa8 44bd 0aec 633d 4121 633d
000001e0: dc9b fb3d 066a 07be f410 9a3d 8751 403d
000001f0: 41d4 6c3b 437d a73d 6da0 353d 5ae1 e7bd
00000200: 46cf 05bb ff2c 833c ff74 0fbd c3b1 063d
00000210: b7d6 e5bc 6bcf e3bc b7d3 a13d 265b 3abd
00000220: d5a9 a1bb dc78 f0bd 79fa 1abd e3e2 f33d
00000230: 42dc 17be 6233 00bd 4e67 793d 49c8 a0bc
00000240: bc4b 3e3d 4af0 9bbd 28fc aebc d214 b7ba
00000250: fabe 8e3c c132 eabd 04c4 933d 283c cd3e
00000260: d2b2 85bd 4175 a7bd 6585 f53c cebb 753e
00000270: 380b 593e ec10 093e d60c 073e e15b 14be
00000280: e589 babd 11c5 febd 9724 18be ba13 7d3d
00000290: 28b4 25bd 6e5b e13d 8e72 193d 0323 febd
000002a0: 696c 8f3d f7a9 5e3d 0836 453c 8ced fcbc
000002b0: 202a 9cbd 453d 8e3c 9752 aa3d 8d5f f8bb
000002c0: bf9c d33c 151d 033e 3f13 933b f671 df3e
000002d0: 61d5 033d ef77 e9bd c80d b13d cdf9 2c3c
000002e0: 50ca 1f3e b724 ea3d 24f3 453d 3ec6 563d
000002f0: 155a a93c 6a63 c03d 640d d3bd d0f0 5d3d
00000300: f25c 1bbd baa3 cd3d 4f88 b83e 5bdb 38bb
00000310: 822b 3fbd 3a41 013e 5ab0 4ebd e6b2 3fbd

lstm2.bias_hh_l0 f4 [200]
0.0983762 0.47310522 -0.11072556 -0.12370695 -0.09153948 0.29491574 0.12898928 -0.014713347
0.3166297 -0.005478956 -0.019247588 -0.031394888 -0.09018071 0.036341902 0.11711913 -0.016698442
-0.13931108 -0.089602135 -0.08977955 0.16643994 -0.124123685 -0.06192868 0.00941035 -0.08102943
-0.14282538 0.048637245 0.0088322945 -0.078765854 -0.066554695 0.26929393 0.070231974 -0.14061363
0.008445021 0.08909261 0.09234957 0.2861669 -0.09180205 0.07120925 0.124327846 -0.03709663
0.0463272 -0.08742307 -0.038814567 -0.04758713 0.40166855 -0.068151236 0.052245248 0.0915208
-0.15875472 -0.08742972 0.14289711 -0.1312886 0.001836559 -0.094536714 -0.12773363 -0.036125015
-0.0808018 -0.05966815 -0.104021005 0.09328136 0.028965354 -0.053317957 0.101000935 -0.11164613
-0.14203258 -0.018591143 -0.10000131 -0.056398347 -0.17428435 -0.05779499 -0.12354139 0.08010763
-0.09000351 0.079208136 -0.07841709 -0.114659235 0.019161997 -0.036471184 0.0025389402 -0.11620935
0.18766032 -0.05690453 -0.11653687 0.06458521 -0.048309784 0.022392778 0.037049185 -0.1025128
-0.10019912 -0.14835303 -0.017010447 0.096103504 -0.08511628 -0.08324353 -0.10488628 -0.042083543
0.16098939 -0.05107453 0.09985175 0.009467143 0.0454184 0.09539055 -0.12100315 -0.09751939
0.02764818 0.042355716 -0.1245725 -0.04140082 0.07217692 0.08276582 0.1399711 -0.019429035
0.08668582 0.122231506 -0.024417156 0.05550928 0.10815861 -0.021989143 -0.1116863 -0.04431588
-0.06773473 -0.09330411 -0.03642177 0.04440477 0.081788175 -0.08227018 0.03751951 0.0035822315
0.06658005 -0.048073083 0.069021255 0.06808714 0.09973203 0.026077257 -0.120408766 0.022163985
0.07638645 0.05539539 -0.12770018 -0.11513499 -0.1402286 0.0066525377 -0.004799009 0.05870138
-0.10449321 -0.08670455 0.10604806 0.091239884 -0.004002669 -0.0028209498 0.07194057 0.32858384
0.07535472 -0.069157474 0.085466415 0.005918432 -0.022264149 -0.027941013 0.07127698 0.060259562
0.07184798 -0.051089104 0.07125859 0.11688637 0.09027226 0.06010025 -0.102007836 0.06301879
0.1125373 0.12791297 -0.06193719 -0.1379572 0.14460157 0.014639586 0.10011875 -0.093116604
-0.07308848 -0.09177615 0.09385628 0.23649609 -0.033481095 0.06428195 -0.0435911 -0.008417412
0.11694742 0.2859631 -0.09747112 0.057730302 0.022295045 -0.013334937 0.13926122 -0.04447321
-0.011448311 0.026338669 0.44991288 0.022185609 -0.0524635 0.052671313 0.0046460847 -0.046075232
00000000: 7679 c93d d93a f23e 15c4 e2bd 125a fdbd
00000010: 0d79 bbbd 32ff 963e c415 043e 4010 71bc
00000020: 4a1d a23e d088 b3bb 1ead 9dbc ed97 00bd
00000030: aab0 b8bd 3fdb 143d 28dc ef3d 2ccb 88bc
00000040: 90a7 0ebe 5381 b7bd 57de b7bd 3b6f 2a3e
00000050: 8f34 febd eda8 7dbd de2d 1a3c c2f2 a5bd
00000060: d140 12be d937 473d 54b5 103c fe4f a1bd
00000070: d44d 88bd e5e0 893e c8d5 8f3d 05fd 0fbe
00000080: fc5c 0a3c 3076 b63d c521 bd3d 7884 923e
00000090: b702 bcbd 28d6 913d 999f fe3d a3f2 17bd
000000a0: 97c1 3d3d de0a b3bd 06fc 1ebd b9ea 42bd
000000b0: 80a7 cd3e e092 8bbd 1dff 553d 426f bb3d
000000c0: 9990 22be 5a0e b3bd 9f53 123e 8570 06be
000000d0: b2b8 f03a 779c c1bd 9bcc 02be d3f7 13bd
000000e0: 6a7b a5bd 9766 74bd f708 d5bd 4c0a bf3d
000000f0: c048 ed3c ee63 5abd 94d9 ce3d baa6 e4bd
00000100: fd70 11be 744c 98bc 7dcd ccbd f401 67bd
00000110: 9977 32be 70ba 6cbd 4503 fdbd 780f a43d
00000120: c353 b8bd e037 a23d 2499 a0bd 76d2 eabd
00000130: 9ff9 9c3c cf62 15bd 5964 263b 2bff edbd
00000140: 072a 403e b914 69bd e2aa eebd 4045 843d
00000150: 7be0 45bd 0f71 b73c e3c0 173d 3bf2 d1bd
00000160: 3235 cdbd dbe9 17be 7e59 8bbc ead1 c43d
00000170: 7251 aebd 957b aabd 9ece d6bd cb5f 2cbd
00000180: 67da 243e 8733 51bd 137f cc3d 131c 1b3c
00000190: a508 3a3d 1f5c c33d 80d0 f7bd 3fb8 c7bd
000001a0: 707e e23c 307d 2d3d de1f ffbd e893 29bd
000001b0: 7ed1 933d 2081 a93d 9654 0f3e a429 9fbc
000001c0: 5688 b13d 8354 fa3d 7d06 c8bc b35d 633d
000001d0: 4382 dd3d 9322 b4bc c9bb e4bd 9184 35bd
000001e0: 82b8 8abd 3a16 bfbd fe2e 15bd c7e1 353d
000001f0: 8f80 a73d 457d a8bd 0fae 193d dfc3 6a3b
00000200: 1f5b 883d 48e8 44bd 045b 8d3d 4571 8b3d
00000210: 4e40 cc3d f99f d53c df98 f6bd 3f91 b53c
00000220: 8070 9c3d 47e6 623d d6c3 02be e5cb ebbd
00000230: 1698 0fbe 88fd d93b 0141 9dbb dc70 703d
00000240: 8900 d6bd 2892 b1bd ba2f d93d fadb ba3d
00000250: d228 83bb afdf 38bb 9455 933d 243c a83e
00000260: 9353 9a3d 6fa2 8dbd 0409 af3d 68ef c13b
00000270: 4e63 b6bc 8de4 e4bc aaf9 913d bbd2 763d
00000280: 0925 933d cf42 51bd 06f0 913d 1f62 ef3d
00000290: aae0 b83d ae2b 763d 7ce9 d0bd ff0f 813d
000002a0: f579 e63d 9efb 023e dab1 7dbd a744 0dbe
000002b0: 6f12 143e e0da 6f3c 0f0b cd3d ebb3 bebd
000002c0: 6aaf 95bd 22f5 bbbd b937 c03d 082c 723e
000002d0: 7923 09bd 41a6 833d 958c 32bd 2fe9 09bc
000002e0: 2182 ef3d c169 923e f09e c7bd 9c76 6c3d
000002f0: 19a4 b63c c87a 5abc 7e9a 0e3e 8a29 36bd
00000300: b291 3bbc 31c4 d73c fb5a e63e 98be b53c
00000310: f8e3 56bd e0bd 573d 2f3e 983b 62b9 3cbd

fc1.weight f4 [25, 50]
0.09634187 0.06936805 0.03556979 -0.050115198 -0.055007372 0.041455943 -0.03909598 -0.019722136
0.19501303 0.1406297 0.07716194 -0.09052125 0.15301146 -0.15639165 -0.07908385 -0.028083194
0.049783263 -0.066803634 0.11058101 -0.12493902 0.07098374 -0.071834914 -0.037910227 0.13721545
0.13340016 -0.0029844479 -0.04510056 -0.11014213 0.06220003 -0.17666054 0.07213465 0.07712118
-0.17431779 0.05972835 0.21880591 0.025131563 0.14012681 -0.07354985 -0.1640187 -0.094043456
-0.12156294 0.12102512 0.019037904 0.13265975 -0.27240828 -0.0715906 -0.044729404 -0.09920773
-0.029229816 -0.1442844 -0.15636209 0.21355678 -0.09591001 -0.08616585 -0.11045673 0.11508152
-0.13816355 0.14827535 0.10217512 0.14266671 0.14148349 -0.05250225 0.11576624 -0.16215838
-0.03938598 0.1525023 0.055985652 0.02076969 0.020234542 0.07538042 -0.03346119 -0.054801155
0.17246899 -0.009137769 -0.109448925 -0.15139796 -0.030501468 -0.13760507 -0.078379214 -0.019281076
0.009082692 0.13664809 -0.07532368 0.15062873 0.08490218 0.10331479 0.042498127 0.12858011
0.027767554 0.1408169 -0.09312718 0.09288209 -0.08588776 -0.04849929 -0.28059614 -0.120241284
0.11654833 0.17631984 0.04979762 0.11599359 0.10339159 0.13622727 0.08775443 -0.018825248
-0.09054665 0.073925644 -0.10962364 -0.033326715 -0.075529434 -0.03198068 0.111491755 0.11654173
-0.087711975 -0.13934638 -0.09905718 0.029820248 0.03812322 0.027898565 -0.1061723 -0.022638537
0.10159324 -0.038032122 -0.13017088 -0.11031984 -0.12305114 -0.023345008 -0.089693636 -0.076894484
-0.014561102 -0.01836802 0.077869415 -0.028464265 0.079686 0.043035194 0.062197328 -0.07317025
0.0873891 0.05326782 0.07109408 -0.0144177675 -0.021483295 -0.08391751 -0.13023636 -0.0016180128
0.019195154 0.06382872 0.11265831 0.016460896 -0.03433901 -0.0012974143 -0.029580634 0.15594798
-0.06685895 -0.05107509 -0.106833294 0.19501857 0.019026188 0.051353876 0.1487234 0.11248274
0.16056877 -0.020420382 0.011046685 -0.0032795733 -0.14044933 0.088800095 0.09077413 -0.12728326
-0.004139964 -0.15941487 0.1430851 -0.08128795 -0.0042638923 0.18409391 -0.107812226 0.07467094
0.06186779 -0.0648033 0.15014836 -0.13351797 -0.06196922 0.13303238 -0.16911961 0.13373193
-0.011848988 0.18246783 -0.066285945 0.07742834 0.0765936 0.026781002 0.022044461 0.056053553
0.08437274 -0.07537241 -0.39571974 -0.1317641 0.022858286 -0.041465767 0.08410056 0.07737033
-0.0924922 0.09400721 0.05162461 0.037991058 -0.04881786 0.18502419 -0.004585163 0.11054899
-0.028864508 -0.021265343 0.0052251266 -0.039723173 0.08449954 0.023618823 -0.13324302 0.064980134
0.035326716 -0.050807584 -0.04342162 -0.010640441 -0.06153965 -0.015516497 -0.056213 0.064525336
0.13687496 0.047905702 0.16394301 -0.07870205 0.14701644 -0.21322463 -0.016235044 -0.08031093
-0.14459477 0.1685082 0.19976181 0.13158694 -0.05872769 0.124250375 -0.07085854 0.14587036
-0.13573715 -0.11160817 -0.13578917 0.03570921 -0.3497527 0.022929706 0.17761521 -0.005445143
-0.10349666 0.09603949 0.113899246 -0.08362188 -0.101137824 0.04150604 -0.13841198 -0.036106363
00000000: e34e c53d d610 8e3d a1b1 113d 9845 4dbd
00000010: 694f 61bd b5cd 293d 1b23 20bd 5190 a1bc
00000020: 7fb1 473e 3b01 103e 1407 9e3d 3563 b9bd
00000030: 09af 1c3e 2225 20be b7f6 a1bd ba0e e6bc
00000040: 89e9 4b3d 58d0 88bd 4c78 e23d 07e0 ffbd
00000050: ec5f 913d 2f1e 93bd c147 1bbd 3582 0c3e
00000060: 0d9a 083e ba96 43bb 5dbb 38bd 3292 e1bd
00000070: 75c5 7e3d 80e6 34be 55bb 933d b6f1 9d3d
00000080: 5d80 32be b7a5 743d a80e 603e b5e0 cd3c
00000090: 677d 0f3e 4ea1 96bd 85f4 27be db99 c0bd
000000a0: fef5 f8bd 05dc f73d 61f5 9b3c f5d7 073e
000000b0: 1979 8bbe 189e 92bd 2e36 37bd 6c2d cbbd
000000c0: 5e73 efbc 4abf 13be 621d 20be a1ae 5a3e
000000d0: 786c c4bd b977 b0bd 2337 e2bd dcaf eb3d
000000e0: bf7a 0dbe 7ed5 173e 3041 d13d 3917 123e
000000f0: 0ce1 103e 990c 57bd da16 ed3d d90c 26be
00000100: 3253 21bd 9029 1c3e 3651 653d 3225 aa3c
00000110: e9c2 a53c 0d61 9a3d 9a0e 09bd 2d77 60bd
00000120: b69b 303e 95b6 15bc c226 e0bd 1108 1bbe
00000130: 37de f9bc 58e8 0cbe 4885 a0bd 59f3 9dbc
00000140: 92cf 143c 7aed 0b3e 4d43 9abd 6b3e 1a3e
00000150: 32e1 ad3d b496 d33d 8412 2e3d 81aa 033e
00000160: c878 e33c 4e32 103e 77b9 bebd f738 be3d
00000170: ece5 afbd 31a7 46bd 4caa 8fbe 1041 f6bd
00000180: e4b0 ee3d 308d 343e 97f8 4b3d 0c8e ed3d
00000190: f8be d33d 297f 0b3e 98b8 b33d 6837 9abc
000001a0: 8670 b9bd 5466 973d 5c82 e0bd 9881 08bd
000001b0: 2daf 9abd 2cfe 02bd ca55 e43d 6ead ee3d
000001c0: 56a2 b3bd d1b0 0ebe 7ede cabd 9849 f43c
000001d0: 1827 1c3d 888b e43c dd70 d9bd 7474 b9bc
000001e0: 1e10 d03d 92c7 1bbd 844b 05be 5eef e1bd
000001f0: 3c02 fcbd 083e bfbc 4cb1 b7bd db7a 9dbd
00000200: b091 6ebc 8878 96bc 007a 9f3d e42d e9bc
00000210: 6a32 a33d ac45 303d a0c2 7e3d 49da 95bd
00000220: 0ef9 b23d 5c2f 5a3d c699 913d 8038 6cbc
00000230: bcfd afbc f2dc abbd ae5c 05be 8013 d4ba
00000240: 283f 9d3c a2b8 823d 66b9 e63d 00d9 863c
00000250: 10a7 0cbd 000e aaba 1653 f2bc d4b0 1f3e
00000260: 58ed 88bd 1d34 51bd 6acb dabd f3b2 473e
00000270: cfdc 9b3c 7158 523d f24a 183e 5a5d e63d
00000280: 246c 243e a548 a7bc 28fd 343c 1cee 56bb
00000290: f3d1 0fbe d3dc b53d c9e7 b93d 8b56 02be
000002a0: 89a8 87bb a73d 23be e784 123e 4c7a a6bd
000002b0: 1fb8 8bbb 1d83 3c3e a8cc dcbd 14ed 983d
000002c0: 1469 7d3d 98b7 84bd 7ec0 193e efb8 08be
000002d0: 70d3 7dbd a439 083e b12d 2dbe 06f1 083e
000002e0: 4222 42bc d9d8 3a3e edc0 87bd c092 9e3d
000002f0: 1bdd 9c3d d563 db3c 9696 b43c 6998 653d
00000300: 9dcb ac3d da5c 9abd c79b cabe 2bed 06be
00000310: 4d41 bb3c 02d8 29bd ea3c ac3d 5674 9e3d
00000320: 8d6c bdbd da86 c03d 5474 533d 839c 1b3d
00000330: 3df5 47bd fb76 3d3e 233f 96bb 8267 e23d
00000340: 4375 ecbc a834 aebc 8a37 ab3b c4b4 22bd
00000350: 180e ad3d 437c c13c dc70 08be 4e14 853d
00000360: bfb2 103d 9d1b 50bd deda 31bd 3f55 2ebc
00000370: 0011 7cbd e838 7ebc 9a3f 66bd dc25 843d
00000380: f328 0c3e c538 443d ade0 273e 8a2e a1bd
00000390: 7a8b 163e 8f57 5abe 5bff 84bc 0f7a a4bd
000003a0: a710 14be 6a8d 2c3e 5c8e 4c3e babe 063e
000003b0: 728c 70bd fb76 fe3d 481e 91bd 0a5f 153e
000003c0: aefe 0abe d392 e4bd 510c 0bbe d243 123d
000003d0: c912 b3be 14d7 bb3c c3e0 353e 2c6d b2bb
000003e0: 0ff6 d3bd 5ab0 c43d 0244 e93d f341 abbd
000003f0: 5921 cfbd 3d02 2a3d dfbb 0dbe 44e4 13bd

fc1.bias f4 [25]
-0.013650483 0.034972135 -0.06967058 0.066353865 0.16771112 -0.012304283 0.16421968 -0.037386045
0.10807632 0.1334497 -0.037483826 -0.02360259 -0.050447196 0.1648832 -0.10641003 0.09056866
0.092604294 -0.13820346 -0.10266048 -0.09078385 0.04509545 -0.088159904 0.0059505086 0.06323013
-0.10884099
00000000: 47a6 5fbc f13e 0f3d 73af 8ebd 89e4 873d
00000010: 77bc 2b3e e797 49bc 3429 283e 1c22 19bd
00000020: 1e57 dd3d 0aa7 083e a488 19bd 385a c1bc
00000030: b8a1 4ebd 24d7 283e 80ed d9bd 107c b93d
00000040: 52a7 bd3d 3585 0dbe a83f d2bd e2ec b9bd
00000050: 02b6 383d 2e8d b4bd 7cfc c23b cc7e 813d
00000060: 06e8 debd
